trained_models/best_cnn.pt (torch, 958866 bytes, 92 tensors)

conv1.0.weight f4 [8, 3, 3, 3]
000000 51 23 ce be e2 e7 1f be 35 e5 0c 3f 7a 71 16 bf
       -0.4026132 -0.156158 0.5503724 -0.587669
000010 cc 76 ae be 5a 2d a6 3e 7e a3 9f bf aa af 66 bf
       -0.3407501 0.32456475 -1.2471769 -0.9011179
000020 1c 94 97 be 33 b3 85 3d 40 ed 1b 3d 9a 9a a2 bc
       -0.29605186 0.0652832 0.038068056 -0.01984911
000030 43 1c ba 3e 0f 9c 57 3f 9e ec 33 3e 2b 0f fe be
       0.36349687 0.842225 0.17570731 -0.49620947
000040 c8 ea 35 be 0b 48 cd bd 3f a7 11 3e 19 37 1d be
       -0.17765343 -0.10023507 0.14223956 -0.1535305
000050 78 7b 83 bf 9c cc 65 3f 65 14 3b 3f 78 2d f6 be
       -1.0272055 0.89765334 0.73077995 -0.48081565
000060 ca c4 8a 3f 0f be 81 3f b3 3f 5e 3e 1e 9f 43 bb
       1.0841305 1.0136126 0.21703987 -0.002984948
000070 67 0f bd 3f 6c 80 37 be cd 3d 3e 3f d7 b1 a8 bf
       1.4770325 -0.17920083 0.7431305 -1.3179272
000080 49 02 55 bf 67 26 56 3f 13 10 f8 3e 5e 84 67 bf
       -0.8320661 0.8365235 0.48449764 -0.9043635
000090 51 64 f2 bd 2e ea 08 3f 4d d8 8e 3d 0c 66 f2 3e
       -0.1183554 0.5348233 0.0697485 0.4734348
0000a0 d8 37 f6 bf 0a 97 15 bf e7 43 44 3f f0 67 87 3e
       -1.9235792 -0.5843359 0.7666611 0.26446486
0000b0 5b bb 74 3e 27 70 86 be 3b 60 bd 3e 67 e1 68 3f
       0.23899595 -0.2625744 0.3698748 0.90968937
0000c0 04 6d 16 be 48 8e cd bf 77 1e 04 3f 70 bb b2 bd
       -0.14690024 -1.6059046 0.51608986 -0.08727157
0000d0 da 4d e6 be fd d1 4a 3f a2 0b a8 3e fc 56 db 3e
       -0.4498127 0.79226667 0.32821375 0.428398
0000e0 7a 1d 9d 3c b3 ad 1a bf 78 26 ca 3e 61 0a 63 3f
       0.019179095 -0.60421294 0.39482474 0.8868771
0000f0 fd e2 1e bf 3f e6 13 bd 01 a0 36 3e 90 53 ba be
       -0.62065107 -0.03610825 0.17834474 -0.36391878
000100 fc 64 32 bd 86 ba ca be 4e 11 8d bf be 44 d7 be
       -0.043553337 -0.3959543 -1.1020906 -0.42044634
000110 94 09 41 3e fe 9a 62 bf 94 23 e8 be 30 0c 4c bd
       0.1885131 -0.8851775 -0.45339644 -0.04981631
000120 e0 a3 7a 3e 4e ce 8a 3e 3b f5 45 be f2 2f 94 be
       0.24476576 0.27110523 -0.19331829 -0.2894283
000130 cb dc 12 3e bd 79 ae 3e 21 c1 a5 bd 39 08 22 3e
       0.14342038 0.34077254 -0.08093477 0.15823449
000140 0e d2 f7 3e b6 ca 25 be 0f 08 a7 bd 9b 37 f9 3e
       0.48402447 -0.1619061 -0.08155834 0.48675236
000150 9f b2 a3 3d 11 9f f1 bd 59 d9 cb be 05 3a a2 3d
       0.07993054 -0.11797918 -0.3981426 0.079212226
000160 60 44 b6 be 5c 32 8e be 50 b6 71 3e f0 5a eb 3e
       -0.3559904 -0.27772796 0.23604703 0.45967817
000170 f4 f1 34 3e 22 57 02 be 47 37 62 3e 8e c1 c6 be
       0.17670423 -0.12728551 0.22091399 -0.38819546
000180 d9 cf 08 bf b1 c6 1f bf 0a 24 2e bf 4d 25 55 bd
       -0.5344215 -0.62412554 -0.6802374 -0.052037526
000190 11 76 c7 3e 38 b4 0b bf d0 ee 9d 3d b2 97 0d 3f
       0.38957265 -0.54571867 0.077115655 0.55309594
0001a0 9e d5 3c bf 26 b2 18 3e f8 92 b6 3e e1 2d 41 bf
       -0.73763454 0.14911708 0.35659003 -0.7546063
0001b0 80 1a ae bd bf 34 84 3f 67 7c ad 3f 3f 39 77 3f
       -0.08501148 1.0328597 1.355359 0.96571726
0001c0 eb 75 76 bf 76 74 92 3f 18 59 56 bf 5e e0 af be
       -0.9627368 1.1441791 -0.83729696 -0.34350866
0001d0 17 89 40 bf 5d 81 d1 be a9 b1 45 bf 76 ae 54 3e
       -0.7520918 -0.4091901 -0.7722421 0.20769677
0001e0 5e 4f 50 3f 4c a0 00 c0 19 3b 59 3e 7b de df 3d
       0.81371105 -2.0097837 0.2121395 0.10931107
0001f0 d4 1c c7 be 97 08 07 bd 1c 14 20 bf 53 42 a2 be
       -0.38889182 -0.032967176 -0.62530684 -0.31691226
000200 f8 be 91 3e 02 db fa 3e b3 dd c5 bf 83 89 ec 3e
       0.2846601 0.48995215 -1.5458282 0.46198663
000210 c3 ed 98 3e 8c 70 40 3f 82 75 80 3f f9 32 d4 3d
       0.29868898 0.7517173 1.003586 0.10361285
000220 2e 15 52 3d ee 4f 00 3f 68 6f a9 3f 03 37 49 bf
       0.05128973 0.50121963 1.3237123 -0.78599566
000230 6a 38 e5 bc 58 6b 50 bf 34 ae f1 be 5e c0 5d 3f
       -0.027981002 -0.81413794 -0.4720322 0.86621654
000240 f6 ea e2 3e 0f f2 27 be 8c 83 be 3d a1 24 b7 3f
       0.44319886 -0.16400932 0.09302434 1.4308053
000250 42 d0 5e bf 88 52 43 bf 92 05 8b bf 96 95 3d bf
       -0.87036526 -0.7629781 -1.0861075 -0.74056375
000260 18 b4 7d 3e 93 5e d7 3e 9e 17 b8 3d 83 28 3d bf
       0.24775732 0.42064342 0.089888796 -0.7388994
000270 f4 5c a9 3f 9d cc 1d bf 9f 94 a6 bf b5 9a 07 3f
       1.3231492 -0.6164034 -1.3014106 0.5297044
000280 f6 07 26 3f e6 7a c2 3e 5f e6 7f bf ee 71 69 bf
       0.648559 0.3798439 -0.99960893 -0.9118947
000290 3a 9b 00 3f 91 f0 2a 3f 8d 1d 74 bf 87 02 aa bb
       0.50236857 0.66773325 -0.9535759 -0.0051882896
0002a0 a5 87 a1 3f a4 3a e5 be c9 93 d9 3e b4 6b b6 be
       1.261952 -0.44771302 0.42495564 -0.35629046
0002b0 95 dc ed be a7 9c d6 3e 55 c6 a6 3f ad 67 13 bf
       -0.46457353 0.4191639 1.3029276 -0.5758007
0002c0 3e 9f 1e 3e fe 7f 33 3f 6e 68 bc be 46 80 4b be
       0.15490434 0.70117176 -0.36798424 -0.19873151
0002d0 a4 53 f2 be ae aa 0d be 42 30 4f bd 68 97 94 3f
       -0.47329438 -0.1383464 -0.05058313 1.1608706
0002e0 62 f0 c5 3d d4 fb f7 be 1b a2 55 3f e0 e5 15 be
       0.0966499 -0.48434317 0.8345048 -0.14638472
0002f0 63 25 86 bf b2 4e ce be 94 8f ce 3d cd 17 0b 3f
       -1.048016 -0.40294415 0.10085979 0.5433319
000300 34 3b ae 3e d8 3b e6 3e 68 47 ff 3e 9c 09 3d be
       0.34029543 0.44967532 0.49859166 -0.18460697
000310 f3 0f c7 bd 38 13 85 3e 09 3d 80 bf 40 06 a7 be
       -0.09719839 0.25991225 -1.0018626 -0.32621956
000320 55 13 2f bd 66 0f 04 be d7 a6 c2 3e d7 2b 56 bd
       -0.042743046 -0.12896499 0.38017914 -0.052287903
000330 0d e4 f1 3c c9 73 49 3e 14 70 01 bf c7 80 55 bf
       0.029527688 0.19673075 -0.5056164 -0.83399624
000340 20 51 c0 3d 8d 65 8e 3c 5d 85 6d 3e 73 a4 52 3f
       0.09390473 0.017382408 0.23195405 0.8228218
000350 70 2b 9f 3e dd d3 b0 3e e2 2a 10 3f a5 01 2a be
       0.31087828 0.3453664 0.56315434 -0.1660219

conv1.0.bias f4 [8]
000000 8d c0 f2 bd 5d 5b 8f 3d 1c 97 8c 3d 57 12 67 bd
       -0.118531324 0.06999848 0.06864759 -0.056413975
000010 90 f4 31 be 02 a8 3f bd 87 f3 10 3e 53 ba 61 3d
       -0.1737845 -0.046791084 0.14155398 0.055109333

conv1.1.weight f4 [8]
000000 c1 f1 37 3f 92 49 c6 3f a0 5e 7e 3f 9e 1f ac 3f
       0.7185326 1.5491202 0.99363136 1.3447149
000010 63 6d b0 3f 71 dd a0 3f 55 4d b4 3f 53 d6 53 3f
       1.3783382 1.2567579 1.40861 0.8274891

conv1.1.bias f4 [8]
000000 a7 67 ad 3e 6b 62 5e 3f 46 d1 2b be 3d d8 3d bf
       0.33868143 0.86868924 -0.1677905 -0.7415808
000010 71 13 6c 3f 7f 99 92 3f 58 b7 71 3f 7e 07 75 3e
       0.92217165 1.1453093 0.94420385 0.2392864

conv1.1.running_mean f4 [8]
000000 6a c8 26 be 06 b9 43 bb 08 d6 1f bf c9 8b 99 bf
       -0.1628739 -0.0029864921 -0.6243596 -1.1995784
000010 5b dc 7b be ba 2a 99 bd c8 d3 92 3d cb eb 3d 3f
       -0.24595778 -0.074788526 0.071693 0.74187917

conv1.1.running_var f4 [8]
000000 d1 17 82 3e bb e4 9b 3e 26 9a c0 3e 81 e4 02 3f
       0.25408795 0.30447945 0.37617606 0.5112992
000010 df e5 96 3e bd a2 a4 3e 06 b9 ea 3e bd 5a 9a 3e
       0.29472253 0.3215541 0.45844287 0.30147353

conv1.3.weight f4 [8, 8, 3, 3]
000000 f7 fb a2 3e 44 8f 20 3f 35 ae 9d be f8 b7 15 be
       0.3183286 0.62718606 -0.30796972 -0.1462096
000010 38 43 2c 3f d0 7a 5f 3c 10 5e 40 be 02 cc ca 3e
       0.6729007 0.013640121 -0.18785882 0.3960877
000020 de d3 06 be 21 2a e8 3e 06 54 f1 be 02 80 98 be
       -0.13166758 0.45344642 -0.47134417 -0.29785162
000030 54 7a 30 3f 93 4e 44 bf 42 ea 88 be 3e 85 fd 3e
       0.6893666 -0.76682395 -0.26741225 0.49515718
000040 cb fc e7 be c1 74 44 be 94 c9 5c be ac 94 36 be
       -0.45310053 -0.19185163 -0.21561271 -0.17830151
000050 9e f0 8f 3c 7d 89 4f bd d4 00 25 3d 08 dd 92 3c
       0.01757079 -0.05066823 0.040283993 0.017927662
000060 18 e6 89 3e e0 6f 04 3d 5c f2 02 be e8 d6 09 3e
       0.2693336 0.032333255 -0.12787765 0.13460886
000070 e9 7f db 3e f3 4c b5 3c 67 32 7b be 0c 50 87 3e
       0.42871025 0.022131419 -0.24530946 0.26428258
000080 a0 ce 76 bd 0c 2e d0 be 7e f3 3b bd 6f dd fb be
       -0.060255647 -0.4066013 -0.04588651 -0.49192378
000090 a5 75 91 3e 1e 42 15 be b4 82 bc bc 31 33 26 3e
       0.28410068 -0.14576003 -0.023011543 0.16230465
0000a0 88 31 de be 85 f3 2d be 78 18 b3 3e 4d 7a 6f be
       -0.43397164 -0.16987427 0.34979606 -0.23386498
0000b0 5a 2e 62 be f8 df f0 be ec 86 ce 3e 22 56 48 3e
       -0.22087994 -0.47045875 0.40337312 0.19564107
0000c0 1b 42 53 bf f8 15 ad 3e 8d 37 cf 3e 54 0c c8 be
       -0.82522744 0.33805823 0.4047207 -0.39071906
0000d0 69 ed 03 3f 03 1d cd 3d ff 71 82 be be 49 a2 3e
       0.51534134 0.10015299 -0.25477597 0.31696886
0000e0 71 ef 05 3d 4a 34 49 bf d5 e6 ab 3e db 48 22 3e
       0.032699052 -0.7859541 0.33574548 0.15848105
0000f0 c0 a9 35 bf 31 d3 df 3e 78 6c 31 3e 2c 05 b4 3d
       -0.7096214 0.43715814 0.17326534 0.08790049
000100 92 60 99 3e 21 f2 26 be 89 20 0d be 75 2f 4e 3b
       0.2995649 -0.16303302 -0.13781942 0.0031461392
000110 81 54 63 3d 14 a9 27 be cd 45 d8 bc e4 6f 67 3e
       0.05550051 -0.16373092 -0.026400471 0.22601277
000120 10 25 b4 bd e2 ce 23 3d 40 b8 80 3e bc 76 d4 be
       -0.087961316 0.03999222 0.25140572 -0.41496837
000130 3e 7b ee be b6 b8 32 3d 03 17 e5 3e 41 18 1b be
       -0.465784 0.043633185 0.4474412 -0.15145971
000140 c0 9e d9 bd e8 7f a8 3d 85 22 16 bf 78 0c 27 3d
       -0.10625982 0.08227521 -0.5864642 0.040783376
000150 7b 73 26 3f 8c 3c 99 bd 4e 62 b8 be bc 27 48 3e
       0.6501996 -0.074822515 -0.360125 0.19546407
000160 9d d5 a1 3e 86 dc 83 bd eb 31 05 3f 4a ff c8 3e
       0.31608286 -0.06438546 0.52029294 0.3925727
000170 29 78 a5 bd e3 91 17 3e c1 d3 3b 3f 8a a0 70 3e
       -0.08079559 0.14801745 0.73369986 0.23498741
000180 18 c5 2f 3d 6a 8e 8c 3e 0b 77 3a 3f 66 a5 d8 bd
       0.042912573 0.27452403 0.72837895 -0.10578422
000190 e1 6a 90 be 69 01 1f bf 2f 5f 68 3e de a3 39 3d
       -0.28206542 -0.62111527 0.2269256 0.04532229
0001a0 07 d2 ce 3b 95 82 dd 3e 2b 0b 14 3d 63 0b e4 3d
       0.0063116583 0.4326369 0.036143463 0.11134984
0001b0 e9 a8 04 3f ae 66 20 be 26 d0 bd bd d0 83 96 3e
       0.51820236 -0.15664169 -0.09268217 0.2939744
0001c0 b9 fe b6 3d 72 50 e4 be 2e 8f ab 3e a2 ef 0b 3f
       0.08935303 -0.44592625 0.33507675 0.54662526
0001d0 26 db 39 3f d7 c4 90 be 60 03 98 bd db 17 f6 38
       0.7260002 -0.28275177 -0.07422519 0.000117346375
0001e0 1f 30 0e 3d d0 31 51 be 4f 66 c7 be 6c f0 06 3f
       0.03471386 -0.20429158 -0.38945243 0.52710605
0001f0 04 d2 bb 3d d2 85 30 3c 46 b4 00 bf 05 5d e1 be
       0.09170917 0.010774093 -0.50275075 -0.4401628
000200 81 b2 ec be 88 bf 93 3e 58 ce 88 be 2e 9b 0f bf
       -0.46229938 0.28857064 -0.26719928 -0.5609616
000210 81 8f d5 3e d1 df 2d 3f 4e af f2 be 28 0f 7a 3e
       0.41711047 0.6791964 -0.47399372 0.24419844
000220 84 5c 3b bd 92 1c 0d 3e 3d a5 0f 3e 3b 90 51 be
       -0.045742527 0.1378043 0.14027877 -0.20465176
000230 ba 72 38 be 3d 14 77 3d d3 51 86 bd 0b 43 c9 bd
       -0.18012515 0.060322035 -0.065585755 -0.098272406
000240 e1 65 77 be bb 6b 69 3e 3f ad 34 bf 6e 43 14 be
       -0.24159957 0.22795002 -0.7057685 -0.14478847
000250 d5 b0 9c 3e 75 34 6a bd c0 a1 86 3e 72 82 2c 3e
       0.30603662 -0.057178933 0.2629528 0.16846636
000260 b8 e8 ad be b2 2b 5b 3e f3 1d 11 3f 0a 82 f5 be
       -0.33966613 0.21403387 0.56686324 -0.47950774
000270 2d 64 66 bf c7 96 6b be 7c 35 77 3f 20 c2 27 3f
       -0.89996606 -0.23006736 0.96565986 0.65530586
000280 2b 4e 57 bf b7 57 9b be 54 a7 96 be 78 93 4f be
       -0.8410365 -0.3034036 -0.29424536 -0.20271099
000290 92 87 f1 3e 5d eb c7 bd 44 ed 00 bf 53 b3 c2 be
       0.47173744 -0.09761689 -0.5036204 -0.3802744
0002a0 03 87 35 bd 29 f4 e5 bd f3 81 dc be 2a 9c 3c 3e
       -0.04431821 -0.112282105 -0.43067893 0.18418947
0002b0 f8 fe 5c 3f b6 80 b3 3e 9d 32 ee be 5a b9 80 3e
       0.8632655 0.35059136 -0.4652299 0.25141412
0002c0 98 f2 96 be 27 86 bf be 44 0b df 3d ef 25 6e be
       -0.2948196 -0.37407038 0.108908206 -0.23256658
0002d0 58 1b 37 be 99 f1 6f 3f 38 89 2c bf 1b de 0c bf
       -0.17881525 0.93728024 -0.6739688 -0.55026406
0002e0 b8 ff 0a bf 85 88 52 3f b7 d2 62 3f e9 c4 a2 bf
       -0.54296446 0.8223956 0.88602775 -1.2716342
0002f0 1e 2d a4 be fc 26 a6 3d cc a4 37 3d e7 e5 4c bf
       -0.32065672 0.081129044 0.044834897 -0.80038303
000300 f5 41 1c be b7 f2 47 3f 2d 13 24 be 2b 7b a7 bd
       -0.15259536 0.7810473 -0.1602294 -0.08177789
000310 24 eb e4 bd e0 0f 96 3d 4d 3c 9c 3e 10 92 40 3f
       -0.11177662 0.07327247 0.30514756 0.75222874
000320 09 0d 3e bf c3 38 fa be 15 47 6b 3e bf 26 25 3f
       -0.7423864 -0.4887143 0.22976334 0.64512247
000330 bf d6 cd 3d 9c 3e 09 bf a5 57 f4 3d 54 43 85 be
       0.10050725 -0.5361116 0.11930779 -0.2602793
000340 6a c1 57 3e 21 6e 87 be b8 55 c8 be a7 ef e5 3c
       0.21069875 -0.2645121 -0.39127898 0.028068377
000350 f1 cb 28 3e 54 6c ab 3d 8f 08 7c be a3 a9 3a bd
       0.16484047 0.08370271 -0.2461264 -0.045571934
000360 ad f0 41 bc 92 b7 c7 bd 6d fd 6c be a1 9a b6 bc
       -0.011837167 -0.0975181 -0.2314355 -0.02229053
000370 98 58 4d 3e 86 06 7b 3e f3 49 3d be 39 f7 c4 3d
       0.20053327 0.24514207 -0.1848524 0.096174665
000380 52 45 01 be b4 53 06 3c fd 8f f4 3e 8b 74 c7 be
       -0.126241 0.008198667 0.47766104 -0.38956103
000390 fb 8b 24 be 0e 73 ad 3e 63 57 aa be 8a 18 27 3d
       -0.16069023 0.33876842 -0.33269796 0.040794887
0003a0 d7 86 cb 3d ad 1b b0 be 84 42 f8 be a3 eb 5c bd
       0.09937828 -0.34396115 -0.48488247 -0.05393566
0003b0 17 5c 15 be 71 b7 ad be 1d 0f 2e 3e dc 65 c7 3e
       -0.1458591 -0.33929017 0.16997953 0.389449
0003c0 14 31 73 be 7e fb 02 3d 91 99 e6 3e 5c ef a1 3d
       -0.2374919 0.031978123 0.45039037 0.07906982
0003d0 45 8a cc be 2e 8b 6d be e8 a0 d2 3e 52 33 d6 be
       -0.3994924 -0.23197624 0.41138387 -0.4183603
0003e0 3c 5e 53 3e ce c8 e7 3e ea 21 05 be 8e ac 91 3e
       0.20641416 0.4527039 -0.13001218 0.2845196
0003f0 59 1b 22 bf df 19 4e 3f 72 b9 aa bd 2a e1 7a bf
       -0.6332298 0.80508226 -0.08336152 -0.97999823

conv1.3.bias f4 [8]
000000 4d eb c8 3d bd ba 89 bc 3d f1 cf 3d 28 37 df 3d
       0.09810505 -0.016812677 0.101534344 0.10899192
000010 51 cb 2f 3d 6b 24 dd bd 5a cd c0 bd 06 e1 72 3d
       0.042918507 -0.10797962 -0.09414168 0.05929663

conv1.4.weight f4 [8]
000000 80 33 a8 3f 7f 76 b8 3f 06 62 cf 3f 0c a0 de 3f
       1.3140717 1.4411162 1.6201789 1.7392592
000010 81 21 8f 3f 5f c1 b9 3f ff 16 e0 3f 27 86 da 3f
       1.11821 1.4512137 1.7507018 1.707219

conv1.4.bias f4 [8]
000000 3d 81 92 3d f1 7b 9e 3e 53 a4 ae 3d 69 25 18 bc
       0.071535565 0.30953935 0.08527436 -0.009286263
000010 d1 4c b5 3d b1 32 87 bd 72 d2 ab bd 9a 2d 8d 3d
       0.08852542 -0.066014655 -0.08389749 0.068934634

conv1.4.running_mean f4 [8]
000000 d5 d7 33 bf 06 e5 48 3f 31 9a 05 c0 28 af 27 bf
       -0.7025121 0.7847446 -2.087536 -0.6550164
000010 6e f9 77 40 64 93 6e 40 a0 71 22 c0 7e 2d 35 c0
       3.874599 3.727746 -2.5381851 -2.8309016

conv1.4.running_var f4 [8]
000000 db b5 cc 40 db 9c 85 41 1d b0 72 41 2c e4 b3 41
       6.397199 16.70159 15.167996 22.486412
000010 7e 60 db 40 7a 61 3c 41 7c 7f 99 41 30 cf 84 41
       6.855529 11.773798 19.187248 16.601166

conv2.0.weight f4 [16, 8, 3, 3]
000000 8a e7 49 be 70 8b 82 be a7 b2 a9 be 76 28 5e 3e
       -0.19717231 -0.25497007 -0.33144113 0.21695122
000010 f7 a6 64 be 0e 43 c3 3c 97 4c 2d 3c ac b6 a6 be
       -0.22329317 0.023835685 0.0105773425 -0.32561243
000020 3b c6 ab 3d 01 57 ca 3b d8 25 a2 bd 65 1b d7 3e
       0.08387419 0.0061749225 -0.07917374 0.42013088
000030 f8 4b 1e bf a8 0d ac be 93 33 28 3f d8 5f 07 bf
       -0.6183467 -0.3360417 0.65703696 -0.5288062
000040 bb db 5f bf 2a 68 e6 3c 8f 8d 9e be c7 c3 5e be
       -0.8744466 0.028125841 -0.30967376 -0.2175437
000050 0f c2 7b 3d fd 31 0b 3f 06 fe 00 3e 00 51 9c 3d
       0.061464366 0.5437315 0.12596902 0.07632637
000060 46 f5 8a be 95 f1 f2 be ff 27 35 3f df 25 2c 3e
       -0.27140254 -0.47449937 0.70764154 0.16811322
000070 5e ab 67 3e 62 61 f6 3d 39 1f bb be f0 ae cd be
       0.22623965 0.12030293 -0.36547258 -0.4017253
000080 dd 9b 35 be 44 81 d3 be 7d be 6d bf 73 54 26 be
       -0.17735238 -0.4130956 -0.9286879 -0.16243152
000090 bd b6 70 be bf 4a ef be 0a b9 bc bd 50 09 b0 3d
       -0.23507209 -0.46736714 -0.09214981 0.08595526
0000a0 6b 58 a3 bd 65 1b fe bd cd 1e 9d 3d 9f cb cf 3d
       -0.07975849 -0.12407569 0.076718904 0.101462595
0000b0 44 2a 90 3e db ac 00 3f 1b 06 01 3e 09 45 fe 3e
       0.28157246 0.50263757 0.12599985 0.49662045
0000c0 90 d7 50 3e 2d 53 19 3f 4a 14 98 3e 27 e7 a5 3e
       0.2039473 0.5989254 0.2970298 0.32402918
0000d0 1c e7 74 3e 84 21 2d be 0f d0 33 be d9 91 c4 be
       0.23916286 -0.16907316 -0.17559837 -0.38392523
0000e0 b8 0d 10 3f 51 ea 2c 3e 1f 0c 7b 3e 2b 3c 5b 3e
       0.56270933 0.1688626 0.24516343 0.21409671
0000f0 30 ae ef 3d cd 99 a5 3d 0f d9 12 3e dc 80 a6 be
       0.117031455 0.08085976 0.14340614 -0.32520187
000100 e1 07 03 bf c7 cb 28 be 9f 38 73 be f0 be c7 be
       -0.511839 -0.16483985 -0.23752068 -0.3901286
000110 ec a7 36 be 25 6a 02 3f 64 a5 88 3d 9c 24 86 be
       -0.17837495 0.50943214 0.06672171 -0.26199806
000120 7c 08 67 be 87 5f d4 3d 18 63 08 bf d1 af 67 3b
       -0.2256183 0.10369783 -0.53276205 0.0035352597
000130 08 46 a5 bc 4a e5 a5 be fc 8b 18 3e b0 23 81 be
       -0.020174995 -0.32401496 0.1489715 -0.2522254
000140 d5 f8 8a be b0 d2 2f be a5 6d 04 bf 01 c9 f8 be
       -0.2714297 -0.17170215 -0.51729804 -0.48590854
000150 b2 89 3b bf 02 ec 64 bf 1a 24 6a bf 95 d6 e8 bd
       -0.7325698 -0.8942262 -0.91461337 -0.11369053
000160 42 ad 21 bf fa 4f 9a 3e b0 6e a4 3d 30 19 a9 3e
       -0.63154995 0.30139142 0.080289245 0.3302703
000170 75 67 53 3e 79 1c 82 be 50 b1 2a bf f7 3a 96 be
       0.20644934 -0.25412348 -0.6667681 -0.29341862
000180 e7 cd b3 bc 92 30 0f bf 59 c6 d2 be 57 06 64 3e
       -0.021948768 -0.5593349 -0.41166952 0.22268043
000190 2c a3 87 3c 80 3b c9 3d fe 99 40 be 58 7c b2 be
       0.016557299 0.09825802 -0.18808743 -0.34860492
0001a0 7c 12 84 3e 25 d4 69 3e a3 2c 0e 3e fb eb 27 3e
       0.25795352 0.22834833 0.13884215 0.16398613
0001b0 44 d2 0c bf d5 1d 31 3d 8d 19 3e 3d 44 14 59 be
       -0.5500834 0.04324134 0.046411086 -0.21199137
0001c0 14 5c d9 3c 90 00 a1 3d 4d 06 8f be 30 e8 9b be
       0.026533164 0.078614354 -0.27934495 -0.30450583
0001d0 77 a2 4d be b4 69 04 bd 92 e0 07 bf 5e 9c 98 be
       -0.20081507 -0.03232737 -0.5307704 -0.298068
0001e0 2f ec 2b bb c1 c8 9b bd 74 d3 d3 bd 26 2d fd 3e
       -0.0026233306 -0.0760665 -0.10343066 0.49448508
0001f0 ec c2 5a 3e 95 a4 c3 3d b8 f1 0d 3e 53 e7 02 3e
       0.2136342 0.09552876 0.1386174 0.12783556
000200 64 22 4a 3e ea 60 0d 3e 3c 5a 36 3d d9 60 eb 3e
       0.19739681 0.13806501 0.044519648 0.45972326
000210 b1 69 a3 3d d3 87 a5 3e 8b 93 2b bd 7e 98 e0 3d
       0.079791434 0.32330188 -0.041888755 0.109665856
000220 68 50 11 3e e1 73 b6 3e ce c1 24 3e 84 c7 28 3f
       0.14190829 0.35635284 0.16089556 0.65929437
000230 4e 5b 1c 3e 70 b3 8f 3e b4 9f af 3e 5b a7 4d 3e
       0.15269205 0.28066587 0.3430153 0.20083372
000240 f3 0e e6 be 58 d0 74 be 87 cc 31 bf 63 8b ec 3d
       -0.4493328 -0.23907602 -0.6945271 0.115500234
000250 0d 55 3a 3d 09 d9 a7 3e 1a 95 8e bd e6 8c 79 bd
       0.045491267 0.32782772 -0.069620326 -0.060925387
000260 dc 9a 92 3e 6c 3a 3d 3e 8f fb 05 bf 3e 4d 9f be
       0.28633773 0.18479317 -0.5233697 -0.3111362
000270 df 0a 81 bd 1d 50 cb be 7f 04 c7 be 7a de c6 3e
       -0.063009016 -0.3970956 -0.38870618 0.3884161
000280 ba 79 d1 3e 4f 78 f5 3e f0 e4 5f be a4 f0 bb 3d
       0.40913182 0.4794335 -0.21864676 0.09176758
000290 1b 31 be be d5 31 78 3e de 2a 16 3d b1 c5 6c bd
       -0.3714684 0.2423776 0.036661975 -0.05780572
0002a0 b6 9d 16 be 0c eb f9 bd d0 fb b8 be ce b7 20 be
       -0.147086 -0.12203035 -0.36129618 -0.15695116
0002b0 1c eb 83 3e b4 e9 42 bd ca 2c a3 be 0c b6 8d be
       0.25765312 -0.047586158 -0.3187011 -0.27677953
0002c0 54 86 7a bd 2d fc a9 bd d9 3c d2 3e f4 77 e8 3e
       -0.06116326 -0.08300052 0.41062048 0.45404017
0002d0 c6 ae 4a be ea 27 7f be 65 6a 22 bd 3b f5 95 3e
       -0.19793233 -0.2491757 -0.039652247 0.29288658
0002e0 44 e2 dd 3e 45 e3 e1 3e 47 13 e5 bd 62 ec 30 3e
       0.4333669 0.44118705 -0.111853175 0.17277673
0002f0 02 99 f8 3d b6 17 95 be 2c 29 4f bd d2 c7 c1 be
       0.12138559 -0.29119653 -0.050576374 -0.37847763
000300 9a 16 8d be 91 45 76 be 54 d3 af be 00 00 ba bc
       -0.27556306 -0.24049975 -0.34340918 -0.022705078
000310 37 f2 d3 3e 88 6e c2 3e 17 53 a1 be dc 14 86 be
       0.41395733 0.37974954 -0.31508705 -0.2618779
000320 cb 45 db bd 18 ec 50 3e c8 a7 19 3e cd 0b 93 3e
       -0.10706671 0.20402563 0.1500541 0.2871994
000330 da 85 09 3f 24 ea 1d 3f f8 22 14 3f 9a e6 dd bd
       0.53719866 0.61685395 0.5786586 -0.108349994
000340 ff 28 4d bd 68 70 2c 3e 6d b6 b9 3e 60 a7 7a 3e
       -0.050087925 0.16839755 0.36271992 0.24477911
000350 da c5 76 3e d3 0f b2 bd e7 66 a9 be b9 77 3e be
       0.24098912 -0.086944245 -0.3308632 -0.18600358
000360 78 56 69 3b 49 ce 95 bd 68 15 04 3e 5c db 9c be
       0.0035604518 -0.073147364 0.12898791 -0.30636108
000370 b5 3f a9 bd d5 19 0f 3e e5 21 3d 3e 40 c6 0a 3d
       -0.08264104 0.13974698 0.18469961 0.033880472
000380 c6 8f 53 bd 5c 83 b2 be de 29 b9 be 42 01 98 bb
       -0.051650785 -0.34865844 -0.36164755 -0.004638822
000390 7f 1e 9f 3e 1e 32 9e be 0d 88 95 be 79 a2 f6 3d
       0.31077954 -0.3089761 -0.2920536 0.12042708
0003a0 35 cd d6 3e 87 dd 8d 3e 36 69 a7 3e 0a 37 5a 3d
       0.41953436 0.27708074 0.32697457 0.053275146
0003b0 42 7f b2 3e 0c 99 49 3a 70 16 4f 3d 62 27 27 3f
       0.34862715 0.0007690347 0.050558507 0.6529447
0003c0 dc 15 cb bd 1d d8 f6 3d 24 c8 5d 3e 3d 73 9a bd
       -0.09916279 0.12052939 0.21658379 -0.07541511
0003d0 fc 21 66 3c 82 e2 c4 3e 38 39 98 be c5 be 8a be
       0.014046188 0.38454062 -0.29731154 -0.2709867
0003e0 be bc 5d be 84 c6 72 bd 70 18 0a be 72 bd 23 be
       -0.2165403 -0.05927135 -0.13485885 -0.15990236
0003f0 5d c9 0e be 70 15 bf 3b e4 94 0d be f3 05 06 3e
       -0.13944001 0.005831413 -0.13826329 0.13088207

conv2.0.bias f4 [16]
000000 ab aa ec bd c3 0a 2a bd 12 63 52 bd bb 2c a0 bd
       -0.1155599 -0.04151417 -0.051364012 -0.07821032
000010 df bf 9e 3d de 9d 84 3d 97 74 e3 3c b9 12 2d bd
       0.0775144 0.06475423 0.027765555 -0.042254183
000020 c1 49 01 3d e3 2c 19 3d 84 f7 6c bd d3 e6 5e bd
       0.031564478 0.037396323 -0.057853237 -0.05441935
000030 5f 34 57 bc 88 a5 06 bc 93 4b ba 3d b2 db 92 bd
       -0.013135045 -0.008218177 0.09096446 -0.0717081

conv2.1.weight f4 [16]
000000 aa 46 95 3f c0 44 8d 3f e5 93 8d 3f c3 83 9d 3f
       1.166219 1.1036606 1.1060759 1.2305835
000010 a0 7a 99 3f c5 3b b4 3f 82 8b 80 3f 4d 3c b1 3f
       1.1990547 1.408074 1.0042574 1.3846527
000020 40 20 a0 3f 27 01 c1 3f 10 01 79 3f 9e d7 ce 3f
       1.2509842 1.5078477 0.97267246 1.6159551
000030 98 4d ad 3f f3 46 66 3f 7a f8 a0 3f 5d fd ae 3f
       1.3539305 0.8995201 1.2575829 1.367107

conv2.1.bias f4 [16]
000000 06 a9 86 3e 62 f0 ef 3e 9b d3 39 3e 9a 99 9e 3e
       0.2630083 0.46863085 0.18147127 0.30976564
000010 91 1c 14 3e cf 14 5d 3d e5 35 ea 3d 75 5c 87 3e
       0.14464022 0.053974923 0.11436061 0.26437727
000020 5d 50 9b 3d 42 80 b5 bd ce 2f f3 3d fa 24 97 be
       0.075836875 -0.08862354 0.118743524 -0.29520398
000030 ce 29 34 3e a7 6c bc 3d 1d 80 92 3e 03 08 cf be
       0.17594072 0.09200411 0.28613368 -0.404358

conv2.1.running_mean f4 [16]
000000 88 ff 5d c0 08 46 86 c0 4b 24 7b 3e 21 c0 8d c0
       -3.4687214 -4.1960487 0.24525563 -4.429703
000010 0a b8 27 c0 00 8d b4 c0 59 96 4c 3f 56 cc 44 c0
       -2.6206079 -5.642212 0.7991691 -3.0749717
000020 c4 89 2e c0 ec fe 7e c0 aa 63 c3 bf 17 5c a7 c0
       -2.7271585 -3.9843092 -1.526479 -5.2299914
000030 56 cc 87 c0 0e b7 99 3f 90 5e ad c0 92 4d 6a c0
       -4.2436934 1.2008989 -5.4177933 -3.6609845

conv2.1.running_var f4 [16]
000000 6d be bd 41 3f 99 aa 41 b9 f2 94 41 08 f1 94 41
       23.717981 21.324827 18.618517 18.617691
000010 39 ef 94 41 af 44 d4 41 e7 c6 61 41 3a b4 a0 41
       18.616808 26.533537 14.11106 20.088001
000020 df 09 93 41 fb 3b 9d 41 d4 87 6a 41 3b b0 ed 41
       18.37982 19.654287 14.658161 29.71105
000030 04 9c 99 41 d3 86 87 41 eb 58 b4 41 5c 5d 74 41
       19.20118 16.940832 22.543417 15.272793

conv2.3.weight f4 [16, 16, 3, 3]
000000 32 6a 94 be bb c5 91 3e 6d 86 07 3d 8c 1f 0e bf
       -0.2898727 0.2847117 0.033087183 -0.55516887
000010 57 2e a1 be 10 1e 82 be ab f6 b7 be fa 42 90 be
       -0.31480667 -0.2541356 -0.3593038 -0.281761
000020 e9 3b 23 bd 41 2d 3a be c9 83 cb 3b 0c 67 92 3d
       -0.039852057 -0.18181325 0.0062107784 0.07148561
000030 26 e5 77 be f6 84 08 bd 3e 46 e2 3e c2 0c c1 be
       -0.24208507 -0.033329926 0.44194216 -0.37705046
000040 e7 45 a5 be 46 d2 61 3e d8 02 76 be 21 28 c8 be
       -0.32279894 0.22052869 -0.24024522 -0.39093116
000050 a4 0c 5d be 0f 30 7f be e9 e5 c7 3e 64 48 2e 3f
       -0.21586853 -0.24920677 0.39042595 0.6807921
000060 d1 58 37 be 60 ed 09 3d 62 32 9a 3e 6a 6e 37 3d
       -0.17904975 0.033673644 0.30116564 0.044783033
000070 1b b5 66 be 9f 7c 5d 3e f3 86 1b 3d 4f d5 d1 bd
       -0.22530024 0.2162957 0.037970494 -0.102457635
000080 05 91 01 3e e1 79 37 3e 9c 6c 89 3d 54 c4 60 3e
       0.12652977 0.17917587 0.06710169 0.21949893
000090 9b 1a 23 be ed 0a db bd 0f 38 0a be 70 ae b9 be
       -0.15928118 -0.10695443 -0.13497947 -0.36265898
0000a0 35 26 e4 be 97 74 c8 bc af b7 e6 bd af ab b9 be
       -0.445604 -0.024469657 -0.112655036 -0.36263797
0000b0 2f 78 7e be 0d 01 41 bc 10 ed 07 3e 92 55 22 3e
       -0.24850534 -0.011780036 0.13274026 0.15852955
0000c0 4c a3 c4 3c 05 4b 40 3e 0c 8f 9d be 80 86 e8 bc
       0.024003647 0.18778618 -0.307732 -0.028384447
0000d0 12 1d 54 be 07 46 f2 bd e7 06 a2 3d 57 8e 76 3d
       -0.20714214 -0.11829763 0.07911473 0.06019434
0000e0 ab 2d 99 bd 34 2a 0e 3e 63 dc 34 3f d6 96 60 3e
       -0.074794136 0.13883287 0.70648783 0.2193254
0000f0 1b 16 9b 3d 60 f4 c2 3e af e0 aa bd 6b c9 96 be
       0.07572576 0.38077068 -0.08343636 -0.29450545
000100 17 75 66 bb d2 0e 66 3d 6b 76 db be ba ce 37 3e
       -0.0035165006 0.056166478 -0.42863783 0.17949954
000110 1c d7 1f 3d 1e 87 8c 3c 9b 3b 6b 3e 73 06 f2 3e
       0.039023504 0.017154273 0.22971956 0.47270545
000120 1a cc 9b bc c8 bb 70 3d 69 0d 44 3e 94 c0 95 3e
       -0.019018222 0.058772832 0.1914574 0.29248488
000130 6f 89 0f 3f 60 81 8b 3e 13 95 30 bd 90 4d 9c 3e
       0.5606908 0.27247143 -0.04311092 0.30527925
000140 ac 6d 93 be 31 1a c0 bd dc 50 ab be fd 33 f3 3e
       -0.2879461 -0.093799956 -0.33460128 0.475006
000150 eb 65 eb 3d 5e a3 62 be 8d cb 39 bd 50 e2 35 be
       0.11494049 -0.22132632 -0.045360137 -0.17762113
000160 20 58 25 be f8 f3 45 3e cc 69 14 3d 5f ba 17 3e
       -0.16146898 0.19331348 0.03623371 0.14817189
000170 63 01 07 3e 02 9e 57 bb 61 de a8 3d 38 4a fb bd
       0.13184123 -0.0032900576 0.082455404 -0.122700155
000180 94 83 3c be 5b a7 3e 3e 0e 26 76 be ad 7f 7f be
       -0.18409568 0.18618529 -0.24037954 -0.24951048
000190 13 ea 8e 3d 2c 81 06 3e ec 8f 10 be f1 52 c2 3d
       0.0697824 0.13135213 -0.14117402 0.09488476
0001a0 c0 10 d8 3c 86 3a 5e bd 06 f4 83 3e aa e5 22 3e
       0.026375175 -0.05425503 0.25772113 0.15907922
0001b0 ef 6f 61 be ff 15 04 3e fb c7 05 be 4e 2b a4 3d
       -0.22015356 0.12899016 -0.13064568 0.08016072
0001c0 1d 1f b0 3e 16 8d 6e 3e ef a8 9b be d7 b3 14 3f
       0.34398738 0.23296008 -0.30402324 0.58086914
0001d0 7f 97 5b be 35 b1 83 3e 71 11 f9 3c d5 22 80 be
       -0.2144451 0.25721136 0.030403825 -0.25026575
0001e0 3b 10 0f bd 57 66 d0 bd e3 e3 a4 be 09 4d 2c be
       -0.034927588 -0.1017577 -0.32205114 -0.16826262
0001f0 51 f3 f9 bd d7 cc 0a be 99 47 13 be 24 08 40 3d
       -0.12204612 -0.13554703 -0.14382781 0.046882764
000200 6a e7 fa bb f7 02 c3 bd 1a 06 88 3e b1 cf e2 be
       -0.0076569812 -0.0952205 0.26567155 -0.4429908
000210 5d a4 21 3e 8c 59 1c 3f 55 48 f0 3e bb f1 dd bc
       0.15785356 0.6107414 0.46930185 -0.027092805
000220 55 69 ad bd 77 b9 d7 3c 9e ca 8b 3d a0 10 f7 3d
       -0.08467356 0.026333554 0.068257555 0.12063718
000230 14 65 6c bd 95 34 64 be 4a 00 22 3c be 40 af bd
       -0.057713583 -0.22285683 0.009887764 -0.085572705
000240 25 4d 06 3f 40 8a 38 3e 8b 8f e2 bd 79 52 81 3e
       0.52461463 0.18021488 -0.11062535 0.25258234
000250 56 89 16 3f 5a 43 24 3f 85 10 89 be 0d 8b bd be
       0.5880331 0.6416527 -0.26770416 -0.3702015
000260 e4 bb 61 3d 83 08 7a be 00 dc f2 be 35 47 08 bf
       0.055110827 -0.2441731 -0.47433472 -0.53233653
000270 79 74 90 3e b4 df 5a be 6b a2 ef be 0e 23 9a bc
       0.28213862 -0.21374398 -0.46803603 -0.018815544
000280 b5 fb cb 3d 6b 5b e0 3d f9 1a 98 be 62 16 bf be
       0.09960119 0.109549366 -0.29708079 -0.37321764
000290 1e 54 fd bd da 8e fe be 26 f8 35 3e fb 3c 2f 3e
       -0.1236956 -0.49718362 0.17770442 0.17113106
0002a0 36 4d ab bd 39 9c 0a 3d 47 a6 44 be f0 8a b0 3e
       -0.08364336 0.03384039 -0.19204055 0.34481
0002b0 90 22 92 be 12 6b 13 be f5 a6 ac 3e b8 f2 5e 3e
       -0.28541994 -0.14396313 0.33721128 0.21772277
0002c0 3e e9 28 bd 29 f6 6a 3c 39 4d 10 3d 36 af fb bd
       -0.041238062 0.014340916 0.035229895 -0.12289278
0002d0 b7 9a 3d bd c5 e8 3c 3d c8 fc 2c 3a 00 db 58 3e
       -0.046290126 0.046120424 0.00065989466 0.21177292
0002e0 d1 8a e5 bc 89 3c 0c 3e 7d 79 52 bd 3f 6f 93 3c
       -0.028020294 0.13694967 -0.05138539 0.017997382
0002f0 f0 3b 50 3e d1 43 f3 3d d3 03 5a 3e 0d c6 b3 be
       0.20335364 0.11878169 0.21290521 -0.35112038
000300 28 04 76 3e 5c 8f c3 3e d7 b8 d7 be 0a 72 ef 3e
       0.24025023 0.38195312 -0.4213321 0.46766692
000310 f4 f5 03 3e 76 10 a3 bd 41 f7 02 3e 57 8d ae be
       0.12886792 -0.07962124 0.12789632 -0.3409221
000320 59 b8 c7 3e bb ff 00 3f dc 52 91 3e 75 03 0f 3d
       0.39007834 0.50390214 0.2838353 0.034915406
000330 c2 86 90 3a 21 aa 9a 3e 46 72 c6 3d 57 32 33 3e
       0.0011026489 0.30207923 0.09689765 0.17499672
000340 db 68 8d 3c 93 a3 e1 bd ee c0 92 3d 75 29 08 be
       0.017261913 -0.110175274 0.07165705 -0.13297065
000350 6f 04 0d 3f 7f 87 54 bd a0 1c b7 3d c0 c8 da bd
       0.5508489 -0.05188703 0.08941007 -0.10682821
000360 c2 ef 3d be 11 0e 9d be 93 0b 2c be 8b 08 11 be
       -0.18548492 -0.30674794 -0.1680129 -0.14163415
000370 3d 2f a7 be f6 d5 2b 3d 08 68 e9 3d c6 54 fa 3d
       -0.32653227 0.041952096 0.113967955 0.122232005
000380 00 37 8c 3d 8a eb 71 be a4 32 97 bc bb 7e ed 3d
       0.06846428 -0.23625007 -0.018456765 0.115964375
000390 0d ce c4 3c e2 67 26 be 38 b5 8d 3e 05 e5 ac 3d
       0.024024034 -0.16250566 0.2767732 0.084421195
0003a0 20 7c c5 3e fa 1e 06 be f9 9d e3 be 5a fa e5 bd
       0.38571262 -0.13097754 -0.4445646 -0.112293914
0003b0 8c b3 36 3e b7 be 95 3d d1 e5 dd 3c d1 d3 b2 3d
       0.17841929 0.073117666 0.027087124 0.08731807
0003c0 70 3c 2a 3e 39 5b 4a 3e a0 ff 72 3e 9d 3a b3 3d
       0.16624618 0.19761361 0.23730326 0.08751414
0003d0 9a 89 ec 3c 41 7a 96 3d cd 85 8f 3e d0 ad cc 3e
       0.028874207 0.07347537 0.2803177 0.39976358
0003e0 ae b2 86 3e 4a bd 99 bd a4 9b 95 3e 00 fb df 3d
       0.26308197 -0.07506807 0.29220307 0.10936546
0003f0 ca 87 ba 3e a9 e3 d3 bd 1a e3 b5 bd e5 ef e7 bc
       0.36431724 -0.10346157 -0.08881207 -0.028312633

conv2.3.bias f4 [16]
000000 76 5a ef 3b 07 85 77 bb d1 9a cc ba 0e bb 6e 3d
       0.007304485 -0.00377685 -0.0015610104 0.058283858
000010 ae 23 5d 3d 86 12 42 3d b4 b1 c6 bc 1b 9c 60 3d
       0.053989105 0.047380947 -0.024254657 0.054836374
000020 6a 35 a4 b9 8a 39 8f bd 28 84 fb bc e2 29 2c 3d
       -0.00031320314 -0.069933966 -0.030702665 0.04203213
000030 1b 47 b6 bc e7 ca 87 3d 7c 02 60 bd 0a 0a 8f bb
       -0.022250703 0.066304974 -0.05468987 -0.0043652104

conv2.4.weight f4 [16]
000000 31 c9 b0 3f f3 bf a0 3f 18 6b a2 3f 71 5f 99 3f
       1.3811399 1.2558578 1.2688932 1.1982251
000010 bd 42 9e 3f 6d 5e 9d 3f 29 30 ad 3f 6a 74 82 3f
       1.2364117 1.2294441 1.3530322 1.0191777
000020 c8 58 92 3f 33 6f 9e 3f 8e 0a 89 3f 86 ab 98 3f
       1.1433344 1.2377685 1.0706346 1.1927345
000030 8b db ad 3f 71 6e a7 3f 63 5a 9b 3f af 5d a1 3f
       1.3582624 1.3080579 1.2136959 1.2606715

conv2.4.bias f4 [16]
000000 e8 a4 d8 3d 27 89 07 be 08 cb a3 3c b9 b9 30 3e
       0.10578328 -0.13235913 0.019994274 0.17258348
000010 41 32 d8 3d 7c ab 75 be 47 46 b4 3d 75 33 04 3f
       0.1055646 -0.23991197 0.08802467 0.5164102
000020 e6 2e be 3c 58 03 44 3d b7 a4 e4 3c 5e 7f 7e 3e
       0.023215722 0.04785475 0.027910573 0.24853274
000030 d2 9d 16 3e e3 35 bc 3d 99 8d b3 3e 59 a5 4d 3e
       0.14708641 0.091899656 0.35068968 0.20082606

conv2.4.running_mean f4 [16]
000000 7e 1e e2 bd fe bf ef 3f a0 54 f1 bf 3d a6 de bf
       -0.11040972 1.8730466 -1.885395 -1.7394482
000010 22 d7 77 c0 ef c0 5d be 5d 2b 03 bf 0d 50 d8 bf
       -3.8725057 -0.2165563 -0.5123804 -1.689943
000020 a2 c3 d0 3f de 70 1e 3f 20 f2 02 40 49 03 4a c0
       1.6309702 0.6189097 2.0460281 -3.1564505
000030 22 7d 88 c0 bf fc 77 c0 be e5 8f c0 48 21 d7 bf
       -4.265275 -3.8748014 -4.4967947 -1.6807032

conv2.4.running_var f4 [16]
000000 82 58 12 41 c5 97 0c 41 fc fd f9 40 de 67 e5 40
       9.146608 8.787053 7.812254 7.168929
000010 f0 a5 15 41 14 68 bb 40 3a e4 1d 41 53 0d f8 40
       9.353012 5.856455 9.868219 7.7516265
000020 d0 cb fd 40 8b 0c 09 41 e0 83 ab 40 70 f9 fa 40
       7.9311295 8.565562 5.359848 7.842949
000030 76 85 2a 41 d0 8b 19 41 87 ca f6 40 4c 65 08 41
       10.657583 9.596634 7.7122226 8.524731

conv3.0.weight f4 [32, 16, 3, 3]
000000 6f 56 aa bd d3 38 3a be 83 41 0b 3e 28 a1 8d bd
       -0.08317267 -0.18185739 0.1359921 -0.06915504
000010 dd 9c 1c be c0 fc 73 3d 31 a2 8e 3e 84 2d a8 bd
       -0.15294214 0.059567213 0.27858117 -0.082118064
000020 20 6b 0a be a9 ca 1c bd 3b d9 0e 3e 12 41 79 3d
       -0.13517427 -0.03827921 0.13950054 0.06085307
000030 98 0e a6 3e 6b e9 81 3e 5d b7 96 bd 36 d3 d6 3d
       0.3243301 0.25373396 -0.073591925 0.10489504
000040 e6 24 7c 3e ee 34 a9 bd d3 e5 7d 3e 75 4e 8d bd
       0.2462345 -0.08262049 0.24794702 -0.0689973
000050 ed da 82 be 8c bf 91 be 53 10 76 be d3 6b fb bc
       -0.25557652 -0.2846645 -0.24029665 -0.030691063
000060 67 38 7d 3e 68 a9 92 bd 2e 43 a9 be 05 5a 1e 3e
       0.24728547 -0.07161218 -0.33059067 0.15464027
000070 dd 27 20 3e 61 c9 03 3e 7d 1b 81 be 76 05 3c 3c
       0.15640207 0.12869789 -0.25216284 0.011475911
000080 61 58 eb 3d fb 31 67 bd 30 5e 1f be d3 db ba 3d
       0.11491466 -0.05644415 -0.15563273 0.091239594
000090 5f 6c a2 3c 2a f8 56 be 24 70 5a be c3 a9 bc be
       0.019827066 -0.20993105 -0.21331841 -0.36848268
0000a0 a6 25 b5 be 0f a7 ef bd 69 c4 ee be 0b ab 17 be
       -0.35380286 -0.11701786 -0.46634224 -0.14811341
0000b0 68 05 c1 be ec 8a 96 3c 22 73 63 3d 4d 98 0d 3e
       -0.37699437 0.01837679 0.05552972 0.1382763
0000c0 4a 7c 87 bd 10 c4 e2 bd b5 db d2 bc 0c 4d 21 3d
       -0.06615503 -0.11072552 -0.02573953 0.03938012
0000d0 a7 cc 41 3e 4a a5 c1 3c e5 61 cf bd 1d 2c 4a bc
       0.18925725 0.023638386 -0.10126094 -0.012339619
0000e0 c9 f2 3a be 3b 9f 1e 3e bf 58 83 3e b4 c3 06 3e
       -0.18256678 0.15490429 0.25653645 0.13160592
0000f0 67 f5 2d be ed b2 5f bd 31 7d e7 bd 46 ce cb 3e
       -0.16988145 -0.054613996 -0.11303175 0.39805812
000100 71 1a 01 3e 9d 32 60 bd 3a 9d 5e 3d b1 ec 7f 3e
       0.12607743 -0.05473577 0.05434916 0.24992634
000110 66 b0 54 bd d1 1e e8 bd 35 16 4e 3e 38 a2 9e 3e
       -0.05192604 -0.11334003 0.20125659 0.30983138
000120 3d e2 d9 bd d4 83 d4 bd 12 13 52 3d c3 77 62 be
       -0.10638855 -0.10376707 0.051287718 -0.22115998
000130 86 3a b0 be 2e 88 49 be 8f 1c 58 be 4b 35 d4 be
       -0.3441965 -0.19680855 -0.21104644 -0.4144691
000140 ec ff af be 0c ba be bd 8b b4 79 bd fc dc 31 be
       -0.3437494 -0.093128294 -0.060963195 -0.17369455
000150 9c a1 9b be 63 54 fa be 35 71 96 be ca 66 93 3d
       -0.30396736 -0.48892507 -0.29383245 0.0719734
000160 9c 5d fd be 1e 87 72 be 79 a3 bb bc 12 e8 fc bd
       -0.4948548 -0.23684356 -0.022905098 -0.123489514
000170 f4 8b af bd f5 3e 76 be f2 f1 02 bf 6a 9c 2e be
       -0.08571616 -0.24047454 -0.5115043 -0.17051855
000180 93 32 fb 3c a0 74 a5 3d 1e e2 03 be 83 20 5f be
       0.030663764 0.08078885 -0.12879226 -0.21789746
000190 1c ee 63 3d 65 f2 a3 be f0 df 7b bd 42 88 95 3e
       0.055647 -0.3202087 -0.06149286 0.2920552
0001a0 65 a2 5a bd 0e 99 e6 be dc 39 b0 3c f2 9c 5c 3e
       -0.053377528 -0.45038646 0.021511964 0.21544245
0001b0 0c 02 51 3e 0d e5 1d 3e 53 82 1a 3e ac c2 98 3d
       0.20410937 0.15419407 0.15088777 0.07459006
0001c0 a6 31 52 3e ab 32 ee 3e cd ae a8 3d dc 56 40 be
       0.20526752 0.46523032 0.082364656 -0.18783134
0001d0 ad ac 2e 3d d0 16 89 3e fb 3b 5d 3e 8a 75 7f be
       0.042645145 0.26775217 0.21604912 -0.24947181
0001e0 51 9c a6 bd 64 d5 c2 3d 71 aa 7a 3e 8f 50 1c 3e
       -0.08135284 0.09513357 0.2447908 0.15265106
0001f0 03 67 75 3c 10 ea ea bd 97 a6 94 3d ed f8 0e 3c
       0.014978173 -0.11470425 0.07258337 0.008726341
000200 40 87 8e bd cd f6 c9 3e cb a8 c3 3e c1 18 0e bd
       -0.06959391 0.39446107 0.38214716 -0.034691576
000210 56 a7 98 be ad d4 80 3d a3 02 b1 bd 4e f3 7b 3d
       -0.29815167 0.06290565 -0.08643081 0.06151133
000220 5f e8 60 bd d8 fb 96 be 00 b8 af be ad 45 19 bf
       -0.054909106 -0.29489017 -0.34320068 -0.5987194
000230 fb 39 3c be 0b ae 35 be 68 6b 28 3e bf c9 cf bd
       -0.18381493 -0.17742173 0.16447222 -0.10145902
000240 02 68 ce bd df 3f 38 be b2 02 95 bd e6 cd fe 3e
       -0.10078432 -0.17993115 -0.07275905 0.49766463
000250 53 05 72 3b 47 0b 89 be 72 dd f0 3e e4 66 d4 3d
       0.0036929443 -0.26766416 0.4704395 0.10371187
000260 2e 94 62 bd 6d 7b 68 bd e6 bd 76 3d 07 a6 de bd
       -0.055317096 -0.056758333 0.060239695 -0.10871511
000270 67 33 56 3d 1b 39 d5 3d 86 b7 a1 be 47 23 11 be
       0.052295115 0.10411283 -0.3158533 -0.14173613
000280 e4 98 1e bd 9f 2e 7a be ea 2c b4 be ca bd 0e be
       -0.038720027 -0.24431847 -0.35190517 -0.13939586
000290 68 7f 9f bc 26 ee 5b 3e c6 2e 76 be 48 a1 ac 3e
       -0.019469932 0.21477565 -0.2404128 0.33716798
0002a0 38 31 96 3e 26 31 b9 be d6 8b 34 3e c0 9c 54 be
       0.29334426 -0.3617031 0.17631468 -0.2076292
0002b0 03 f2 8f be 6d 0d 39 be a1 2a 83 3d ab 8e 68 3e
       -0.28114328 -0.18071528 0.06404615 0.22710674
0002c0 12 e5 de 3d 04 79 ac 3d 5a de e1 3d 17 14 90 3e
       0.108835354 0.084215194 0.11028738 0.28140327
0002d0 0d a1 1e be bf 89 e6 3d f6 5c 71 3b 80 c9 c6 be
       -0.15491123 0.11256742 0.003682909 -0.38825607
0002e0 77 60 8b be 8f 86 85 3d da 04 b9 be c6 06 6d bd
       -0.27222034 0.06519806 -0.36136514 -0.057867788
0002f0 60 3f da bd 6b 87 be be dd db 23 be 57 8d 51 be
       -0.10656619 -0.3721269 -0.1600184 -0.20464073
000300 50 37 98 3d 90 6f 0e bf e3 cc d5 bd 9e d6 20 3e
       0.07432425 -0.5563898 -0.1043947 0.1570687
000310 74 4b 52 be b7 dc a8 bd b8 af 31 be c8 51 87 bd
       -0.20536596 -0.08245223 -0.17352188 -0.066073954
000320 21 2e 91 bd da c0 0e bc 02 89 8b 3e 67 3e a6 3e
       -0.070888765 -0.008712972 0.27252966 0.32469484
000330 56 c1 a2 be 9f 40 d5 3d e7 df a1 bd ad ee 94 3e
       -0.3178813 0.10412716 -0.07904034 0.29088345
000340 5d dc 81 bd 79 95 0b 3e 17 b6 f4 3e 27 08 a4 3c
       -0.06340859 0.13631238 0.47795174 0.020023419
000350 29 e7 0f bf dd 19 60 be 13 d9 b8 3e 0c bf 23 bf
       -0.562121 -0.21884866 0.36103114 -0.6396339
000360 2a ba 76 be e6 fe bb 3e 01 3a 2b be a2 9f 95 be
       -0.24094453 0.3671791 -0.16721345 -0.29223353
000370 ac ed 99 bd dc 2d 71 3d a1 b7 19 bf 42 4d 5b be
       -0.075160354 0.058881626 -0.6004582 -0.2141619
000380 b8 cd e9 3d 67 29 9c be 43 36 c8 be d4 bf 84 bd
       0.11416191 -0.30500337 -0.39103898 -0.06481901
000390 59 e8 21 3e e9 1a 29 bc d6 7b 63 3e 68 93 85 be
       0.1581129 -0.010321357 0.22215208 -0.26089025
0003a0 cf a3 a0 3d 2b ac 0d 3d 04 d8 27 be d6 31 44 be
       0.07843744 0.03458802 -0.16390997 -0.19159636
0003b0 a9 86 d4 3d 17 99 9b 3e bc 8e d2 3d 18 4d 0c 3e
       0.10377247 0.30390236 0.10281131 0.13701284
0003c0 44 a4 4e be 12 54 3e bc 3e 05 b5 3e e7 71 ef be
       -0.2017985 -0.011616724 0.35355562 -0.46766588
0003d0 3d 8c 31 3d f2 99 26 3e 9b ed 04 bc 97 bf bc 3e
       0.043346632 0.16269663 -0.00811329 0.3686492
0003e0 90 da 97 3d 57 0a 50 bd e7 d4 d4 3e ab 7e 16 bd
       0.07414734 -0.05079111 0.41568682 -0.036741894
0003f0 be 85 80 be dc 17 bc bd f2 3c e8 3d 13 84 13 3f
       -0.25102037 -0.09184238 0.113397494 0.57623404

conv3.0.bias f4 [32]
000000 a0 93 49 bd 9f 13 99 3d 43 f1 14 3d 4e 7d 28 bd
       -0.04921305 0.074744456 0.036362898 -0.041135125
000010 96 08 e3 3c 26 3a be 3c 9a 3d 9c bd 0c 07 94 3d
       0.027714055 0.023221087 -0.07628937 0.072279066
000020 f0 18 9a 3d 83 b7 95 3d 70 27 bd bc 8b 07 ef bc
       0.07524288 0.07310393 -0.023090094 -0.029178401
000030 3e 58 2a bd a0 49 8d 38 86 73 bf 3c 68 4d 24 bb
       -0.04158806 6.737118e-05 0.023370516 -0.0025070552
000040 f6 b9 ed 3c 60 87 ee 3c e8 28 57 bd 0e 6e 45 bd
       0.029019337 0.029117286 -0.052529246 -0.04820066
000050 7b da fe bc 9b 0f a7 3d c8 b1 5d bd 33 4c 37 bd
       -0.031110039 0.081572734 -0.054124624 -0.044750404
000060 2e fb 58 bd f9 35 c3 bb 1f 8d 80 3d 56 8b 19 bc
       -0.05297392 -0.005957362 0.06276917 -0.009371599
000070 f8 a0 3a bd fe 42 87 bd bc fe 8e bd d2 4f a1 bb
       -0.045563668 -0.066045746 -0.069821805 -0.0049228454

conv3.1.weight f4 [32]
000000 56 39 a3 3f 93 47 9b 3f 35 84 84 3f b4 93 92 3f
       1.2751873 1.2131218 1.0352846 1.1451325
000010 03 d2 b6 3f 3f de 8a 3f 3b e6 a9 3f 8b 3f a4 3f
       1.428284 1.0849074 1.3273386 1.2831892
000020 7f 2b a0 3f a5 b3 85 3f 49 71 7e 3f 58 42 8c 3f
       1.2513274 1.0445448 0.9939161 1.0957747
000030 29 07 96 3f 93 71 a9 3f c7 16 94 3f 25 e2 9e 3f
       1.1720935 1.3237785 1.1569451 1.2412764
000040 78 07 a0 3f 31 46 9e 3f 92 99 8b 3f 0a 59 97 3f
       1.2502279 1.2365171 1.0906241 1.1824048
000050 5d 47 8c 3f 10 e0 85 3f bc 7b 9c 3f 9a 74 9e 3f
       1.0959278 1.0459003 1.2225261 1.2379334
000060 f0 2c ab 3f c8 b7 a0 3f e4 f1 94 3f 26 52 90 3f
       1.3373089 1.2556086 1.1636319 1.127507
000070 d2 21 84 3f cf f9 5a 3f 3b 59 9b 3f 49 1c 8f 3f
       1.0322821 0.8553743 1.2136606 1.1180507

conv3.1.bias f4 [32]
000000 8b 75 2a be b5 36 57 3d 13 90 8f be bd 7b 88 be
       -0.16646402 0.052542407 -0.28039607 -0.26656905
000010 ee 9f 85 be 7f 8a 59 be 32 de e2 bd 88 8d 27 be
       -0.2609858 -0.21244238 -0.11077537 -0.16362584
000020 a2 e2 dc bd 4c f3 da 3c a2 1f 96 bc b0 86 36 bd
       -0.10785414 0.026727341 -0.01832563 -0.04456204
000030 d4 61 88 be 97 2b ab be 90 ea 88 3c ac 1f a1 be
       -0.26637137 -0.33431694 0.01671341 -0.31469476
000040 38 67 b4 be c8 b9 fb be bf fd 0f be 7e ba a3 be
       -0.35235 -0.49165177 -0.1406164 -0.3197822
000050 2d 66 59 be e3 12 72 be 4d b0 06 be 00 08 7b be
       -0.21230383 -0.23640017 -0.13153191 -0.2451477
000060 ac 0d a0 be 60 bb 33 be 0a 21 b3 be 5a 48 ea bd
       -0.3126043 -0.17551947 -0.34986144 -0.11439581
000070 88 70 6f be 13 1b 45 3c 84 a7 8b be 8c dc a9 bb
       -0.23382771 0.012030381 -0.27276242 -0.005183762

conv3.1.running_mean f4 [32]
000000 9b fd 9d c0 82 5e 71 c0 76 67 bb 3f 4c 18 11 bf
       -4.9372077 -3.7713933 1.4640949 -0.566777
000010 33 98 63 c0 bf 55 b9 3f 56 49 9a c0 0a 66 94 c0
       -3.5561645 1.4479293 -4.821452 -4.637456
000020 f5 51 09 c0 5a 50 85 c0 86 2c 1a c0 9a d5 2a c0
       -2.1456273 -4.1660585 -2.4089675 -2.6692872
000030 f0 b8 ae 3f 2b 56 2d c0 a4 e6 a4 c0 05 64 9c c0
       1.3650188 -2.7083843 -5.1531544 -4.8872094
000040 04 43 04 c0 ad 0f f1 3f 51 bb b2 3f ac d0 20 c0
       -2.0665903 1.8832909 1.3963414 -2.5127363
000050 22 a0 8b bf 32 ec e0 3c b8 eb 89 c0 83 7c 90 c0
       -1.0908244 0.027456377 -4.3100243 -4.515199
000060 7d 63 dd c0 8c 6b 11 c0 08 02 08 be 57 ca 11 c0
       -6.9183946 -2.2721891 -0.13282025 -2.2779748
000070 1d 48 78 bf 02 c8 75 40 f9 f8 17 c0 05 55 94 c0
       -0.96985036 3.8403325 -2.374571 -4.6353784

conv3.1.running_var f4 [32]
000000 b4 04 b1 41 01 0b 79 41 0e 0e 20 41 f0 16 45 41
       22.127296 15.5651865 10.003431 12.3181
000010 a0 c2 7a 41 9d ad 31 41 2b 72 6e 41 30 6b 6c 41
       15.672516 11.104886 14.902873 14.776169
000020 d5 48 6e 41 92 4a 43 41 8b 81 4f 41 7f 56 52 41
       14.892781 12.205706 12.969127 13.146117
000030 21 98 3f 41 a9 60 6c 41 65 7f 3a 41 6e 41 4c 41
       11.974641 14.773599 11.656102 12.765974
000040 7c 20 23 41 39 5f 40 41 47 8b 30 41 9d fa 40 41
       10.195431 12.023248 11.034003 12.061185
000050 23 64 41 41 f4 ac 29 41 f4 4b 50 41 4f d0 55 41
       12.086947 10.604725 13.018543 13.363357
000060 19 47 34 41 5a 5e 50 41 b8 e8 0e 41 20 24 46 41
       11.267358 13.023035 8.931816 12.38382
000070 a3 40 33 41 3f 12 30 41 c1 03 5b 41 b1 20 1c 41
       11.20328 11.004455 13.6884165 9.757981
