trained_models/best_cnn.pt (torch, 958866 bytes, 92 tensors)

conv1.0.weight f4 [8, 3, 3, 3]
000000 b7 85 c8 3e f9 01 06 3f 73 a1 a0 be 6d 42 07 be
       0.39164516 0.5234676 -0.31373176 -0.13208933
000010 83 8d a6 be 75 3b 8c 3e 8a 4c 24 be 77 63 08 bf
       -0.3252984 0.27389112 -0.16044822 -0.5327677
000020 30 cc f7 3d f1 e6 84 3e 1a 59 23 be f4 1c c4 be
       0.120994925 0.25957444 -0.15951958 -0.3830334
000030 4a 03 e4 bd d3 00 1f bf 73 7b 05 3f 06 e2 e4 3e
       -0.1113344 -0.6211063 0.52141494 0.44703692
000040 fe db 5d be 27 8a 08 3f 0d a9 3d 3c 8e 7e 04 bd
       -0.21665952 0.53335804 0.011575949 -0.032347254
000050 f8 c7 27 bf e8 ef 07 bd 64 ee 0b be 22 6c 34 3f
       -0.65539503 -0.033187777 -0.13665158 0.704775
000060 c2 91 3f 3e 47 b4 f3 be 45 db b4 3e b7 c8 89 3d
       0.18707946 -0.47598478 0.3532354 0.067277364
000070 3f 5f 23 3f e1 8b 84 3d 5d 34 c9 3e ff 2e 94 3e
       0.6381721 0.06471992 0.39297763 0.28942105
000080 a5 50 f7 bc 89 7a 94 be a6 37 99 bd 9a 14 80 3e
       -0.030189821 -0.28999737 -0.07481317 0.25015718
000090 b0 4f 86 3e 54 61 b7 3e a8 66 83 be ce 7f 94 bd
       0.26232672 0.35816443 -0.25664258 -0.07250939
0000a0 40 ca 53 3d 7b a9 67 be a3 6a 99 be 4e f1 9b be
       0.051706553 -0.22623245 -0.2996417 -0.30457538
0000b0 ae 2b 5b be 55 47 c9 3e 69 1a 8a 3e 03 0d 88 bd
       -0.21403381 0.39312235 0.26973274 -0.06643107
0000c0 43 da 82 3e c5 08 66 be a0 96 d8 be 87 af 80 be
       0.25557145 -0.22464283 -0.42302418 -0.25133917
0000d0 09 31 87 be 71 b0 92 3d 61 a0 d1 bb 4d 69 cb be
       -0.26404598 0.0716256 -0.0063972925 -0.39728776
0000e0 bf cb 40 3e 48 65 62 be 70 11 f4 3b 6d 27 bb 3e
       0.18827723 -0.22108948 0.007448368 0.36553517
0000f0 ef 7e ae be fa 81 d1 be 3a 94 06 be df a8 fd 3d
       -0.34081218 -0.40919477 -0.13142481 0.12385725
000100 40 4a 3d be 91 61 f4 bc 0e f4 91 bd 91 4d 90 3e
       -0.18485355 -0.02983168 -0.07126628 0.28184178
000110 5b 59 24 3e 54 87 d6 3c d2 26 c3 bd 85 8d a6 bd
       0.16049711 0.026187576 -0.09528889 -0.081324615
000120 d4 f9 be 3e 14 fa fd bc 0e 4c 47 bf c0 4b f5 3e
       0.3729998 -0.031003036 -0.77850425 0.47909355
000130 53 af 28 3f 0a e0 cf 3d 9b ba ca 3e 6c ee 94 3e
       0.65892524 0.10150154 0.39595494 0.2908815
000140 47 c3 aa be ad f9 ba bd 4d 4d 32 3d 9f b7 a2 3e
       -0.3335211 -0.09129653 0.04353075 0.31780717
000150 40 09 11 bf 80 55 d5 be c9 fd b5 3c 57 1b 4d be
       -0.5665474 -0.41666794 0.02221574 -0.2002996
000160 af 98 fa bd 72 46 0e 3f 83 2a c7 bd 04 5f 8b bc
       -0.12236153 0.5557624 -0.09724905 -0.01701308
000170 ec 9c de 3e f7 0c fb be 8b 3c ce be d5 4b 60 be
       0.43479097 -0.4903333 -0.40280566 -0.21903928
000180 1c 19 e2 be 4d 91 c4 bd 2c 44 2b 3e 55 c9 08 3e
       -0.44159782 -0.095980264 0.16725224 0.13358052
000190 29 68 ca 3e b2 17 d1 3e 04 b9 55 be da 88 21 3d
       0.39532593 0.4083839 -0.20871359 0.039437152
0001a0 20 b5 ed 3d 6e 04 28 3e 5e cb b6 3d 76 a5 0f 3e
       0.116068125 0.1640794 0.08925508 0.14027962
0001b0 40 46 a2 be 00 00 8e 3e 2b de c7 3e 83 d7 dc 3e
       -0.31694221 0.27734375 0.39036688 0.43133172
0001c0 fb 6f c1 3e 19 c3 29 be 2c 94 aa bc 9c 7f 30 be
       0.37780747 -0.1657833 -0.020822607 -0.17236179
0001d0 f2 25 da bd 19 8a 82 be f8 8f 89 be a0 a0 9d be
       -0.10651769 -0.25495985 -0.26867652 -0.3078661
0001e0 36 6c f6 3e 67 a1 18 be 9a 9a 39 bf f0 b0 c5 3d
       0.48129433 -0.1490532 -0.7250153 0.09652889
0001f0 ab d8 7e bc e5 91 8d be 6e e5 c8 3d 70 d3 e8 bd
       -0.015554587 -0.2765037 0.09809385 -0.113684535
000200 49 7c 07 be 35 62 40 3f 4e 56 9c 3d 6a 31 23 bf
       -0.13231005 0.7514985 0.07633649 -0.63747275
000210 1a 25 34 3f 70 73 a2 3c d0 8c a4 be 9b ae a1 3e
       0.7036911 0.019830436 -0.3213868 0.31578526
000220 99 16 ec 3e 8c ce a2 3e ae 8a b9 bc ca 5f 96 be
       0.4611099 0.31798208 -0.022649135 -0.29369956
000230 e8 e7 3b 3d d5 ea ec 3d 7e 27 e8 be 64 54 ca be
       0.04587546 0.11568228 -0.4534263 -0.3951751
000240 a9 ff 6d 3e 4d 4a ee 3d af e8 fc 3e b6 b2 09 3d
       0.23242058 0.116352655 0.49396273 0.033617698
000250 0b cf f9 be da f4 08 be 2b ed 02 3f fd d0 02 bf
       -0.48790774 -0.13374653 0.5114314 -0.5110014
000260 3a 7b 87 be 71 df 7d be b8 db ae be a1 52 cd 3e
       -0.26461202 -0.24792267 -0.34152007 0.40102103
000270 dd 82 cc bd ec 4f 3a be a8 78 eb 3d 5a b3 8b 3e
       -0.09985898 -0.1819455 0.11497623 0.27285272
000280 99 3d ab bd cc 68 a6 3c 9d c5 d3 3e 1c 64 e8 bc
       -0.08361358 0.020313643 0.41361704 -0.028368048
000290 8f 66 73 3e f5 64 f1 3d af a8 d6 bd 63 46 68 3f
       0.23769592 0.11786834 -0.104813926 0.907324
0002a0 f6 eb 83 be aa 56 89 be 22 f3 18 bf 13 f1 c2 bd
       -0.2576596 -0.26823932 -0.5974599 -0.095186375
0002b0 31 bd cb be 8e 1b 6b 3e 94 64 9a be 0a 2a 4e bf
       -0.3979278 0.2295973 -0.3015486 -0.80532897
0002c0 ec c8 24 3f 63 34 4c 3d d2 38 1a 3e cb 21 d2 bd
       0.6436908 0.049854647 0.15060738 -0.10260352
0002d0 c1 0c 62 3c 26 79 ae be 6f 40 aa bd aa 18 ae 3e
       0.013796986 -0.34076804 -0.08313071 0.34003192
0002e0 16 24 15 bf 47 61 06 3f 0a 0b eb 3e 50 62 3d 3e
       -0.5825819 0.52492183 0.4590686 0.18494534
0002f0 5e 08 43 be 66 11 04 be 4b 1a 7e 3e 2f 01 9b 3e
       -0.1904616 -0.12897262 0.24814717 0.3027434
000300 97 b0 fd 3d e0 32 8b bc 17 e0 85 bc 48 70 17 3e
       0.123871975 -0.016992033 -0.016342206 0.14788926
000310 b7 8a 25 be e2 27 01 be fc 3f 6d 3d 5b 7b fc bd
       -0.16166197 -0.1261287 0.05792235 -0.12328216
000320 69 1d 1f be 73 f9 81 bc 77 77 b9 be 9b d3 e7 bd
       -0.15538563 -0.015866017 -0.36223957 -0.113196574
000330 4e 82 9e bc e0 2d ac be 58 00 91 be 38 c5 01 3e
       -0.019349243 -0.3362875 -0.28320575 0.12672889
000340 bd cd 52 bc c3 64 ac bd d0 0c da bc fd 66 ad bd
       -0.012866435 -0.08417656 -0.026617438 -0.08466909
000350 d3 9a e1 bd 8f 60 d6 3d 89 0e 6f be 38 cd 15 3e
       -0.110158585 0.10467636 -0.23345388 0.14629066

conv1.0.bias f4 [8]
000000 9a 7e 6a 3d d1 71 ac bd cc 1e 2d be c9 6c 10 3e
       0.057249643 -0.08420146 -0.1690628 0.14103998
000010 8c 14 f5 3d a2 a1 8e 3d f2 b3 ab bd 29 08 35 bc
       0.1196681 0.06964423 -0.08383931 -0.011049309

conv1.1.weight f4 [8]
000000 4c 90 93 3f 81 8d 2d 3f b0 03 2c 3f 09 9c 5b 3f
       1.1528411 0.6779404 0.67193127 0.85784966
000010 6f 8d 8e 3f 1e 78 8c 3f ee 6f 87 3f 85 35 40 3f
       1.1136912 1.0974157 1.0581033 0.75081664

conv1.1.bias f4 [8]
000000 f2 c0 3c 3f 90 69 c1 3e 0e 0d ec 3d 2d 95 83 3e
       0.7373191 0.3777585 0.115259275 0.2569975
000010 c2 93 93 3d 98 81 85 3e 5a 8e 5d 3f 3f 87 82 be
       0.07205917 0.26075435 0.86545336 -0.2549381

conv1.1.running_mean f4 [8]
000000 e3 7b 0f 3d 59 03 08 3e 4e 30 76 bd 27 c2 a5 bd
       0.035030257 0.13282527 -0.06010466 -0.08093672
000010 1c 4c 66 bb b9 02 5f 3c 48 dc 34 bd ca d2 08 bf
       -0.003514058 0.013611489 -0.04415539 -0.5344664

conv1.1.running_var f4 [8]
000000 d3 59 47 3d 6b 92 0e 3e 02 b0 91 3d 92 03 3b 3e
       0.048669647 0.13923042 0.07113649 0.1826308
000010 35 80 30 3e 3e 22 d9 3d 33 fc 78 3d 2f 66 bb 3d
       0.17236407 0.10602234 0.06078739 0.09150349

conv1.3.weight f4 [8, 8, 3, 3]
000000 1d 21 49 3e 0d 70 c3 3d d0 a7 98 3e 2e 32 8a be
       0.19641538 0.09542856 0.2981553 -0.2699141
000010 8c 13 ff bd d4 71 74 3d fd 67 3a bd 36 ac 18 be
       -0.124549 0.059678867 -0.045509327 -0.14909443
000020 3f 69 14 be d7 19 52 be 4f 0c 5d be 5f 5b d8 be
       -0.14493273 -0.2051767 -0.21586727 -0.4225721
000030 83 63 2a 3e 41 3a 7b 3d 3f de b0 bd 80 b1 e2 bb
       0.16639523 0.061334852 -0.0863614 -0.0069181323
000040 3e d8 8a bd 04 84 bd bc 73 e9 89 3d d5 0e 91 3e
       -0.06779526 -0.023134239 0.0673398 0.28331628
000050 cd 62 6e 3e 57 be 0d be 4d 81 9c be a3 f1 68 bc
       0.23279877 -0.1384214 -0.305674 -0.014217767
000060 dc 5a 14 3e 3a 97 5e 3e 32 76 65 3e 72 31 01 bf
       0.14487785 0.21737376 0.22408369 -0.5046607
000070 77 e9 af be 1a cf 2a be cb 12 2f 3e d4 27 07 3f
       -0.34357807 -0.16680565 0.17097013 0.5279515
000080 a4 ad 3a 3e 19 fe 11 be 8f e6 a1 3c a0 2c e8 3d
       0.18230301 -0.14257087 0.01976326 0.113366365
000090 63 f1 ca bb 02 a9 d8 3d 39 44 3e 3e 4c 20 6c be
       -0.0061933263 0.10579111 0.18580712 -0.23059195
0000a0 90 3d 85 be bf 93 b6 be 94 e4 66 be a6 4d d3 bd
       -0.2602353 -0.35659596 -0.22548133 -0.10317545
0000b0 4e a3 4a be 58 b0 64 3d 69 fd f5 bb 47 52 f9 3d
       -0.19788858 0.055832237 -0.0075070155 0.12173896
0000c0 55 29 84 3e 49 8d 3b 3d f7 11 7d 3c fe f7 0a be
       0.25812784 0.045789037 0.015446178 -0.13571164
0000d0 b5 fe ff 3a cc cf 3c bd 59 63 a0 3e 2f 51 8f 3e
       0.0019530865 -0.046096608 0.31325796 0.27991626
0000e0 d4 fe 9b 3e 08 bf 3d be 78 bd 41 bf aa cd ac be
       0.30467856 -0.18529904 -0.7567973 -0.3375066
0000f0 7d 20 ca 3b 9e 4a 3b bc 2f 01 31 3d 92 f9 b0 be
       0.0061684237 -0.011431364 0.04321402 -0.34565407
000100 59 89 b8 be db f3 b6 3c 13 f7 35 be 72 07 18 be
       -0.36042288 0.022333076 -0.17770033 -0.1484659
000110 0e c6 d3 3d 6e 43 6d bc 0f d8 05 3e 7e c5 33 3e
       0.1034051 -0.0144814085 0.13070701 0.17555806
000120 47 70 e6 bd 48 9e 4b 3d b4 71 5f be 1a fd ef bd
       -0.11251884 0.049711496 -0.21820718 -0.11718197
000130 73 3f a1 3e be 33 46 be 95 23 6c be 8b a8 cc 3e
       0.3149372 -0.19355676 -0.23060448 0.39972338
000140 c6 f0 33 3b 44 20 f5 3d 7f cb b5 3d bf 77 75 3e
       0.0027456745 0.11969045 0.088767044 0.23971461
000150 65 5c 36 be e5 39 e4 bd e7 6a 0c 3e 58 6a 97 be
       -0.17808683 -0.11143855 0.13712655 -0.2957332
000160 b5 ff 3d be 83 73 70 3b 64 5b 54 3e 87 75 9a 3e
       -0.18554576 0.0036689944 0.20737988 0.3016779
000170 14 44 4d 3d d3 13 b4 bd 44 e7 51 be ad b9 3c be
       0.050113752 -0.08792844 -0.20498377 -0.18430205
000180 69 e3 ef bd 44 78 02 be ce dd 98 be 50 7a 21 be
       -0.11713297 -0.1274119 -0.29856724 -0.15769315
000190 72 12 d6 bd a0 0f 2e be 1c 3c b6 3e 4c 19 20 3f
       -0.10452737 -0.16998148 0.35592735 0.625386
0001a0 ca 65 91 3e 73 72 b2 be a9 84 11 bd 6a a4 dc be
       0.2839797 -0.34852943 -0.035526905 -0.43094188
0001b0 53 0f 93 bd c3 bd 0f 3e ef 50 f4 3d c7 87 8d bd
       -0.07180657 0.14037232 0.11929499 -0.06910663
0001c0 9c ee 84 be ec 45 6c be 6e 8a 56 bd 7e 90 8a 3d
       -0.25963295 -0.23073548 -0.05237811 0.06765841
0001d0 97 bb 57 3e d0 04 55 be 59 63 97 3d ea d9 60 bd
       0.21067654 -0.20802617 0.07391996 -0.05489532
0001e0 30 28 6e 3e 08 8f 49 3e 9a 21 3d 3e fe e0 9c be
       0.23257518 0.19683468 0.18469849 -0.30640405
0001f0 d9 44 ab be 88 db d3 be ff a6 2b 3d 16 7e 17 3f
       -0.33450964 -0.41378427 0.041907307 0.59176767
000200 94 4c 51 bc 34 9a a2 be 29 47 df 3d 49 72 7a be
       -0.012774605 -0.31758273 0.109022446 -0.24457659
000210 b5 24 9a bd de 17 9b bd 69 e4 1e 3c b1 20 11 3d
       -0.075265326 -0.07572912 0.009698012 0.035431568
000220 08 9b 61 3e d1 41 3a 3e 8c 3a 9b 3b e9 14 13 3e
       0.22031796 0.1818917 0.004737204 0.14363445
000230 99 92 a5 3d ef 67 5c be d2 8d c4 3d 09 8f 7e bd
       0.08084602 -0.21524023 0.095973626 -0.062148128
000240 fb 7a 30 3e b6 6d 65 3e 1b c2 4d be bf 11 b0 be
       0.17234413 0.22405133 -0.20093577 -0.3438854
000250 1d 63 62 3e f7 df bb 3e 8e 6d 0a 3f 34 ff 60 bf
       0.22108121 0.3669431 0.5407342 -0.8788941
000260 11 73 85 be 90 79 0a be dd 39 18 3d c7 3c 29 3e
       -0.2606435 -0.13522935 0.037164558 0.16527091
000270 8f 33 ab bd c5 e0 96 be ce 0c 48 be 38 0c ab bd
       -0.083594434 -0.2946836 -0.19536135 -0.0835194
000280 36 e3 8f bc d5 a4 e8 bd 46 22 16 bd c5 3b 7c be
       -0.017564397 -0.11359564 -0.03665378 -0.24632175
000290 8b d0 10 be 67 40 f3 bd 74 9f 48 be 65 7f 9d bb
       -0.14142053 -0.11877518 -0.19592077 -0.0048064464
0002a0 65 98 9b 3d c7 1f 2b 3e 24 49 4e bd 59 26 54 bd
       0.07597426 0.16711341 -0.05036272 -0.051794384
0002b0 6a 9f db 3d b7 28 d3 3d 70 55 0f 3e 07 99 20 bc
       0.10723765 0.103105 0.13997436 -0.00980211
0002c0 71 a3 5d 3e 1e c9 8a be 6c c2 6c be 64 d6 95 3e
       0.21644379 -0.27106565 -0.23121041 0.2926513
0002d0 7a d2 c8 be a2 b1 75 be 70 3b 9d be 24 af 03 3e
       -0.3922308 -0.23993543 -0.3070941 0.1285978
0002e0 26 c6 90 3e f2 01 95 be d7 ff dc bc b0 f1 bf 3e
       0.28276175 -0.29103047 -0.026977463 0.3748908
0002f0 53 23 61 3e 29 4c 66 3e 8c e1 12 be f8 5b 03 bf
       0.21986131 0.2248999 -0.14343852 -0.5131221
000300 ba 32 0a be 82 19 e2 3e 91 58 69 3e ab 27 34 be
       -0.13495913 0.44160086 0.22787692 -0.17593257
000310 09 c1 9c bc ec 26 1e 3e 29 e1 c0 3e 80 83 c7 bd
       -0.019135015 0.15444535 0.37671784 -0.097418785
000320 c2 b9 2c bc 0a 2b ee be 56 d9 b2 3e d0 d3 1e bd
       -0.010542335 -0.4651721 0.3493144 -0.03877622
000330 8c 4e 25 bd 5f 49 72 be db 03 69 3d 12 f0 4d 3e
       -0.04035811 -0.23660801 0.056888442 0.20111111
000340 d1 7f 46 3e 43 3b 83 be f8 39 53 3b a5 82 b2 3d
       0.19384696 -0.2563115 0.0032230597 0.08716325
000350 92 18 b0 3d f1 c6 9b bd 12 25 60 bc 96 3d 07 3e
       0.085984364 -0.076063044 -0.013680713 0.13207087
000360 9d e4 98 be c7 d7 16 be 11 d1 65 be c6 c3 38 be
       -0.29861918 -0.1473075 -0.22443034 -0.18043432
000370 cc 33 5c bd 55 ab 88 3d 0e e4 d8 3e 31 2d 0b 3e
       -0.053760335 0.06673304 0.42361492 0.13591458
000380 7e 7b 85 3e 21 9d bc 3b 35 75 02 3f b6 8a af 3d
       0.2607078 0.005756036 0.50960094 0.08571379
000390 dd 4e 86 3e cc 8f b1 3e f3 14 ca bd 75 e3 0b be
       0.26232043 0.3468002 -0.09867277 -0.13660987
0003a0 1a c2 36 be df 8e a9 3d 28 ee 34 3c 77 15 19 3e
       -0.17847481 0.082792036 0.011043109 0.14949594
0003b0 d7 50 5e 3c 08 18 bd 3d 75 a5 3a be 46 a8 a8 bd
       0.013569078 0.09233099 -0.1822718 -0.082352206
0003c0 11 bf 8e be 93 5d 82 be fc 18 0e 3e 66 3f f2 bd
       -0.27880147 -0.25462016 0.13876718 -0.118284985
0003d0 c0 ae c0 bd 4d af 37 3e dc bb 45 be 0f 07 de 3c
       -0.09408331 0.17937966 -0.19309944 0.027102975
0003e0 f1 6a 6a 3e 38 39 79 3d cd ee 5f 3e c8 d9 a9 bd
       0.22892357 0.060845584 0.21868439 -0.082934916
0003f0 11 15 9f 3d 5a a2 9a 3e 4c 18 0a 3d 18 b0 c0 3e
       0.0776769 0.3020199 0.033714578 0.3763435

conv1.3.bias f4 [8]
000000 56 86 4f bd 89 29 eb 3c 53 43 33 3d 58 b2 b5 bd
       -0.050665222 0.028706329 0.043765377 -0.08871907
000010 36 98 86 bc 7c f7 ce bd e1 86 92 bd f9 60 93 3c
       -0.016430002 -0.10105798 -0.07154632 0.017990576

conv1.4.weight f4 [8]
000000 ec 6c 8b 3f 5a f6 88 3f 54 55 8d 3f 85 b1 67 3f
       1.0892615 1.070018 1.1041665 0.9050525
000010 fe 50 9d 3f 38 d0 5c 3f 8a a3 7a 3f b1 b1 85 3f
       1.2290342 0.86255217 0.9790579 1.0444852

conv1.4.bias f4 [8]
000000 31 47 2c 3e 47 9e 48 be 64 43 88 bc bd 2b 53 3e
       0.16824032 -0.19591628 -0.016633697 0.20622154
000010 35 ec 9f bd fd 96 ab 3e 5a d6 40 3e 53 81 dd bd
       -0.07808725 0.33513632 0.18831769 -0.10815682

conv1.4.running_mean f4 [8]
000000 40 67 85 bf f0 76 10 bf 68 2c 11 bf d0 ac 8d 3f
       -1.0422134 -0.56431484 -0.56708384 1.1068363
000010 b1 47 55 be 58 db 67 3f 5e 89 ad bf 99 e2 0f bf
       -0.2082813 0.90569067 -1.3557546 -0.56205136

conv1.4.running_var f4 [8]
000000 40 e3 d3 3f 3d ea f9 3f 43 c3 11 40 54 04 cc 3f
       1.6553726 1.9524609 2.2775428 1.5938821
000010 7b e8 79 40 60 6f dc 3f 5b 79 a8 3f f3 b9 0f 40
       3.9048145 1.7221489 1.3162035 2.2457244

conv2.0.weight f4 [16, 8, 3, 3]
000000 d7 f0 75 3c b3 19 ba 3c cf ce ad bd d8 6e f2 3d
       0.015011034 0.022717332 -0.08486711 0.11837548
000010 c5 45 28 be ae 44 97 3b e8 3b 4b be 97 92 0a bd
       -0.16432865 0.0046163416 -0.19847071 -0.033831205
000020 c7 5d a9 bb 94 00 29 3e cb bf 51 3e e3 aa 6b 3d
       -0.00516865 0.16504127 0.2048332 0.057536017
000030 e0 de 31 bd 60 98 34 be 79 b8 fa bd a1 23 a3 3d
       -0.04342544 -0.17636251 -0.122422166 0.0796578
000040 cc a9 e7 3c 91 3e 13 3e 2a 30 88 bd 7f 9e 23 3e
       0.028279208 0.14379336 -0.066498116 0.1597843
000050 55 a8 a4 3e 27 b6 87 be e5 04 ac be bd 8d 80 3d
       0.32159677 -0.2650616 -0.33597484 0.062770344
000060 ca 18 eb bc 15 b9 76 bc e9 3b 68 3e 05 40 f5 bd
       -0.028698344 -0.015058775 0.22679104 -0.119751014
000070 2c c5 28 be c4 b4 cc bd cd e4 03 3e cb 76 28 3d
       -0.16481465 -0.09995416 0.1288025 0.041128915
000080 00 b6 2e bd f7 48 47 be 82 7c 06 3d 58 a2 cd 3d
       -0.042654037 -0.19461428 0.032833584 0.1004073
000090 ba 3d b9 bd 0c 96 80 bd ac 86 10 be c1 bb 39 be
       -0.090449765 -0.06278619 -0.14113873 -0.18138029
0000a0 e8 aa d3 be fa 26 1c be eb e6 8c bb 68 5a e9 bd
       -0.4134133 -0.15249243 -0.0042999885 -0.11394197
0000b0 45 2f 44 3d 2c 1b 6b bd 4b 66 5f be 9a 66 a9 be
       0.047896642 -0.05739896 -0.21816365 -0.3308609
0000c0 bb 52 e5 3b eb 12 b2 3d 76 47 89 bd 83 ef 49 be
       0.0069983876 0.086950146 -0.06703083 -0.19720273
0000d0 53 da 35 be 24 fc 1a 3d 77 06 d7 3d b9 0b 5e 3e
       -0.17759065 0.037838116 0.1049928 0.2168416
0000e0 cb 0c 1d be 00 50 5e 3d 7a 62 1e 3e db 84 c7 bd
       -0.15336911 0.054275513 0.15467253 -0.09742137
0000f0 99 b9 05 be 3f ed 5c 3d fe 27 f2 bd a5 5e 0a be
       -0.13059081 0.053937193 -0.11824034 -0.13512667
000100 4a 7c 96 be f2 ab 03 be a8 5d 2b bd 60 8c a1 be
       -0.293917 -0.1285856 -0.041837364 -0.3155241
000110 b5 95 b0 be b3 18 36 3e 36 44 37 be 58 55 82 bd
       -0.34489217 0.1778286 -0.17897114 -0.06363934
000120 7e 33 a3 be d0 fb 39 be ff 44 ce 3d f4 00 88 be
       -0.31875223 -0.18162465 0.10071754 -0.26563227
000130 84 bf 24 be 15 d2 52 3e 08 ce 32 3c 13 fb 29 3c
       -0.16088682 0.20587952 0.0109133795 0.010374802
000140 b3 9f 42 3e 5c 38 88 bd fb 73 9c bc 15 e3 11 3b
       0.19006233 -0.06651375 -0.019098273 0.0022260596
000150 87 f5 bb 3c b6 a8 3a 3e c6 9c 17 3d 36 81 e7 3c
       0.022944225 0.1822842 0.037014745 0.028259855
000160 0f 10 6b be 23 0f 65 be a5 f9 42 3d 95 e8 ed bd
       -0.22955345 -0.22369055 0.04760136 -0.11616627
000170 7e 39 e4 3d 76 69 c0 bc a4 48 81 ba 04 bb fe 3d
       0.11143778 -0.023487788 -0.0009863568 0.12438014
000180 60 bc 9c 3d 45 e7 1a 3b 7d dc d3 bd f4 62 e8 bd
       0.07653117 0.0023636383 -0.10344789 -0.11346999
000190 2b a5 10 3e 72 4f 4c 3e 55 a4 76 bd bd f1 20 be
       0.14125507 0.19952181 -0.060215313 -0.15717216
0001a0 06 1f 5d be 8f 7b 14 be 6a e5 ae be 2d 5e 9c bd
       -0.21593866 -0.14500259 -0.34159404 -0.0763515
0001b0 52 c3 38 3e f7 e8 df 3d 87 e3 89 3d a1 9e d6 3d
       0.18043259 0.109331064 0.067328505 0.10479475
0001c0 71 be 83 3d 49 d8 eb 3d 38 cc 1a 3e ad 3a dd 3d
       0.06432808 0.115158625 0.15116966 0.10802207
0001d0 02 2d ad bd 07 14 fb bd 40 dd cf be 7f 6f 2e be
       -0.0845585 -0.12259679 -0.40598488 -0.1703472
0001e0 b2 63 dc 3d 2c 9f cc be 5b 99 1d 3d b3 3a f5 3c
       0.10761203 -0.39965189 0.03847633 0.029935217
0001f0 d2 bb 0f be 8b 94 d0 bc ae d2 b4 3d 52 1b 6d bb
       -0.14036492 -0.025461456 0.088292465 -0.0036179614
000200 6d 06 22 3d 5a 3c 01 be 90 f9 ce 3d 76 5b 48 3e
       0.03955691 -0.12620679 0.10106194 0.1956614
000210 35 70 0c be a2 ba ab 3d e7 f9 ae 3e d6 ec 9a 3d
       -0.13714679 0.08385207 0.34175035 0.07564704
000220 1f 1e d4 3d 1c 64 39 bd 07 11 19 be a7 76 22 3e
       0.10357308 -0.045261487 -0.14947902 0.15865575
000230 8c 1d 6b 3e 2d 27 a2 bd e5 03 ce 3d c5 6c ee 3d
       0.2296049 -0.079176284 0.100593366 0.1164184
000240 6a cc 8f 3b 58 ce 9e be 04 61 84 be 6b 69 a1 be
       0.0043883817 -0.31016803 -0.25855267 -0.3152574
000250 dd f8 ac be f5 24 a0 be 8a e5 67 be 34 17 2d be
       -0.33783618 -0.31278196 -0.22646156 -0.16903383
000260 2d 9a 7a be 15 03 f3 bc a1 e5 99 39 4a a7 87 be
       -0.24472876 -0.029664556 0.0002935352 -0.2649482
000270 4e ee 75 be 75 f8 83 be 1a a4 80 be d0 14 09 be
       -0.24016687 -0.25775495 -0.251252 -0.13386846
000280 22 98 0d be fc d2 50 3e 81 76 26 3d dd b7 29 3e
       -0.13827565 0.20392984 0.040640358 0.16574045
000290 43 0f d7 3d b6 35 dc bc 3c bd 49 3e 75 61 47 3e
       0.10500958 -0.02688108 0.19701093 0.1947077
0002a0 7f 49 66 3e 32 e5 c7 bd 09 fa 09 3d cc 96 70 3e
       0.22488974 -0.097605124 0.033685718 0.23495024
0002b0 ae 04 4b 3e f0 c8 15 be 88 a7 83 bd ba 81 81 be
       0.19826004 -0.14627433 -0.064284384 -0.25294286
0002c0 47 3d 1b 3e a0 eb ce be 05 e0 d7 bd 1c 0b 3e 3d
       0.15160094 -0.40414143 -0.10540775 0.046397313
0002d0 df 5a 33 3e 96 db ce bd 80 fb a1 bd 89 7a 4b be
       0.17515133 -0.101004764 -0.07909298 -0.19870962
0002e0 23 17 5b 3d cd 8e 54 3c a0 75 be bd 01 54 3b 3d
       0.05348886 0.0129734995 -0.09299779 0.04573441
0002f0 92 c6 80 3b ee cb 3e bc 40 6e dd 3c 7c 15 de 3d
       0.0039299214 -0.0116453 0.02703011 0.108439416
000300 cf 8f b0 3c e8 33 11 be 5b e0 b1 3d 0b 83 4e be
       0.021552948 -0.14179957 0.086853705 -0.20167176
000310 3e 2b c1 3d ab 5b 23 bd a9 ab 85 bd 62 ba 95 3e
       0.09432076 -0.039882343 -0.06526882 0.2924376
000320 1f 06 69 3e 4a a9 b1 3d 0b aa db bd f9 43 7b 3e
       0.22756241 0.086748675 -0.107257925 0.24537648
000330 cd 74 80 be 5a c6 4a 3d 74 ba 66 3d 69 a4 0b 3e
       -0.25089112 0.04950557 0.05633016 0.13636936
000340 d0 e1 4a 3e 62 92 48 3e e5 e7 71 3e e1 49 1b bd
       0.19812703 0.1958709 0.23623617 -0.037912253
000350 1a a5 99 3d 4d 60 14 bd a6 e6 03 bd 1a 4f 1e 3e
       0.07502194 -0.036224652 -0.032202385 0.15459862
000360 fb 88 97 3d 77 13 1a 3e 42 63 68 3e fb 26 43 3e
       0.07399174 0.15046488 0.22694114 0.19057839
000370 e4 f4 f8 bd 10 78 ad 3d 1b ea b2 be d8 80 d1 bd
       -0.12156084 0.08470166 -0.34944233 -0.10229653
000380 98 9b a3 3d cf 0b 88 bd 71 28 0f be 79 c9 e8 3d
       0.079886615 -0.06642877 -0.13980271 0.11366553
000390 c9 8c 00 bd 87 25 ed 3b cd 9c 96 3b 24 a5 e9 bd
       -0.031384263 0.0072371396 0.004596329 -0.11408451
0003a0 df d7 ae 3d 92 19 6c 3e 2c 26 25 3c ca af 56 3d
       0.08537268 0.2305663 0.010079902 0.05241374
0003b0 71 36 93 bc 36 0a 45 bd ff 34 00 3e 2a d0 df 3d
       -0.017970296 -0.04810544 0.12520216 0.10928376
0003c0 3c 30 9d 3e 85 98 3b 3d 4e 29 10 bd 35 f1 73 3c
       0.30700862 0.04579975 -0.03519564 0.014889051
0003d0 02 24 25 be 3a 8d 38 be 23 0d 1a be b9 63 df be
       -0.16127017 -0.18022624 -0.15044074 -0.4363077
0003e0 c6 c4 5c bd ea bd a5 bd 52 14 56 be 48 52 4b be
       -0.053898595 -0.08092864 -0.20906189 -0.19855607
0003f0 9c 38 20 3d dd 6a 58 3e 64 b2 f3 bb cc ec fa 3b
       0.039116487 0.21134515 -0.0074370373 0.007657623

conv2.0.bias f4 [16]
000000 5b c6 de bd ed fa a8 3d bc fc 89 bd e6 d5 19 3d
       -0.10877677 0.08250985 -0.067376584 0.037557505
000010 2d fb ad 3d d4 1e c2 3c 5e 22 cc bd 63 d2 a0 3d
       0.084951736 0.02369634 -0.099674925 0.07852628
000020 cf a2 cf bd be 94 4b bd a5 06 a7 bd b8 9b 2b bd
       -0.10138475 -0.0497024 -0.08155564 -0.04189655
000030 aa 40 46 3d 85 36 f1 3d 3c bc a4 bd 15 51 8d 3d
       0.048401512 0.11777977 -0.08043715 0.06900231

conv2.1.weight f4 [16]
000000 43 51 83 3f c4 62 63 3f ec 65 7b 3f 4c 74 6b 3f
       1.0259174 0.8882258 0.98202395 0.9197433
000010 02 18 6e 3f 02 e4 89 3f c1 88 9e 3f bb 82 7b 3f
       0.93005383 1.0772707 1.2385484 0.98246354
000020 cc 64 a5 3f bc d0 5d 3f 91 83 7b 3f 19 fe 94 3f
       1.2921386 0.8664663 0.9824763 1.1640044
000030 0b 56 61 3f eb 6c 88 3f bb 1d 7f 3f e6 dd 4a 3f
       0.88021916 1.0658239 0.9965474 0.7924484

conv2.1.bias f4 [16]
000000 c8 e4 9e 3e 55 e8 26 3e 98 19 80 3d c6 f3 a4 3d
       0.3103392 0.16299565 0.062548816 0.080543086
000010 20 fe a7 3d 9c 87 58 3d 2e 71 7e 3c 52 82 61 bc
       0.08202767 0.052863702 0.015529914 -0.013763981
000020 4a ed 38 be b1 00 46 3e ec 73 64 3e 85 69 db bd
       -0.18059269 0.19336201 0.22309846 -0.10713486
000030 27 fd 40 3e 13 67 d9 3d f0 28 c4 3d b7 6e 68 3e
       0.1884657 0.10615363 0.09578121 0.22698484

conv2.1.running_mean f4 [16]
000000 88 66 21 c0 ca c8 9e be d5 00 9b bf 7b ec 49 bf
       -2.521883 -0.31012565 -1.2109629 -0.78876466
000010 3d 54 de 3c d4 54 dd bf 9a ac a3 bf 3a 45 21 be
       0.027139777 -1.7291512 -1.2787049 -0.15749064
000020 73 c3 dd bf c9 76 54 3f 84 9e 23 bf a8 44 51 bf
       -1.7325271 0.8299375 -0.6391375 -0.81745386
000030 08 8d ad 3f 03 bd 27 c0 f3 41 65 be d3 eb 84 3f
       1.3558664 -2.6209114 -0.22388439 1.0384468

conv2.1.running_var f4 [16]
000000 88 8d 21 40 05 41 03 40 84 c7 25 40 c1 05 c0 3f
       2.5242634 2.0508435 2.5903025 1.5001756
000010 72 c8 dc 3f 51 e3 07 40 87 3f 32 40 ca cc e3 3f
       1.7248671 2.1232493 2.7851274 1.7796872
000020 9c 4b 35 40 4a b4 d8 3f ed 71 ea 3f cb 9a 2b 40
       2.8327398 1.693002 1.8316017 2.6813228
000030 09 a5 f6 3f 97 db 1e 40 53 ce e3 3f bf 0b db 3f
       1.9269115 2.4821527 1.779734 1.711296

conv2.3.weight f4 [16, 16, 3, 3]
000000 fd 15 7b 3d e4 d4 f8 bb 06 4e 96 3c 64 68 a0 3d
       0.061300267 -0.007593738 0.018347751 0.07832411
000010 0c cf de 3d 03 10 30 3d 84 df 48 be 0c fc e9 3d
       0.10879335 0.04298402 -0.19616514 0.11425027
000020 de f4 b9 3d b0 fe 83 bd 77 d3 2a bc 15 d0 fd bd
       0.09079908 -0.06445062 -0.010426394 -0.12393204
000030 7f 23 25 be c9 ac 98 3d 16 52 03 3e 56 3c 31 bd
       -0.16126822 0.07454831 0.12824282 -0.04327043
000040 af 97 c4 3b fe 90 0c 3e 77 85 1e 3e 4a 67 19 3e
       0.0059995274 0.13727185 0.154806 0.14980808
000050 06 76 fb 3c 03 18 9a bc 42 08 01 3e 77 60 d6 bd
       0.030695926 -0.018810278 0.12600806 -0.10467618
000060 a1 ae 0a 3c 77 85 ac 3d 00 5d ce bd 4c f4 9e bd
       0.008464486 0.08423894 -0.10076332 -0.0776144
000070 7e 3a 7b bd 20 8b 8d bc 6f 74 88 3d 63 d3 2a 3e
       -0.06133508 -0.017278254 0.06662833 0.166822
000080 17 6e 80 3e 4d fe 87 bd a3 a2 e1 bd 8d 9a 20 3d
       0.25083992 -0.06640301 -0.110173486 0.03920989
000090 a2 12 16 3d 50 ff 05 3e 61 b3 e0 3d 87 1c 4f be
       0.036638863 0.13085675 0.10971714 -0.20225726
0000a0 17 df e9 bd 69 99 25 be 60 c5 2b 3e 9a cf 00 3e
       -0.11419504 -0.16171803 0.16774511 0.12579194
0000b0 ec 12 2c 3c 3d 00 12 3d e3 01 fa 3d b5 bc 6e 3e
       0.010502558 0.03564476 0.12207391 0.23314174
0000c0 49 25 ec bd 1d b0 0d bd a0 c6 4f 3c dc 83 38 bc
       -0.11530549 -0.034591783 0.012681633 -0.0112619065
0000d0 80 19 42 3d 86 05 f1 bd 5f 83 ae bd a2 18 54 38
       0.0473876 -0.11768632 -0.08521151 5.056768e-05
0000e0 bd 80 01 bd df 88 a0 be 5a 86 9d be c4 a1 fe bd
       -0.031616915 -0.31354424 -0.30766565 -0.12433198
0000f0 98 f2 4c be ca 9a 4f be 2b fa 45 be 59 d7 a0 3b
       -0.20014417 -0.20273891 -0.19333713 0.004908484
000100 5c 9d 1b 3d 47 e4 43 3e ab 49 da bd f9 67 25 3d
       0.037991866 0.1913005 -0.10658582 0.04038236
000110 83 90 1e 3d 58 77 73 3e 0c 2b b6 bb 5c 92 cc 3d
       0.038712036 0.23775995 -0.005559331 0.09988853
000120 26 11 c8 3d bf 71 69 3d 2c 33 05 3e ae 5b a4 be
       0.09768896 0.056993242 0.13007802 -0.32101196
000130 75 d3 57 be 16 72 4a bd a6 7d f0 bd 37 11 2b be
       -0.21076758 -0.049425207 -0.117427155 -0.16705786
000140 28 bd 0c 3d 41 40 50 3d c2 ee a0 3c 43 93 bb 3e
       0.03436008 0.050842527 0.019645099 0.3663579
000150 33 0c 0d 3e 91 be 2d be 86 ec 3d 3e 15 e9 0a 3e
       0.13774185 -0.16967227 0.18547258 0.13565476
000160 af 64 81 bd 4d 16 6a 3d 6f 86 81 3d e1 b2 84 3d
       -0.06318032 0.057150174 0.06324469 0.06479431
000170 fd 82 12 be 59 b5 ad 3d f4 00 00 3d 8c 84 3a bc
       -0.1430778 0.08481855 0.03125091 -0.011384141
000180 68 2e c2 3c a4 27 43 3d 2e 85 a6 3d ac da e3 bd
       0.023703769 0.047645226 0.08130871 -0.11125693
000190 14 6d 6a 3d 8b f3 4a bd b5 a0 1e 3c 3d b6 66 3d
       0.05723293 -0.049548667 0.00968187 0.05632614
0001a0 a6 a2 dd 3c 3d 50 9c bd 2d 5a e8 3c 85 ac 85 3c
       0.027055096 -0.07632492 0.028363312 0.016317615
0001b0 0c 56 15 be 26 c7 73 be f0 07 c5 bd c9 f6 00 bd
       -0.14583606 -0.23806438 -0.096206546 -0.031485353
0001c0 7d 1e 81 be 79 9d 28 bd 0f 7d 55 3d 2d 07 4e bd
       -0.25218573 -0.041165803 0.05212122 -0.050299812
0001d0 01 78 87 3c 2d 93 54 3d 23 98 04 3e 14 fa 9c 3e
       0.016536715 0.05189817 0.1294866 0.30659544
0001e0 a1 77 f3 3d fd cd 0d 3e 6e e3 68 3e 91 59 2b 3c
       0.11888052 0.1384811 0.22743008 0.010458366
0001f0 16 cb f5 bd 7e 5e 3a 3e fb 8b ec 3d 50 17 d9 bd
       -0.12001626 0.18200108 0.11550137 -0.1060015
000200 1d 5c db 3c 1b 00 0a be ff 1d 34 be b9 09 3a be
       0.026777321 -0.13476603 -0.17589568 -0.18167771
000210 36 80 02 be 25 f9 1a be cf d1 a7 3c 1e dd 79 be
       -0.12744221 -0.15134104 0.020485787 -0.24400756
000220 7d 98 e3 bd 4d 5c 81 bd c2 39 b0 bd 85 69 61 be
       -0.11113069 -0.06316433 -0.086047664 -0.22012909
000230 1d 3f bf 3c 03 12 e3 bb 07 30 bd bd 06 c7 07 bd
       0.023345524 -0.0069296374 -0.09237676 -0.033148788
000240 7d 75 00 be b4 7f c8 bd 71 46 c6 bd ee a3 e8 bd
       -0.12544818 -0.097899824 -0.096814044 -0.11359392
000250 7e 17 98 be fc e4 a0 3d 25 d8 41 3d a5 71 54 bd
       -0.29705423 0.07856175 0.047325272 -0.051866192
000260 0f 75 93 bc 93 cd 6c 3c 71 cd 39 3d 07 83 3c be
       -0.018000154 0.01445331 0.04536194 -0.18409358
000270 ec b4 84 bd f6 79 aa be 43 f6 6a be 55 47 0b be
       -0.064798206 -0.33296174 -0.22945504 -0.1360143
000280 0c 68 4a be 15 e5 e1 3d f2 d5 41 3d 0f 00 17 3c
       -0.19766253 0.11030022 0.047323175 0.009216323
000290 8c 17 74 bc f0 fb 9a 3d 72 6b cd 3b 6c de d3 bd
       -0.014898192 0.075675845 0.006268912 -0.10345158
0002a0 43 69 a2 bd e7 6d ce bd 1f e5 bc bd 83 8f 4a be
       -0.07930233 -0.10079556 -0.09223389 -0.19781308
0002b0 92 d6 02 3d 70 9e 8f 3d db 4b 11 3e da 3d 37 bd
       0.03194291 0.070126414 0.14189093 -0.04473672
0002c0 e3 de 88 be 7c a7 e4 bd 81 bd 26 be 23 0d ab 3c
       -0.2673255 -0.111647576 -0.16283228 0.020880288
0002d0 df 63 9a 3d b0 40 81 bc cb 65 ff bd e5 77 bc bd
       0.0753858 -0.015777916 -0.12470587 -0.092025556
0002e0 7d 22 59 3b 8f f6 20 bd a5 84 31 3b bb 82 25 be
       0.003313213 -0.039297637 0.002708712 -0.16163151
0002f0 1e ae 3b 3e fe f0 db bb ce b1 f8 3d ec bd fd bd
       0.18328139 -0.006712078 0.121432886 -0.1238974
000300 08 35 c2 3d c5 ad 42 be 45 d8 31 bd ef 07 4c 3d
       0.09482771 -0.190116 -0.04341914 0.049812254
000310 79 15 ab bc b8 2b a6 bb 3f 6b 39 3d e8 f7 2b be
       -0.020884262 -0.0050711296 0.045268293 -0.16793787
000320 db ed 84 bd 29 b0 28 3e 54 67 21 3e 29 90 5e 3d
       -0.0649068 0.1647345 0.15762073 0.0543367
000330 6d 75 9a 3b 4b 23 8c 3d 7d 11 4a be f5 26 a7 bd
       0.0047137053 0.06842669 -0.19733234 -0.08161727
000340 49 f6 f1 3d 21 82 9f bd 25 03 82 3c 68 aa 86 3d
       0.11814553 -0.07788492 0.01587064 0.06575471
000350 73 73 51 3e d7 7a db bc db 88 85 3e 1d e7 ca 3d
       0.20454197 -0.026791973 0.26080975 0.099073626
000360 5c 4a 11 3c 00 e7 09 be 1f 03 8d be fa ca a7 be
       0.008867826 -0.13467026 -0.27541444 -0.32772046
000370 7a db 7e be f3 ea 0d be 55 86 38 3e c8 6a 8e 3e
       -0.24888411 -0.13859157 0.18019994 0.27815843
000380 a5 5f b5 3e 97 97 9f bc 73 85 a7 bc 1a 49 a4 bc
       0.35424533 -0.019481463 -0.020449376 -0.020054389
000390 99 9a 57 3e ff 06 8d 3d 2b e6 b4 3a d2 4b 0a 3d
       0.21055068 0.068861 0.0013801506 0.033763714
0003a0 0e fb 06 be fe 13 37 3e 36 e7 01 3e 76 cf 2a 3d
       -0.13181707 0.1787872 0.12685856 0.041701756
0003b0 40 2a 1b 3e bc 3c 42 3e ac c2 a9 bc e1 c6 f6 bd
       0.15152836 0.18968481 -0.02072271 -0.12049652
0003c0 42 fe 25 be a6 71 12 3d b8 86 e5 3d 14 06 8b 3d
       -0.16210273 0.035752915 0.11207336 0.06788269
0003d0 1f 41 0d be 6c 61 65 be 6e 1b 23 bd 75 70 48 3d
       -0.13794373 -0.22400445 -0.03982108 0.048935372
0003e0 6c ab b0 3c 98 59 bd 3c dd 45 39 3d ed 4f a9 3e
       0.021566115 0.02311401 0.045232642 0.3306879
0003f0 a0 ca 6e 3d 18 32 41 bd 9a ca ae bd f9 f2 db 3d
       0.058298707 -0.047166914 -0.08534737 0.10739703

conv2.3.bias f4 [16]
000000 17 3e d2 3c 0b 7d 39 bd 69 d1 d7 3c ae e8 58 3d
       0.025664372 -0.045285266 0.026344972 0.052956276
000010 63 66 20 bd 85 1f 97 ba 6f 2b 54 bc e3 79 0a bd
       -0.039160144 -0.0011529779 -0.0129498085 -0.033807646
000020 f3 69 80 bd 06 1f 3c 3c 92 f0 6d 3d c4 62 9a bd
       -0.06270208 0.011482006 0.058090754 -0.07538369
000030 ca fa 05 3d 42 d5 e8 3b 55 28 ab bc 9f eb a3 3b
       0.032709874 0.0071055004 -0.020893255 0.0050024535

conv2.4.weight f4 [16]
000000 a0 b4 81 3f 7a a4 71 3f 5f 7c 6f 3f dd fd 83 3f
       1.0133247 0.94391596 0.9354915 1.0311848
000010 00 f0 87 3f 5b 63 7c 3f 81 28 71 3f 60 eb 84 3f
       1.0620117 0.98589104 0.9420243 1.0384331
000020 34 bc 80 3f e4 ca 8a 3f c5 5a 88 3f 73 91 75 3f
       1.0057435 1.0843167 1.0652701 0.9592506
000030 c7 c1 83 3f 56 5e 87 3f e5 2e 8a 3f ab 2b 82 3f
       1.0293511 1.0575664 1.0795561 1.0169576

conv2.4.bias f4 [16]
000000 86 0a 9f 3d d0 63 f1 3d 19 10 9a 3d 34 ff 10 3b
       0.07765679 0.11786616 0.07522602 0.002212477
000010 89 40 d7 bd 19 36 20 be b3 ff f3 3c 3d 8c 19 3d
       -0.10510356 -0.15645637 0.029785013 0.037487257
000020 b0 b2 16 be cf fb 33 be a5 f3 70 3c d0 41 42 3d
       -0.14716601 -0.17576526 0.014706527 0.047426045
000030 0e f7 e9 bd b6 d6 20 3d 4a 7f ae bd bd 90 ff bd
       -0.11424075 0.039267264 -0.08520372 -0.124787785

conv2.4.running_mean f4 [16]
000000 d5 65 cc be ec c7 4a bf b9 3e 20 be 22 79 d4 bf
       -0.39921442 -0.79211307 -0.15648927 -1.6599467
000010 e3 c9 cb bf 01 7c 7b bf 8a 59 b3 3e 79 ee 7c bf
       -1.5920986 -0.9823609 0.3502925 -0.9880138
000020 92 61 09 3f 86 17 31 bf ae f2 34 bf 19 b6 27 bf
       0.53664505 -0.6917652 -0.706828 -0.65512234
000030 82 c0 8c bf ab 20 12 c0 7a fa e5 be 88 49 2d 3f
       -1.0996249 -2.283244 -0.4491766 0.67690325

conv2.4.running_var f4 [16]
000000 56 8e ba 3f 82 4d 9a 3f da be 82 3f 22 b8 a5 3f
       1.4574687 1.2054904 1.0214493 1.2946818
000010 19 3a b0 3f ba 6a a1 3f 56 53 bb 3f d8 dc 99 3f
       1.376773 1.2610695 1.4634807 1.2020521
000020 16 d5 62 3f 56 a1 86 3f 42 e6 ab 3f d1 dd c3 3f
       0.88606393 1.0517986 1.3429644 1.5302068
000030 4e 20 c3 3f c7 66 8f 3f ff d8 9b 3f ab 17 c1 3f
       1.5244234 1.120324 1.2175597 1.5085348

conv3.0.weight f4 [32, 16, 3, 3]
000000 a7 92 a0 3e bb 35 17 3e de ae 9e 3d 6a 9d 38 3d
       0.31361887 0.1476659 0.07748197 0.045071997
000010 74 ca 0d be 5b 82 10 be 83 b6 38 bd bb 58 8c bb
       -0.13846761 -0.14112227 -0.04509593 -0.0042830384
000020 89 38 ce bc 9b 4c e1 3d 38 b2 6b 3d 2b e1 45 3d
       -0.025173442 0.110009395 0.05754301 0.04831044
000030 3b 37 ea bd 66 fc d4 3d 62 7c 78 bc 97 39 97 bd
       -0.114363156 0.10399704 -0.015166374 -0.07384031
000040 4a a3 a9 3d a5 df 7b 3d fa 87 30 be 38 f9 2d 3e
       0.08283098 0.06149258 -0.17239371 0.169896
000050 23 58 64 ba 4b f6 36 bc c1 eb 03 3e b0 37 bb 3d
       -0.0008710643 -0.011167119 0.12882902 0.09141481
000060 ae 4c 48 3e e9 12 ab bd 50 f4 40 be 7e 51 af 3d
       0.19560501 -0.08353216 -0.18843198 0.08560465
000070 48 82 0b be 6d c4 d1 3d 5a 4f ec bd 11 36 34 bd
       -0.13623917 0.10242543 -0.115385726 -0.043996874
000080 52 ba f7 bd f3 51 eb bd aa a7 45 be 8c 60 02 be
       -0.12096085 -0.1149024 -0.1930224 -0.12732142
000090 c3 9f 44 3e d9 d1 57 bd a0 41 2e bc 5b 57 5e 3e
       0.1920157 -0.05269036 -0.010635763 0.21713011
0000a0 97 ef 77 bc c5 e3 12 bc 73 a8 52 3d b8 d8 22 bd
       -0.015132806 -0.008965437 0.051430177 -0.03975746
0000b0 36 4d d0 bd f0 00 04 3c 24 f9 49 3e 57 3f 26 3e
       -0.10170977 0.008056864 0.19723946 0.162351
0000c0 66 fa 1c 3e 7b bb 26 3e 07 a3 90 bb 3e 30 35 3c
       0.15329894 0.16282456 -0.0044139656 0.011058865
0000d0 f3 8b 1b 3e 15 65 0e bd f1 88 be 3c dc 2c b3 3d
       0.15190105 -0.034764368 0.023258658 0.087487906
0000e0 bb 2f 8f bd 86 86 1a be 7f 8b 10 be 36 06 b1 bd
       -0.06991526 -0.15090379 -0.14115714 -0.08643763
0000f0 98 7c b8 bd 20 de 3c 3c 48 63 10 ba 41 7a 8c bd
       -0.09008139 0.011527568 -0.0005507958 -0.068592556
000100 05 54 e3 bd 1e 55 91 3d f5 7c f7 bd b1 9d 2f bd
       -0.1110001 0.07096313 -0.120843805 -0.042874996
000110 0b 26 73 be 99 2e ce 3d c6 f5 43 3c 3d 5d 16 bc
       -0.23744981 0.100674815 0.011960452 -0.009177503
000120 b8 10 fa 3c 1e f3 80 bc f6 a9 6c be eb e1 c6 3d
       0.03052555 -0.015740927 -0.2311171 0.09711059
000130 e6 eb c0 3d 03 b0 d9 bd 02 36 18 3e b1 37 c6 3c
       0.09419994 -0.10629275 0.14864352 0.024196478
000140 c7 3d 93 3d 23 94 9d 3c 08 95 6e bc 2b c4 c7 bd
       0.071895175 0.019235676 -0.014561899 -0.09754213
000150 4c be 44 be 25 c1 86 bd 60 60 70 bd 22 86 ef 3d
       -0.19213217 -0.06579808 -0.05868566 0.11695506
000160 f4 6f 27 bd 61 20 08 3d 38 56 82 3d 0f 18 0a bd
       -0.04087825 0.033234004 0.06364101 -0.03371435
000170 9c 72 10 3e 20 82 b7 3c 80 65 8e bd 94 8c e2 3d
       0.1410622 0.022400916 -0.06952953 0.110619694
000180 b0 cf c7 3d 9d d8 df 3c 29 40 6f 3e d0 36 18 3e
       0.0975641 0.027324969 0.23364319 0.1486466
000190 10 94 63 be 25 ca 04 3d 3d 00 07 3c fe 0f 89 bd
       -0.2222445 0.032419343 0.008239803 -0.066925034
0001a0 ee f4 6a bd 1a df 0b be ce 6e ad be 35 67 0b 3c
       -0.05736249 -0.13659325 -0.338736 0.008508493
0001b0 34 f5 a2 3e b0 aa f6 3d eb 69 ef 3b 1e 0c a2 39
       0.318277 0.12044275 0.0073063276 0.00030908076
0001c0 ff 06 be bd d3 be 4d be 8a 4b 90 bd 14 8f 0a be
       -0.09278678 -0.20092325 -0.07045658 -0.13531142
0001d0 3c 02 23 be 02 91 a2 bd 53 2a 8a 3e 99 d6 94 3e
       -0.15918821 -0.07937814 0.26985416 0.29069975
0001e0 68 70 0d 3e b5 7c b4 bc 18 2b f4 bc b8 9c 05 3d
       0.13812411 -0.022032121 -0.029805705 0.03262016
0001f0 c1 84 c3 3b bf e5 02 3c 86 4a 34 3d fb e9 87 bd
       0.0059667532 0.007989346 0.044016384 -0.06636425
000200 76 9d 58 3d db 34 a2 3d 6b 80 97 3c 5c de 8c 3b
       0.05288454 0.07920238 0.018493852 0.0042989682
000210 07 61 20 3d 59 fd 17 be 7f 85 17 3c a0 94 25 bd
       0.039155032 -0.14842738 0.009248137 -0.040424943
000220 30 30 16 be da 61 f3 bd 9a 8f 26 bd 53 ca c2 3a
       -0.1466682 -0.11883898 -0.040664293 0.0014861323
000230 d3 78 e4 3c a9 04 a1 3c 2e b6 fe bd 14 48 9b bd
       0.027889645 0.019655542 -0.12437092 -0.07582107
000240 47 3e 67 bd b9 94 8f bd f2 c6 99 bd 4f 54 1d 3d
       -0.056455877 -0.070107885 -0.07508649 0.03841048
000250 dc 1d 17 ba 47 da f5 3d 0e e5 8d 3d 3c 16 a4 3c
       -0.0005764642 0.12004524 0.06928454 0.020030133
000260 02 e6 4f 3e 09 8b 32 3a 29 82 33 bb 39 d0 83 bd
       0.20302585 0.0006810879 -0.0027390814 -0.064362
000270 86 67 2c 3c 0f 10 e9 bd 5f c7 97 bd 0b 7b 64 bd
       0.010522729 -0.11380016 -0.07411074 -0.055781405
000280 a0 ee ed bc 8d e2 8b 3d b0 97 98 3d fa 2b 17 bd
       -0.02904445 0.068303205 0.07450807 -0.036907174
000290 30 e7 69 3b c4 0e 89 bd 83 b8 ec bd 70 c3 f8 bd
       0.0035690777 -0.066922694 -0.1155863 -0.12146652
0002a0 56 fc bc bd b5 ea 25 bd df 60 4c be 11 0f 78 3c
       -0.09227817 -0.040507037 -0.19958828 0.015140311
0002b0 b8 b6 3c bd 7a 45 05 be c4 c5 3e 3e e0 37 27 be
       -0.04607269 -0.13014784 0.18630129 -0.16329908
0002c0 4a 9d ef 3d 0b df 43 3e c1 a7 b2 bd 7c d1 2d 3e
       0.116999224 0.19128053 -0.08723403 0.16974443
0002d0 0e 23 88 bd a9 f7 16 3e 6f eb eb 3c c5 61 1a 3e
       -0.06647311 0.14742912 0.028798787 0.15076359
0002e0 9b 18 4e 3d 5f dc 98 bc 6f 86 0d 3d af 44 e9 3d
       0.050316434 -0.018659769 0.034552034 0.113900535
0002f0 99 a9 c3 bd c6 f0 f0 bb 9c 11 d5 bd 7d f1 6f be
       -0.095538326 -0.007352921 -0.10403749 -0.23431964
000300 c6 8b da 3d 74 a5 06 3e 27 6e 80 bd 5c 8d 29 3e
       0.10671191 0.13149053 -0.0627101 0.1655783
000310 fd ec 2b 3e 5d b0 17 3e 3f 6e 25 be fe 9f 6c be
       0.16789623 0.14813371 -0.16155337 -0.23107907
000320 2b db c1 bd 5d 40 89 bb 9b 8b f4 bd de 31 8b bd
       -0.09465631 -0.004188581 -0.1194069 -0.06796621
000330 5c 85 8e be 49 fc eb bc 33 6f 5c 3d 0d 70 82 bd
       -0.2783612 -0.028806822 0.053816985 -0.06369028
000340 a2 41 11 3d 18 15 97 3d 64 70 34 3d 7f f3 12 3d
       0.035462983 0.0737707 0.044052497 0.035876747
000350 09 de 09 3e 6a f2 7e 3e 78 4d 53 3d 51 bf 81 3d
       0.13463606 0.24897161 0.05158755 0.06335319
000360 92 ef fb 3c 4e f6 5e 3d 25 33 cb bc 87 16 06 be
       0.030753884 0.054434113 -0.024804661 -0.13094531
000370 9e 72 d4 bc 3d 37 23 3d e3 33 0b 3e 24 8c 92 bd
       -0.02593356 0.0398476 0.13594012 -0.07155636
000380 97 d3 2a 3e 39 24 f8 3c b4 ce 12 3d 74 81 30 3e
       0.16682278 0.03029071 0.03584166 0.17236882
000390 10 a6 a1 bc c6 f4 12 bd 94 ac 5e 3d e8 39 fd bc
       -0.019732505 -0.035877965 0.054363802 -0.0309114
0003a0 e6 27 48 bd e0 2d 82 bd 24 fd 9a bd b8 c3 d5 3b
       -0.048866175 -0.06356406 -0.07567814 0.0065235756
0003b0 dd ae 09 be 75 33 e7 3c c8 7b 10 bd 02 27 d7 bd
       -0.13445611 0.028222779 -0.035274297 -0.10505487
0003c0 48 5c f2 bc 4c d5 c3 bc 73 89 1f 3e 70 10 ff 3d
       -0.029585019 -0.023905419 0.15579776 0.12454307
0003d0 96 5b b9 bd 47 de 12 be 12 97 65 3d 20 fa 2b bd
       -0.09050672 -0.14342605 0.056052275 -0.041986585
0003e0 a6 b6 53 be 95 d2 8f bb 45 23 ed bd 0b 84 f1 bd
       -0.20675144 -0.004389117 -0.11578993 -0.11792763
0003f0 d6 d6 b3 bd 7f 62 8e be 18 d1 6c be 40 2c f8 3d
       -0.08781211 -0.27809522 -0.23126638 0.12117815

conv3.0.bias f4 [32]
000000 ac d1 bb bc 5a 97 94 bd ca b8 34 3d 66 17 df bc
       -0.022927128 -0.072554305 0.04412154 -0.027232837
000010 fa d9 20 3d 42 4c 6a 3d 45 78 8d 3d da 35 a1 bd
       0.03927038 0.05720163 0.06907705 -0.078715995
000020 02 3c 59 3d 0c 7d b2 bc d3 04 05 bd 28 44 00 3d
       0.053035744 -0.021788143 -0.032475304 0.031315
000030 22 6f e4 bb f1 61 9d 3b f0 0e 8e 3c 2c 54 1c 3c
       -0.006971256 0.0048029353 0.017341107 0.0095415525
000040 8c 92 b8 bc 07 c3 a4 bd 1c 4f c7 bc 68 e3 2d bd
       -0.022530816 -0.08045011 -0.024329714 -0.0424532
000050 42 12 c0 bb da 88 63 3d 1b d6 64 bd d8 a3 56 3c
       -0.0058615515 0.055550434 -0.05586825 0.013100587
000060 7b 07 61 bd 74 36 f0 3c 7e 0c 6a 3c 6d f1 86 39
       -0.054938775 0.02932284 0.014285205 0.00025738348
000070 c4 0d 8c bc 90 17 b3 3c 5b 90 68 bd 5b 9f fe bb
       -0.017096408 0.021861821 -0.056778293 -0.0077704615

conv3.1.weight f4 [32]
000000 82 38 7d 3f a7 aa 7a 3f c3 67 82 3f b3 04 83 3f
       0.9891435 0.97916645 1.0187916 1.0235809
000010 f1 8b 7a 3f f5 18 95 3f 01 27 5c 3f 17 20 90 3f
       0.97869784 1.1648241 0.85997015 1.1259793
000020 57 17 8e 3f f5 db 79 3f 77 64 80 3f 33 c6 74 3f
       1.1100873 0.9760125 1.003066 0.9561493
000030 18 a3 59 3f 23 ab 7e 3f 02 df 8d 3f a3 66 84 3f
       0.85014486 0.99479884 1.1083682 1.0343822
000040 1b 42 5f 3f 31 45 79 3f 30 45 88 3f 3f 4e 63 3f
       0.87210244 0.973712 1.0646114 0.8879127
000050 84 bd 78 3f 57 61 87 3f 9c b9 79 3f 81 8c 73 3f
       0.9716418 1.0576581 0.9754884 0.95136267
000060 89 bf 82 3f 54 76 86 3f ce e9 81 3f 62 34 78 3f
       1.0214702 1.0504861 1.0149477 0.9695493
000070 f1 e1 80 3f 6a 5b 86 3f 0c 13 76 3f ed 54 84 3f
       1.0068952 1.0496647 0.96122813 1.0338417

conv3.1.bias f4 [32]
000000 62 96 43 be 78 85 b1 bd 25 64 10 be f5 9c 95 3d
       -0.19100335 -0.08668035 -0.14100702 0.07305328
000010 91 b5 0a be 24 6f 5c be 35 11 08 be 78 fd f6 bd
       -0.13545825 -0.21526772 -0.13287814 -0.12060064
000020 e0 85 d5 bd 98 c4 f2 bd 60 c2 da bd 4d 69 92 bd
       -0.10425925 -0.118539035 -0.10681605 -0.07148991
000030 65 7b 5d be 67 e8 3e be 12 3d 04 be 34 57 3f bd
       -0.21629103 -0.18643342 -0.12913921 -0.046714023
000040 71 d7 ca bd 2d d6 eb bd 97 15 71 be e6 b3 77 3c
       -0.099043734 -0.1151546 -0.23543392 0.015118575
000050 0a bc af bd 79 c0 0f bd 66 04 4e bd 65 35 dd bd
       -0.085807875 -0.035095666 -0.050297163 -0.108012
000060 6f 4f 99 bd d3 7e 54 bd 3c 3d 6d be f6 94 5d be
       -0.07485854 -0.05187876 -0.2316789 -0.21638855
000070 06 bf 06 be 00 8c ac bd 27 5f d1 bd d7 c7 0c be
       -0.13158807 -0.084251404 -0.10223227 -0.13748108

conv3.1.running_mean f4 [32]
000000 94 69 93 be e3 34 18 bf 49 ee 59 be 76 36 db bf
       -0.28791487 -0.594557 -0.21282305 -1.7125995
000010 5f 98 15 bf 3c e8 be bd fb 34 cc 3e 3f c8 cb bf
       -0.58435625 -0.09321639 0.3988417 -1.5920485
000020 e8 4c 9d bf c9 ce 83 bf c6 81 ee be 8d 0e b4 3e
       -1.2289095 -1.0297481 -0.46583384 0.3516735
000030 e1 f9 d7 3f 9e 99 8f 3e 2b 2d aa bf 1d 91 cb bf
       1.6873132 0.28046888 -1.3295034 -1.590366
000040 e8 08 40 40 9c 5a f7 be b1 28 24 bf b7 94 e8 bf
       3.0005436 -0.48311317 -0.6412459 -1.8170384
000050 19 ec 04 3f fb 9f 20 bf 74 20 26 3f 4d 54 08 bf
       0.51922756 -0.6274411 0.6489327 -0.5325363
000060 b9 37 1f bf 75 1d cc bf fe 28 ae bf ff 06 cb 3d
       -0.621944 -1.594649 -1.360626 0.09913444
000070 e4 c4 d1 bf 1f 2d 9f bf 6d 0c 9b 3f 32 ca 18 bd
       -1.6388211 -1.2435645 1.2113167 -0.037302203

conv3.1.running_var f4 [32]
000000 5a 5c e3 3f a9 46 be 3f bc af d2 3f bf 8b c8 3f
       1.7762558 1.4865314 1.645988 1.5667647
000010 31 c8 cd 3f ea 75 16 40 7a 2c b9 3f 23 59 fb 3f
       1.6076719 2.350947 1.4466698 1.9636577
000020 41 74 c4 3f 1a cd b5 3f 39 81 c0 3f f1 f7 e7 3f
       1.5347978 1.4203217 1.5039436 1.8122541
000030 a7 d3 e4 3f 52 0f aa 3f 2e ac d4 3f 06 36 e0 3f
       1.7877091 1.3285925 1.6615045 1.7516487
000040 57 a0 c8 3f e4 47 91 3f d7 df cb 3f f3 4f c3 3f
       1.5673932 1.1350064 1.5927685 1.5258774
000050 c5 7f bb 3f 78 db cb 3f f8 94 cb 3f aa b1 b3 3f
       1.4648367 1.5926352 1.5904837 1.4038594
000060 a9 1c f6 3f 5e ae d8 3f 3e 3f d7 3f 56 fb b7 3f
       1.9227496 1.6928213 1.6816175 1.4373577
000070 92 eb a1 3f 08 47 ab 3f 6e d1 9f 3f a9 2c d3 3f
       1.2650015 1.3381052 1.2485788 1.6498004
