trained_models/best_cnn.pt (torch, 958866 bytes, 92 tensors)

conv1.0.weight f4 [8, 3, 3, 3]
-0.29484499 -0.35485044 0.024194743 -0.071726725 -0.2507558 0.27479506 -0.34205955 -0.35360593
-0.26039988 0.12480836 -0.12157326 -0.114386246 0.22673674 0.35882768 0.099701814 -0.20556998
-0.13640313 -0.014388769 0.3234859 0.011291359 -0.2836149 0.53042525 0.30409887 -0.09187773
0.390377 0.34560463 -0.033374753 0.0759387 0.32932627 0.10117658 0.31017348 -0.50016403
-0.25992897 0.22660057 0.08439057 -0.24797788 0.026647117 -0.03945823 0.15100424 0.15537155
-0.6012468 -0.4159835 0.15244192 -0.02098346 -0.042202942 -0.043484047 -0.0113116335 0.41460007
-0.16879526 -0.40627795 -0.032743488 0.22980256 0.026346242 0.30202767 0.1488475 0.1531121
-0.05063485 0.040090602 0.2911042 0.28965208 -0.12151045 -0.08297624 -0.095067844 -0.4216244
-0.01664194 -0.10003226 -0.40146914 -0.11677466 0.1567855 -0.39330083 -0.21963935 -0.060062356
-0.13433965 0.08344698 -0.046656497 -0.08231101 0.13721016 0.18505396 -0.008151875 -0.007349623
0.17371434 -0.12321852 -0.0045499597 0.114078216 0.008144607 0.16253383 -0.1696832 -0.10100681
-0.06718199 -0.08110788 0.020730706 0.13653544 -0.108690485 -0.20257947 0.15212429 -0.18996485
-0.23082805 -0.13293786 -0.15647845 -0.12541518 0.14170915 -0.18339689 -0.024201797 0.25654593
-0.17782684 -0.09775917 0.17126618 -0.26765057 -0.066987045 0.22801548 0.5630097 0.2385381
-0.47093266 0.3824559 -0.22298062 -0.33233866 -0.24430843 -0.194832 -0.1672624 0.16927807
0.1421613 -0.46374545 0.07915778 0.1569671 -0.3491058 0.07571565 0.025586933 -0.21709658
0.011411475 0.22872446 -0.45870897 -0.058757097 0.2112931 0.13625006 0.27271947 0.1559174
0.11339686 0.03238055 0.3559882 -0.27482316 -0.121202216 -0.17964308 -0.23165101 0.093204245
0.20996425 -0.10689003 -0.060086608 0.41492015 -0.055094592 -0.16085902 -0.30612648 -0.08221195
0.15865365 0.23854053 -0.20941989 -0.1731019 0.3590624 -0.24025267 -0.3410412 0.10852545
0.064026766 -0.053527348 -0.25745353 -0.51361024 0.10096011 0.26163408 -0.35118508 -0.06944733
0.39240113 -0.048059642 0.17454368 -0.027581876 -0.08414281 0.12873006 0.41093647 -0.38734868
0.031411648 0.03509742 0.17143245 0.04694451 -0.11821223 -0.13218401 0.24867947 0.3823356
-0.19696972 -0.27604872 0.3166514 0.11641624 -0.5473138 -0.12156152 -0.04072768 0.12850621
0.23165031 -0.00062871794 0.13607478 -0.07005735 0.014507263 0.16882087 -0.38882688 -0.033998966
-0.016063983 0.025902411 0.12883867 -0.025207218 0.082000375 0.16424808 -0.32316855 -0.18158017
0.30845028 -0.12147713 0.04660671 0.32721916 0.06070712 0.07776726 0.38350722 -0.15292881
00000000: ecf5 96be f5ae b5be 0e34 c63c 76e5 92bd
00000010: 1063 80be f0b1 8c3e 6e22 afbe d60b b5be
00000020: 2253 85be 879b ff3d 67fb f8bd 5643 eabd
00000030: ad2d 683e 43b8 b73e 7730 cc3d f080 52be
00000040: 43ad 0bbe dfbe 6bbc f29f a53e 64ff 383c
00000050: f935 91be f3c9 073f d9b2 9b3e 642a bcbd
00000060: 7fdf c73e 17f3 b03e f7b3 08bd c085 9b3d
00000070: 749d a83e ab35 cf3d 0fcf 9e3e c00a 00bf
00000080: 6915 85be fb09 683e f7d4 ac3d eaed 7dbe
00000090: 0e4b da3c f49e 21bd dba0 1a3e b819 1f3e
000000a0: 4feb 19bf cafb d4be bc19 1c3e 81e5 abbc
000000b0: fedc 2cbd 541c 32bd 6e54 39bc 7646 d43e
000000c0: aad8 2cbe aa03 d0be 091e 06bd 5d51 6b3e
000000d0: 13d4 d73c 5fa3 9a3e 7b6b 183e 6bc9 1c3e
000000e0: 7d66 4fbd 0b36 243d 9c0b 953e 474d 943e
000000f0: 79da f8bd 72ef a9bd eeb2 c2bd 27df d7be
00000100: ae54 88bc b7dd ccbd 5d8d cdbe 8e27 efbd
00000110: 618c 203e ba5e c9be 23e9 60be f203 76bd
00000120: 5590 09be 40e6 aa3d e21a 3fbd ad92 a8bd
00000130: d280 0c3e c97e 3d3e 718f 05bc 1bd5 f0bb
00000140: 2ce2 313e fe59 fcbd d417 95bb d7a1 e93d
00000150: f570 053c 456f 263e 6fc1 2dbe a9dc cebd
00000160: b696 89bd e31b a6bd 71d3 a93c f2cf 0b3e
00000170: 1e99 debd fe70 4fbe 78c6 1b3e 2586 42be
00000180: 305e 6cbe dd20 08be e33b 20be d66c 00be
00000190: 341c 113e 65cc 3bbe d942 c6bc fd59 833e
000001a0: 3d18 36be f635 c8bd 6760 2f3e 7f09 89be
000001b0: 8130 89bd e47c 693e 6721 103f 5543 743e
000001c0: 161e f1be 42d1 c33e 0855 64be 4b28 aabe
000001d0: fd2b 7abe 0a82 47be d646 2bbe 3b57 2d3e
000001e0: bb92 113e 0b70 edbe 791d a23d fcbb 203e
000001f0: ffbd b2be cf10 9b3d b09b d13c 914e 5ebe
00000200: 32f7 3a3c bf36 6a3e e7db eabe 48ab 70bd
00000210: 385d 583e 2385 0b3e e3a1 8b3e d0a8 1f3e
00000220: 9d3c e83d 78a1 043d 1644 b63e 9fb5 8cbe
00000230: de38 f8bd 5bf4 37be ec35 6dbe dee1 be3d
00000240: de00 573e 29e9 dabd 601d 76bd 6a70 d43e
00000250: deaa 61bd 3ab8 24be 9cbc 9cbe bd5e a8bd
00000260: 1a76 223e f843 743e 2b72 56be a041 31be
00000270: 07d7 b73e cc04 76be f49c aebe 9742 de3d
00000280: 7720 833d 7e3f 5bbd f3d0 83be f67b 03bf
00000290: 2dc4 ce3d e7f4 853e 88ce b3be 673a 8ebd
000002a0: cde8 c83e 30da 44bd 94bb 323e 63f3 e1bc
000002b0: 1153 acbd d0d1 033e 4466 d23e 9152 c6be
000002c0: 80a9 003d 50c2 0f3d fd8b 2f3e e348 403d
000002d0: 4119 f2bd 3f5b 07be d5a5 7e3e 7ec1 c33e
000002e0: 6eb2 49be 4256 8dbe 2220 a23e a36b ee3d
000002f0: c21c 0cbf 3ff5 f8bd 11d2 26bd 2297 033e
00000300: bd35 6d3e 8cd0 24ba 3057 0b3e 3a7a 8fbd
00000310: dfaf 6d3c 61df 2c3e 5114 c7be 8042 0bbd
00000320: 9d98 83bc 4b31 d43c 49ee 033e 5e7f cebc
00000330: d0ef a73d a630 283e 5976 a5be 27f0 39be
00000340: 32ed 9d3e 00c9 f8bd ade6 3e3d 4589 a73e
00000350: 07a8 783d 7144 9f3d 0f5b c43e 5f99 1cbe

conv1.0.bias f4 [8]
-0.11853131 0.06999733 0.068647936 -0.056414083 -0.17378439 -0.046788603 0.14155392 0.05511007
00000000: 8bc0 f2bd c35a 8f3d 4a97 8c3d 7412 67bd
00000010: 89f4 31be 68a5 3fbd 83f3 103e 19bb 613d

conv1.1.weight f4 [8]
0.8044517 1.0471071 0.823673 0.90697134 1.0492264 1.0098505 1.0890486 0.91172457
00000000: 8cf0 4d3f 9b07 863f 3cdc 523f 462f 683f
00000010: 0d4d 863f c842 813f f265 8b3f c866 693f

conv1.1.bias f4 [8]
0.18417656 0.37719005 -0.17900823 -0.23689385 0.43661207 0.35955384 0.4876745 -0.15961
00000000: c898 3c3e 0e1f c13e ef4d 37be 4d94 72be
00000010: 9e8b df3e 7117 b83e 79b0 f93e ce70 23be

conv1.1.running_mean f4 [8]
-0.08049987 -0.087537296 -0.2714887 -0.65277386 -0.35944885 -0.18666454 0.039648328 0.4620912
00000000: 1edd a4bd c146 b3bd 9100 8bbe 301c 27bf
00000010: ae09 b8be fd24 3fbe 4966 223d 3897 ec3e

conv1.1.running_var f4 [8]
0.088575624 0.056687087 0.06981652 0.10455835 0.04976754 0.056116007 0.06376633 0.06093061
00000000: 2367 b53d b830 683d f7fb 8e3d b022 d63d
00000010: 0cd9 4b3d e6d9 653d ec97 823d 6092 793d

conv1.3.weight f4 [8, 8, 3, 3]
0.18188556 0.27391508 -0.06369492 -0.040532097 0.22852601 -0.12082923 0.0485537 0.23297787
-0.11033829 0.057910845 -0.07385795 0.021055441 0.052866206 -0.23906256 0.04881334 -0.0071133417
-0.06355783 -0.13720484 -0.08808485 -0.18641235 -0.18929946 0.0031982567 0.0064327233 -0.035696905
0.085131966 0.021015508 0.05388851 -0.00443264 0.08748449 -0.18007721 -0.037040036 0.16921094
-0.07001822 -0.03178585 0.04749833 -0.121202275 -0.062130857 -0.10379614 -0.07498929 0.12094417
0.03858217 -0.14559099 0.14844157 0.106313415 0.024339356 -0.084306076 0.12810707 0.077413216
-0.030368863 0.016475298 0.05537511 -0.11123248 0.056553084 0.09720834 -0.06266118 0.0026210267
0.1419444 -0.23512414 0.095549524 0.03701008 -0.22756791 0.042217955 0.10662361 0.10006123
0.097824134 -0.11287689 0.020883298 0.082630165 -0.046320166 -0.06132806 0.012789584 -0.0041466774
-0.009636576 -0.018675817 0.049062077 -0.1813773 -0.095758945 0.07775061 0.19458748 -0.16926919
-0.047760006 0.15339197 -0.17834298 0.06658555 0.31654632 -0.028076129 -0.24588716 0.013572892
0.17339279 0.015423395 0.16756858 0.109723456 0.17658359 -0.057441685 0.2349587 0.17939118
-0.033642977 -0.0051439176 0.39726081 -0.013580434 -0.12708527 -0.17016867 0.041208904 -0.038164083
0.13297427 0.27789402 -0.032628354 0.0712845 0.15527776 0.011044526 -0.041839834 0.044569943
0.12218701 -0.26620072 0.078957945 0.15964498 0.1254165 -0.15509635 -0.11740335 0.032755904
-0.017483875 -0.10897046 -0.20472169 0.1755367 0.05838463 -0.18637876 -0.08347447 -0.16957675
0.019064272 0.24572729 0.0055636177 -0.39567742 0.12977564 0.22377811 -0.31026512 0.019097341
-0.08882713 0.030301593 -0.0038723722 0.01574945 -0.099871874 0.10499552 0.06776618 -0.06483144
-0.10907518 0.05759827 -0.3027457 0.1310059 0.18222801 -0.12794751 -0.0030217879 0.21060754
-0.075743824 0.082896024 0.21287958 -0.14430824 -0.19339728 -0.13352947 0.33762005 0.29252583
-0.25312212 -0.16022877 -0.08501362 -0.04857532 0.09755219 -0.003999032 -0.10208191 -0.15946892
-0.046007913 -0.03454725 -0.1485698 0.068522856 0.0021605366 0.06434258 -0.056185186 0.06282194
0.020810327 -0.17636006 0.1314321 -0.081875086 -0.16445744 0.32589287 -0.18034627 -0.1829847
-0.08212176 0.33098686 0.3033463 -0.27303916 -0.16594449 0.04370362 0.010551781 -0.17646989
-0.0732359 0.34599072 0.09079639 -0.05801677 0.020584416 0.15355793 0.11723995 0.3402966
-0.28505316 -0.24259213 0.08088928 0.32092193 0.09728707 -0.31747773 0.11305477 -0.0830688
0.081045225 -0.10724624 -0.029854735 0.031810284 0.020450488 0.07506555 -0.0874793 -0.13145842
0.06761838 0.051727068 -0.069805495 -0.026944794 0.109562404 -0.039745525 -0.09384782 -0.03698051
-0.16360581 -0.14902367 0.18422812 -0.14988726 0.040267125 0.0698972 -0.16156237 0.060467586
-0.04127693 -0.19086972 -0.14711075 -0.13947661 0.02781982 -0.18017371 -0.109600715 0.030201226
-0.11904186 -0.07485603 0.24527353 0.12716128 -0.17561015 0.056434143 0.25742286 -0.19119598
0.22023945 0.17071535 -0.18739258 0.093328595 -0.2902954 0.19130859 0.001829362 -0.388532
00000000: 3540 3a3e 993e 8c3e 7b72 82bd fc04 26bd
00000010: b902 6a3e 5175 f7bd 3fe0 463d c091 6e3e
00000020: 0bf9 e1bd ec33 6d3d d642 97bd 767c ac3c
00000030: 3c8a 583d d1cc 74be 7ff0 473d 0917 e9bb
00000040: 9c2a 82bd 6d7f 0cbe d465 b4bd e1e2 3ebe
00000050: b8d7 41be d899 513b 98c9 d23b eb36 12bd
00000060: ab59 ae3d b728 ac3c 33ba 5c3d ae3f 91bb
00000070: 112b b33d 2966 38be 4bb7 17bd a245 2d3e
00000080: b665 8fbd e131 02bd 9c8d 423d e638 f8bd
00000090: ed7c 7ebd 1293 d4bd fc93 99bd 94b1 f73d
000000a0: 5608 1e3d ce15 15be 1101 183e d9ba d93d
000000b0: 5463 c73c aaa8 acbd 802e 033e d28a 9e3d
000000c0: 1fc8 f8bc 34f7 863c 03d1 623d dbcd e3bd
000000d0: 35a4 673d 2b15 c73d 8154 80bd 88c5 2b3b
000000e0: df59 113e 62c4 70be 78af c33d e297 173d
000000f0: 9007 69be bcec 2c3d 7b5d da3d e7ec cc3d
00000100: 0558 c83d 002c e7bd 7313 ab3c 013a a93d
00000110: 37ba 3dbd 2233 7bbd 678b 513c dae0 87bb
00000120: bbe2 1dbc 07fe 98bc 51f5 483d f9ba 39be
00000130: 441d c4bd b63b 9f3d f141 473e e754 2dbe
00000140: ff9f 43bd c912 1d3e 8b9f 36be 015e 883d
00000150: 5c12 a23e e9ff e5bc d8c9 7bbe d660 5e3c
00000160: e18d 313e 68b2 7c3c 1997 2b3e b1b6 e03d
00000170: 54d2 343e f947 6bbd 0399 703e 52b2 373e
00000180: 38cd 09bd 4f8e a8bb c565 cb3e 7880 5ebc
00000190: a422 02be b240 2ebe abca 283d f151 1cbd
000001a0: 682a 083e 2048 8e3e 4fa5 05bd 9cfd 913d
000001b0: 2201 1f3e 19f4 343c 3f60 2bbd f98e 363d
000001c0: 2f3d fa3d 764b 88be b4b4 a13d f979 233e
000001d0: 2f6d 003e 94d1 1ebe 2b71 f0bd 0e2b 063d
000001e0: 583a 8fbc e82b dfbd 90a2 51be e5bf 333e
000001f0: b924 6f3d 13da 3ebe aaf4 aabd 87a5 2dbe
00000200: ad2c 9c3c ef9f 7b3e 024f b63b 3b96 cabe
00000210: e8e3 043e 1726 653e 12db 9ebe 0772 9c3c
00000220: 00eb b5bd 0c3b f83c a0c7 7dbb fe04 813c
00000230: a089 ccbd e407 d73d ffc8 8a3d 59c6 84bd
00000240: cf62 dfbd 2aec 6b3d 7c01 9bbe 6926 063e
00000250: fb99 3a3e ac04 03be 3009 46bb 81a9 573e
00000260: 941f 9bbd 64c5 a93d 1bfd 593e 8ac5 13be
00000270: f009 46be f3bb 08be 89dc ac3e f2c5 953e
00000280: 3999 81be 0313 24be 9f1b aebd eaf6 46bd
00000290: 71c9 c73d 500a 83bb 5210 d1bd d24b 23be
000002a0: cb72 3cbd 6b81 0dbd af22 18be b655 8c3d
000002b0: ca97 0d3b 0bc6 833d 7022 66bd caa8 803d
000002c0: 6b7a aa3c bb97 34be 2396 063e 20ae a7bd
000002d0: 8867 28be 6edb a63e b1ac 38be 5760 3bbe
000002e0: 742f a8bd 1c77 a93e 3550 9b3e cacb 8bbe
000002f0: 5aed 29be 9102 333d 61e1 2c3c 86b4 34be
00000300: b4fc 95bd b225 b13e 75f3 b93d fea2 6dbd
00000310: a6a0 a83c 4a3e 1d3e 801b f03d 5b3b ae3e
00000320: 7df2 91be 126a 78be 47a9 a53d e14f a43e
00000330: 713e c73d 718c a2be 4289 e73d fa1f aabd
00000340: 0afb a53d eba3 dbbd eb91 f4bc 804b 023d
00000350: c887 a73c f8bb 993d 5928 b3bd 099d 06be
00000360: 817b 8a3d c3df 533d 2ff6 8ebd 54bb dcbc
00000370: 4162 e03d 34cc 22bd 4933 c0bd e078 17bd
00000380: 4888 27be a999 18be 4ca6 3c3e 0c7c 19be
00000390: 24ef 243d 4326 8f3d 9b70 25be dcac 773d
000003a0: 0012 29bd 5a73 43be 33a4 16be f5d2 0ebe
000003b0: 64e6 e33c 757f 38be 5776 e0bd 9068 f73c
000003c0: 38cc f3bd 1e4e 99bd fc28 7b3e 9136 023e
000003d0: 26d3 33be 7d27 673d eecc 833e e1c8 43be
000003e0: 7386 613e 01d0 2e3e d7e3 3fbe 1023 bf3d
000003f0: 99a1 94be 66e6 433e 34c7 ef3a abed c6be

conv1.3.bias f4 [8]
0.098105066 -0.016812546 0.10153405 0.108991876 0.042918798 -0.10797958 -0.09414111 0.059296872
00000000: 4feb c83d 77ba 89bc 16f1 cf3d 2237 df3d
00000010: 9fcb 2f3d 6624 ddbd 0ecd c0bd 47e1 723d

conv1.4.weight f4 [8]
0.82767457 1.0316364 1.0332527 1.1479386 0.8995745 0.91138446 1.0706314 1.1103086
00000000: 7be2 533f a90c 843f a041 843f a7ef 923f
00000010: 844a 663f 7e50 693f 730a 893f 981e 8e3f

conv1.4.bias f4 [8]
-0.034203164 0.07889296 -0.08426252 -0.11162306 -0.15714288 0.013572027 -0.10613391 -0.0483143
00000000: 9e18 0cbd a292 a13d d491 acbd a29a e4bd
00000010: 10ea 20be 355d 5e3c bc5c d9bd 37e5 45bd

conv1.4.running_mean f4 [8]
0.17343065 0.040338717 0.25356364 -0.31303132 0.31854245 0.33483145 -0.29171538 -1.2593462
00000000: ce97 313e 363a 253d 18d3 813e a445 a0be
00000010: ff17 a33e 076f ab3e b85b 95be 4232 a1bf

conv1.4.running_var f4 [8]
0.47170937 1.5346704 0.89829195 1.1224725 0.699882 0.72431177 1.1358136 0.752168
00000000: e483 f13e 1470 c43f 76f6 653f 2ead 8f3f
00000010: 772b 333f 7f6c 393f 5762 913f 158e 403f

conv2.0.weight f4 [16, 8, 3, 3]
-0.021508072 -0.08139197 -0.05671051 0.012640954 -0.115286276 0.039526258 0.033241197 -0.15575482
-0.06868125 -0.097075544 0.1344723 0.20867695 -0.14849982 -0.13045911 0.24765143 -0.36619562
-0.34206253 -0.12757571 -0.003735218 -0.030687569 -0.078176185 0.042839684 0.14244203 -0.017794944
-0.121950835 -0.12562846 0.13010624 -0.08214764 -0.031084565 -0.023861652 -0.07243585 -0.042946655
-0.13331498 -0.095660836 -0.3409804 -0.18637998 -0.05038363 -0.08856637 -0.052237134 -0.040220395
-0.017691897 -0.1673167 0.08186426 0.06351941 0.06478068 0.08166185 0.08621402 0.043103296
0.17544243 0.25139707 0.11370628 0.085186325 0.049065094 0.002106627 0.021895206 -0.16009215
0.15243115 0.087492175 -0.06354701 0.030883634 -0.018807039 -0.09797243 -0.02272277 -0.068462215
-0.11027889 -0.050419994 -0.13368577 -0.08865993 -0.08804122 0.15723565 0.15504414 0.0019435685
-0.0970513 0.058613293 -0.13456613 0.061082106 -0.017084459 -0.09104664 -0.03202167 -0.053868867
-0.0856804 -0.1249436 -0.18423669 -0.2367487 -0.2312597 -0.18393885 -0.19970456 -0.25181845
-0.12860723 -0.08085199 0.03365934 0.07177203 0.018501822 -0.100519724 -0.12077293 -0.05535719
-0.10546523 -0.19318134 -0.07535113 0.00045243313 -0.09450126 0.0503078 -0.09345316 -0.017443718
0.04937162 -0.08712218 0.11716207 0.21870722 -0.10106987 0.05715538 0.057992563 0.10357381
0.119889 0.036466744 0.050028503 -0.08763651 -0.1514475 0.002019942 -0.1624608 -0.12503834
-0.05535401 -0.06528567 -0.09699589 0.18489547 0.107930236 0.12119551 0.145081 0.05912013
0.1761215 -8.339728e-05 0.0120260315 0.14265518 0.036150705 0.13532378 0.111260846 0.0059429435
0.17937683 -0.00029133094 0.17817622 0.08338399 -0.102420114 0.16280459 -0.041732892 0.078399695
-0.11442219 -0.030625146 -0.22593416 0.1190232 0.01735714 0.0880301 -0.017992955 0.110187046
0.025516683 0.048860632 -0.19921097 -0.11405269 -0.027106753 -0.062187627 -0.20795925 0.10029423
0.13895947 0.042838402 -0.037263393 -0.018909255 -0.14696176 0.09927561 0.098040804 0.15359886
0.11058343 0.009732787 -0.04744405 -0.016018024 0.003873046 0.021421377 -0.106387876 -0.056660175
-0.06423304 0.053036947 0.0066592903 0.1268561 0.059867695 -0.1308073 0.062124435 0.029577145
0.03483373 0.19683295 0.060104992 -0.010985057 0.12573257 -0.08767161 -0.06532506 -0.09875838
-0.22128484 -0.12855422 -0.11411852 0.14412227 0.14355215 0.1337423 -0.047143765 -0.14742358
-0.10932632 -0.00023826452 0.037860606 0.091599755 0.22956 0.14400156 0.2887867 -0.046942595
0.03913054 -0.018289369 0.048521895 0.119283415 0.01722072 -0.022018583 -0.15037127 -0.06115226
0.077885434 -0.09395461 0.007693492 -0.11209099 0.0042950166 0.1279712 -0.01648434 0.09018776
0.019245075 -0.1055622 -0.17320977 0.068750285 0.15353103 -0.10041261 -0.088045545 0.10856603
0.067985326 0.048352983 0.057697903 0.019573987 0.14272313 -0.07436777 -0.1187109 0.10625706
-0.006167346 -0.17765188 -0.002188044 0.06663237 -0.06495413 -0.05935953 -0.06959997 -0.18746613
-0.15276478 -0.0017988641 -0.081864506 -0.10121362 0.0214923 -0.024153788 0.11024546 -0.07678477
00000000: b231 b0bc d5b0 a6bd 4849 68bd 011c 4f3c
00000010: 361b ecbd 49e6 213d ec27 083d 317e 1fbe
00000020: c1a8 8cbd 8bcf c6bd 1bb3 093e 69af 553e
00000030: 5610 18be 1397 05be 5698 7d3e fe7d bbbe
00000040: d222 afbe 35a3 02be 8fca 74bb 7f64 fbbc
00000050: d61a a0bd aa78 2f3d 53dc 113e b4c6 91bc
00000060: 5cc1 f9bd bfa4 00be 923a 053e 063d a8bd
00000070: 0fa5 febc 8379 c3bc 3f59 94bd d5e8 2fbd
00000080: b983 08be d4e9 c3bd fc94 aebe 65da 3ebe
00000090: 115f 4ebd 4962 b5bd 9bf6 55bd 24be 24bd
000000a0: 99ee 90bc 1255 2bbe 73a8 a73d 7716 823d
000000b0: bcab 843d 543e a73d fa90 b03d 158d 303d
000000c0: 2ea7 333e 1eb7 803e d7de e83d 2b76 ae3d
000000d0: 7bf8 483d 560f 0a3b 935d b33c 32ef 23be
000000e0: e916 1c3e 192f b33d ef24 82bd adff fc3c
000000f0: 3811 9abc c5a5 c8bd 1a25 babc eb35 8cbd
00000100: e6d9 e1bd 3285 4ebd ece4 08be 5693 b5bd
00000110: f54e b4bd 6202 213e e4c3 1e3e 56bf fe3a
00000120: d5c2 c6bd 7e14 703d b4cb 09be 3b31 7a3d
00000130: b5f4 8bbc a976 babd 2829 03bd 9aa5 5cbd
00000140: 3579 afbd 6ee2 ffbd 8ba8 3cbe 406e 72be
00000150: 58cf 6cbe 775a 3cbe 5a7f 4cbe 59ee 80be
00000160: 9db1 03be ba95 a5bd 60de 093d 37fd 923d
00000170: 2291 973c 49dd cdbd cc57 f7bd 39be 62bd
00000180: 28fe d7bd 54d1 45be b151 9abd 8c34 ed39
00000190: e089 c1bd 8d0f 4e3d 5f64 bfbd 21e6 8ebc
000001a0: e539 4a3d 1d6d b2bd abf2 ef3d c9f4 5f3e
000001b0: b8fd cebd c21b 6a3d 9c89 6d3d 811e d43d
000001c0: 5d88 f53d 275e 153d b0ea 4c3d c57a b3bd
000001d0: 0e15 1bbe 0161 043b 205c 26be 0d0a 00be
000001e0: e3ba 62bd 7eb4 85bd c8a5 c6bd 3d55 3d3e
000001f0: 870a dd3d 5a35 f83d 1d90 143e f327 723d
00000200: 3259 343e 93e5 aeb8 d508 453c 3314 123e
00000210: c312 143d 5192 0a3e badc e33d 06bd c23b
00000220: 8fae 373e c7bd 98b9 d473 363e 3ac5 aa3d
00000230: a3c1 d1bd 3fb6 263e 1cf0 2abd 0590 a03d
00000240: 2e56 eabd 96e1 fabc 495b 67be 6fc2 f33d
00000250: 9030 8e3c 2049 b43d f665 93bc bfa9 e13d
00000260: 5d08 d13c 1622 483d f6fd 4bbe 7594 e9bd
00000270: fb0e debc 74b8 7ebd 45f3 54be 1067 cd3d
00000280: 644b 0e3e 5277 2f3d 80a1 18bd 95e7 9abc
00000290: 257d 16be 0351 cb3d 9ec9 c83d 0549 1d3e
000002a0: 9179 e23d 4476 1f3c b154 42bd 3b38 83bc
000002b0: eed2 7d3b e27b af3c e3e1 d9bd 8014 68bd
000002c0: 9d8c 83bd 453d 593d 2d36 da3b 91e6 013e
000002d0: d437 753d 59f2 05be 3176 7e3d c54b f23c
000002e0: d0ad 0e3d 948e 493e a730 763d abfa 33bc
000002f0: 0ac0 003e 2c8d b3bd 25c9 85bd d541 cabd
00000300: 7e98 62be b8a3 03be f8b6 e9bd ca94 133e
00000310: 56ff 123e bef3 083e d219 41bd 35f6 16be
00000320: 7ae6 dfbd a5d6 79b9 b913 1b3d a798 bb3d
00000330: c711 6b3e 2575 133e dadb 933e e146 40bd
00000340: 5847 203d 96d3 95bc e5be 463d dd4a f43d
00000350: 7812 8d3c 5160 b4bc edfa 19be cb7a 7abd
00000360: 6682 9f3d 466b c0bd b019 fc3b f68f e5bd
00000370: 36bd 8c3b e20a 033e 2b0a 87bc 5cb4 b83d
00000380: d9a7 9d3c ff30 d8bd e75d 31be f3cc 8c3d
00000390: 3d37 1d3e 20a5 cdbd 3951 b4bd de57 de3d
000003a0: e43b 8b3d c70d 463d a354 6c3d a059 a03c
000003b0: 0326 123e 214e 98bd b31e f3bd 4d9d d93d
000003c0: 7317 cabb 60ea 35be 4965 0fbb 8d76 883d
000003d0: ac06 85bd fb22 73bd 6e8a 8ebd 1ff7 3fbe
000003e0: 5f6e 1cbe ddc7 ebba 94a8 a7bd 1649 cfbd
000003f0: 9f10 b03c 2ade c5bc 5fc8 e13d 5541 9dbd

conv2.0.bias f4 [16]
-0.1155599 -0.04151417 -0.051364012 -0.07821032 0.0775144 0.06475423 0.027765557 -0.042254183
0.031564478 0.037396323 -0.057853237 -0.05441935 -0.013135017 -0.008218267 0.09096446 -0.0717081
00000000: abaa ecbd c30a 2abd 1263 52bd bb2c a0bd
00000010: dfbf 9e3d de9d 843d 9874 e33c b912 2dbd
00000020: c149 013d e32c 193d 84f7 6cbd d3e6 5ebd
00000030: 4134 57bc e9a5 06bc 934b ba3d b2db 92bd

conv2.1.weight f4 [16]
1.1077889 1.120325 0.922005 0.9754914 1.0192282 1.0121421 0.90439796 1.0544449
0.89163196 1.0581204 0.9622346 1.0392282 0.9893174 0.9092394 1.0097197 1.003408
00000000: 07cc 8d3f cf66 8f3f 8508 6c3f ceb9 793f
00000010: 1276 823f df8d 813f a086 673f 0df8 863f
00000020: fe41 643f 7d70 873f 0255 763f 6e05 853f
00000030: e843 7d3f eac3 683f 7f3e 813f ac6f 803f

conv2.1.bias f4 [16]
0.19167301 0.13230734 0.02350019 0.092356235 0.11260818 0.051236346 -0.074213 0.027537137
-0.026761902 0.094890796 -0.025898445 0.003881684 0.0027995736 -0.0043764887 0.16424042 0.00055950787
00000000: ee45 443e 937b 073e 7883 c03c 4425 bd3d
00000010: 1e9f e63d 34dd 513d fcfc 97bd 9095 e13c
00000020: c73b dbbc 1b56 c23d fa28 d4bc da63 7e3b
00000030: 0d79 373b a668 8fbb a42e 283e f0ab 123a

conv2.1.running_mean f4 [16]
-1.2403158 -0.8569347 0.077164635 -1.1550324 -0.8384567 -0.80265546 0.45173398 -0.76722705
0.20027792 -1.1561702 0.022744229 -0.9143618 -0.8050906 0.35496545 -0.8169396 -1.1400259
00000000: abc2 9ebf 1360 5bbf 7e08 9e3d 1ad8 93bf
00000010: 19a5 56bf d47a 4dbf ad49 e73e fe68 44bf
00000020: a815 4d3e 63fd 93bf 1b52 ba3c 9d13 6abf
00000030: 6b1a 4ebf 08be b53e f422 51bf 5eec 91bf

conv2.1.running_var f4 [16]
1.6065533 1.4829965 1.0550168 0.88348913 1.0088966 0.8771078 0.8028895 1.0549096
0.8216163 1.0484196 0.8384525 1.1016691 0.88458264 1.5639682 0.842055 1.2863784
00000000: 8aa3 cd3f d4d2 bd3f ca0a 873f 582c 623f
00000010: 8623 813f 238a 603f 2b8a 4d3f 4707 873f
00000020: 7255 523f 9d32 863f d3a4 563f 7e03 8d3f
00000030: 0274 623f 1c30 c83f eb90 573f 0ca8 a43f

conv2.3.weight f4 [16, 16, 3, 3]
-0.15633853 -0.11230153 0.04793566 -0.18405764 -0.15372331 -0.0942939 -0.05160652 -0.026172565
0.029783895 -0.07760107 -0.04798043 -0.011400574 -0.07441584 0.06551418 0.08643674 0.04884682
-0.031502914 0.1739097 -0.110177234 -0.08009778 0.0034771934 -0.09439786 0.07654752 0.13771321
-0.08150011 -0.07177692 -0.030853098 0.038212705 -0.07604866 -0.07837928 0.036078725 -0.05832093
0.08770161 0.08192154 0.031066706 -0.0075290417 -0.040726364 0.049364947 0.04920407 -0.1324961
-0.08470212 -0.032121986 -0.16327049 -0.17731658 -0.10490004 0.035191827 -0.003008216 0.040310785
-0.038381528 -0.012092257 -0.057216104 -0.0016524233 -0.097482264 0.13205971 0.06831214 0.060239997
-0.09107573 -0.031540647 0.10619083 0.04330125 -0.06556399 -0.032311108 -0.05172345 -0.085515924
-0.0576403 -0.002007958 -0.099627994 0.032595012 0.051898874 -0.0071955128 0.08995785 0.116317935
0.14245418 -0.07561718 -0.0073110512 0.14388102 0.04995482 0.07593988 0.072767854 0.036423504
-0.041036036 0.0004076125 -0.025658999 -0.014274265 -0.0092308605 -0.10991575 -0.05918031 -0.020082256
-0.024001911 0.053159058 0.1295114 0.13956173 -0.0829138 0.06242527 0.01016963 -0.056425896
-0.07876596 0.110444926 -0.051078483 0.05987857 0.103994094 0.030521993 -0.012293052 0.047315016
0.04626847 0.0939336 -0.036566325 0.11609049 0.066799305 -0.056376122 -0.0486219 0.12957524
0.019597843 -0.0643204 -0.055627827 -0.004754065 -0.02099955 0.024157722 -0.020318039 -0.14408992
-0.055830963 -0.013257104 -0.09713215 -0.0449219 0.017865866 -0.03359403 -0.10452353 -0.12610093
-0.088343665 0.07812874 0.06406943 -0.030784499 0.048755944 0.17822972 0.16877356 0.06544057
0.01189446 -0.0005779574 -0.07853843 -0.013791983 0.027389755 -0.091482475 0.008629075 0.07506661
0.24691409 0.0071359784 -0.11580388 0.07542178 0.16001743 0.22849995 -0.1481545 0.0021813998
0.12734236 -0.085114524 -0.17795832 -0.12030534 -0.024262747 -0.09215407 -0.14678997 0.060798932
-0.042611938 -0.012182325 -0.045211952 -0.099899575 0.09939973 -0.14130999 -0.081105895 0.02030088
-0.003777396 -0.08010268 -0.010035341 -0.00084629713 -0.1616354 -0.02557224 0.09282247 -0.07692642
-0.07626149 0.014311826 0.057888635 0.04588865 -0.0738508 -0.042514507 0.048044983 0.08275179
0.0021368656 0.041336756 0.100952744 0.11807811 0.0969421 -0.029258417 0.057568237 -0.078967385
0.006724129 -0.025506238 -0.08489617 0.079001874 0.14827193 0.0044903425 -0.0046522724 0.09432293
0.11869754 0.16743791 0.15910977 0.0029927106 0.03840538 0.19414385 0.04143397 0.04127632
-0.064884804 -0.05037474 0.05069306 -0.0027838917 0.04100853 -0.0784925 0.085427046 0.041698143
-0.029558802 -0.066439524 -0.040761307 -0.030899536 0.037306964 0.05329353 0.10526108 -0.008918259
0.016845321 -0.06040782 -0.09158472 0.014124007 0.012787531 -0.01679012 0.06714485 0.0036294875
-0.014198308 0.0009318367 -0.054949045 -0.04117544 0.013806298 -0.0072682016 0.016821656 0.025451869
-0.011611113 0.04635275 0.012955557 0.005467436 -0.052889448 0.051932592 0.02796462 0.109680556
-0.0038924906 -0.1013767 0.14871098 0.055440444 0.042293113 0.050126262 -0.035801068 0.02841244
00000000: 3517 20be 58fe e5bd 2f58 443d 9b79 3cbe
00000010: a569 1dbe 291d c1bd 5c61 53bd d967 d6bc
00000020: 5bfd f33c 4fed 9ebd 2187 44bd 79c9 3abc
00000030: 5567 98bd 4c2c 863d bf05 b13d 9a13 483d
00000040: 3309 01bd 6215 323e 9aa4 e1bd 4e0a a4bd
00000050: a0e1 633b aa53 c1bd f2c4 9c3d b104 0d3e
00000060: 88e9 a6bd c7ff 92bd a3bf fcbc ed84 1c3d
00000070: 66bf 9bbd 5185 a0bd 49c7 133d ede1 6ebd
00000080: e79c b33d 7bc6 a73d 9b7f fe3c 2eb6 f6bb
00000090: b0d0 26bd e632 4a3d 358a 493d 0fad 07be
000000a0: 4e78 adbd 5892 03bd 6130 27be 7a92 35be
000000b0: d5d5 d6bd 4e25 103d 7d25 45bb ec1c 253d
000000c0: f335 1dbd 9a1e 46bc 6f5b 6abd 2096 d8ba
000000d0: c8a4 c7bd a93a 073e 3ce7 8b3d 37be 763d
000000e0: ea85 babd c430 01bd 947a d93d a75c 313d
000000f0: 6a46 86bd a758 04bd f8db 53bd f922 afbd
00000100: 3c18 6cbd f297 03bb c309 ccbd 5982 053d
00000110: ea93 543d 56c8 ebbb d23b b83d 1938 ee3d
00000120: 82df 113e 2edd 9abd 8b91 efbb 8c55 133e
00000130: 6d9d 4c3d 5e86 9b3d 5007 953d d030 153d
00000140: 6715 28bd d3b4 d539 d232 d2bc 9bde 69bc
00000150: 093d 17bc 821b e1bd 0e67 72bd 8b83 a4bc
00000160: a89f c4bc 50bd 593d a39e 043e 45e9 0e3e
00000170: b6ce a9bd a4b1 7f3d 859e 263c d71e 67bd
00000180: 0c50 a1bd f330 e23d ac37 51bd 3b43 753d
00000190: dbfa d43d 4209 fa3c cc68 49bc 64cd 413d
000001a0: 0284 3d3d 4260 c03d 92c6 15bd dac0 ed3d
000001b0: 13ce 883d a6ea 66bd c227 47bd 5faf 043e
000001c0: a88b a03c 6aba 83bd 01da 63bd fdc7 9bbb
000001d0: 4007 acbc 6ae6 c53c 0472 a6bc 4f8c 13be
000001e0: 02af 64bd 5334 59bc 38ed c6bd 0700 38bd
000001f0: 705b 923c e599 09bd 6f10 d6bd 9a20 01be
00000200: 86ed b4bd f601 a03d d536 833d c62f fcbc
00000210: 50b4 473d da81 363e fad2 2c3e b505 863d
00000220: fbe0 423c 1182 17ba c2d8 a0bd c5f7 61bc
00000230: 7b60 e03c 2a5b bbbd f760 0d3c 86bc 993d
00000240: 0cd7 7c3e edd4 e93b 962a edbd bc76 9a3d
00000250: 9cdb 233e e4fb 693e d0b5 17be d1f5 0e3b
00000260: 0966 023e 8650 aebd b53a 36be a562 f6bd
00000270: abc2 c6bc 46bb bcbd 1c50 16be 4d08 793d
00000280: db89 2ebd 6098 47bc 2b30 39bd 2698 ccbd
00000290: 1692 cb3d 91b3 10be d91a a6bd 084e a63c
000002a0: 308e 77bb e00c a4bd 456b 24bc 0ada 5dba
000002b0: c083 25be e07c d1bc b519 be3d 998b 9dbd
000002c0: fc2e 9cbd 267c 6a3c a21c 6d3d bdf5 3b3d
000002d0: 173f 97bd b123 2ebd d1ca 443d c579 a93d
000002e0: a80a 0c3b bb50 293d 50c0 ce3d f0d2 f13d
000002f0: 9489 c63d 59af efbc accc 6b3d a7b9 a1bd
00000300: 1556 dc3b 75f2 d0bc 0bde adbd bccb a13d
00000310: 99d4 173e b923 933b 1772 98bb 612c c13d
00000320: b217 f33d d874 2b3e aced 223e 5a21 443b
00000330: f64e 1d3d a5cd 463e abb6 293d 5c11 293d
00000340: 53e2 84bd be55 4ebd 87a3 4f3d f471 36bb
00000350: 8ff8 273d adc0 a0bd 60f4 ae3d accb 2a3d
00000360: 4d25 f2bc 7211 88bd 54f5 26bd 0621 fdbc
00000370: 30cf 183d 514a 5a3d 1f93 d73d e41d 12bc
00000380: 33ff 893c 316e 77bd c590 bbbd 6168 673c
00000390: cb82 513c 6f8b 89bc 3d83 893d b2dc 6d3b
000003a0: 05a0 68bc 8146 743a 4012 61bd 94a7 28bd
000003b0: d033 623c 182a eebb 92cd 893c 7080 d03c
000003c0: 8a3c 3ebc 62dc 3d3d 8b43 543c 2d28 b33b
000003d0: 9ba2 58bd 45b7 543d 0f16 e53c 33a0 e03d
000003e0: 2819 7fbb 969e cfbd b147 183e 8515 633d
000003f0: 8b3b 2d3d 3251 4d3d 24a4 12bd 35c1 e83c

conv2.3.bias f4 [16]
0.0073043415 -0.0037762767 -0.0015609766 0.058283858 0.053989105 0.047380947 -0.024254639 0.054836374
-0.0003127526 -0.069933966 -0.03070265 0.042032134 -0.022250723 0.066304974 -0.054689854 -0.004365045
00000000: 4259 ef3b 697b 77bb af99 ccba 0ebb 6e3d
00000010: ae23 5d3d 8612 423d aab1 c6bc 1b9c 603d
00000020: f2f8 a3b9 8a39 8fbd 2084 fbbc e329 2c3d
00000030: 2647 b6bc e7ca 873d 7802 60bd a708 8fbb

conv2.4.weight f4 [16]
0.9443192 0.94817996 1.0828322 1.0457009 1.0143243 0.96441203 1.040418 0.9731724
0.97044635 0.954874 0.9447567 1.0508236 1.0306793 1.0171338 1.0070095 1.0482085
00000000: e7be 713f ecbb 723f 3f9a 8a3f 87d9 853f
00000010: 61d5 813f b5e3 763f 6b2c 853f d421 793f
00000020: 2c6f 783f 9f72 743f 93db 713f 6381 863f
00000030: 4ded 833f 7131 823f b0e5 803f b22b 863f

conv2.4.bias f4 [16]
0.005369663 -0.045544256 0.031427924 0.029128479 -0.05112539 -0.028937152 -0.062182005 0.060171597
-0.053580515 0.042093974 -0.047767423 -0.056894045 0.037301842 0.03453925 -0.0011023844 -0.02230935
00000000: fff3 af3b 9d8c 3abd 91ba 003d d99e ee3c
00000010: db68 51bd 9b0d edbc 8fb2 7ebd 7e76 763d
00000020: 3e77 5bbd bb6a 2c3d c6a7 43bd bb09 69bd
00000030: d1c9 183d 0779 0d3d e27d 90ba 19c2 b6bc

conv2.4.running_mean f4 [16]
-0.4336673 0.46880612 -0.8578358 -0.83685726 -0.77326316 -0.4163103 -0.5418651 -0.79164815
0.41617042 0.43263847 0.26203182 -0.5975212 -1.2706633 -0.80995524 -0.92996264 -0.33997297
00000000: a409 debe 5b07 f03e 219b 5bbf 473c 56bf
00000010: 93f4 45bf a026 d5be acb7 0abf 74a9 4abf
00000020: 4a14 d53e ca82 dd3e 0929 863e 26f7 18bf
00000030: 18a5 a2bf 3a59 4fbf 0812 6ebf f010 aebe

conv2.4.running_var f4 [16]
0.71846974 0.8527492 0.8964945 0.5922445 0.5901145 0.5965176 0.6064777 0.76122075
0.90946865 0.78968775 0.60456353 0.596329 0.58262837 1.0689716 0.6506857 0.8392619
00000000: a2ed 373f c64d 5a3f aa80 653f 569d 173f
00000010: be11 173f 61b5 183f 1f42 1b3f 5ddf 423f
00000020: f0d2 683f fa28 4a3f adc4 1a3f 04a9 183f
00000030: 2227 153f 10d4 883f 5793 263f ded9 563f

conv3.0.weight f4 [32, 16, 3, 3]
0.113802604 0.07143222 -0.030576695 0.026517708 -0.024038583 -0.009944282 0.06559684 -0.0739427
-0.14272349 0.0934215 0.009402812 0.0012340597 0.04851546 0.06453315 0.073995054 0.07686398
0.06785535 0.082119524 0.03918497 0.020436935 -0.102510795 -0.08327893 -0.05713321 -0.009923204
-0.0797416 -0.062655725 -0.053830102 0.050743394 -0.00089925673 0.028368337 -0.08081767 0.012193475
0.05387206 -0.027918374 -0.03643692 -0.01114637 -0.03212716 -0.06853172 -0.06439905 0.05537993
-0.06324409 -0.054777082 -0.03236704 -0.109376356 -0.062411573 0.118377924 -0.003217555 -0.022581674
-0.05046814 -0.04656113 0.02081117 -0.021337172 0.06390898 0.06704416 0.079599775 0.019590493
0.021949545 0.055739734 0.10372822 0.0079949135 -0.019055594 0.048750345 -0.041525807 0.14019133
0.13921562 0.11343591 0.06525902 0.09125747 0.016598977 -0.032671064 -0.0064277938 0.007875219
-0.01127867 -0.076207094 -0.056348484 -0.10746839 -0.18442534 -0.07921307 -0.07401817 -0.10965737
-0.094515316 -0.0717887 -0.0073759444 -0.017106868 -0.100558095 -0.12361438 -0.103588544 -0.043843225
-0.078693174 0.035172027 -0.09224041 -0.13741241 -0.00025527534 -0.004266117 -0.1753436 0.056123305
0.0014758386 0.042716745 -0.04342405 0.08325452 -0.0027322264 -0.025673384 0.029828202 0.051677916
-0.037883833 -0.17370321 -0.11045238 0.008646426 0.05689582 0.15232436 0.19859284 -0.024189476
0.027308311 0.0936014 -0.086666614 -0.12107555 -0.031888362 0.12918174 0.12062666 -0.03751022
0.01439097 0.0593382 -0.016144516 0.077241324 0.012515778 -0.07091426 0.16415305 -0.0013095271
0.025418056 0.05819443 0.062591136 -0.06428835 0.035814244 0.0059025204 -0.060152933 0.016138762
0.014237242 -0.034900613 -0.070502184 -0.0726042 -0.019926684 -0.13689932 0.04596896 0.023802552
-0.024660917 -0.036629543 0.011058593 -0.023185937 0.056850635 -0.14985928 0.11514607 0.005282437
0.04726907 -0.015530789 -0.016585926 -0.013531269 0.09937704 0.031659167 -0.017411878 -0.026997946
0.025891116 -0.047941376 -0.14171131 -0.19451678 -0.09690518 0.069996156 -0.0408271 0.06590475
0.048071552 -0.084811345 0.0014855678 -0.040063962 -0.02863008 -0.09110851 -0.07165989 0.0029042482
0.06913441 0.029967954 -0.04647648 0.05344589 0.0046302746 -0.0016392134 -0.034794748 0.046619285
-0.09551325 0.05464 -0.063903764 -0.14085153 0.002106317 -0.081777096 -0.11615727 -0.09095465
-0.0818741 -0.036039837 -0.004296653 0.06862578 -0.04216061 -0.04187813 0.04926767 0.049843498
0.04253264 -0.04849081 0.023271259 0.045035545 -0.14075978 -0.035874166 0.10692023 0.1107761
0.0026247646 -0.021644484 0.16035065 0.17248005 -0.08646738 0.01474784 0.1598001 -0.031577166
-0.06509812 -0.09131484 -0.066581056 -0.025365483 0.033598993 0.040524833 -0.004320836 -0.099842355
-0.020041602 -0.025265986 -0.0635016 0.010931201 0.033612885 0.028895998 0.104582265 -0.010294472
-0.022779906 0.07188896 -0.02851284 -0.18268375 -0.0017900137 0.06510504 -0.014049509 0.014403487
-0.005588605 -0.07385161 0.02317351 0.035000645 0.03757832 -0.035555676 -0.0017090266 0.12289143
0.10328078 0.008958204 0.06569927 0.057774726 -0.0037521934 0.01141573 -0.095415905 0.07985505
00000000: 5711 e93d 0e4b 923d fa7b fabc aa3b d93c
00000010: 90ec c4bc 57ed 22bc a357 863d 456f 97bd
00000020: 1b26 12be c553 bf3d 410e 1a3c 2cc0 a13a
00000030: 26b8 463d f529 843d b88a 973d dd6a 9d3d
00000040: bff7 8a3d 482e a83d 6b80 203d 5c6b a73c
00000050: 2ef1 d1bd 258e aabd 8304 6abd ef94 22bc
00000060: 904f a3bd a551 80bd f47c 5cbd 4ed8 4f3d
00000070: 19bc 6bba b764 e83c bc83 a5bd 24c7 473c
00000080: f3a8 5c3d 13b5 e4bc e13e 15bd 449f 36bc
00000090: c597 03bd 5c5a 8cbd a6e3 83bd 11d6 623d
000000a0: 1e86 81bd ef5d 60bd 4d93 04bd b600 e0bd
000000b0: 47a3 7fbd 2070 f23d 9ddd 52bb 34fd b8bc
000000c0: aeb7 4ebd e2b6 3ebd 307c aa3c 4bcb aebc
000000d0: b6e2 823d 734e 893d 3505 a33d 3e7c a03c
000000e0: 88cf b33c 594f 643d 766f d43d 19fd 023c
000000f0: 7a1a 9cbc 71ae 473d f716 2abd 518e 0f3e
00000100: 8a8e 0e3e 1651 e83d 85a6 853d 32e5 ba3d
00000110: 94fa 873c 18d2 05bd 3ea0 d2bb 1007 013c
00000120: 2cca 38bc 7712 9cbd abcd 66bd 6318 dcbd
00000130: ffd9 3cbe 763a a2bd d796 97bd 0b94 e0bd
00000140: 3f91 c1bd f405 93bd e8b1 f1bb b423 8cbc
00000150: 67f1 cdbd 8929 fdbd 3b26 d4bd f494 33bd
00000160: e329 a1bd 8b10 103d 8ae8 bcbd d7b5 0cbe
00000170: 7ad6 85b9 c8ca 8bbb 468d 33be 8de1 653d
00000180: ed70 c13a c1f7 2e3d 6bdd 31bd 5981 aa3d
00000190: 270f 33bb fd50 d2bc 465a f43c 39ac 533d
000001a0: 142c 1bbd 41df 31be db34 e2bd bda9 0d3c
000001b0: 970b 693d ebfa 1b3e ec5b 4b3e 0229 c6bc
000001c0: aeb5 df3c 17b2 bf3d 447e b1bd 75f6 f7bd
000001d0: 5f9d 02bd 3848 043e 1c0b f73d 51a4 19bd
000001e0: 1ac8 6b3c 9d0c 733d 8141 84bc b330 9e3d
000001f0: fa0e 4d3c 7f3b 91bd bd17 283e 70a4 abba
00000200: 8739 d03c 485d 6e3d c82f 803d 9ca9 83bd
00000210: f5b1 123d ee69 c13b ec62 76bd 7035 843c
00000220: 5243 693c f2f3 0ebd 7363 90bd 83b1 94bd
00000230: 493d a3bc 562f 0cbe f349 3c3d 92fd c23c
00000240: b105 cabc dc08 16bd 1a2f 353c 6ff0 bdbc
00000250: 36dc 683d b674 19be b4d1 eb3d 4b18 ad3b
00000260: 369d 413d da74 7ebc 35df 87bc 41b2 5dbc
00000270: 3186 cb3d 0bad 013d 5ba3 8ebc cc2a ddbc
00000280: 9b19 d43c 2d5e 44bd c51c 11be 682f 47be
00000290: 3976 c6bd 255a 8f3d 513a 27bd 12f9 863d
000002a0: ade6 443d 92b1 adbd 62b7 c23a 1c1a 24bd
000002b0: a189 eabc 1997 babd 6cc2 92bd 3355 3e3b
000002c0: 5796 8d3d 5b7f f53c 1f5e 3ebd 14ea 5a3d
000002d0: 8fb9 973b e0da d6ba f084 0ebd ddf3 3e3d
000002e0: 739c c3bd 31ce 5f3d fadf 82bd 623b 10be
000002f0: 230a 0a3b c07a a7bd dde3 edbd 6e46 babd
00000300: 9cad a7bd 829e 13bd f0ca 8cbb ac8b 8c3d
00000310: 9bb0 2cbd 6788 2bbd e5cc 493d b228 4c3d
00000320: b536 2e3d 4d9e 46bd 5ea3 be3c 3177 383d
00000330: 5523 10be caf0 12bd fef8 da3d 94de e23d
00000340: 3e04 2c3b c64f b1bc f632 243e 9c9e 303e
00000350: cf15 b1bd eda0 713c a3a2 233e 0f57 01bd
00000360: 2a52 85bd 4603 bbbd a65b 88bd 46cb cfbc
00000370: 199f 093d 5efd 253d cd95 8dbb 267a ccbd
00000380: 492e a4bc 9dfa cebc 200d 82bd c818 333c
00000390: aaad 093d 4db7 ec3c 3a2f d63d 25aa 28bc
000003a0: ed9c babc 853a 933d c293 e9bc 7311 3bbe
000003b0: e59e eaba cb55 853d e92f 66bc 9afc 6b3c
000003c0: 9e20 b7bb 833f 97bd 5fd6 bd3c d65c 0f3d
000003d0: b9eb 193d d4a2 11bd 6b01 e0ba 81ae fb3d
000003e0: e084 d33d 6ec5 123c 578d 863d 31a5 6c3d
000003f0: 5ce7 75bb 0b09 3b3c 6a69 c3bd 0b8b a33d

conv3.0.bias f4 [32]
-0.04921305 0.074744456 0.036362898 -0.041135125 0.027714055 0.023221087 -0.07628937 0.072279066
0.07524288 0.07310393 -0.023090094 -0.029178401 -0.04158806 6.7341134e-05 0.023370516 -0.0025070393
0.029019337 0.029117286 -0.052529246 -0.04820066 -0.031110039 0.081572734 -0.054124624 -0.044750404
-0.05297392 -0.0059573627 0.06276917 -0.009371599 -0.045563668 -0.066045746 -0.069821805 -0.0049228473
00000000: a093 49bd 9f13 993d 43f1 143d 4e7d 28bd
00000010: 9608 e33c 263a be3c 9a3d 9cbd 0c07 943d
00000020: f018 9a3d 83b7 953d 7027 bdbc 8b07 efbc
00000030: 3e58 2abd 7f39 8d38 8673 bf3c 244d 24bb
00000040: f6b9 ed3c 6087 ee3c e828 57bd 0e6e 45bd
00000050: 7bda febc 9b0f a73d c8b1 5dbd 334c 37bd
00000060: 2efb 58bd fb35 c3bb 1f8d 803d 568b 19bc
00000070: f8a0 3abd fe42 87bd bcfe 8ebd d64f a1bb

conv3.1.weight f4 [32]
1.0329967 1.0003312 0.96721077 0.96517026 1.0147597 0.9579728 1.0163457 1.0062993
1.052727 1.0154785 0.97759247 1.0428212 1.0496398 1.0389465 1.0287235 1.1052768
0.9986845 0.9717887 0.9616839 1.000445 1.0166714 0.95570815 1.0343823 1.0079699
1.0042135 0.9781769 0.9593031 0.9781911 0.97336406 0.91016567 1.0076028 0.9671083
00000000: 3c39 843f da0a 803f 209b 773f 6615 773f
00000010: a5e3 813f b53d 753f 9e17 823f 6ace 803f
00000020: c2bf 863f 33fb 813f 8043 7a3f 2a7b 853f
00000030: 995a 863f 33fc 843f 36ad 833f b679 8d3f
00000040: caa9 7f3f 25c7 783f eb30 763f 950e 803f
00000050: 4a22 823f 4aa9 743f a466 843f 2805 813f
00000060: 118a 803f cd69 7a3f e394 753f bb6a 7a3f
00000070: 632e 793f 9e00 693f 21f9 803f 6994 773f

conv3.1.bias f4 [32]
-0.060110662 -0.030095657 -0.065440066 -0.03323406 -0.03755841 -0.092643745 0.0069033885 -0.03824028
-0.020531183 0.013454958 -0.06553751 0.006412251 -0.051067993 -0.08085544 0.036321115 -0.008062848
-0.0046802517 -0.013936472 0.001045182 -0.09724111 -0.029250795 -0.004320462 -0.053712532 -0.0047807647
-0.016858095 -0.003859026 -0.073430344 -0.062065568 -0.035479974 0.006321718 -0.10261927 -0.04012357
00000000: 9936 76bd 2b8b f6bc 7105 86bd 7020 08bd
00000010: d9d6 19bd 01bc bdbd d235 e23b d7a1 1cbd
00000020: 0331 a8bc 2f72 5c3c 8838 86bd dc1d d23b
00000030: ac2c 51bd 8997 a5bd 73c5 143d 091a 04bc
00000040: cc5c 99bb cd55 64bc 7dfe 883a 5926 c7bd
00000050: 5d9f efbc a992 8dbb ac01 5cbd f6a7 9cbb
00000060: fd19 8abc b6e7 7cbb a662 96bd 7738 7ebd
00000070: 7353 11bd 6a26 cf3b 0d2a d2bd 9d58 24bd

conv3.1.running_mean f4 [32]
-0.60741377 -0.6929714 0.8050677 0.27878097 -1.1082631 -0.18172216 -1.0355129 -0.8562319
-0.5666583 -0.68045723 -0.08192111 -0.8969727 0.13427985 -1.0900792 -1.0873535 -1.619534
-1.3843514 0.64505386 0.16638933 -0.38117415 -0.43503433 -0.05358197 -0.13841435 -0.48343083
-1.7822992 0.21786284 -0.01990656 -0.33610553 0.517886 1.6763494 -0.45841786 -1.087408
00000000: 787f 1bbf 9366 31bf eb18 4e3f 61bc 8e3e
00000010: 91db 8dbf 6015 3abe b08b 84bf 0432 5bbf
00000020: 8510 11bf 7232 2ebf 41c6 a7bd 01a0 65bf
00000030: a880 093e b787 8bbf 662e 8bbf e44c cfbf
00000040: 6d32 b1bf 4022 253f f761 2a3e 4229 c3be
00000050: d2bc debe c578 5bbd 7ebc 0dbe 3f84 f7be
00000060: 6122 e4bf 7017 5f3e 1513 a3bc 0616 acbe
00000070: 2d94 043f 9e92 d63f bfb5 eabe 2f30 8bbf

conv3.1.running_var f4 [32]
1.3587406 1.120893 0.84124804 0.8808604 0.81761646 0.9311662 0.6841208 0.8837465
0.97225326 0.91172475 1.2600559 0.9475332 0.80868477 1.1373414 0.68291456 1.1331302
0.876497 0.8070333 0.71297485 1.2458464 0.83869845 0.82741374 0.71507853 0.80966204
0.6966282 0.8924697 0.83425933 0.904434 0.8616456 1.1853148 0.95485514 0.677783
00000000: 36eb ad3f 6c79 8f3f 085c 573f 1180 613f
00000010: 504f 513f e860 6e3f 8a22 2f3f 363d 623f
00000020: 97e5 783f cb66 693f 8349 a13f 8991 723f
00000030: f705 4f3f 6794 913f 7dd3 2e3f 690a 913f
00000040: 1b62 603f bc99 4e3f 8585 363f e577 9f3f
00000050: f1b4 563f 63d1 533f 630f 373f 0346 4f3f
00000060: 3a56 323f e578 643f 0592 553f fd88 673f
00000070: ce94 5c3f 65b8 973f 6371 743f 3083 2d3f

conv3.3.weight f4 [32, 32, 3, 3]
0.0013339475 0.09591491 -0.030775348 0.1307254 0.05873532 0.028092774 0.021483686 -0.038338892
-0.0407243 -0.0054665473 0.033557527 0.060052343 -0.06330174 -0.038454045 -0.0321974 -0.015732836
-0.034451466 0.022411492 -0.01654782 0.06735149 0.018769717 -0.031470135 0.019271823 0.048428126
-0.041738648 0.016998203 0.036737103 0.041579347 -0.023746151 -0.021006918 -0.008403404 -0.06703714
-0.004896927 -0.03512334 -0.07490955 -0.019536797 0.06180731 0.062419407 -0.007927763 -0.0133455945
-0.06991517 0.04522782 0.040774323 0.08338026 0.035079952 -0.054731794 0.006093171 -0.008753779
0.030434238 -0.06686364 -0.0059173284 -0.09548439 -0.09068853 0.036741853 -0.08860659 -0.07101702
-0.01931012 -0.057458617 -0.060422942 0.025760952 0.042270985 -0.042156618 -0.020600002 -0.063774094
0.029022317 0.073050395 -0.06637556 -0.02693525 0.02466572 0.023600621 0.07884628 -0.07357109
-0.059693906 0.0015344669 -0.00898071 -0.054946765 -0.01672881 -0.027292412 0.041427523 -0.079605356
-0.03181773 -0.014409817 -0.08111374 -0.025331309 -0.045263138 0.025677353 -0.0017340768 0.021608274
0.035194512 -0.044725157 0.038907524 0.08489614 0.07300082 0.042503703 0.037188243 0.06655385
-0.091377184 -0.0020298534 -0.041129835 -0.01290124 -0.06428967 -0.14386919 0.044007137 0.032321945
-0.013098771 0.010871152 0.07757424 -0.03485454 -0.026218202 -0.035352826 0.06472945 0.05797297
-0.031085594 -0.010910702 0.06291622 0.0071692048 0.023450978 0.03587673 0.04644678 -0.02366221
0.028974412 -0.029316807 -0.053877655 -0.08256907 -0.03438267 -0.05386261 -0.05677555 -0.023142103
-0.090549715 -0.07128358 -0.12577495 -0.08426964 -0.05364448 -0.030076787 0.044352382 0.042236056
0.042558767 -0.07172993 -0.0028190783 0.039391395 -0.015902292 -0.06450713 -0.030010108 0.03548116
-0.013237218 -0.036942687 -0.012643667 -0.028358707 -0.04672556 -0.08189547 -0.037057664 0.017004678
-0.03609882 -0.029744573 -0.06209311 -0.0553044 -0.0071658115 -0.030925727 0.042513754 0.051454246
-0.046404917 -0.014539991 0.061429456 0.036717847 0.04007583 -0.015913233 -0.06966907 0.0020681664
-0.110740766 -0.014863348 0.076692276 -0.004861266 0.07824894 0.021820743 -0.01633817 0.054719467
0.046807103 0.038931873 0.05715799 -0.021727541 -0.10318328 -0.038542554 -0.023561107 -0.04235451
0.038711663 0.045132123 0.0155061 -0.02777742 0.001124006 0.054541975 0.044140313 0.010002294
0.044018775 0.030074313 0.03675204 0.014533793 -0.0069409 0.054896764 0.037645504 -0.060248367
-0.0008619473 -0.0034694897 0.027003976 0.05753649 -0.00017728728 0.09935891 0.1045641 0.011303105
-0.06439551 0.032387286 -0.015702209 -0.06256109 -0.004715369 0.011627061 -0.06938948 0.03291719
0.054810222 -0.031493507 0.045503985 -0.027182583 0.005698744 -0.054567635 0.021243516 -0.03412971
-0.03043883 -0.050211273 -0.029510945 0.017625373 0.040364042 -0.044728044 -0.043963164 -0.0052786423
-0.0037181675 -0.06955334 -0.023259824 0.0030694192 0.030706089 -0.040318422 -0.036038537 0.004005154
0.08984409 0.08689853 -0.05058985 0.035186835 0.09037952 0.064152375 0.08457651 0.041265834
-0.055238575 0.030185364 0.015384416 0.024025587 0.117028736 -0.00917539 0.100691676 -0.057227127
00000000: dad7 ae3a 096f c43d 951c fcbc e1dc 053e
00000010: 7294 703d d122 e63c 8efe af3c 3e09 1dbd
00000020: 86ce 26bd b920 b3bb 9e73 093d 72f9 753d
00000030: 58a4 81bd fd81 1dbd 6ce1 03bd 26e2 80bc
00000040: fb1c 0dbd 4e98 b73c 4b8f 87bc 94ef 893d
00000050: f3c2 993c d4e6 00bd f1df 9d3c 925c 463d
00000060: 25f6 2abd d13f 8b3c a579 163d 1b4f 2a3d
00000070: 4a87 c2bc b316 acbc 6eae 09bc c54a 89bd
00000080: 6776 a0bb 7edd 0fbd 2e6a 99bd a20b a0bc
00000090: a929 7d3d 7eab 7f3d 73e3 01bc 7ba7 5abc
000000a0: af2f 8fbd ce40 393d fa02 273d 45c3 aa3d
000000b0: ffaf 0f3d 722e 60bd 39a9 c73b 036c 0fbc
000000c0: 3951 f93c ceef 88bd 26e6 c1bb 528d c3bd
000000d0: e8ba b9bd a07e 163d 5f77 b5bd 5f71 91bd
000000e0: 4230 9ebc ba59 6bbd 0c7e 77bd a208 d33c
000000f0: 5724 2d3d 6bac 2cbd 56c1 a8bc fe9b 82bd
00000100: 36c0 ed3c 729b 953d e9ef 87bd 50a7 dcbc
00000110: c40f ca3c 1756 c13c 297a a13d 71ac 96bd
00000120: 9981 74bd 2a20 c93a d423 13bc dc0f 61bd
00000130: db0a 89bc 5694 dfbc e8af 293d 2208 a3bd
00000140: 4f53 02bd 2717 6cbc f61e a6bd 9b83 cfbc
00000150: d765 39bd 5059 d23c f649 e3ba d603 b13c
00000160: 1f28 103d ba31 37bd 7f5d 1f3d 07de ad3d
00000170: 7481 953d 5d18 2e3d b352 183d 634d 883d
00000180: f623 bbbd 4a07 05bb c277 28bd b95f 53bc
00000190: 4daa 83bd 7252 13be d440 343d 0464 043d
000001a0: 3a9c 56bc eb1c 323c 3edf 9e3d a2c3 0ebd
000001b0: 8ec7 d6bc 20ce 10bd e090 843d 1175 6d3d
000001c0: 37a7 febc cdc2 32bc 38da 803d a6eb ea3b
000001d0: 441c c03c 7af3 123d fb3e 3e3d 40d7 c1bc
000001e0: bf5b ed3c cd29 f0bc d1ae 5cbd f919 a9bd
000001f0: d8d4 0cbd 0a9f 5cbd 7b8d 68bd 8294 bdbc
00000200: 2172 b9bd 20fd 91bd 26cb 00be 9095 acbd
00000210: 50ba 5bbd 9863 f6bc d8aa 353d b7ff 2c3d
00000220: 1a52 2e3d 24e7 92bd 49c0 38bb df58 213d
00000230: 8645 82bc 501c 84bd c2d7 f5bc b154 113d
00000240: ebe0 58bc 3751 17bd 6227 4fbc 8550 e8bc
00000250: 4d63 3fbd d0b8 a7bd c7c9 17bd 654d 8b3c
00000260: 5bdc 13bd e4aa f3bc 5855 7ebd de86 62bd
00000270: 2fcf eabb f357 fdbc e722 2e3d b0c1 523d
00000280: 1513 3ebd 2439 6ebc 749d 7b3d 7465 163d
00000290: 8e26 243d 785c 82bc a8ae 8ebd 138a 073b
000002a0: 0ecc e2bd 6685 73bc d710 9d3d 414b 9fbb
000002b0: fb40 a03d 6ac1 b23c a0d7 85bc 8521 603d
000002c0: ceb8 3f3d 0777 1f3d 7f1e 6a3d f5fd b1bc
000002d0: c151 d3bd ccde 1dbd 3903 c1bc ec7b 2dbd
000002e0: 1f90 1e3d 76dc 383d 4c0d 7e3c 798d e3bc
000002f0: 6253 933a 6867 5f3d 79cc 343d a9e0 233c
00000300: 084d 343d 685e f63c 4f89 163d 251f 6e3c
00000310: 7d70 e3bb 6edb 603d 2c32 1a3d fec6 76bd
00000320: 4ef4 61ba 6160 63bb 7137 dd3c 62ab 6b3d
00000330: 31e6 39b9 af7c cb3d b425 d63d a930 393c
00000340: cbe1 83bd 88a8 043d eba1 80bc 0720 80bd
00000350: 6283 9abb 6e7f 3e3c 121c 8ebd 2dd4 063d
00000360: af80 603d 56ff 00bd 6362 3a3d 02ae debc
00000370: 88bc ba3b 5082 5fbd e206 ae3c 98cb 0bbd
00000380: da5a f9bc 56aa 4dbd f0c0 f1bc 1663 903c
00000390: c454 253d c134 37bd b812 34bd 76f8 acbb
000003a0: 80ac 73bb fb71 8ebd 638b bebc 4f28 493b
000003b0: 568b fb3c ee24 25bd 259d 13bd ab3d 833b
000003c0: 2e00 b83d dbf7 b13d 4d37 4fbd 1220 103d
000003d0: e618 b93d 5262 833d 7336 ad3d 5d06 293d
000003e0: d841 62bd 4c47 f73c eb0e 7c3c 4fd1 c43c
000003f0: c3ac ef3d 6054 16bc 7037 ce3d fe66 6abd

conv3.3.bias f4 [32]
-0.015354884 -0.049592376 0.034101978 0.0027269172 -0.043880392 -0.009870034 0.021122567 0.0015323805
-0.027316665 0.023148911 0.015162526 -0.015348723 -0.0052480726 -0.041605283 0.0015323919 -0.058756713
0.029324014 0.0017104374 0.009189657 -0.025127403 0.057669967 -0.040516883 -0.008084531 -0.031896193
-0.05236047 0.016668895 0.00938604 0.016698856 -0.0073378216 -0.054687664 0.05860591 0.012298563
00000000: 0d93 7bbc 6021 4bbd 84ae 0b3d 14b6 323b
00000010: edbb 33bd ecb5 21bc 3c09 ad3c 28da c83a
00000020: 33c7 dfbc c9a2 bd3c 3e6c 783c 3679 7bbc
00000030: 06f8 abbb 4d6a 2abd 8ada c83a e1aa 70bd
00000040: ea38 f03c c130 e03a 3790 163c fcd7 cdbc
00000050: 5837 6c3d 08f5 25bd fb74 04bc 95a5 02bd
00000060: ef77 56bd 358d 883c e8c7 193c 0acc 883c
00000070: 1c72 f0bb 2c00 60bd c00c 703d e97f 493c

conv3.4.weight f4 [32]
1.0049832 0.9920295 1.0096085 0.99441 1.0156676 1.053982 0.9999881 1.0855604
0.94360584 0.93838423 0.9824725 0.9894343 0.9630916 1.0024425 0.99726295 1.0076866
1.0546876 0.9991028 1.0132557 0.99986315 0.9746241 0.95691097 1.0165323 0.98108613
0.96153617 1.0160078 0.98134387 1.0080434 0.9799184 0.99898815 1.0196844 1.0421444
00000000: 4aa3 803f a5f5 7d3f da3a 813f a791 7e3f
00000010: 6501 823f e2e8 863f 38ff 7f3f a5f3 8a3f
00000020: 2790 713f f339 703f 5183 7b3f 914b 7d3f
00000030: 2c8d 763f 0950 803f a04c 7f3f e0fb 803f
00000040: 0100 873f 33c5 7f3f 5db2 813f 08f7 7f3f
00000050: f780 793f 1ef8 743f bb1d 823f 7628 7b3f
00000060: 3c27 763f 8b0c 823f 5a39 7b3f 9107 813f
00000070: efdb 7a3f b0bd 7f3f 0585 823f fd64 853f

conv3.4.bias f4 [32]
-0.05944262 -0.04534178 -0.02594136 -0.017233597 -0.065672815 -0.10602697 -0.037313092 -0.084102586
-0.03747025 -0.05462111 -0.0756454 -0.046363227 -0.05667319 -0.037933353 0.004350906 -0.013569928
-0.090173945 -0.013291703 -0.012385699 -0.032548063 -0.06455386 -0.0428526 -0.024778994 -0.03784731
-0.020444462 -0.04619816 -0.011166241 -0.070106015 -0.013383726 -0.0722135 -0.061584268 -0.052138433
00000000: 1b7a 73bd 4db8 39bd fa82 d4bc 792d 8dbc
00000010: 787f 86bd ab24 d9bd 9dd5 18bd fa3d acbd
00000020: 687a 19bd 63ba 5fbd faeb 9abd 5ee7 3dbd
00000030: 2622 68bd 0160 1bbd 0b92 8e3b 6754 5ebc
00000040: 1ead b8bd 71c5 59bc 63ed 4abc 1e51 05bd
00000050: d034 84bd 3586 2fbd 51fd cabc c805 1bbd
00000060: 257b a7bc 483a 3dbd 9cf2 36bc be93 8fbd
00000070: 6a47 5bbc ace4 93bd c93f 7cbd 1c8f 55bd

conv3.4.running_mean f4 [32]
-0.41907743 -0.17651671 -0.6002775 -1.0391394 0.39641133 -0.5089718 0.25682387 -0.5530303
0.08881021 -0.39973193 -0.18384086 -0.14053057 -0.07540057 -0.8965447 -0.98140675 -0.8179351
0.032608386 -0.35414198 -0.6357816 1.1650295 0.18051565 -0.2739343 -0.0611213 -0.83592206
-0.2976564 0.07115131 0.33033362 -0.7578541 0.19220686 -1.3015448 -0.7281815 -0.4858329
00000000: 5191 d6be ccc0 34be c9ab 19bf 8502 85bf
00000010: 6df6 ca3e fa4b 02bf 6b7e 833e 6593 0dbf
00000020: 21e2 b53d aaa9 ccbe c740 3cbe 3fe7 0fbe
00000030: 9d6b 9abd f483 65bf 793d 7bbf 3264 51bf
00000040: 5f90 053d 1952 b5be 95c2 22bf b01f 953f
00000050: 18d9 383e 1e41 8cbe 545a 7abd fdfe 55bf
00000060: 6b66 98be c7b7 913d 7d21 a93e ba02 42bf
00000070: e0d1 443e 0599 a6bf 1a6a 3abf 17bf f8be

conv3.4.running_var f4 [32]
0.46311182 0.7250074 0.45851475 0.60828817 0.59440696 0.75271255 0.5077595 1.0618254
0.7021078 0.3305572 0.5492143 0.4535269 0.58531874 0.49021384 0.57557565 0.55759627
0.7384086 0.43651596 0.5661872 0.60591877 0.62775445 0.40839317 0.6210473 0.58063424
0.4293526 0.53876656 0.5351897 0.69288015 0.41426587 0.67486465 0.6844974 0.66870993
00000000: fe1c ed3e 169a 393f 72c2 ea3e c6b8 1b3f
00000010: 0e2b 183f c5b1 403f 87fc 013f e5e9 873f
00000020: 56bd 333f cb3e a93e 4f99 0c3f ae34 e83e
00000030: 73d7 153f 4ffd fa3e ed58 133f a1be 0e3f
00000040: 5908 3d3f 057f df3e a5f1 103f 7e1d 1b3f
00000050: 84b4 203f e918 d13e f5fc 1e3f 72a4 143f
00000060: 1bd4 db3e 9bec 093f 3102 093f 9860 313f
00000070: a81a d43e eec3 2c3f 393b 2f3f 9330 2b3f
