trained_models/best_cnn.pt (torch, 958866 bytes, 92 tensors)

conv1.0.weight f4 [8, 3, 3, 3]
00000000: fe63 cebe 5e02 2abe 8529 043f b67b 11bf
00000010: 5996 aebe d765 a63e e716 99bf adca 5bbf
00000020: 6309 8fbe 364c 803d 8a02 a23c bb52 6abd
00000030: d191 b63e 527c 503f 8fdc 223e fb0c eebe
00000040: dc07 17be e603 aabd 2a06 253e 9052 0ebe
00000050: 9e1b 84bf 8d87 653f e4df 393f 7691 eebe
00000060: 7803 8e3f 85f0 863f 908c 833e 847c 97bc
00000070: 94f7 b63f dcfb 31be 018c 2f3f a1c7 acbf
00000080: 7327 4ebf ed0b 5c3f 7bb0 f33e af51 5fbf
00000090: 3a0b 0fbe de3a fe3e 8665 503d b19e df3e
000000a0: f74b f7bf 4c43 13bf fb44 483f 5a19 823e
000000b0: d2bd 5f3e 507e 81be 0f02 b53e 7ad8 673f
000000c0: 129e 06be 3c30 ccbf 27e2 053f 5ac7 28bd
000000d0: 20ec e3be 2899 423f 0654 b63e 1b51 e23e
000000e0: 60e9 7b3c c0cd 13bf 343a cd3e add5 5a3f
000000f0: dd2b 22bf e8a5 6ebd f672 1c3e 3c95 b8be
00000100: 1a2a 00bd 2b1e cabe 24bb 8bbf e704 cfbe
00000110: 24fd 2d3e 7954 65bf e9d2 e7be c05b 64bd
00000120: 58a6 7a3e 2590 8f3e 8c2f 41be 21b7 90be
00000130: 4d8a 1c3e 3c7a 9f3e 26c9 9bbd f802 283e
00000140: aaa0 ee3e 6636 febd 8d23 39bd 1656 013f
00000150: 1bd8 b13d 0863 b8bd 1ad4 bebe b147 8a3d
00000160: a838 b2be 8923 85be c0ab 723e 1a90 e43e
00000170: d66b 1d3e 8507 0bbe 6fbd 5d3e a880 c7be
00000180: 17cd 09bf 9374 1ebf 9cb7 2abf 82f0 33bd
00000190: 3e79 c23e 63a4 0fbf b2de 933d ece7 0b3f
000001a0: bac8 3cbf 757c 043e 0dab b13e 4eea 3ebf
000001b0: 057a 2abd 9616 813f 03c8 a83f a5cc 7d3f
000001c0: 8a0d 73bf ef6f 913f 482d 50bf 9389 a6be
000001d0: 9257 33bf 8e18 d1be 30e0 4bbf 93ba 253e
000001e0: 056a 4d3f 058e ffbf 0d88 493e f2fa ce3d
000001f0: f556 b9be 1fc5 02bc 769b 11bf 7acb a4be
00000200: 8b87 893e e668 063f c7dd c2bf 9787 e43e
00000210: 3b44 a03e aac8 483f bd41 823f 9092 d23d
00000220: a92e 4c3d c2ba f53e 7183 a73f f720 4abf
00000230: 16a7 02bd 81b8 4abf 3175 01bf 18ea 503f
00000240: 5e77 e03e ca63 20be b296 823d 92a5 b53f
00000250: e597 59bf 33e1 40bf 2c5d 86bf 536c 39bf
00000260: 31f5 793e d489 c83e b1f6 7e3d c769 45bf
00000270: 15fd a53f 1671 1fbf 284d a6bf eb46 053f
00000280: c063 223f 8bba bc3e abc6 81bf a02a 6abf
00000290: 721f 073f c737 173f 8170 81bf d5f4 cfbc
000002a0: d0a2 9b3f e2e2 f5be c615 d73e d127 abbe
000002b0: fd43 debe 8aa7 ed3e dc28 a23f defe 17bf
000002c0: d60b 243e ad2f 2f3f c66d babe b298 3ebe
000002d0: 0c66 e0be 881c f2bd d615 27bc 2d90 903f
000002e0: 4b32 803d 53ef fcbe 1542 503f aa16 17be
000002f0: 8762 85bf 45ee dabe 1c89 4a3d aa16 fd3e
00000300: a65d a23e 20a8 d53e 8f1d ef3e 94fa 40be
00000310: 2673 cbbd e278 743e c076 7dbf 111f a8be
00000320: 6b5a 5abd 0b2d 09be b168 c03e 605f 6ebd
00000330: ef5e 873c 93af 4b3e 559b 02bf c9fc 4bbf
00000340: 0563 f23d b359 f83c 6135 7d3e d6f7 573f
00000350: 46e7 a73e 968c b33e 0863 173f b1b9 17be
-0.40310663 -0.16602466 0.51625854 -0.5682939 -0.3409908 0.32499573 -1.1960114 -0.85856134
-0.2793685 0.06264536 0.019776601 -0.057207804 0.35658124 0.814397 0.15904449 -0.46494278
-0.14749092 -0.08301525 0.16115633 -0.13898683 -1.0320928 0.8965996 0.72607255 -0.46595353
1.1094809 1.0542151 0.25693178 -0.01849199 1.4294305 -0.17381233 0.68573004 -1.3498422
-0.80528945 0.859557 0.4759558 -0.87234014 -0.13969126 0.49654287 0.05087807 0.4367576
-1.9320058 -0.5752456 0.78230256 0.25409967 0.21849754 -0.2529168 0.35353133 0.9056469
-0.13146237 -1.595222 0.52298206 -0.04120574 -0.44516087 0.7601495 0.3561098 0.44202504
0.015375465 -0.57735825 0.40083468 0.85482293 -0.6334818 -0.05826369 0.15278229 -0.36051357
-0.03129015 -0.3947614 -1.0916486 -0.40433428 0.16991097 -0.8958202 -0.452781 -0.055751562
0.24477518 0.2803966 -0.18865794 -0.28264716 0.15287133 0.31147945 -0.076067254 0.16407382
0.46606952 -0.124127194 -0.04519992 0.5052198 0.08683797 -0.09003264 -0.37271196 0.06751955
-0.3480885 -0.26003674 0.2369833 0.4464119 0.15373167 -0.13577087 0.21654294 -0.38965344
-0.5382857 -0.6189663 -0.66686416 -0.043930538 0.37983125 -0.5611021 0.0722021 0.5465076
-0.73743784 0.12938102 0.34700814 -0.7457627 -0.041620273 1.0085018 1.3186039 0.9914039
-0.94942534 1.1362284 -0.81319094 -0.32526836 -0.70055497 -0.40839046 -0.7963896 0.16184454
0.802399 -1.9965216 0.19680806 0.10106458 -0.36199155 -0.007981568 -0.5687784 -0.3218649
0.26861224 0.5250381 -1.5223931 0.44634697 0.31302056 0.7843119 1.0176312 0.10281861
0.049849186 0.47994047 1.3086988 -0.7895655 -0.031897627 -0.7918778 -0.50569445 0.816072
0.4384107 -0.15663067 0.06376399 1.4191153 -0.849974 -0.75343627 -1.0497184 -0.72430915
0.2440994 0.39167655 0.062246982 -0.7711453 1.296786 -0.6228193 -1.2992296 0.5206134
0.63433456 0.3686107 -1.0138754 -0.9147129 0.52782357 0.59069484 -1.0112458 -0.0253853
1.2159061 -0.4802466 0.420088 -0.33428815 -0.43411246 0.46416885 1.2668719 -0.5937327
0.1602014 0.6843212 -0.36411875 -0.18612936 -0.43827856 -0.11821848 -0.010198077 1.1293999
0.062595926 -0.4940134 0.81350833 -0.1475474 -1.0420693 -0.4275991 0.049447164 0.49431354
0.31712073 0.41729832 0.4670224 -0.18845588 -0.09934072 0.23874238 -0.99009323 -0.32836202
-0.053308886 -0.13396089 0.37579873 -0.058196425 0.01652476 0.19891195 -0.5101827 -0.79682595
0.11835293 0.03031621 0.24727394 0.8436254 0.32793635 0.35068196 0.59135485 -0.1481693

conv1.0.bias f4 [8]
00000000: 81c0 f2bd 4d5b 8f3d 1a97 8c3d 8012 67bd
00000010: 90f4 31be 18a8 3fbd 87f3 103e 65ba 613d
-0.118531235 0.06999836 0.06864758 -0.056414127 -0.1737845 -0.046791166 0.14155398 0.0551094

conv1.1.weight f4 [8]
00000000: b0b4 3b3f b6a5 c73f ccc4 803f e5b1 af3f
00000010: a1f2 a73f 3aca a43f 049b b23f b6e6 493f
0.7332258 1.5597446 1.0060058 1.3726164 1.312092 1.2874215 1.3953557 0.7886766

conv1.1.bias f4 [8]
00000000: cf63 7c3e 4b47 5c3f bf0c 15be 19b3 34bf
00000010: 91ab 763f 02fe 8a3f 9cf2 6a3f 2d95 893e
0.24647449 0.86046284 -0.14555643 -0.7058578 0.9635554 1.0858767 0.9177644 0.26871625

conv1.1.running_mean f4 [8]
00000000: 51f1 e9bd 1bbc a3bd 7112 1fbf 03da 90bf
00000010: 6e87 3fbe 8086 38be 1b04 39bc c420 293f
-0.114229806 -0.07994863 -0.62137514 -1.1316532 -0.18704006 -0.18020058 -0.011292483 0.6606562

conv1.1.running_var f4 [8]
00000000: 0c03 843e cf4a 973e 2193 b43e 8103 e83e
00000010: a5a8 8b3e 13f8 9d3e 9afe cc3e b612 893e
0.25783575 0.29549262 0.352685 0.45315173 0.27277103 0.30853328 0.40037996 0.26772088

conv1.3.weight f4 [8, 8, 3, 3]
00000000: 2885 9c3e e533 223f 7c53 96be 49ca 1fbe
00000010: e88e 293f 872e 3a3c 21a5 29be 7dc2 d53e
00000020: 1fab dbbd e7c1 cf3e 2452 03bf 4246 70be
00000030: f750 223f c4e8 3ebf 1041 4fbe a006 f93e
00000040: 1bc1 dfbe 742d 4dbe 6f68 64be 6eb5 38be
00000050: 3d8c 823b e85d 9cbd a5f6 b13c ee0e 133c
00000060: 6b83 843e dfae ef3c 6fc0 e8bd 7a8e 0a3e
00000070: 3a32 dc3e 4a8a 0c3d 0f8e 83be 96c7 813e
00000080: 21bb 88bd ca72 c7be f7a0 05bd aecd ebbe
00000090: b202 b43e 6231 1cbe e822 02bd d7e6 433e
000000a0: 131f dbbe d40a 44be bbe7 c23e 092a 53be
000000b0: 0cee 71be 03cf f7be c509 bd3e 6155 6b3e
000000c0: 0298 55bf 9f7c ae3e 4405 dc3e 60b5 c1be
000000d0: 43da 063f aec2 fa3d 79f4 71be 9555 9c3e
000000e0: 529e 913d 5c6c 43bf 9b71 ae3e 2ba5 2d3e
000000f0: 670b 38bf ae90 cd3e 45c3 143e ca41 973d
00000100: f07b 923e cacf 39be 4742 26be b0c4 cabb
00000110: 70b9 c23c 8cd8 44be fd53 29bd 124b 513e
00000120: 094a ddbd fb5a 3a3c db52 5c3e 2568 ddbe
00000130: c3e0 f7be 5768 83bb 4a24 d33e 9d5c 2bbe
00000140: 8345 0abe d8bc 973d ce27 17bf 9e97 523c
00000150: 4aee 203f bc7f f2bd 50c6 b1be 98df 433e
00000160: f7b3 9f3e 5a78 a4bd 9215 f23e 0142 de3e
00000170: 08a4 6cbd 6da3 d43d b461 423f 2e22 803e
00000180: 271d 9c3c 4938 9c3e 9fb3 3d3f 4c89 aebd
00000190: f4f5 83be 2583 1abf 30b1 823e c8f1 683d
000001a0: 7066 803c 0ed1 df3e f235 093d 870c b43d
000001b0: 28ac 013f 4a7d 31be 28f3 ebbd 5cfb 893e
000001c0: 796a 3a3d eb8b dfbe 6306 af3e d51d 023f
000001d0: ddc9 3c3f 2db8 71be 25a0 f0bd b7f1 d2bb
000001e0: d1bf 783d e0ea 6ebe dba8 c5be aad8 023f
000001f0: 50dd 5a3d 14f2 a9ba 39a3 d2be 1a74 e1be
00000200: 3f65 e1be 8ba3 9a3e 7a2c 97be 4e48 09bf
00000210: 6004 e33e 43a8 213f c6d2 00bf 21ab 723e
00000220: b2ab f1bc 16da f33d 156a ce3d 236c 4dbe
00000230: dd21 51be 2811 623d 8c3b 5bbd 3b30 f4bd
00000240: db20 80be 176f 623e 8239 32bf b39b 17be
00000250: f8cc 9d3e aaf9 4ebd 572c 7a3e 22bd 2f3e
00000260: af75 aabe 072b 353e 142c 043f 2399 fbbe
00000270: 81df 61bf 0f47 43be 52e4 7f3f e259 243f
00000280: 0b81 5abf 52fa 90be 7f2e 89be 1d1c 35be
00000290: 795c 033f 7d59 9ebd 5625 f2be fb39 adbe
000002a0: 6160 01bd c9d7 d7bd 8dfe d0be 7491 6a3e
000002b0: 3837 623f e910 b63e 4af8 dabe 6e36 843e
000002c0: 753a 97be b623 bebe 5a53 d13d d668 7bbe
000002d0: 4c90 55be c427 693f e819 28bf 8fc2 10bf
000002e0: 307a 01bf e68e 5a3f a652 593f b03a 9ebf
000002f0: 5906 96be 7b4c 763d 97e2 e73c 07f7 4fbf
00000300: 9117 25be b554 433f 6b74 3fbe f1fa 02be
00000310: 2a79 1ebe bfc1 ac3c 5fc5 ac3e d4a4 403f
00000320: 29b5 39bf 5f2e 04bf 99dd 5f3e cd82 1e3f
00000330: 9a75 843d 5752 06bf 8129 e13d 1fc6 5ebe
00000340: f7f8 633e 4f9a 80be a55c bdbe 5f6a 033d
00000350: 1488 313e d213 ab3d 605b 7ebe 8d84 5bbd
00000360: a4d0 87bc b29b eebd b2e3 7ebe fac2 13bd
00000370: 8fd5 233e 375b 373e 5364 49be 9194 8c3d
00000380: a10f 29be 153d 34bd 2c9f e13e 0b3f cbbe
00000390: e11a 2abe d6ec b23e 91e0 98be c401 a53d
000003a0: a01c de3d eba6 a5be 77c6 f9be 43e1 98bd
000003b0: 1ad7 33be bc82 b9be 440a 023e f2ac b23e
000003c0: a1e8 81be 04e1 9d3c 4fd9 e33e 2664 8c3d
000003d0: fc50 d2be 9d64 62be 7823 c83e 675a e5be
000003e0: 8508 453e 07f6 f03e 44ec fcbd 02b2 9e3e
000003f0: f97b 16bf 13ab 493f 8b00 c4bd 8f21 7dbf
0.3057034 0.63360435 -0.2936057 -0.1560451 0.6623368 0.011363632 -0.16566898 0.41749945
-0.10725998 0.40577623 -0.5129721 -0.23464301 0.6340479 -0.7457392 -0.20239663 0.48637867
-0.43702015 -0.2003687 -0.22305463 -0.1803796 0.003984003 -0.07635099 0.021724055 0.0089757275
0.25881514 0.02925819 -0.11364829 0.13530913 0.4300707 0.03431157 -0.2569432 0.25347584
-0.06676317 -0.38954765 -0.03262421 -0.4605536 0.35158306 -0.15253213 -0.03177157 0.19131027
-0.42797145 -0.19144756 0.3806742 -0.20621504 -0.23625964 -0.48400125 0.36921516 0.22981788
-0.8343507 0.34079453 0.42972767 -0.3783369 0.5267679 0.122441635 -0.23628415 0.30534044
0.07110275 -0.7633722 0.3407105 0.16957538 -0.718924 0.40149444 0.14527614 0.07385595
0.28610182 -0.18145671 -0.1623622 -0.0061879978 0.023770064 -0.19223231 -0.041339863 0.20438793
-0.10805137 0.0113742305 0.21515982 -0.43243518 -0.48413667 -0.004010241 0.41238624 -0.16734548
-0.13503079 0.07409066 -0.5904511 0.012853531 0.628636 -0.1184077 -0.34721613 0.19128263
0.3119199 -0.08030768 0.47282082 0.43409732 -0.05777362 0.103827335 0.75930333 0.25026077
0.01905687 0.30511692 0.74102205 -0.08522281 -0.25773585 -0.6035636 0.25525808 0.056871206
0.015673846 0.43714184 0.033498712 0.08791452 0.50653315 -0.1733295 -0.11520988 0.26949584
0.045511696 -0.43661436 0.3418456 0.5082677 0.7374552 -0.23605414 -0.11749295 -0.006437506
0.060729805 -0.23331785 -0.3860539 0.51111853 0.053433716 -0.0012965822 -0.41140154 -0.4403389
-0.44022557 0.30202898 -0.2952612 -0.53625953 0.44339275 0.6314737 -0.50321615 0.23698093
-0.029500816 0.11906831 0.10078827 -0.20060782 -0.20423074 0.055192143 -0.053523585 -0.11923262
-0.25025067 0.2211269 -0.69619 -0.14805488 0.3082044 -0.050531067 0.24430977 0.17161992
-0.3329291 0.17692195 0.5162976 -0.49140272 -0.88231665 -0.19070075 0.99957764 0.6419965
-0.85353154 -0.2831598 -0.26793286 -0.17686506 0.5131298 -0.07731912 -0.4729411 -0.33833298
-0.031586055 -0.105392046 -0.40819207 0.22907048 0.8836551 0.35559776 -0.42767555 0.25822777
-0.29536787 -0.3713662 0.10220976 -0.2455171 -0.20855826 0.910763 -0.6566453 -0.5654687
-0.5057707 0.85374296 0.84891737 -1.236166 -0.29301718 0.06013153 0.028306289 -0.8123631
-0.16122271 0.7630113 -0.18696754 -0.12791039 -0.15475908 0.02108848 0.33744332 0.7525151
-0.72542053 -0.51633257 0.21861877 0.61918336 0.06467743 -0.5246939 0.10994244 -0.21755265
0.22262941 -0.25117728 -0.36984745 0.032083865 0.17337066 0.0835339 -0.24839544 -0.053593207
-0.01657898 -0.1165079 -0.24891546 -0.036074616 0.15999435 0.1790589 -0.19667177 0.06864274
-0.16509868 -0.044003565 0.4406675 -0.39696535 -0.16611816 0.34946316 -0.2985883 0.080569774
0.108453035 -0.3235391 -0.4878423 -0.0746484 -0.17562523 -0.36232555 0.12699229 0.34897572
-0.25372794 0.019272335 0.4450173 0.06855039 -0.4107741 -0.22108693 0.3908956 -0.44795534
0.19241531 0.47062704 -0.123497516 0.30995184 -0.5878292 0.78776664 -0.09570416 -0.9887933

conv1.3.bias f4 [8]
00000000: 4deb c83d b6ba 89bc 3bf1 cf3d 2937 df3d
00000010: 56cb 2f3d 6b24 ddbd 60cd c0bd 06e1 723d
0.09810505 -0.016812664 0.10153433 0.10899193 0.042918526 -0.10797962 -0.09414172 0.05929663

conv1.4.weight f4 [8]
00000000: 122c a83f 2f37 bb3f fcd3 c93f d619 d83f
00000010: 1937 8e3f 5038 b63f 24a2 df3f d09b da3f
1.3138449 1.4626216 1.5767817 1.6882885 1.1110564 1.4235935 1.7471356 1.70788

conv1.4.bias f4 [8]
00000000: c6e0 8dbb d3fb a23e 9c2e a53d 0805 12bd
00000010: 61d0 a23d 9707 36bd 4efe ecbd 0735 f83d
-0.0043297736 0.31832752 0.08065531 -0.03564933 0.07949901 -0.044440832 -0.11571942 0.12119489

conv1.4.running_mean f4 [8]
00000000: ca4c 28bf f185 173f f55a 10c0 5c8c 77bf
00000010: 0c75 5140 fdd9 5a40 bb59 29c0 261e 39c0
-0.6574217 0.59188753 -2.2555516 -0.96698546 3.272769 3.419555 -2.6461017 -2.892465

conv1.4.running_var f4 [8]
00000000: b727 cc40 8287 8641 7143 7041 220e c041
00000010: 27f4 d340 19c1 4641 4753 9d41 ddf7 8a41
6.379848 16.816166 15.016465 24.0069 6.6235538 12.422143 19.665663 17.371027

conv2.0.weight f4 [16, 8, 3, 3]
00000000: c3cc 2dbe 846b 62be ed50 96be a95a 443e
00000010: e6cf 5cbe 9b10 993d 3ce6 0abd fc48 97be
00000020: bc8b 053e 71eb 773c b2c6 bdbd 6420 d43e
00000030: c4e5 1ebf f999 b3be 1f7a 273f 23ec 07bf
00000040: f664 62bf 6e75 0e3c a6ff 9dbe a88c 4bbe
00000050: dd78 c13d 5874 063f 49c5 003e 4134 743d
00000060: 2e08 6abe 5bb3 d8be dc05 353f ddee 133e
00000070: ef2d 4f3e cd21 193e 7c26 c8be df3b eebe
00000080: cbdb 0abe 2567 cfbe aed0 73bf 6dd2 1fbe
00000090: df37 70be 1b8b e5be a3ec 86bd 214f 833d
000000a0: 78d4 90bd 7dde 01be 7d5b 8f3d 0f73 dc3d
000000b0: fa2c 913e 22c1 f53e f66f a83d ee87 ef3e
000000c0: 7208 533e 88cd 063f 012c a13e a632 b13e
000000d0: 90e8 553e 6327 10be b95e 3bbe ba92 c5be
000000e0: 5dca 0c3f ebd8 173e 9ffd 7f3e 1c87 573e
000000f0: f170 dc3d 66f3 653d cc8d 043e c810 abbe
00000100: 6b68 05bf f79a 57be 5d45 6fbe c84b c6be
00000110: f170 62be 13c0 ff3e 0997 2b3d 1fb6 91be
00000120: cb6b 51be e928 9e3d 1b83 09bf 6a80 773c
00000130: d7cf a4bc f9e1 a0be 9d22 0b3e 8cec 70be
00000140: 19dc 7dbe 66ee 0ebe e406 06bf f4f3 f8be
00000150: 28cc 36bf 745b 65bf 4556 66bf dfb3 06be
00000160: 9493 24bf 65ef 913e 7396 4a3d aef0 a43e
00000170: d2e7 133e 3925 8dbe 554f 28bf e68d 8fbe
00000180: 21d0 53bd 4206 07bf 7431 c9be 2a3d 603e
00000190: 215d b13b f280 893d 1681 52be 5568 b0be
000001a0: 62ac 803e a596 523e b348 1f3e 6d81 283e
000001b0: 8965 0abf d555 c33c cc56 113d 5d21 68be
000001c0: 1722 a33c c383 593d e438 87be e4bf 8bbe
000001d0: 9a40 32be 8573 3ebc 1355 01bf 5d9d 92be
000001e0: 0fe2 a63c 605c 72bd e793 bfbd 7d87 f63e
000001f0: 9cb4 553e 0121 ea3d 30fa e03d f19c 0d3e
00000200: 0431 493e 128f ff3d 8831 553d 318a d33e
00000210: fb14 c63d 9b06 af3e 356b 99bb 7441 233e
00000220: c10c 523e 75fd b53e df72 403e e497 2e3f
00000230: 50b1 183e 67f9 9a3e 3900 b63e 37a2 683e
00000240: dc4a e3be 0a34 74be b412 28bf c03a be3d
00000250: 4738 4a3d 687c ad3e 4cbc d7bd 2d10 51bd
00000260: 599b 963e 35f1 373e cb44 03bf 63b5 9dbe
00000270: 0c99 c0bc b941 c8be 763f c1be f8e8 db3e
00000280: 967e d33e b611 f53e 5ea7 78be 1156 c63d
00000290: 6971 c5be 3d2c 4b3e f47a 643d 2081 b3bd
000002a0: 769f 1bbe f261 17be 3c8f bebe 37b9 12be
000002b0: 182e 813e 97df 1cbd 499c aabe 3401 8dbe
000002c0: 6bf8 4dbd 52d3 03bd 77b7 bd3e da68 f43e
000002d0: 49a2 48be c630 88be 8a1d 7dbd 3b84 853e
000002e0: d665 d43e ae7d cd3e 2c46 0bbe e701 0c3e
000002f0: f1cf b23d d170 81be fce0 b0bc da34 c3be
00000300: 1b2a 66be cdfc 7cbe 4026 a7be 694d 883c
00000310: fed8 cc3e 0cfe ce3e 005b a3be 4ecf 8abe
00000320: a70f 14be 3de4 4c3e 124c 183e 74c0 933e
00000330: 969f 043f 8d7d 153f f700 173f ee79 dfbd
00000340: 409a 7fbc a1ce 373e 2bc7 af3e f44d 973e
00000350: 9494 7c3e 0261 96bd f8e9 aebe 3a97 19be
00000360: 81f1 87bc d562 b4bd 349e 193e 7c2b a4be
00000370: e215 e3bd c8a6 273e b6b4 243e d0b6 b03b
00000380: 9b5e 03bd fd82 b5be 4171 a2be 8d2e 7b3c
00000390: c16f 9f3e 1344 93be dfbe 9abe fbcc 1d3e
000003a0: d541 d63e 49b3 893e af69 ba3e 1f6b 9d3d
000003b0: 4674 c03e a26d 073c f20e 333d 65d8 1c3f
000003c0: 8df5 9bbd 8181 e33d 9dbf 243e 0b87 94bd
000003d0: eefe 273d 9133 c33e 6388 8fbe 51e4 9dbe
000003e0: a894 7ebe 3a32 a2bd c456 2abe c0f1 30be
000003f0: 1f4b 44be 976e 3bbd 1833 1abe 99a6 003e
-0.16972642 -0.22111326 -0.29358616 0.19175209 -0.21563682 0.0747387 -0.033910975 -0.2954787
0.13041586 0.015131817 -0.09266414 0.41430962 -0.62069345 -0.3507841 0.65420717 -0.5309469
-0.88435304 0.00869499 -0.30859107 -0.19877875 0.09446881 0.52521276 0.12575258 0.059620146
-0.22854683 -0.42324337 0.70712066 0.14446588 0.20232366 0.149543 -0.3909186 -0.46530053
-0.13560407 -0.4050838 -0.95240295 -0.15607615 -0.23458813 -0.44832692 -0.065881036 0.06411577
-0.07071775 -0.12682529 0.06999872 0.10764133 0.28354627 0.4799891 0.0822448 0.46783394
0.2060869 0.52657366 0.31478885 0.34608954 0.20889497 -0.14077525 -0.18297853 -0.38588506
0.5499628 0.14828841 0.24999093 0.21047634 0.10763729 0.056140326 0.12944716 -0.3341124
-0.52112454 -0.21055208 -0.23366304 -0.38729692 -0.22113396 0.49951228 0.041892085 -0.2845926
-0.20451276 0.07722647 -0.53715676 0.0151063 -0.020118637 -0.31422403 0.13587423 -0.23527735
-0.24790992 -0.1395813 -0.52354264 -0.4862362 -0.7140527 -0.8959267 -0.89975387 -0.13154553
-0.64287686 0.28502956 0.049459886 0.32214874 0.14443901 -0.2756746 -0.6574605 -0.28037947
-0.05171216 -0.52743924 -0.39295542 0.21898332 0.005412713 0.067140475 -0.20557055 -0.344546
0.25131518 0.20565279 0.15555076 0.16455622 -0.5406118 0.023844639 0.035483167 -0.22668977
0.019913716 0.053104173 -0.26410592 -0.27294838 -0.17407456 -0.011624222 -0.5052044 -0.28635684
0.020371465 -0.059170127 -0.09354382 0.48150244 0.20869678 0.11432076 0.109852195 0.138294
0.19647604 0.1247846 0.05204919 0.4131637 0.096719705 0.34184727 -0.0046819695 0.15942937
0.20512678 0.35544935 0.1879382 0.68200517 0.1491139 0.30268404 0.35547045 0.2271813
-0.4439305 -0.23847976 -0.6565354 0.092885494 0.049370077 0.33883977 -0.10533962 -0.051040817
0.29415396 0.17963107 -0.51276845 -0.3080245 -0.023510478 -0.39112642 -0.3774373 0.4295118
0.41307515 0.47865075 -0.24282596 0.096843846 -0.38563088 0.19841094 0.05578132 -0.08764863
-0.15197548 -0.14783457 -0.37218654 -0.14328466 0.2523048 -0.03829917 -0.3332236 -0.2753998
-0.050285738 -0.032183953 0.37054035 0.47736245 -0.19593157 -0.2659971 -0.06179575 0.26077446
0.41483945 0.40134948 -0.13600987 0.136726 0.08731068 -0.25281385 -0.021591656 -0.3812626
-0.22477 -0.24705811 -0.3264637 0.016638475 0.40009302 0.40428197 -0.31905365 -0.27111286
-0.14459096 0.20008941 0.14872769 0.28857768 0.5180601 0.583947 0.5898585 -0.10911928
-0.015600741 0.17949916 0.3433164 0.2955166 0.24666053 -0.073427215 -0.3416288 -0.14999095
-0.01659465 -0.08807913 0.15001756 -0.32064426 -0.11088158 0.16372216 0.16084561 0.0053928867
-0.032072645 -0.354515 -0.3172703 0.015330923 0.3113995 -0.28762874 -0.30223748 0.15410225
0.418471 0.26894596 0.36408755 0.07686447 0.3758871 0.008265885 0.043715425 0.6126769
-0.076151945 0.11108685 0.1608872 -0.0725232 0.041014604 0.3812528 -0.28033742 -0.30838254
-0.24861395 -0.07919736 -0.16634661 -0.1727972 -0.19169281 -0.045759764 -0.15058553 0.12563552

conv2.0.bias f4 [16]
00000000: abaa ecbd c30a 2abd 1263 52bd bb2c a0bd
00000010: dfbf 9e3d de9d 843d 9774 e33c b912 2dbd
00000020: c149 013d e32c 193d 84f7 6cbd d3e6 5ebd
00000030: 5d34 57bc 88a5 06bc 934b ba3d b2db 92bd
-0.1155599 -0.04151417 -0.051364012 -0.07821032 0.0775144 0.06475423 0.027765555 -0.042254183
0.031564478 0.037396323 -0.057853237 -0.05441935 -0.013135043 -0.008218177 0.09096446 -0.0717081

conv2.1.weight f4 [16]
00000000: b93c 933f afdb 903f d9c8 8e3f f579 9c3f
00000010: aef4 9c3f 7ca1 ac3f 1d03 823f 0493 b03f
00000020: 8812 a33f ac21 bd3f b4fb 773f 6462 c83f
00000030: 7f9d aa3f 18d3 673f f95d 9e3f 0b2d af3f
1.1502906 1.1317042 1.1155044 1.2224718 1.226217 1.3486781 1.01572 1.3794866
1.274003 1.4775901 0.96868443 1.5655026 1.3329314 0.9055648 1.2372428 1.3685621

conv2.1.bias f4 [16]
00000000: 9b17 743e 7168 eb3e 0c99 3e3e 8f7b 983e
00000010: ed68 ab3d c92c 583d f800 f03d 362d 893e
00000020: 1ac9 083d 2667 14bd 7c6c 203e 1692 99be
00000030: 0885 433e 9be4 383e 55f3 8f3e 2aee cabe
0.2383713 0.4597812 0.1861307 0.29781768 0.083696224 0.052777085 0.11718935 0.26792306
0.03339491 -0.036231183 0.15666384 -0.29994267 0.19093716 0.18055956 0.28115335 -0.3963483

conv2.1.running_mean f4 [16]
00000000: b414 71c0 7a60 7bc0 91a1 9c3e 9a79 91c0
00000010: 7724 44c0 369a bec0 aab1 863f a1c1 40c0
00000020: bf67 2ec0 b667 76c0 db82 7fbf c431 9cc0
00000030: 6298 84c0 8785 0440 d439 9ac0 f545 61c0
-3.7668886 -3.9277635 0.30592015 -4.546094 -3.0647256 -5.9563246 1.0522969 -3.0118182
-2.7250822 -3.85008 -0.99809045 -4.881075 -4.1436014 2.0706499 -4.819559 -3.5198948

conv2.1.running_var f4 [16]
00000000: 9b2f bc41 840c a541 553c 8c41 7903 9141
00000010: 611a 9641 b358 c241 1de4 5441 a212 9d41
00000020: 6734 8d41 a9d3 9a41 bb61 5d41 0722 db41
00000030: c40e 9041 d2e2 8241 3669 a441 6449 6841
23.523245 20.631111 17.529459 18.126696 18.76288 24.29331 13.305692 19.634098
17.650587 19.35335 13.83636 27.391615 18.00721 16.360752 20.551373 14.517918

conv2.3.weight f4 [16, 16, 3, 3]
00000000: 87b4 97be 2c77 983e 1165 5f3d ca1c 08bf
00000010: 3af2 a1be 4c7e 85be 57c1 bdbe 11f5 85be
00000020: fa9f 95bc fd95 4fbe 282d 703c 96d0 133d
00000030: 3adc 7dbe ba50 83bc 5f61 cc3e d115 c2be
00000040: fc73 a4be 320e 5f3e 5ef0 57be e971 c3be
00000050: e705 66be 6099 7cbe 5503 c03e ef75 323f
00000060: 947f 30be ecfa bc3c 1b1e 913e 543a 4f3d
00000070: e74b 71be ef5a 513e c8ea c73c fc22 bdbd
00000080: b8f4 df3d da7c 413e 0a0d 9b3d 1b99 4c3e
00000090: 91f7 16be 6fb1 cabd 1c1b 0cbe 8f7e b9be
000000a0: dad8 dcbe 2a79 6cbc ce45 23be 6d3e b3be
000000b0: 90c8 6fbe 8d8c 9eba 4a26 2e3e d0c0 003e
000000c0: b34e dd3c 692b 573e 460a a6be e8c6 30bc
000000d0: d6ca 22be 978d 89bd 172f af3d 1563 943d
000000e0: 8e9d afbd 1ac3 0c3e 0f77 2f3f 0f66 5a3e
000000f0: ae57 573d 8c97 b03e 64e1 bdbd 52a4 8cbe
00000100: 5e95 293c 4c7c 183d 207d dabe 7b04 283e
00000110: fc25 6f3c 25d7 b6bb 4f90 843e 0a6c e23e
00000120: facb 9dbc 7b0f 3f3d a0c7 333e f28d 993e
00000130: cb99 153f d776 973e d9e5 c1bc fa88 b23e
00000140: 06dd 98be c215 a5bd dc6b adbe fbfe f23e
00000150: 0a0a e23d 77eb 6dbe e183 2fbd 4ce8 38be
00000160: ea81 13be 056b 453e 4ee7 913c a3b4 f23d
00000170: 48ce 0d3e 53ed 243b 5357 923d c85d ebbd
00000180: 47d6 27be 8e86 3b3e ce10 7ebe 0bcc 69be
00000190: e3eb c63d 3dfa 013e 2527 05be f5c4 d33d
000001a0: d815 e23c 4918 dabc d607 833e 7cb5 0f3e
000001b0: 6a51 59be aad4 d93d 03c5 0dbe 63c1 c13d
000001c0: 652e a83e c907 5f3e 6949 99be a5e2 1c3f
000001d0: b85d 32be 38dc 893e 99f9 0c3c d93f 76be
000001e0: 0d4e 94bd f818 eabd fcc9 9ebe 9981 3ebe
000001f0: 5ed2 eebd cbf4 1abe 758d eebd d191 323d
00000200: 7308 c0bc a4df 85bd cffe 743e b1d4 e5be
00000210: 3917 173e e7ce 153f a3c6 d83e 8679 73bc
00000220: 526d abbd f9b3 2c3d 3fd3 c03c 6ad4 163e
00000230: 6621 68bd 7440 73be 4a15 2b3d 4428 8fbd
00000240: 3f9b 003f d7e3 323e 0594 b8bd a764 7e3e
00000250: 469f 143f afc2 293f 3a73 87be e544 b9be
00000260: 91e1 273d 6dc1 79be 87cd f3be db00 0cbf
00000270: a195 8c3e a1fe 3cbe 7a69 d9be 9148 19bd
00000280: a8f8 cb3d ffdf f03d 5ed4 9cbe d8aa bfbe
00000290: 3a30 eebd b2c6 02bf 6d53 133e b774 243e
000002a0: ff61 fabd ab03 01bc 894b 4ebe 669f a43e
000002b0: 04ff 8fbe a8ba 15be 0a75 b13e ca82 4c3e
000002c0: 66f5 ebbc 0acf ca3b af4a 083d fd10 bfbd
000002d0: 41e6 2ebd 16f8 c63b 8d67 683c 3830 523e
000002e0: 3b86 18bd 22b8 193e 2878 7bbc 09de ec3c
000002f0: 6c04 633e 0676 003e 9a74 563e 0eeb b2be
00000300: 665e 4c3e 65f3 b33e d0ce cebe 076f df3e
00000310: 7acf f43d 9103 d2bd c69e 1a3e 788c a7be
00000320: 5417 d03e 4bbd ff3e 75df 8d3e 8990 5a3d
00000330: 7703 e3bc bae4 9a3e 82b9 033e b72a 3b3e
00000340: 9024 0e3c 4535 afbd e8ad e43d f84f c6bd
00000350: fcbe 113f 857d 48bd 4379 b33d c12e b0bd
00000360: 7fba 42be ef26 8cbe a9e8 30be 2385 06be
00000370: 1b65 92be a695 ad3c 16b4 053e b860 fb3d
00000380: b0bc a03d 4953 61be e152 c3bc 48b4 e03d
00000390: da2d 833d a68b 44be f423 833e f53e be3d
000003a0: 14ac bd3e f537 e5bd 0383 dbbe 9616 09be
000003b0: 5244 1a3e 0526 253d d053 123d d67f 8f3d
000003c0: ecb6 463e ab26 773e 7ca0 833e efa9 9a3d
000003d0: 8207 513d 34dc 953d 1a22 843e c51c cb3e
000003e0: b298 913e 7025 adbd b712 953e 459b dc3d
000003f0: dba9 ba3e 1c70 aabd d860 83bd 0e94 1fbc
-0.2962992 0.2977842 0.054539744 -0.5316893 -0.31630117 -0.2607292 -0.3706157 -0.26163533
-0.01826476 -0.2027206 0.014659204 0.036087595 -0.24791041 -0.016029704 0.39918038 -0.3790727
-0.3211974 0.21782759 -0.21087787 -0.38172844 -0.22463189 -0.24667883 0.37502542 0.697112
-0.17236167 0.023068868 0.2834328 0.050592735 -0.2356411 0.20444845 0.024403945 -0.09235188
0.10935348 0.18895283 0.075708464 0.1998028 -0.14742877 -0.09897124 -0.13682216 -0.3622937
-0.43134195 -0.014433185 -0.15944597 -0.35008565 -0.23416352 -0.0012096331 0.17006794 0.12573552
0.027015066 0.21012653 -0.32429713 -0.01078961 -0.15897688 -0.06716459 0.085539035 0.07245461
-0.08574973 0.137463 0.68541044 0.21327995 0.052573852 0.3449062 -0.092715055 -0.27469116
0.010350553 0.037227914 -0.42673588 0.16407959 0.0145964585 -0.0055798464 0.2589135 0.44223052
-0.019262303 0.046645623 0.1755662 0.29991108 0.58437794 0.29582855 -0.02366917 0.3487013
-0.29856128 -0.080607906 -0.33871353 0.4746016 0.11037071 -0.23234354 -0.04285038 -0.18057364
-0.14405027 0.19279106 0.01781049 0.1185086 0.13848221 0.002516587 0.07145562 -0.11492497
-0.16390334 0.18313047 -0.24811098 -0.22831742 0.097129606 0.12693115 -0.13003214 0.10340301
0.027598307 -0.026622908 0.25591916 0.14034075 -0.21222463 0.106362656 -0.13844685 0.09460714
0.32847896 0.21780314 -0.2993882 0.6128333 -0.17418563 0.26925826 0.008604431 -0.24047793
-0.072414495 -0.11430544 -0.31013477 -0.18604125 -0.11661218 -0.15132444 -0.116480745 0.043596093
-0.023441529 -0.06536797 0.23925327 -0.44888833 0.14754952 0.5851883 0.42339048 -0.014860516
-0.083704606 0.042163823 0.02353823 0.14729467 -0.056672476 -0.23755056 0.04176835 -0.06990102
0.50236887 0.17469727 -0.090126075 0.24843083 0.5805553 0.6631269 -0.26455098 -0.36185375
0.0409866 -0.24390192 -0.47617742 -0.54688805 0.27457908 -0.18456508 -0.42463285 -0.03742272
0.09959537 0.11761474 -0.30630773 -0.3743503 -0.11630292 -0.51084435 0.14387293 0.16060148
-0.122257225 -0.00787441 -0.20146002 0.3215286 -0.2812425 -0.14621985 0.34659606 0.19971767
-0.028803539 0.0061892318 0.03327435 -0.09329412 -0.042700056 0.0060720546 0.014184845 0.20526206
-0.037237387 0.15011647 -0.015348472 0.028914468 0.22169656 0.12545022 0.20942917 -0.34944957
0.19957885 0.35146633 -0.4039216 0.43639395 0.119536355 -0.102545865 0.1509963 -0.32724357
0.40642798 0.49949107 0.27709547 0.053360496 -0.027711613 0.3025263 0.12863734 0.18278013
0.008675709 -0.08555082 0.111659825 -0.096832216 0.56932044 -0.04894783 0.08763363 -0.086026676
-0.19016455 -0.27373454 -0.17276253 -0.13136725 -0.28592762 0.021189522 0.13056979 0.12274307
0.07848489 -0.22004427 -0.02384323 0.10971886 0.0640523 -0.19193897 0.25613368 0.09289352
0.37045348 -0.111923136 -0.42873392 -0.13387522 0.15065125 0.04031946 0.03572446 0.07006805
0.19405717 0.24135844 0.25708377 0.075519435 0.05103255 0.07317391 0.25807267 0.39670387
0.2843681 -0.08454406 0.2911584 0.10771803 0.36457714 -0.083221644 -0.06414956 -0.009739889

conv2.3.bias f4 [16]
00000000: b55a ef3b 4985 77bb 6b99 ccba 0ebb 6e3d
00000010: ae23 5d3d 8612 423d b4b1 c6bc 1b9c 603d
00000020: 0e2a a4b9 8a39 8fbd 2884 fbbc e229 2c3d
00000030: 1b47 b6bc e7ca 873d 7c02 60bd 200a 8fbb
0.0073045143 -0.0037768653 -0.0015609687 0.058283858 0.053989105 0.047380947 -0.024254657 0.054836374
-0.0003131185 -0.069933966 -0.030702665 0.04203213 -0.022250703 0.066304974 -0.05468987 -0.0043652207

conv2.4.weight f4 [16]
00000000: 7385 b53f bd79 a83f aaed 9c3f 266a 933f
00000010: 2af8 9b3f cf32 9e3f ac08 b13f 1ad5 863f
00000020: a6e8 8f3f 3581 9c3f 69df 893f 8080 8f3f
00000030: 9ff1 a73f 01c2 a23f 4563 9f3f c304 9b3f
1.418135 1.3162152 1.2260029 1.1516769 1.2185109 1.2359256 1.3830771 1.0533783
1.1242874 1.2226931 1.0771304 1.121109 1.3120612 1.2715455 1.245217 1.2110828

conv2.4.bias f4 [16]
00000000: a95c 173e f973 00be b13f 973b 96dc 333e
00000010: ddd8 073e ae3b 9cbe 96b3 a93d 9b61 e63e
00000020: 844f 2dbd c663 873c e4a6 00bc 7fea 8f3e
00000030: 1099 fb3d 2e1a 6b3d 3c8a ba3e 5d70 123e
0.14781441 -0.1254424 0.004615747 0.17564616 0.1326632 -0.30514282 0.082862064 0.44996342
-0.04231216 0.016527068 -0.00785229 0.28108594 0.12285054 0.057398014 0.3643359 0.14300676

conv2.4.running_mean f4 [16]
00000000: f510 e1bd eab4 fd3f 8103 dfbf 91b7 febf
00000010: b127 5fc0 8a5e 9abd 8bb5 ebbe 8ed5 d5bf
00000020: e4a0 e73f 1e71 3b3f c4be fc3f 922d 47c0
00000030: 1b9f 8ec0 ee34 7dc0 032e 89c0 b098 d1bf
-0.109895624 1.9820836 -1.7422944 -1.989977 -3.4867976 -0.07537563 -0.46036944 -1.6705797
1.8095975 0.7321948 1.9745717 -3.1121564 -4.456922 -3.9563556 -4.2868667 -1.6374722

conv2.4.running_var f4 [16]
00000000: 46c0 0e41 5999 0d41 78c6 0241 db66 e640
00000010: c18f 1141 cd1e c440 0fea 1641 c147 fe40
00000020: e6a5 fd40 7d57 0241 191c ae40 c78a f140
00000030: 4baa 2b41 4aed 1941 c03e 0941 f41d 0141
8.921942 8.849938 8.173454 7.2000556 9.097596 6.12876 9.432143 7.946259
7.9265013 8.146359 5.44093 7.5481906 10.729075 9.620432 8.57782 8.069813

conv3.0.weight f4 [32, 16, 3, 3]
00000000: 1c3d bfbd 3d66 37be 5c62 033e e591 92bd
00000010: e2c0 20be a6ec 433d be62 8b3e 48e6 c8bd
00000020: ffe0 18be 1993 4cbd 72fb f43d 43d9 973d
00000030: 8ccc a83e 0651 763e c910 a3bd 0569 f03d
00000040: 2ddf 623e c8c2 63bd 8d02 613e 77f5 7bbd
00000050: 6db0 8abe c69a 90be 001e 6fbe 533a f5bc
00000060: fe11 6e3e 676d 95bd cd97 9bbe 7d49 003e
00000070: 7a3b 333e 83a4 d93d b14d 80be 9d1e c53c
00000080: 27cf cd3d 9c37 7dbd eaad 17be 93c5 c23d
00000090: 4476 023d a5e6 3fbe cbd8 73be 0aea b9be
000000a0: a39a a9be b119 f5bd 120b ebbe b8bb e5bd
000000b0: 2a4b b3be 58e7 63bb ea66 2b3d dba8 103e
000000c0: 01c8 55bd 8623 acbd 53f0 39bc a6c1 973d
000000d0: b2f1 5c3e c6f7 7a3d a05f eebd 9680 fdbc
000000e0: 1fba 56be da53 0d3e f5a0 6f3e f394 043e
000000f0: 9702 45be 515b 86bd 168d f4bd adf9 c33e
00000100: a03e 143e b556 1fbd c24b 8d3d 24a6 6a3e
00000110: 95be 38bd 14c0 cdbd 5e79 373e e500 a53e
00000120: eaa1 d0bd d625 b6bd 2f46 963d beea 7fbe
00000130: a0d3 b0be dfa9 42be 0798 58be 9aa2 c9be
00000140: ae4b 9fbe 710b 01be 8d8b 90bd ea5f 25be
00000150: d8cb 9bbe e2ab f9be d100 92be 75bf c43d
00000160: 68a2 fdbe 1fcd 74be 3246 5abd b3e1 00be
00000170: 19c9 a0bd d960 72be 63c0 fcbe 416b 1fbe
00000180: 2135 c6ba f5eb 893d 19b4 0ebe f82f 7abe
00000190: 5675 0e3d 05a9 b8be 9940 57bd 28c7 943e
000001a0: 8e2f 83bd 6114 e8be 9947 d83c bd04 593e
000001b0: 2685 383e c8d3 083e b14d 1a3e 0da1 bc3d
000001c0: f796 5d3e a2ec fe3e 0cd0 873d fcd2 39be
000001d0: 777a 4d3d 6574 823e 0b62 503e 6f9c 75be
000001e0: add5 93bd 0d40 b33d 758a 623e 73f4 2f3e
000001f0: 05c8 003d 029d 94bd 39d9 9e3d 26ad 1a3c
00000200: df44 59bd 0db6 cc3e 889f c73e 29ef f7bb
00000210: 5e89 89be 7a04 b43d 256b 32bd 669c 7c3d
00000220: 1c0d 84bd 75af 95be 092b afbe 8d76 16bf
00000230: 338e 14be 75cc 3bbe 9ef9 283e 9007 cbbd
00000240: 2b78 f5bd 26ee 57be 7d55 2fbd d2db f33e
00000250: 7473 1dbd 83a8 6cbe d833 f13e 065b c53d
00000260: 47d8 bdbc 9c86 95bd 734c e43c 90c7 fdbd
00000270: 4ff2 723d 708f d23d 1e9c a4be 1373 c2bd
00000280: f685 3fbd 79f5 8cbe 3590 b2be 4231 dabd
00000290: b923 2d3d f348 483e c9f4 53be 6ebf ae3e
000002a0: d462 953e 5b46 b8be 1ce8 383e e07d 4bbe
000002b0: bab6 8abe ef46 39be 81e8 373d d0b1 663e
000002c0: 7ed1 e43d ca1e 4e3d 411c e33d 0bd1 9b3e
000002d0: b6af f1bd 1c7d 043e 6442 753d 7421 c1be
000002e0: 5a40 88be d16a 943d 511f b6be f0f2 40bd
000002f0: 6529 fabd 017d b8be 675a 0ebe 905c 4abe
00000300: 8742 6f3d 2175 06bf da64 adbd c18c 3e3e
00000310: fc76 6cbe 331e a0bd d5a8 11be 813c 2bbc
00000320: 48b3 b4bd db39 03bd 9157 833e 5d6a 9c3e
00000330: 6746 a0be 42c7 bc3d c7ef 98bd 5974 923e
00000340: e654 58bd 8750 fc3d e130 043f 5b26 103d
00000350: be98 17bf 7f67 50be 947c bb3e a3f0 24bf
00000360: 3b9d 5fbe a82b c73e 6359 29be 7378 90be
00000370: d18a a9bd e68a f43c c779 1dbf 8948 6abe
00000380: 9c36 e93d 5129 90be e41b babe 3c6a 67bd
00000390: cc04 2f3e c98e 013c 45ea 7a3e ceba 86be
000003a0: 78b8 8e3d 4d97 933d 2f38 03be 6825 21be
000003b0: 837a fc3d 3eeb a63e b9c5 e53d 5c5a 053e
000003c0: a7e7 36be eda0 8e3c 22f6 b73e c46f e6be
000003d0: 94ae 673d 530f 3d3e 3c1b 0b3c 956f bf3e
000003e0: d7c6 ca3c fe24 87bd 3ed0 c63e a361 92bd
000003f0: eedb 75be a556 8cbd f4d7 093e c19e 153f
-0.093378276 -0.17910095 0.1283049 -0.071567334 -0.15698579 0.047833107 0.27223772 -0.09809548
-0.14929579 -0.04994497 0.11962022 0.07414486 0.32968557 0.24054345 -0.07962186 0.11738781
0.22155447 -0.05560568 0.2197363 -0.06151339 -0.27087727 -0.28243083 -0.23351288 -0.029935038
0.23249051 -0.072962575 -0.30389252 0.12528034 0.17503157 0.10627081 -0.25059274 0.02406245
0.10049277 -0.06182061 -0.14812437 0.095103405 0.03185107 -0.18740328 -0.23813169 -0.3631137
-0.3312579 -0.11967791 -0.45906883 -0.11217445 -0.35018283 -0.0034775343 0.041846193 0.14126913
-0.05219269 -0.08405213 -0.011348802 0.074099824 0.21576574 0.06127145 -0.11639333 -0.030945104
-0.20969437 0.13801518 0.23401244 0.12947445 -0.19239269 -0.06560386 -0.119409725 0.38276425
0.14477015 -0.03890105 0.06899215 0.2291494 -0.04510363 -0.100464016 0.17917392 0.32227245
-0.10187133 -0.088939354 0.07337605 -0.24991891 -0.34536457 -0.19010113 -0.21151744 -0.39381868
-0.31112427 -0.12602021 -0.07057867 -0.1614987 -0.30428958 -0.4876395 -0.28516248 0.0960683
-0.4953797 -0.23906372 -0.0532896 -0.12586097 -0.07850856 -0.23669757 -0.4936553 -0.15568258
-0.0015122035 0.06734458 -0.1393589 -0.24432361 0.03477987 -0.36066452 -0.05255184 0.29058194
-0.06405555 -0.45328048 0.026401328 0.21193214 0.18019542 0.13362038 0.150687 0.092104055
0.2163962 0.49789912 0.06631479 -0.1814689 0.05016562 0.25479427 0.203499 -0.23985456
-0.0721849 0.08752451 0.2212313 0.17183094 0.031440753 -0.07256509 0.07756276 0.009440696
-0.053044196 0.39982644 0.389889 -0.007566352 -0.26862615 0.08789916 -0.043559212 0.06167259
-0.06447813 -0.29235426 -0.3421252 -0.58774644 -0.1450737 -0.18339713 0.16501471 -0.09913552
-0.11985811 -0.2108694 -0.042806137 0.47628647 -0.038440183 -0.23111157 0.47109866 0.09636502
-0.023174418 -0.07301065 0.027868485 -0.12391579 0.059313115 0.10281265 -0.32150358 -0.09494605
-0.046758614 -0.2753103 -0.34875646 -0.106539264 0.042270396 0.19559078 -0.20698847 0.34130424
0.29176962 -0.35991177 0.18057293 -0.19872236 -0.27092534 -0.18093465 0.044899467 0.22528768
0.1117277 0.05032233 0.110893734 0.30432925 -0.11801092 0.1293835 0.05987777 -0.37720835
-0.26611596 0.07246936 -0.35570768 -0.047106683 -0.12214927 -0.3603287 -0.13901673 -0.19761872
0.058413055 -0.52522475 -0.084665015 0.18608381 -0.23092264 -0.0781826 -0.1422456 -0.010451437
-0.08823258 -0.032037597 0.25652745 0.305499 -0.31303713 0.09217693 -0.07467609 0.2860439
-0.05281534 0.12320047 0.51637083 0.03519283 -0.5921744 -0.2035198 0.36618483 -0.6442968
-0.21837322 0.38900495 -0.16538005 -0.28216895 -0.0827843 0.029851388 -0.6151394 -0.22879232
0.11387369 -0.28156522 -0.36349404 -0.056497797 0.17091674 0.007907578 0.24503429 -0.26314396
0.06968778 0.07206593 -0.12814401 -0.15736926 0.12328055 0.3260135 0.11219353 0.1302275
-0.17861806 0.01741072 0.35929972 -0.45007145 0.056562975 0.18462877 0.00849038 0.37389818
0.024753017 -0.065988526 0.3883075 -0.07147529 -0.24009678 -0.06852464 0.13461286 0.58445364

conv3.0.bias f4 [32]
00000000: a093 49bd 9f13 993d 43f1 143d 4e7d 28bd
00000010: 9608 e33c 263a be3c 9a3d 9cbd 0c07 943d
00000020: f018 9a3d 83b7 953d 7027 bdbc 8b07 efbc
00000030: 3e58 2abd c04e 8d38 8673 bf3c 554d 24bb
00000040: f6b9 ed3c 6087 ee3c e828 57bd 0e6e 45bd
00000050: 7bda febc 9b0f a73d c8b1 5dbd 334c 37bd
00000060: 2efb 58bd f935 c3bb 1f8d 803d 568b 19bc
00000070: f8a0 3abd fe42 87bd bcfe 8ebd d24f a1bb
-0.04921305 0.074744456 0.036362898 -0.041135125 0.027714055 0.023221087 -0.07628937 0.072279066
0.07524288 0.07310393 -0.023090094 -0.029178401 -0.04158806 6.738072e-05 0.023370516 -0.0025070508
0.029019337 0.029117286 -0.052529246 -0.04820066 -0.031110039 0.081572734 -0.054124624 -0.044750404
-0.05297392 -0.005957362 0.06276917 -0.009371599 -0.045563668 -0.066045746 -0.069821805 -0.0049228454

conv3.1.weight f4 [32]
00000000: 7611 a43f a122 993f 09d3 843f 0490 8d3f
00000010: 5230 b43f 2d4a 8c3f 2af7 a93f 50b9 a93f
00000020: 254a a23f af4d 843f aafa 7b3f 0ce0 8f3f
00000030: 44e4 963f 50e0 a43f 27e5 8e3f f823 9a3f
00000040: 14c7 9d3f 3cc2 973f 8451 8b3f a8b0 973f
00000050: c91e 8d3f b47c 873f f9f6 9c3f a859 9d3f
00000060: 396a aa3f de88 9e3f e30d 8f3f 8553 8e3f
00000070: 3956 7f3f 32c4 583f b53f 9b3f de3d 903f
1.2817829 1.1963693 1.0376903 1.1059575 1.4077246 1.0960137 1.3278553 1.3259678
1.2678877 1.0336207 0.9842936 1.1240249 1.1788411 1.2880955 1.1163682 1.2042227
1.2326379 1.1856151 1.0884252 1.1850786 1.102502 1.0584931 1.226287 1.2292986
1.3313667 1.2385519 1.1176113 1.1119238 0.9974094 0.8467437 1.2128817 1.126888

conv3.1.bias f4 [32]
00000000: 5b71 7abe d3ab 463d ee8d 96be c124 79be
00000010: 559f 7cbe 9890 69be cc96 c6bd 1e27 4fbe
00000020: 131d fcbd 65af 05bd ffa4 e6bb 6bd6 9cba
00000030: 27c6 89be 4220 a0be a8f9 fc3c a3d6 a9be
00000040: a71a 9ebe 9f99 fbbe ea19 32be da24 8dbe
00000050: a80c 50be 4701 87be 501d e7bd eccd 8abe
00000060: e9e7 8dbe f2f0 21be 17d4 bebe e755 f1bd
00000070: 3fc3 96be 452b c0bc 97a9 88be cf42 b3bc
-0.24457304 0.048503708 -0.2940516 -0.24330427 -0.24670155 -0.22809064 -0.09696731 -0.20229766
-0.12310233 -0.032637972 -0.007038712 -0.0011965757 -0.2690899 -0.3127461 0.030880764 -0.33171567
-0.3087971 -0.4914064 -0.17392698 -0.27567178 -0.20317328 -0.26368162 -0.11284888 -0.2711023
-0.27715996 -0.1581457 -0.37271187 -0.11783963 -0.29445836 -0.023458133 -0.26691887 -0.021882443

conv3.1.running_mean f4 [32]
00000000: 69bd 93c0 3536 4bc0 8fae 9f3f 7b77 993e
00000010: 5e7c 6fc0 dfaa cf3f 1fc4 8dc0 2e86 9dc0
00000020: 221e 06c0 7154 6cc0 88c8 0bc0 6b02 4bc0
00000030: fc05 743f 0a3d 27c0 ff29 a9c0 43e2 abc0
00000040: 0de9 e7bf d4a7 ec3f 0dfb fd3f 01d0 28c0
00000050: 61d1 a5bf 52ca f43e 0de5 81c0 7f32 9ac0
00000060: bb8e ecc0 fb42 15c0 a702 033e 44ac 0cc0
00000070: 7dc1 eabe 56df 7440 032d 17c0 ca58 9bc0
-4.6168714 -3.1751835 1.2475146 0.2997397 -3.7419658 1.6224021 -4.4301906 -4.9226294
-2.0955892 -3.692654 -2.1841145 -3.1720226 0.9532163 -2.6131005 -5.2863765 -5.37137
-1.8117996 1.8488717 1.984224 -2.6376956 -1.2954522 0.47810608 -4.0592103 -4.818664
-7.392423 -2.3322132 0.1279398 -2.1980143 -0.45850745 3.8261313 -2.3621223 -4.8545885

conv3.1.running_var f4 [32]
00000000: 443c a841 e84e 6541 4daa 1d41 0195 3f41
00000010: e019 8341 9f60 2941 6f75 6841 5707 7b41
00000020: a456 6541 2e33 4541 da31 4841 34a0 4941
00000030: 8da1 3941 2163 6a41 133c 4641 326f 4c41
00000040: a591 1c41 c81b 3841 575c 2a41 5cbd 3941
00000050: f030 3341 bfec 3241 bb81 4841 1e73 5b41
00000060: 3a34 4f41 6783 4841 509c 0f41 559e 3f41
00000070: a1a8 2f41 36b3 2c41 63c3 5741 c91e 1341
21.029427 14.331764 9.854077 11.973878 16.387634 10.586089 14.52867 15.689292
14.3336525 12.324995 12.512171 12.601612 11.601941 14.649201 12.389667 12.777147
9.785558 11.506783 10.647544 11.60873 11.199448 11.182799 12.5316725 13.715605
12.950251 12.532081 8.975662 11.976155 10.978669 10.793753 13.485202 9.195016

conv3.3.weight f4 [32, 32, 3, 3]
00000000: b39a 72bc 365c 873d 4b79 21bd 13a3 a93e
00000010: 1566 59be 4bc4 403e 6253 2a3e 2de7 99be
00000020: 576b d2bc 5c50 51be 3ede c03c a450 0cbe
00000030: ab46 1fbe 3b01 13be bbb0 4cbe 13c8 9c3d
00000040: 512d 063d 5307 a6bc f77e c6be db41 413d
00000050: 5346 653d 2a03 7abd 2df9 293d 2e7a 1abd
00000060: a678 adbe 9496 4e3e 022c d03b f0f0 383e
00000070: 3249 853d a115 763d 4678 27be 7df4 c23d
00000080: b5e0 8a3d 1fec 35be b1a3 04be eeda 5fbe
00000090: d7c6 5a3e 18ae 863e 0fbf d53d 7e58 163e
000000a0: 874c 1abe aaed d9bd 00ad 4a3d cf32 b0bd
000000b0: 9b9c e3bb 5b89 83bc e997 5bbe 7eef 7c3d
000000c0: 3c20 20bb ac21 e1bc 5582 d03d a94b 7cbe
000000d0: 7b45 0bbe ed7f 93be e80d 763e 9cb7 e33d
000000e0: ad4d b2be 55a5 9ebd 0921 dbbc 0541 cb3e
000000f0: 3003 073e 0e48 7cbe fd1d f13d 6577 bfbd
00000100: 60fe bc3d 178a 333e 3188 85bd c880 813c
00000110: 2d02 76be 7e70 c13b ce28 183d b8d8 59be
00000120: 5e82 31be 4f1e 6dbd fa0e 7c3e e596 76be
00000130: 048f 88be ff16 7bbe cf3a 04be 2d61 70be
00000140: c6c4 48be c07b adbe bb68 83be ddbe 15be
00000150: c684 b2bd e390 5fbe 45e0 45bd 64d8 cb3d
00000160: 0a63 b1bd 415a 733e b239 d93d 088d 983e
00000170: acef d4bd 5b31 a5bd c51a d53d 2fcc 543e
00000180: 7a8b adbe ce05 593c 5d48 a83d b032 473e
00000190: 75f4 b7bc 7521 c5be ed2e 993e ea75 773d
000001a0: 4635 a4be e335 eebd 3249 573e f22a 6e3d
000001b0: 75e9 63be 2440 f93d c088 683e 75a3 873e
000001c0: d1a6 3f3e 5870 523e 3478 10be 8d1c adbc
000001d0: ca97 443e 04d8 52bd e224 893e 0e67 873e
000001e0: a942 babd d6f7 3dbd 9779 d53d 3cba aabe
000001f0: 7645 b93c d5c6 bb3d 6c02 da3c dd41 a8bd
00000200: d8d3 5ebd 2db5 69be 6f28 89be abb1 79be
00000210: a65d 1abe 0198 7e3e 696e 973e dceb e33d
00000220: b602 163d 8667 22be da1e 0fbc f24a 003f
00000230: f9c1 0fbe e804 2cbe 3aec 5d3d 32e5 17be
00000240: 66fd 93be a0ad 353d b82d 4cbe ba32 023e
00000250: 1e36 c539 e84b 263e 3840 803e d949 c23e
00000260: 583b 233d 10f3 38be e68b 32be dde8 d5bd
00000270: b2b5 10bd cad3 0dbe bddf 143c aa44 993e
00000280: 39d7 c2bb 0f15 efbe 361f 883d 04d3 983d
00000290: b994 a0bd f68a 9fbe 85cf c4be 56d8 19be
000002a0: 5181 58be 4b0a 543d c7c3 5d3e 678c 923e
000002b0: f4c4 893e daff 9a3e 9eb2 863d 42a9 fb3e
000002c0: b47c 303e 2c0e c8ba 63e9 a63d d4fa 75bd
000002d0: eef7 c2be c6bc 26be 9fdf 2bbe 4f34 083e
000002e0: 04bb bdbd 3e45 38be 2334 b13c 86a5 0cbd
000002f0: 8be2 18bd 10f6 323e 2786 6a3d a9d8 133e
00000300: 767f bcbd b015 e83d 7d76 b93d ae92 94be
00000310: 3b90 d2bc 98db 153e b314 b83e 04b0 36be
00000320: 187f f33c 4f6f bdbc ee19 0ebe 3d98 7f3d
00000330: 8dcc 8dbd 9d7e 58be e700 1b3e 0a02 18bd
00000340: faf4 0a3e d322 8cbc 01a6 13be 9494 e0bc
00000350: 9600 5cbe ca57 443d 8622 1ebe 7e5e 38be
00000360: 190f d6bc 9dfc 7dbe 5bd1 bd3b 3e1c 093d
00000370: 55f9 4bbe d730 91be 14e8 5ebe 7035 0abe
00000380: a78c 8ebc 5d42 0dbe 19c6 6ebe 3562 a0be
00000390: 3265 5f3e 378d 95bc 493e 4ebd 4d4e 833a
000003a0: c16e 563d da58 21be 3cbb 1e3d df1b 36be
000003b0: af21 83be ceed c53d 6878 60be 07bb 78be
000003c0: 1c70 1c3d f45c 1e3e 6553 be3d 8cec 4abe
000003d0: 4378 f33d 53b4 95bd 6704 913c aec2 833d
000003e0: 4029 60bb b1d9 87bd 21c3 52be f05d 653e
000003f0: 53ba 373e f64e 4cbe e657 913e b624 6cbe
-0.014807391 0.06609385 -0.039422315 0.33132228 -0.21230347 0.1882488 0.1663337 -0.30059186
-0.02568595 -0.20440811 0.023543473 -0.13702637 -0.15554301 -0.14355938 -0.19989292 0.07655349
0.03275806 -0.020267164 -0.3876874 0.047181945 0.05597527 -0.061038174 0.0414974 -0.037714176
-0.3388111 0.20174628 0.0063529024 0.1806066 0.065081015 0.06007922 -0.16354474 0.09519289
0.06781141 -0.17765854 -0.12953068 -0.21860859 0.21364914 0.26304698 0.10436832 0.14682195
-0.15068255 -0.10641034 0.049481392 -0.08603441 -0.006946159 -0.016056707 -0.21444668 0.061751835
-0.0024433276 -0.027481876 0.10181109 -0.24638237 -0.13600723 -0.28808537 0.24028742 0.11119005
-0.34824887 -0.07746378 -0.02674915 0.39698043 0.1318481 -0.24636862 0.11773298 -0.093489446
0.09228206 0.17533146 -0.06520117 0.015808478 -0.24024267 0.0059033027 0.03714829 -0.21274078
-0.17334887 -0.057890233 0.24615088 -0.24080999 -0.26671612 -0.24520491 -0.12913059 -0.2347457
-0.19606313 -0.33883476 -0.2566584 -0.1462359 -0.08716731 -0.21832614 -0.048309583 0.099533826
-0.08661468 0.23764898 0.10606708 0.29795098 -0.10397276 -0.080660544 0.104054965 0.20781015
-0.33895475 0.013246013 0.08216927 0.1945293 -0.022455433 -0.38502088 0.29918614 0.060415186
-0.32071894 -0.11631372 0.21024016 0.058146425 -0.22257026 0.12170437 0.22708416 0.26491895
0.18715979 0.20550668 -0.14108354 -0.021131778 0.19198528 -0.05147554 0.26785952 0.26445812
-0.09094746 -0.046378933 0.10423582 -0.3334521 0.02261613 0.091687836 0.026612483 -0.082156874
-0.05440125 -0.2282302 -0.2678866 -0.24384181 -0.15074787 0.24862672 0.29576424 0.11128971
0.03662368 -0.15859804 -0.008735383 0.5011436 -0.14038838 -0.16798747 0.05418036 -0.14833525
-0.28904265 0.044355035 -0.19939315 0.12714663 0.00037615089 0.16239893 0.25048995 0.37946966
0.039851516 -0.18061471 -0.1743618 -0.10444806 -0.03532953 -0.13850322 0.0090865465 0.299352
-0.0059460667 -0.46695754 0.06646578 0.07462123 -0.078408666 -0.31160706 -0.38439575 -0.15023932
-0.2114308 0.05176763 0.21656714 0.28622743 0.26908076 0.30273324 0.06577037 0.4915257
0.1723507 -0.0015263013 0.08149984 -0.06005366 -0.3807978 -0.16282949 -0.16784523 0.13301204
-0.09264186 -0.17995164 0.021631306 -0.034337543 -0.037325423 0.17476678 0.057256844 0.14438118
-0.09203999 0.113322616 0.09055803 -0.29018158 -0.02570354 0.1463455 0.35953292 -0.17840582
0.029723689 -0.023124365 -0.13877079 0.062401045 -0.069237806 -0.21142049 0.15137063 -0.03711132
0.13570014 -0.01710645 -0.14418794 -0.027414598 -0.21484599 0.047935285 -0.15442857 -0.18004796
-0.026130246 -0.24803396 0.0057927794 0.0334742 -0.19919331 -0.28357574 -0.21768218 -0.13496947
-0.017401053 -0.13794847 -0.23317756 -0.31324926 0.21815947 -0.018255813 -0.05035237 0.0010017842
0.052351717 -0.1575655 0.03875278 -0.1778407 -0.25611636 0.09664498 -0.21920931 -0.24290095
0.038192853 0.15465146 0.0929325 -0.19816798 0.118881725 -0.07309785 0.017702295 0.064336166
-0.0034204274 -0.06633318 -0.20582248 0.22399116 0.17942171 -0.19951996 0.28387374 -0.23060879

conv3.3.bias f4 [32]
00000000: 0d93 7bbc 6021 4bbd 84ae 0b3d d9b7 323b
00000010: edbb 33bd e9b5 21bc 3c09 ad3c ffd2 c83a
00000020: 33c7 dfbc c9a2 bd3c 3e6c 783c 3679 7bbc
00000030: fef7 abbb 4d6a 2abd c0da c83a e1aa 70bd
00000040: ea38 f03c 352e e03a 3290 163c fcd7 cdbc
00000050: 5837 6c3d 08f5 25bd fb74 04bc 95a5 02bd
00000060: ef77 56bd 358d 883c e8c7 193c 0acc 883c
00000070: 3b72 f0bb 2c00 60bd c00c 703d e97f 493c
-0.015354884 -0.049592376 0.034101978 0.0027270226 -0.043880392 -0.009870031 0.021122567 0.0015321671
-0.027316665 0.023148911 0.015162526 -0.015348723 -0.005248069 -0.041605283 0.0015323982 -0.058756713
0.029324014 0.0017103615 0.009189652 -0.025127403 0.057669967 -0.040516883 -0.008084531 -0.031896193
-0.05236047 0.016668895 0.00938604 0.016698856 -0.007337836 -0.054687664 0.05860591 0.012298563

conv3.4.weight f4 [32]
00000000: fd27 853f 8f58 823f 0418 8a3f 47bb 943f
00000010: 2b73 753f 61aa 7e3f 1e96 673f 03cb 993f
00000020: d9f9 8f3f 6932 963f b99d 8e3f c3fe 923f
00000030: a736 7f3f 5e1b ad3f 15dc 863f a2b7 833f
00000040: 3775 8f3f ae13 7a3f 0fbb 973f 9f30 6f3f
00000050: 3b10 883f 40f6 913f 9de9 8e3f 8d01 873f
00000060: 5fa9 723f 1e0b 773f 8d1b 733f 49ba 833f
00000070: b3b6 7f3f a13b 9c3f ccea 913f 0f9b 823f
1.0402828 1.0183276 1.0788579 1.1619653 0.9587886 0.9947873 0.90463436 1.2015079
1.1248122 1.1734134 1.1141883 1.1483997 0.9969277 1.3523977 1.0535914 1.0290415
1.1207646 0.9768628 1.1853961 0.93433565 1.0629953 1.1403275 1.1165043 1.0547348
0.9478969 0.9650134 0.94963914 1.0291225 0.9988815 1.2205697 1.1399779 1.020357

conv3.4.bias f4 [32]
00000000: f1c0 1fbf f5da 96be ddfd 0fbf 8fa8 12bf
00000010: 224f 0fbf 0554 0ebf 3a53 c3be 6e56 3cbf
00000020: 5ddc 2ebf 56a3 11bf db67 22bf b83b e7be
00000030: 40e3 ccbe 710a 15bf 26fa b3be f98f d5be
00000040: 4bb0 0ebf 6d4a babe c1dc b5be 6f74 b4be
00000050: 0219 f3be 736e 0abf 1098 1ebf e010 e1be
00000060: 9fbd 52be db26 0cbf 5f7d f2be 1dc4 1cbf
00000070: 6226 b0be ce27 0dbf 56ab 16bf b1c0 a0be
-0.6240378 -0.29463926 -0.5624674 -0.5728845 -0.5598012 -0.55596954 -0.38149434 -0.7356938
-0.68305 -0.56889856 -0.6343972 -0.4516275 -0.40017128 -0.5821906 -0.35151786 -0.41711405
-0.5573775 -0.36384907 -0.35519984 -0.35245082 -0.47480017 -0.5407478 -0.6195078 -0.43958187
-0.20580147 -0.5474679 -0.47361276 -0.61236745 -0.34404284 -0.5513886 -0.5885519 -0.31397012

conv3.4.running_mean f4 [32]
00000000: 34e8 d8bf 0f37 d7bf fbbb 84bf 1ae3 adc0
00000010: 140e 48be 8689 27c0 4fcb af3e cfae c6bf
00000020: df97 48bf 4fcd 28c0 ef46 4ebf 33f2 d6bf
00000030: 223b bf3f 59b5 2ec0 01c9 16c0 eea5 47c0
00000040: 083f 2bbf 6ca5 c3bf bec2 bdbf 358e 8f3f
00000050: 8f5e a93f f2e3 dcbf 776a c2bf 71dd dfbf
00000060: 0af7 50c0 6a83 17bf 2058 ca3e 6cdc f8bf
00000070: f77a 9cbf 66f7 46c0 cfa3 80bf 64c6 6abf
-1.6945863 -1.6813678 -1.0369867 -5.4339724 -0.1953662 -2.6177688 0.343348 -1.5522097
-0.78356737 -2.637531 -0.80576986 -1.6792663 1.4939921 -2.7298186 -2.3560183 -3.1195025
-0.66893053 -1.5284858 -1.4825056 1.1215273 1.3231982 -1.7257063 -1.518874 -1.7489454
-3.265078 -0.59184897 0.3952036 -1.9442267 -1.2225026 -3.10885 -1.004999 -0.9170897

conv3.4.running_var f4 [32]
00000000: 70fc 8940 71cb 9e40 e48f 8d40 098f aa40
00000010: 96a1 8840 ca11 b440 ecc9 6e40 9ca1 d940
00000020: e772 8e40 af78 8b40 0665 9f40 c4fe 9040
00000030: 0332 7740 f77f d540 7eb0 8e40 63bd 9240
00000040: 1b28 8b40 b77e 8640 d4cf c040 2189 6040
00000050: 9756 8840 97fd 8f40 818a 9f40 688e 5440
00000060: 9fc5 7940 b509 8940 4712 7940 2632 9f40
00000070: d108 8140 e735 8f40 366e c940 437d 8540
4.312065 4.962334 4.423815 5.3299603 4.269725 5.6271715 3.7310743 6.8009777
4.451526 4.358482 4.981082 4.5310993 3.8624275 6.6718707 4.4590445 4.5856185
4.3486457 4.202968 6.0253696 3.5083697 4.26057 4.499706 4.985657 3.3211918
3.9026868 4.282435 3.8917406 4.9748716 4.032326 4.47533 6.2947035 4.1715407
