trained_models/last_cnn.pt (torch, 958866 bytes, 92 tensors)

conv1.0.weight f4 [8, 3, 3, 3]
0	0xbec93530	-0.3929839
1	0xbe1ad3de	-0.15119883
2	0x3f0c966f	0.54917043
3	0xbf103960	-0.5633755
4	0xbea678f4	-0.32514155
5	0x3ea990dd	0.33118334
6	0xbf9a6895	-1.2063166
7	0xbf5f3c6e	-0.87201583
8	0xbe917417	-0.28408882
9	0x3d9f5a88	0.07780939
10	0x3d36aa93	0.044596266
11	0xbcbb9528	-0.022898272
12	0x3ec28d33	0.3799835
13	0x3f59ed05	0.8512729
14	0x3e3159c3	0.17319398
15	0xbef083fc	-0.46975696
16	0xbe24b414	-0.1608432
17	0xbdd3b928	-0.1033805
18	0x3e210a0e	0.15726492
19	0xbe0e6595	-0.13905938
20	0xbf82b283	-1.0210727
21	0x3f6af830	0.91784954
22	0x3f3fdef0	0.7494955
23	0xbef07bde	-0.46969503
24	0x3f8efff3	1.117186
25	0x3f85417f	1.0410613
26	0x3e6c45b0	0.23073459
27	0xbcd891f6	-0.026436787
28	0x3fb9f3a4	1.4527478
29	0xbe3eafff	-0.18621825
30	0x3f36fbad	0.71477777
31	0xbfab0b8a	-1.3362896
32	0xbf57619a	-0.84133303
33	0x3f52a3d5	0.8228124
34	0x3eebe1dc	0.46070755
35	0xbf69daaa	-0.9134928
36	0xbe039f91	-0.12853839
37	0x3f07eca2	0.5309545
38	0x3dad3953	0.08458199
39	0x3ef09955	0.46991983
40	0xbff45556	-1.9088542
41	0xbf10e1c8	-0.56594515
42	0x3f4928ea	0.78578055
43	0x3e8eb4fa	0.2787245
44	0x3e81d062	0.25354296
45	0xbe93ae51	-0.2884393
46	0x3ebc51fd	0.36781302
47	0x3f6f1fdd	0.93407995
48	0xbe25e5cf	-0.16200946
49	0xbfcc3848	-1.5954676
50	0x3f07af2c	0.53001666
51	0xbd8a9b57	-0.0676791
52	0xbedaf51f	-0.42765138
53	0x3f4e5f53	0.80614203
54	0x3ea59c42	0.32345778
55	0x3ed95127	0.42444727
56	0x3ca0642c	0.019579016
57	0xbf18dc53	-0.5971119
58	0x3ecbc748	0.39800477
59	0x3f6213e8	0.88311625
60	0xbf211fe2	-0.62939274
61	0xbd529ce0	-0.05141914
62	0x3e26a3cd	0.16273423
63	0xbebc8626	-0.36821097
64	0xbd279bb0	-0.04091996
65	0xbec65729	-0.38738373
66	0xbf8c34b5	-1.0953585
67	0xbed13344	-0.40859425
68	0x3e489053	0.19586305
69	0xbf64182b	-0.8909938
70	0xbee96dd8	-0.45591617
71	0xbd54a5a0	-0.051915765
72	0x3e7dadfb	0.247734
73	0x3e91435e	0.2837171
74	0xbe2f7bb4	-0.17137033
75	0xbe94a165	-0.29029384
76	0x3e1b08d8	0.15140092
77	0x3eb1e083	0.347416
78	0xbdb4434b	-0.088018976
79	0x3e1e7719	0.1547512
80	0x3ef60013	0.48046932
81	0xbe126938	-0.1429795
82	0xbd90187d	-0.07035921
83	0x3ef23b2f	0.47310778
84	0x3db6199a	0.08891602
85	0xbdd6e66d	-0.10493169
86	0xbecb7f7b	-0.39745697
87	0x3d9be419	0.076118656
88	0xbeb483d6	-0.35256833
89	0xbe933628	-0.28752255
90	0x3e724921	0.23660709
91	0x3eea4ee0	0.45763302
92	0x3e247b81	0.16062738
93	0xbdf70a8f	-0.12062561
94	0x3e71df14	0.23620254
95	0xbec13a35	-0.3773972
96	0xbf08689f	-0.5328464
97	0xbf1c4b5e	-0.610525
98	0xbf2cca30	-0.67496014
99	0xbd50857b	-0.050908547
100	0x3ec34833	0.3814102
101	0xbf10e7d5	-0.5660375
102	0x3d9f0ada	0.07765742
103	0x3f0d2c98	0.5514617
104	0xbf3ed9a7	-0.7455086
105	0x3e109dd3	0.14122705
106	0x3eb4d532	0.35318905
107	0xbf4416d2	-0.7659732
108	0xbd3ff2ef	-0.04686254
109	0x3f85602d	1.0419976
110	0x3faf5d0b	1.370027
111	0x3f7f00b9	0.9961048
112	0xbf72f46c	-0.9490421
113	0x3f93f8a4	1.1560254
114	0xbf4c57fc	-0.79821754
115	0xbeab010c	-0.33399236
116	0xbf37a9e3	-0.717436
117	0xbecd3f3b	-0.40087304
118	0xbf4544ae	-0.7705792
119	0x3e570645	0.20998485
120	0x3f51dd2e	0.8197812
121	0xc0006193	-2.0059555
122	0x3e5c33dc	0.21504158
123	0x3dff6a51	0.1247145
124	0xbec708cd	-0.38873902
125	0xbc8d9df5	-0.017287234
126	0xbf1a9f33	-0.6039917
127	0xbe9eb150	-0.30994654
128	0x3e932a77	0.28743336
129	0x3efa51e7	0.48890612
130	0xbfc5990d	-1.5437332
131	0x3ee4c078	0.44678092
132	0x3e9ad265	0.30238643
133	0x3f3f4c23	0.7472555
134	0x3f804441	1.002083
135	0x3dd94524	0.10608891
136	0x3d8494f9	0.06473727
137	0x3f043032	0.5163604
138	0x3fa7b663	1.3102535
139	0xbf49918b	-0.78737706
140	0xbccdafb8	-0.025108203
141	0xbf516c95	-0.8180631
142	0xbf00fdf4	-0.503875
143	0x3f55cfd8	0.8352027
144	0x3eda9e63	0.42698964
145	0xbe2a0392	-0.16602924
146	0x3daf6aa9	0.08565266
147	0x3fb488fb	1.4104303
148	0xbf60a85c	-0.87756896
149	0xbf47f85f	-0.7811336
150	0xbf8cdd5e	-1.1005056
151	0xbf46a491	-0.7759486
152	0x3e4f4fc3	0.2024527
153	0x3ed85bb3	0.4225746
154	0x3dd02f8c	0.10165319
155	0xbf3aaade	-0.7291697
156	0x3fa8eb85	1.3196875
157	0xbf1b5f15	-0.6069196
158	0xbfa63272	-1.2984145
159	0x3f07165d	0.527685
160	0x3f223c78	0.6337352
161	0x3eb78f3b	0.35851464
162	0xbf7ff35b	-0.99980706
163	0xbf69547c	-0.9114454
164	0x3f05eda5	0.5231574
165	0x3f24ffd1	0.64452845
166	0xbf775997	-0.9662108
167	0x3b0f28ae	0.0021844315
168	0x3f9e912e	1.2388055
169	0xbef2c8fa	-0.47418958
170	0x3ed6a491	0.4192243
171	0xbeb3f033	-0.35144195
172	0xbeeb5a30	-0.45967245
173	0x3edd2e20	0.43199253
174	0x3fa5b21e	1.2944982
175	0xbf1456a4	-0.57944703
176	0x3e1e03d0	0.15431142
177	0x3f2e40a2	0.6806737
178	0xbecaf6a6	-0.39641303
179	0xbe64b10b	-0.22333162
180	0xbef4a5f6	-0.47782868
181	0xbe173ecf	-0.14770053
182	0xbd499145	-0.049210805
183	0x3f948ec3	1.1606067
184	0x3dd35d3f	0.1032052
185	0xbef22c89	-0.47299603
186	0x3f56ad87	0.8385853
187	0xbe13186f	-0.1436479
188	0xbf854655	-1.0412089
189	0xbec8d887	-0.39227697
190	0x3deb5806	0.114913985
191	0x3f0e95ea	0.556975
192	0x3eb0f58c	0.34562337
193	0x3eeb5e5e	0.45970434
194	0x3f00b5f6	0.5027765
195	0xbe2711d3	-0.16315393
196	0xbd9ef250	-0.07761061
197	0x3e871ff6	0.26391572
198	0xbf7e2ca7	-0.99286884
199	0xbea08e1c	-0.3135842
200	0xbd1f85c0	-0.038945913
201	0xbe0f6db1	-0.14006688
202	0x3ebfa6f3	0.3743206
203	0xbd8b4381	-0.06799985
204	0x3ca3707c	0.019951098
205	0x3e410e55	0.18853123
206	0xbf074023	-0.5283224
207	0xbf51e27a	-0.819862
208	0x3dd9a7ba	0.106276944
209	0x3c83e7e8	0.016101792
210	0x3e69e9c5	0.22843082
211	0x3f52b312	0.8230449
212	0x3e97c6ed	0.29643956
213	0x3eae3bdf	0.34030053
214	0x3f0f5ea7	0.56003803
215	0xbe3e73f7	-0.18598925

conv1.0.bias f4 [8]
0	0xbdf2c08d	-0.118531324
1	0x3d8f5b5d	0.06999848
2	0x3d8c971c	0.06864759
3	0xbd67125d	-0.056413997
4	0xbe31f490	-0.1737845
5	0xbd3fa805	-0.046791095
6	0x3e10f387	0.14155398
7	0x3d61ba53	0.055109333

conv1.1.weight f4 [8]
0	0x3f316726	0.6929802
1	0x3fc9b12a	1.5757191
2	0x3f7a5c9b	0.97797555
3	0x3fafc4b7	1.3731908
4	0x3fb2df40	1.397438
5	0x3f9f38ec	1.2439246
6	0x3fb558fb	1.416778
7	0x3f4b3456	0.79376733

conv1.1.bias f4 [8]
0	0x3ea98b5e	0.3311414
1	0x3f50e86c	0.8160465
2	0xbe479f14	-0.19494277
3	0xbf3cfe1d	-0.73825246
4	0x3f6aafcc	0.91674495
5	0x3f92615d	1.1435963
6	0x3f7097f8	0.93981886
7	0x3e4c12ae	0.19929

conv1.1.running_mean f4 [8]
0	0xbbbcfbf6	-0.005767341
1	0xbcbb17fd	-0.022838587
2	0xbf246ef8	-0.64231825
3	0xbf9db812	-1.2321799
4	0xbdd699cb	-0.104785524
5	0xbe1f2e25	-0.15544946
6	0x3b826fb7	0.0039806026
7	0x3f48225b	0.7817742

conv1.1.running_var f4 [8]
0	0x3e67c4e1	0.22633697
1	0x3ea053d3	0.31313953
2	0x3ed030d8	0.40662265
3	0x3f0ebf32	0.5576049
4	0x3e9e6113	0.30933437
5	0x3eb71e2b	0.35765204
6	0x3ef5d99c	0.48017585
7	0x3ea21d67	0.31663057

conv1.3.weight f4 [8, 8, 3, 3]
0	0x3e9ff117	0.31238624
1	0x3f20de42	0.6283914
2	0xbe98f796	-0.29876393
3	0xbe123f93	-0.14282064
4	0x3f2d7117	0.67750686
5	0x3ce3758d	0.027766014
6	0xbe39483f	-0.18093966
7	0x3ecc0e00	0.3985443
8	0xbdfddcd3	-0.123956345
9	0x3eeae052	0.45874268
10	0xbef1ecee	-0.47251076
11	0xbe86f032	-0.2635513
12	0x3f27e5d0	0.6558504
13	0xbf464250	-0.77444935
14	0xbe8438b2	-0.25824505
15	0x3efd9e14	0.49534667
16	0xbed63305	-0.418358
17	0xbe1b4887	-0.15164386
18	0xbe54f1f1	-0.20795418
19	0xbe3d2fd8	-0.18475282
20	0x3c60c682	0.013719203
21	0xbd61ff51	-0.05517513
22	0x3caae078	0.020858988
23	0x3c935695	0.017985621
24	0x3e8484d7	0.258826
25	0x3b9862a0	0.004650429
26	0xbe00e489	-0.12587179
27	0x3e0751b3	0.1321476
28	0x3ed936bc	0.42424572
29	0x3d02fe8a	0.03198103
30	0xbe7982a8	-0.24366248
31	0x3e879136	0.26477975
32	0xbd2fa057	-0.04287752
33	0xbecf2be8	-0.40463185
34	0xbd30a920	-0.04313004
35	0xbeee7e4b	-0.4658073
36	0x3e99eda5	0.3006412
37	0xbe0c4417	-0.13697849
38	0xbca3528f	-0.019936828
39	0x3e25f293	0.16205816
40	0xbeda7183	-0.42664728
41	0xbe50d337	-0.20393072
42	0x3ea7d494	0.32779372
43	0xbe637018	-0.22210729
44	0xbe6b9f26	-0.23009929
45	0xbef65a9f	-0.48116013
46	0x3ec88a2f	0.39167926
47	0x3e4c228d	0.19935055
48	0xbf58a3cd	-0.8462494
49	0x3eaf129f	0.34193894
50	0x3edd1815	0.43182436
51	0xbec60da1	-0.38682273
52	0x3f094bfe	0.5363158
53	0x3e131651	0.14363982
54	0xbe8e9d85	-0.27854553
55	0x3ea45842	0.32098585
56	0x3d6bad76	0.057538472
57	0xbf4950c1	-0.78638846
58	0x3eaf64b6	0.34256524
59	0x3e2cbdd7	0.16869293
60	0xbf391bef	-0.7230825
61	0x3ed9330f	0.42421767
62	0x3e2c96b8	0.1685437
63	0x3db2631f	0.08710312
64	0x3e971b88	0.29513192
65	0xbe240a6d	-0.16019602
66	0xbe0af0a9	-0.13568367
67	0xb9975c1f	-0.000288696
68	0x3d1c9ec2	0.03823734
69	0xbe2d108a	-0.1690084
70	0xbd3b44c0	-0.045719862
71	0x3e4a3bd1	0.1974938
72	0xbde2a563	-0.11066701
73	0x3c4518f7	0.012029878
74	0x3e65fd1b	0.22459833
75	0xbeddf5c8	-0.4335158
76	0xbef54746	-0.4790594
77	0x3cc81a85	0.024426708
78	0x3edcd30a	0.4312976
79	0xbe272967	-0.16324387
80	0xbdf3960f	-0.11893856
81	0x3dbeb432	0.09311713
82	0xbf1651b9	-0.5871845
83	0x3d112768	0.03543797
84	0x3f23625a	0.6382195
85	0xbdf28d86	-0.118434
86	0xbebfee4a	-0.37486488
87	0x3e286099	0.16443099
88	0x3e9b99c6	0.30390757
89	0xbd6f4879	-0.058418725
90	0x3f032baf	0.5123853
91	0x3ecf468b	0.40483508
92	0xbd926b93	-0.071494244
93	0x3e0e3b3a	0.1388978
94	0x3f3bd8de	0.7337779
95	0x3e68d1ac	0.22736233
96	0x3d2fd452	0.042927094
97	0x3e8b9581	0.272625
98	0x3f36653a	0.7124821
99	0xbde46183	-0.111514114
100	0xbe95b31f	-0.2923822
101	0xbf20bae5	-0.6278518
102	0x3e656dec	0.22405213
103	0x3d19aa7f	0.037516113
104	0x3b434419	0.0029795228
105	0x3edf7bc9	0.43649128
106	0x3d187719	0.037222955
107	0x3decd474	0.1156396
108	0x3f020dc2	0.5080224
109	0xbe16cd72	-0.14726809
110	0xbe06dde7	-0.13170587
111	0x3e902ede	0.28160757
112	0x3d921843	0.07133534
113	0xbeed3cb7	-0.46335384
114	0x3eb099e4	0.3449241
115	0x3f0b7dc3	0.5448877
116	0x3f391089	0.72290856
117	0xbe88caf0	-0.2671733
118	0xbdc004a2	-0.09375884
119	0xbd44d801	-0.04805756
120	0x3c8ea072	0.01741049
121	0xbe7d9552	-0.24763992
122	0xbed22159	-0.41041067
123	0x3f027d19	0.50972134
124	0x3dad9cc0	0.08477163
125	0x3cb58380	0.02215743
126	0xbf002958	-0.50063086
127	0xbee954d7	-0.4557254
128	0xbee8bf45	-0.45458427
129	0x3e8c9e5f	0.27464578
130	0xbe8d92fc	-0.27651203
131	0xbf0bfa53	-0.5467884
132	0x3ed5bdb4	0.41746294
133	0x3f2a6484	0.66559625
134	0xbefa3d65	-0.48874965
135	0x3e72e251	0.23719145
136	0xbd244043	-0.040100347
137	0x3e163fab	0.14672725
138	0x3e0aa07e	0.13537785
139	0xbe3e5f3d	-0.18591018
140	0xbe281b2f	-0.1641662
141	0x3d8a0e13	0.06740966
142	0xbd4d3e6e	-0.050108366
143	0xbdd214c2	-0.102578655
144	0xbe717cc6	-0.23582754
145	0x3e7219ab	0.23642604
146	0xbf31d0fc	-0.6945951
147	0xbe08f8b0	-0.13376117
148	0x3ea514c8	0.32242417
149	0xbd2149cb	-0.039377015
150	0x3e83b8cd	0.2572693
151	0x3e310fd0	0.17291188
152	0xbeab1ded	-0.3342127
153	0x3e47eabe	0.19523141
154	0x3f114b29	0.5675531
155	0xbef405c8	-0.4766066
156	0xbf64d7ab	-0.89391583
157	0xbe4f4e55	-0.20244725
158	0x3f775721	0.96617323
159	0x3f3134e5	0.69221336
160	0xbf5017f0	-0.81286526
161	0xbe98dd4d	-0.2985634
162	0xbe9196da	-0.28435403
163	0xbe554edc	-0.20830864
164	0x3ef2d318	0.47426677
165	0xbdbe2e4c	-0.09286174
166	0xbf026726	-0.5093864
167	0xbec3bbfd	-0.3822936
168	0xbd42b7a4	-0.047538415
169	0xbe0012b1	-0.1250713
170	0xbedeb7dc	-0.4349965
171	0x3e3e047c	0.18556398
172	0x3f5ec5b1	0.87020403
173	0x3eb0926c	0.3448671
174	0xbeed2e62	-0.4632445
175	0x3e84c846	0.25934047
176	0xbe9ad7ea	-0.30242854
177	0xbec57e01	-0.38572696
178	0x3dedfc3b	0.11620375
179	0xbe7c8c21	-0.2466283
180	0xbe13425a	-0.1438078
181	0x3f6d9f28	0.9282098
182	0xbf29845f	-0.6621761
183	0xbf0cc515	-0.54988223
184	0xbf0a1048	-0.53931093
185	0x3f518093	0.81836814
186	0x3f601f6a	0.87547934
187	0xbfa29345	-1.2701193
188	0xbea64c8d	-0.3248028
189	0x3da69046	0.08132987
190	0x3d4ea1ad	0.050447155
191	0xbf4c9053	-0.7990772
192	0xbe18a126	-0.14905223
193	0x3f4cecd1	0.80048853
194	0xbe239a40	-0.1597681
195	0xbdbe4818	-0.092910945
196	0xbdc19331	-0.09451903
197	0x3d88a9d9	0.06673021
198	0x3e9e5536	0.30924386
199	0x3f3d08de	0.73841655
200	0xbf41f9f2	-0.7577201
201	0xbf00d4d0	-0.50324726
202	0x3e633af9	0.22190465
203	0x3f210d1e	0.6291064
204	0x3dcd29e0	0.10017753
205	0xbf0bbb99	-0.54583126
206	0x3db7aa1b	0.08967992
207	0xbe73dd6a	-0.23814932
208	0x3e5c3115	0.21503098
209	0xbe8bec2f	-0.2732863
210	0xbec0add3	-0.37632617
211	0x3d053819	0.032524202
212	0x3e2cd4f7	0.16878115
213	0x3db46b80	0.088095665
214	0xbe80210a	-0.25025207
215	0xbd5f1fac	-0.054473564
216	0xbc43c1d2	-0.011948066
217	0xbdc8f698	-0.09812659
218	0xbe6c58da	-0.23080769
219	0xbca7d935	-0.020489315
220	0x3e4b53cd	0.19856186
221	0x3e747ea9	0.23876442
222	0xbe4ddd3a	-0.20103922
223	0x3d979855	0.07402102
224	0xbe1a1ebd	-0.15050788
225	0x3d26d1e9	0.04072753
226	0x3ef7f2dd	0.48427477
227	0xbecb4e90	-0.39708376
228	0xbe1bc2ae	-0.15210983
229	0x3eb15517	0.3463523
230	0xbea767b4	-0.32696307
231	0x3d5fad5c	0.054608688
232	0x3df5ea5f	0.12007593
233	0xbead239c	-0.3381623
234	0xbef86aec	-0.48519075
235	0xbd83615a	-0.06415053
236	0xbe130b9b	-0.14359896
237	0xbeb12bfe	-0.34603876
238	0x3e1d9014	0.15386993
239	0x3ec4d5ac	0.3844427
240	0xbe802d75	-0.2503468
241	0x3ca62447	0.02028097
242	0x3ee6eaca	0.45101005
243	0x3dc0b9c9	0.09410436
244	0xbec73639	-0.38908556
245	0xbe62bcb6	-0.221423
246	0x3ed31e5d	0.41234103
247	0xbed95295	-0.42445818
248	0x3e51c160	0.20483923
249	0x3eee79d5	0.46577325
250	0xbdf31f19	-0.11871166
251	0x3e9909a2	0.29890162
252	0xbf1da0ac	-0.6157329
253	0x3f4e00a6	0.8046974
254	0xbdbb3300	-0.09140587
255	0xbf8174ed	-1.0113808

conv1.3.bias f4 [8]
0	0x3dc8eb4d	0.09810505
1	0xbc89babe	-0.016812678
2	0x3dcff13d	0.101534344
3	0x3ddf3728	0.10899192
4	0x3d2fcb51	0.042918507
5	0xbddd246b	-0.10797962
6	0xbdc0cd60	-0.09414172
7	0x3d72e106	0.05929663

conv1.4.weight f4 [8]
0	0x3fa81f7c	1.3134608
1	0x3fb18c9d	1.3871037
2	0x3fceab5c	1.6146045
3	0x3fe3b32d	1.7789055
4	0x3f912540	1.1339493
5	0x3fb8d611	1.4440328
6	0x3fd8a5e7	1.6925629
7	0x3fdfe790	1.7492542

conv1.4.bias f4 [8]
0	0x3da31de9	0.07964689
1	0x3e9e25cd	0.30888215
2	0x3dd5eea9	0.104459114
3	0xba8ba3a9	-0.0010653633
4	0x3dc230ee	0.09481989
5	0xbd457057	-0.04820284
6	0xbe0d7481	-0.13813974
7	0x3d7ed076	0.062210523

conv1.4.running_mean f4 [8]
0	0xbf0ccfe6	-0.5500473
1	0x3e89a2e7	0.26882097
2	0xbff42c6e	-1.9076059
3	0xbf3d62c8	-0.73978853
4	0x406cf2b0	3.7023125
5	0x4078940f	3.8840368
6	0xc00ccdd9	-2.200064
7	0xc02fabc2	-2.7448583

conv1.4.running_var f4 [8]
0	0x40d93e8f	6.7888865
1	0x41819b2f	16.200773
2	0x416b19e2	14.693819
3	0x41b59d69	22.70186
4	0x40d9ab89	6.8021894
5	0x41403651	12.013261
6	0x4198b9aa	19.090656
7	0x4180d0f0	16.10202

conv2.0.weight f4 [16, 8, 3, 3]
0	0xbe363458	-0.17793405
1	0xbe849e60	-0.2590208
2	0xbea28ba7	-0.3174717
3	0x3e71dc3b	0.23619168
4	0xbe58463a	-0.2112054
5	0x3d2afee1	0.041746978
6	0x3cb06ea9	0.021537142
7	0xbea203cc	-0.31643522
8	0x3dbed52d	0.09318004
9	0xbb04b976	-0.0020252145
10	0xbd8dc169	-0.06921656
11	0x3edb871c	0.42876518
12	0xbf1f8d8b	-0.6232535
13	0xbea98479	-0.3310888
14	0x3f2b98ef	0.67030233
15	0xbf08c99c	-0.5343263
16	0xbf5d8a77	-0.86539406
17	0x3d15ac96	0.036541544
18	0xbe988e47	-0.2979605
19	0xbe695201	-0.22785188
20	0x3d6f5047	0.058426168
21	0x3f0ae8f5	0.54261714
22	0x3dfd60d1	0.12371982
23	0x3d66cb57	0.056346264
24	0xbe87a668	-0.26494145
25	0xbeec68b5	-0.46173635
26	0x3f31330c	0.69218516
27	0x3e30db2a	0.17271104
28	0x3e69a3cf	0.22816394
29	0x3df1cd7c	0.11806771
30	0xbebff1fb	-0.37489304
31	0xbed132e4	-0.4085914
32	0xbe2645ec	-0.1623761
33	0xbed4e09e	-0.4157762
34	0xbf6e0a1d	-0.9298418
35	0xbe2318d7	-0.15927444
36	0xbe741334	-0.2383545
37	0xbef88e47	-0.4854605
38	0xbde16b47	-0.1100679
39	0x3d9cf55c	0.07663986
40	0xbdb5a8da	-0.088700965
41	0xbdffc42f	-0.12488591
42	0x3db05e66	0.08611755
43	0x3ddd64e9	0.10810263
44	0x3e8f07d8	0.27935672
45	0x3f03d829	0.5150171
46	0x3e0712db	0.13190787
47	0x3efd1e37	0.49437115
48	0x3e599b22	0.21250585
49	0x3f1525a1	0.5826054
50	0x3e9a8cf1	0.30185655
51	0x3eaa0096	0.33203572
52	0x3e7840ac	0.2424342
53	0xbe20e59b	-0.15712588
54	0xbe3fe4d1	-0.1873963
55	0xbeceb8f5	-0.40375486
56	0x3f095c71	0.5365668
57	0x3e25cb16	0.16190752
58	0x3e786b4b	0.24259679
59	0x3e529bee	0.20567295
60	0x3dbfdc31	0.0936817
61	0x3d9680fe	0.07348822
62	0x3e15e776	0.14639077
63	0xbeae140c	-0.3399967
64	0xbefffb67	-0.49996492
65	0xbe0b87a1	-0.13625957
66	0xbe7bc5e3	-0.24587207
67	0xbecc24bb	-0.39871773
68	0xbe2d4c80	-0.16923714
69	0x3f01e1fb	0.50735444
70	0x3d99aefb	0.07504078
71	0xbe82b77b	-0.2553061
72	0xbe67e70e	-0.22646734
73	0x3de2c951	0.11073554
74	0xbf042a90	-0.51627445
75	0x3bae9cd7	0.0053287554
76	0xbc373b54	-0.0111835785
77	0xbea31600	-0.31852722
78	0x3e0ebfd5	0.13940366
79	0xbe7d15dc	-0.2471537
80	0xbe8f9c73	-0.2804905
81	0xbe26b65a	-0.16280499
82	0xbf04c797	-0.5186705
83	0xbef3c4a2	-0.47610956
84	0xbf39bd9b	-0.7255494
85	0xbf69ace0	-0.9127941
86	0xbf652dba	-0.895229
87	0xbde29f38	-0.11065525
88	0xbf220170	-0.63283443
89	0x3e9c9662	0.30583483
90	0x3da0dbea	0.07854445
91	0x3ea823f6	0.32839936
92	0x3e326df6	0.1742476
93	0xbe7a2fac	-0.24432248
94	0xbf251e51	-0.64499384
95	0xbe96cf22	-0.29454905
96	0xbcb209aa	-0.021733124
97	0xbf0cecf7	-0.5504908
98	0xbed35086	-0.41272372
99	0x3e7544d6	0.2395204
100	0x3d0a81cf	0.0338152
101	0x3e2aa5dd	0.16664834
102	0xbe426ab3	-0.18986015
103	0xbea8fcce	-0.33005375
104	0x3ea5b670	0.3236575
105	0x3e6bf3ba	0.23042193
106	0x3e179d3b	0.14806072
107	0x3e45c2ae	0.19312546
108	0xbf0cb393	-0.5496151
109	0x3d17f851	0.037102047
110	0x3d2caaac	0.042154953
111	0xbe4ffa58	-0.20310342
112	0x3d1da48e	0.03848701
113	0x3da30704	0.079603225
114	0xbe84c84a	-0.25934058
115	0xbe93cbe0	-0.28866482
116	0xbe467615	-0.19380982
117	0xbcd81ab9	-0.02637993
118	0xbf01fe13	-0.5077831
119	0xbe81d85f	-0.2536039
120	0x3c8b3390	0.01699236
121	0xbd4bf644	-0.049795404
122	0xbd995764	-0.074873716
123	0x3f053812	0.5203868
124	0x3e74e4ea	0.23915449
125	0x3df6e984	0.12056258
126	0x3dd49d5c	0.103815764
127	0x3def7cec	0.11693749
128	0x3e3a3311	0.18183543
129	0x3de414ee	0.111368045
130	0x3d26d545	0.040730733
131	0x3edb70ec	0.4285959
132	0x3dbbebaf	0.091758125
133	0x3ea2a955	0.31769815
134	0xbd4eb1ab	-0.050462406
135	0x3e01c9d4	0.12674648
136	0x3e1e7ee9	0.154781
137	0x3eaae373	0.33376655
138	0x3e671a9a	0.22568741
139	0x3f2dcb8c	0.6788871
140	0x3e1132b8	0.14179504
141	0x3ea57e72	0.32323033
142	0x3eb56747	0.35430357
143	0x3e667c0c	0.22508258
144	0xbee3fcdc	-0.44528854
145	0xbe78d9b9	-0.24301805
146	0xbf30c330	-0.6904783
147	0x3dd7d473	0.10538568
148	0x3d05713f	0.032578703
149	0x3e9cc024	0.30615342
150	0xbdc879d0	-0.09788859
151	0xbda40445	-0.08008627
152	0x3e8576dd	0.26067248
153	0x3e20c17e	0.15698811
154	0xbf08b620	-0.534029
155	0xbea1c953	-0.3159891
156	0xbd868b1f	-0.06569504
157	0xbed325e7	-0.41239855
158	0xbec9054f	-0.39261863
159	0x3ecb5415	0.39712587
160	0x3ed60069	0.41797188
161	0x3ef66d17	0.48130104
162	0xbe5b3134	-0.21405488
163	0x3de6e672	0.11274423
164	0xbebb0df4	-0.36534083
165	0x3e571ff1	0.21008278
166	0x3d021460	0.031757712
167	0xbd97c98b	-0.07411488
168	0xbe3cf744	-0.184537
169	0xbe1e68ab	-0.15469615
170	0xbec0933e	-0.37612337
171	0xbe268b5e	-0.16264102
172	0x3e8ed58c	0.27897298
173	0xbd1eeab2	-0.03879804
174	0xbea69a99	-0.32539824
175	0xbe75a9a9	-0.23990501
176	0xbd87deb2	-0.06634273
177	0xbd9ce9ba	-0.07661767
178	0x3ed64aa0	0.4185381
179	0x3edcde3c	0.431383
180	0xbe4f8c08	-0.20268261
181	0xbe836634	-0.25663912
182	0xbd2f03e8	-0.042728335
183	0x3e91b18d	0.28455773
184	0x3edbb943	0.4291478
185	0x3edd91c6	0.4327528
186	0xbe073f1d	-0.1320767
187	0x3e247d86	0.16063508
188	0x3dee4a59	0.116352744
189	0xbe9e871f	-0.30962464
190	0xbd44f09a	-0.048081018
191	0xbec370c5	-0.38171974
192	0xbe895adf	-0.26827142
193	0xbe6f9392	-0.23396137
194	0xbeafd3a0	-0.34341145
195	0x3c358bd9	0.011080706
196	0x3ed02870	0.4065585
197	0x3eb73ee6	0.35790175
198	0xbea4124a	-0.32045203
199	0xbe8a7426	-0.2704174
200	0xbde55776	-0.111983225
201	0x3e3fde1e	0.18737075
202	0x3e1a0c58	0.15043771
203	0x3e97b5b7	0.29630825
204	0x3f034c5c	0.5128839
205	0x3f1daaee	0.61588943
206	0x3f1c87ff	0.61145014
207	0xbe110beb	-0.14164703
208	0xbd854b98	-0.06508559
209	0x3e26d4e4	0.16292149
210	0x3eacd727	0.33757898
211	0x3e6e3258	0.23261392
212	0x3e81086c	0.25201738
213	0xbdd2f7e4	-0.10301188
214	0xbea4e3a9	-0.3220494
215	0xbe0e8fa2	-0.13921979
216	0x3bbeabbc	0.005818812
217	0xbd8f842c	-0.07007632
218	0x3e0f94a7	0.1402155
219	0xbe94e325	-0.29079548
220	0xbd8b79dc	-0.06810352
221	0x3e2520ad	0.16125746
222	0x3e3dd0c1	0.18536665
223	0x3ca78aa6	0.020451855
224	0xbd3ea43e	-0.046543352
225	0xbead193e	-0.3380832
226	0xbeb0329c	-0.34413612
227	0x3bb2a0fa	0.005451319
228	0x3ea0c2a3	0.31398496
229	0xbe9448e2	-0.28961855
230	0xbe9b4487	-0.3032572
231	0x3de89382	0.1135626
232	0x3ed7f257	0.42177078
233	0x3e8b5757	0.27215073
234	0x3ea8a01b	0.3293465
235	0x3d700fea	0.058608927
236	0x3eb5672c	0.35430276
237	0x3b049635	0.0020231132
238	0x3d418538	0.047246188
239	0x3f27488c	0.6534507
240	0xbde6a838	-0.11262554
241	0x3dc94a87	0.09828668
242	0x3e5464cb	0.20741574
243	0xbd608d60	-0.054822326
244	0x3c370537	0.011170677
245	0x3ec3c842	0.38238722
246	0xbe90e5b6	-0.28300256
247	0xbe97fbb0	-0.2968421
248	0xbe601dc0	-0.21886349
249	0xbda7e495	-0.081978954
250	0xbe08cd34	-0.13359529
251	0xbe3d98a4	-0.18515259
252	0xbe0e0082	-0.13867381
253	0x3b8d0364	0.0043033827
254	0xbe13ed44	-0.14445978
255	0x3e1cc90a	0.15311065

conv2.0.bias f4 [16]
0	0xbdecaaab	-0.1155599
1	0xbd2a0ac3	-0.04151417
2	0xbd526312	-0.051364012
3	0xbda02cbb	-0.07821032
4	0x3d9ebfdf	0.0775144
5	0x3d849dde	0.06475423
6	0x3ce37497	0.027765555
7	0xbd2d12b9	-0.042254183
8	0x3d0149c1	0.031564478
9	0x3d192ce3	0.037396323
10	0xbd6cf784	-0.057853237
11	0xbd5ee6d3	-0.05441935
12	0xbc57345f	-0.013135045
13	0xbc06a588	-0.008218177
14	0x3dba4b93	0.09096446
15	0xbd92dbb2	-0.0717081

conv2.1.weight f4 [16]
0	0x3f99d114	1.201693
1	0x3f912740	1.1340103
2	0x3f8e2f95	1.1108271
3	0x3f9a87e0	1.2072716
4	0x3f99ee39	1.2025825
5	0x3fb01e1d	1.375919
6	0x3f77fcc8	0.9687009
7	0x3fafd05e	1.3735464
8	0x3f9f65d6	1.2452953
9	0x3fc2f2cf	1.5230349
10	0x3f75f980	0.9608383
11	0x3fd08cae	1.6292932
12	0x3fadbb59	1.3572799
13	0x3f68fc22	0.91009724
14	0x3fa35f02	1.2763369
15	0x3fa9b96b	1.325971

conv2.1.bias f4 [16]
0	0x3e85e2b7	0.26149532
1	0x3ee7d63b	0.45280632
2	0x3e58ca63	0.21170954
3	0x3e8c670f	0.27422377
4	0x3df6d018	0.120514095
5	0x3db71421	0.08939386
6	0x3db15d70	0.086604
7	0x3e91e49a	0.28494722
8	0x3de00dd2	0.10940136
9	0xbd2adc73	-0.041714143
10	0x3e17f6aa	0.14840189
11	0xbe80a4ed	-0.25125828
12	0x3e67abad	0.22624083
13	0x3de54482	0.111947075
14	0x3e8dfb74	0.27730906
15	0xbed5a6f1	-0.4172893

conv2.1.running_mean f4 [16]
0	0xc062f11b	-3.545966
1	0xc05f718b	-3.491305
2	0xbe5058fc	-0.20346445
3	0xc087ded9	-4.245953
4	0xc0428174	-3.0391512
5	0xc0ad9518	-5.42445
6	0x3fa62c88	1.298234
7	0xc044a189	-3.0723593
8	0xc04fbb76	-3.2458167
9	0xc08af802	-4.3427744
10	0xbfb3deb7	-1.4052342
11	0xc0a42e24	-5.1306324
12	0xc08c8c30	-4.3921127
13	0x3fc55d91	1.5419179
14	0xc0aaffaf	-5.3437114
15	0xc06f9e56	-3.744039

conv2.1.running_var f4 [16]
0	0x41bff5b7	23.994978
1	0x41953fbc	18.65612
2	0x418e7e5d	17.8117
3	0x41967d56	18.8112
4	0x419a9335	19.321878
5	0x41c866f9	25.05028
6	0x416870a8	14.527504
7	0x41a10a3f	20.130003
8	0x4199bfb0	19.218597
9	0x41aded9d	21.741022
10	0x416e3047	14.886786
11	0x41f08ade	30.067806
12	0x419a8ea0	19.319641
13	0x417e874d	15.908032
14	0x41b43fda	22.531178
15	0x41856a19	16.676805

conv2.3.weight f4 [16, 16, 3, 3]
0	0xbe98f77b	-0.29876313
1	0x3e846d07	0.2586443
2	0x3bebcae7	0.0071958187
3	0xbf0c5804	-0.548218
4	0xbea3fedb	-0.32030377
5	0xbe86507b	-0.26233277
6	0xbeb1921f	-0.34681794
7	0xbe873051	-0.2640405
8	0xbd04058e	-0.03223186
9	0xbe24d029	-0.16095032
10	0x3bb68bad	0.00557085
11	0x3d70c062	0.05877722
12	0xbe5f3e56	-0.21801123
13	0xbcdaffaa	-0.026733238
14	0x3edae8ee	0.42755836
15	0xbec28f02	-0.3799973
16	0xbea52017	-0.32251045
17	0x3e5fced9	0.2185625
18	0xbe7199fe	-0.235939
19	0xbec92035	-0.39282385
20	0xbe5d897f	-0.21634482
21	0xbe58b6d3	-0.21163492
22	0x3ecb3129	0.39685944
23	0x3f2f6b37	0.6852297
24	0xbe1f62b9	-0.15565003
25	0x3d742a7f	0.05961084
26	0x3eabf4f0	0.3358531
27	0x3c8209c1	0.015873792
28	0xbe6b88a1	-0.23001339
29	0x3e5b75f9	0.21431722
30	0x3cbb6326	0.022874426
31	0xbdb627ec	-0.08894333
32	0x3e00c9a5	0.12576921
33	0x3e274f40	0.16338825
34	0x3d908890	0.07057297
35	0x3e57c4ad	0.2107112
36	0xbe3375fb	-0.17525475
37	0xbdeacd74	-0.11464968
38	0xbe0b5659	-0.13607158
39	0xbeba0825	-0.3633434
40	0xbedcb82e	-0.43109268
41	0xbca28d96	-0.019842904
42	0xbdf95df9	-0.12176127
43	0xbeb59f07	-0.3547289
44	0xbe819c7c	-0.253147
45	0xbcf30cd9	-0.029669212
46	0x3e0cfeee	0.13769123
47	0x3e1f0490	0.15529084
48	0x3c4d6a6e	0.012537582
49	0x3e51f21e	0.20502517
50	0xbe9e712f	-0.30945727
51	0xbd288576	-0.041142903
52	0xbe56b51b	-0.20967524
53	0xbdf4ae4c	-0.11947307
54	0x3d9e8165	0.07739524
55	0x3dcb0d26	0.09914617
56	0xbd54660b	-0.05185513
57	0x3dee2a72	0.116291896
58	0x3f38d12b	0.72194165
59	0x3e667eff	0.22509383
60	0x3d4b1d0f	0.04958826
61	0x3ec9877b	0.39361176
62	0xbd80c0df	-0.06286787
63	0xbe866c1b	-0.26254353
64	0x3d0a54d2	0.033772297
65	0x3d7a0f7d	0.061049927
66	0xbeddff48	-0.43358827
67	0x3e2ceb80	0.16886711
68	0x3d0b73dc	0.03404604
69	0x3c8c3a48	0.017117634
70	0x3e80469f	0.2505388
71	0x3efb41fb	0.49073777
72	0xbd0ed677	-0.0348725
73	0x3d3d1ff1	0.04617304
74	0x3e326e4d	0.17424889
75	0x3e8df9cf	0.2772965
76	0x3f0e0f16	0.5549177
77	0x3e8b5a3d	0.27217284
78	0xbd3ea451	-0.046543423
79	0x3e9e0786	0.30865115
80	0xbe8aeb79	-0.27132776
81	0xbd8dc3d5	-0.069221176
82	0xbeacadbc	-0.337263
83	0x3eea9ce3	0.4582282
84	0x3dfc677b	0.12324425
85	0xbe764983	-0.2405148
86	0xbd438808	-0.04773715
87	0xbe317a83	-0.17331891
88	0xbe25e686	-0.16201219
89	0x3e53b9c4	0.20676333
90	0x3d67141c	0.056415662
91	0x3e1a77eb	0.15084808
92	0x3df9c75d	0.12196229
93	0x3c8227ac	0.015888058
94	0x3daf3504	0.08555034
95	0xbdfa46f8	-0.122205675
96	0xbe2953b0	-0.1653583
97	0x3e4d5458	0.20051706
98	0xbe5f5b06	-0.21812066
99	0xbe67379a	-0.22579804
100	0x3dad5853	0.08464112
101	0x3e133691	0.14376284
102	0xbe018158	-0.12646997
103	0x3df2292c	0.11824259
104	0x3d1be7e3	0.03806294
105	0xbd0a20d0	-0.0337227
106	0x3e8c93a4	0.2745639
107	0x3e38b5af	0.18038057
108	0xbe5d9310	-0.21638131
109	0x3dee8e3e	0.11648224
110	0xbe1ea1a6	-0.15491351
111	0x3da3f6c6	0.08006053
112	0x3eaa89cb	0.33308253
113	0x3e654836	0.22390828
114	0xbe9da327	-0.30788538
115	0x3f1579ee	0.58389175
116	0xbe5bd660	-0.21468496
117	0x3e81f1fd	0.25379935
118	0x3c32099d	0.01086655
119	0xbe8593c6	-0.26089305
120	0xbd84e9f0	-0.064899325
121	0xbdeb9e3d	-0.11504791
122	0xbeaa41db	-0.3325337
123	0xbe3a59d0	-0.18198323
124	0xbdf8a728	-0.121412575
125	0xbe17eeba	-0.1483716
126	0xbe125879	-0.14291562
127	0x3d0e0ad1	0.034678284
128	0xbbad2ed9	-0.0052851257
129	0xbd88a892	-0.06672777
130	0x3e8c37a4	0.273862
131	0xbedaed47	-0.42759153
132	0x3e3648ab	0.17801158
133	0x3f1b6664	0.6070311
134	0x3eec0bbc	0.46102703
135	0xbd135d64	-0.035977736
136	0xbdae519e	-0.08511661
137	0x3cbb0a3f	0.022832034
138	0x3d571d44	0.052518144
139	0x3e1a1c0f	0.15049766
140	0xbd94d2fc	-0.072668046
141	0xbe730e1b	-0.2373585
142	0x3d0ba2b8	0.034090728
143	0xbd9b9066	-0.07595901
144	0x3f0472b7	0.5173754
145	0x3e3e81d0	0.18604207
146	0xbde696ca	-0.112592295
147	0x3e83c2ec	0.2573465
148	0x3f1856c8	0.5950742
149	0x3f272282	0.6528703
150	0xbe89b81a	-0.2689827
151	0xbebfbbaa	-0.37447864
152	0x3d8b3980	0.06798077
153	0xbe885d4d	-0.26633683
154	0xbefa29fc	-0.48860157
155	0xbf0b3a69	-0.54386
156	0x3e8b019a	0.2714966
157	0xbe61f645	-0.220666
158	0xbeea95f6	-0.45817536
159	0xbcc27f3d	-0.023742313
160	0x3dcc5ae8	0.099782765
161	0x3de51eb2	0.11187495
162	0xbe992fc5	-0.29919258
163	0xbec141c3	-0.37745485
164	0xbdfade8f	-0.12249481
165	0xbf02bd9c	-0.5107057
166	0x3e2712cd	0.16315766
167	0x3e334924	0.1750837
168	0xbdc101c1	-0.09424163
169	0x3c82db8e	0.015973832
170	0xbe4ed4ba	-0.20198336
171	0x3ea3c6a2	0.31987482
172	0xbe882429	-0.26590088
173	0xbe14ebea	-0.14543119
174	0x3ea6d0c8	0.32581162
175	0x3e703746	0.23458585
176	0xbd3dca60	-0.046335578
177	0xbc999e5a	-0.018752266
178	0x3cdf3dea	0.027251203
179	0xbe0765f3	-0.13222484
180	0xbd2a253d	-0.04153942
181	0x3d066c96	0.0328184
182	0x3b4fdeaf	0.0031718423
183	0x3e591961	0.21201088
184	0xbd08a2e3	-0.033358466
185	0x3e1341fb	0.14380638
186	0xbd1f3d96	-0.038877092
187	0x3c0ca862	0.0085850675
188	0x3e4e67b5	0.20156749
189	0x3dd94dc3	0.10610535
190	0x3e51e440	0.20497227
191	0xbebd9348	-0.3702643
192	0x3e60bd0a	0.21947113
193	0x3ebbdad4	0.3669039
194	0xbed7fc1b	-0.4218453
195	0x3eea0abd	0.45711318
196	0x3dfa42d8	0.12219781
197	0xbdb6f7e8	-0.08934003
198	0x3e19df94	0.15026695
199	0xbeabd046	-0.33557338
200	0x3ec32c7a	0.3811987
201	0x3f036c4f	0.5133714
202	0x3e99629f	0.29958054
203	0x3cf28662	0.029605094
204	0xbc1c7d6a	-0.009551385
205	0x3e993d45	0.29929557
206	0x3da696d7	0.08134239
207	0x3e2c0120	0.16797304
208	0x3c880630	0.016604513
209	0xbdf3dbfd	-0.11907194
210	0x3daf71fa	0.08566661
211	0xbde1747f	-0.11008548
212	0x3f0bb81b	0.545778
213	0xbd2c10bc	-0.042008147
214	0x3ddc20f8	0.10748476
215	0xbdb42804	-0.08796695
216	0xbe4193c5	-0.18904026
217	0xbe99ee74	-0.30064738
218	0xbe2b1b8d	-0.16709729
219	0xbe1affb0	-0.151366
220	0xbe9e41f9	-0.30909708
221	0x3d331946	0.043725275
222	0x3dbe01da	0.09277697
223	0x3dfb6bc4	0.12276414
224	0x3d8d0789	0.06886203
225	0xbe6b3f47	-0.22973357
226	0xbcb076ba	-0.021540988
227	0x3e01dcdc	0.12681907
228	0x3d5999f7	0.053125348
229	0xbe307235	-0.17231067
230	0x3e86017c	0.26173007
231	0x3db6c73d	0.089247204
232	0x3ebfb19f	0.37440202
233	0xbe110bad	-0.1416461
234	0xbeddd39d	-0.4332551
235	0xbdedd945	-0.116137065
236	0x3e28691f	0.1644635
237	0x3d9a5662	0.075360075
238	0x3cbf1205	0.023324022
239	0x3da81823	0.08207729
240	0x3e3673a4	0.17817551
241	0x3e645113	0.22296552
242	0x3e6d9e76	0.2320498
243	0x3da3f38b	0.080054365
244	0x3cbcd60a	0.02305128
245	0x3d97f26c	0.07419285
246	0x3e8f4039	0.27978685
247	0x3ec608f6	0.38678712
248	0x3e8405f2	0.25785786
249	0xbdce76d1	-0.10081256
250	0x3e8a5be4	0.27023232
251	0x3dcb0c6f	0.09914481
252	0x3ebc9cd5	0.36838403
253	0xbdd0d196	-0.10196225
254	0xbd8fea7a	-0.07027145
255	0xbc7d65b0	-0.015466139

conv2.3.bias f4 [16]
0	0x3bef5a7f	0.007304489
1	0xbb778544	-0.0037768641
2	0xbacc9b12	-0.0015610179
3	0x3d6ebb0e	0.058283858
4	0x3d5d23ae	0.053989105
5	0x3d421286	0.047380947
6	0xbcc6b1b4	-0.024254657
7	0x3d609c1b	0.054836374
8	0xb9a436f3	-0.00031321458
9	0xbd8f398a	-0.069933966
10	0xbcfb8428	-0.030702665
11	0x3d2c29e2	0.04203213
12	0xbcb6471b	-0.022250703
13	0x3d87cae7	0.066304974
14	0xbd60027c	-0.05468987
15	0xbb8f0a0a	-0.0043652104

conv2.4.weight f4 [16]
0	0x3fb3483c	1.4006419
1	0x3fa61343	1.2974628
2	0x3f9bb1a2	1.2163584
3	0x3f96180e	1.1726091
4	0x3f985ebf	1.1903914
5	0x3fa474b3	1.2848114
6	0x3fadaf96	1.356921
7	0x3f80399a	1.0017579
8	0x3f904266	1.1270263
9	0x3fa0a166	1.2549255
10	0x3f8cb985	1.0994116
11	0x3f996597	1.1984128
12	0x3fae76ec	1.3630042
13	0x3f993513	1.1969322
14	0x3fa17ef4	1.2616868
15	0x3fa265c7	1.268731

conv2.4.bias f4 [16]
0	0x3dd57455	0.10422579
1	0xbdebd0ba	-0.11514421
2	0x3b6e236e	0.0036337036
3	0x3e0eb36c	0.13935632
4	0x3dd95cba	0.10613389
5	0xbe8c8780	-0.27447128
6	0x3d8f178c	0.06986913
7	0x3f023d66	0.50874937
8	0x3c37290d	0.011179221
9	0x3bde0770	0.006775789
10	0x3d0e5bbf	0.034755465
11	0x3e91001d	0.283204
12	0x3e2809a7	0.16409932
13	0x3ccd15d3	0.02503482
14	0x3eb911b6	0.36146325
15	0x3e4c0d80	0.19927025

conv2.4.running_mean f4 [16]
0	0xbd10035b	-0.03515945
1	0x3fe0ab22	1.7552226
2	0xc0059f2e	-2.0878406
3	0xbff86318	-1.9405241
4	0xc080384c	-4.006872
5	0xbe469aa9	-0.19394936
6	0xbf022988	-0.5084462
7	0xc0037cca	-2.0544915
8	0x3faeed18	1.3666105
9	0x3f0c956a	0.5491549
10	0x400cade8	2.1981144
11	0xc0429819	-3.0405333
12	0xc0880b28	-4.251362
13	0xc0856409	-4.1684613
14	0xc094df80	-4.6522827
15	0xbfbcfcb2	-1.4764616

conv2.4.running_var f4 [16]
0	0x411ab476	9.669058
1	0x410d7494	8.840961
2	0x40fa75ab	7.826864
3	0x40fa8974	7.829279
4	0x411565e7	9.3373785
5	0x40b7605d	5.730513
6	0x411fdbdc	9.991177
7	0x410290bb	8.160335
8	0x40fc5056	7.8848066
9	0x4110db00	9.053467
10	0x40b1ec82	5.5601206
11	0x40fde597	7.934276
12	0x4127be4c	10.483959
13	0x411b816a	9.719095
14	0x40f66e56	7.7009687
15	0x41061f2d	8.382611

conv3.0.weight f4 [32, 16, 3, 3]
0	0xbdaecd1a	-0.08535214
1	0xbe486a9d	-0.1957192
2	0x3e075407	0.13215648
3	0xbd724198	-0.059144586
4	0xbe0f6353	-0.14002733
5	0x3d9743fe	0.07386015
6	0x3e8d7bec	0.27633607
7	0xbdb7641a	-0.0895464
8	0xbe173aef	-0.14768575
9	0xbd07f3ec	-0.033191606
10	0x3e0c1d6a	0.13683096
11	0x3d99ef11	0.075163014
12	0x3e9eb9eb	0.3100122
13	0x3e7efb6f	0.24900602
14	0xbd6d3ab0	-0.057917297
15	0x3de9e91b	0.114214145
16	0x3e7dc288	0.24781239
17	0xbd766d14	-0.06016262
18	0x3e6a7377	0.22895609
19	0xbd96c735	-0.073622145
20	0xbe84b96c	-0.25922716
21	0xbe935636	-0.2877671
22	0xbe6f5423	-0.2337194
23	0xbce3310e	-0.027733352
24	0x3e7bf186	0.24603853
25	0xbda29434	-0.07938424
26	0xbea56911	-0.32306722
27	0x3df5851f	0.119882815
28	0x3e18dd32	0.1492813
29	0x3e0b2611	0.1358874
30	0xbe8330d7	-0.256232
31	0x3c76abce	0.01505561
32	0x3df84911	0.12123311
33	0xbd601938	-0.05471155
34	0xbe19bc88	-0.15013325
35	0x3db4806b	0.08813556
36	0x3cc295f5	0.023753146
37	0xbe516340	-0.20448017
38	0xbe60cc1f	-0.21952866
39	0xbeb4f6b6	-0.35344476
40	0xbeaad4e1	-0.3336554
41	0xbdf01df9	-0.11724467
42	0xbef05296	-0.46938008
43	0xbe0d2253	-0.13782625
44	0xbeb97703	-0.3622361
45	0x3ce5c374	0.0280473
46	0x3d8667e0	0.06562781
47	0x3e164eaa	0.14678445
48	0xbd335366	-0.043780707
49	0xbdb288e8	-0.08717519
50	0xbc979b4c	-0.018506669
51	0x3d8a42ed	0.06751046
52	0x3e550730	0.20803523
53	0x3d179bba	0.037013747
54	0xbdeb5783	-0.11491301
55	0xbc022df1	-0.007945524
56	0xbe40bba8	-0.18821585
57	0x3e03dd6c	0.12877434
58	0x3e7d145c	0.24714798
59	0x3e05d71a	0.13070336
60	0xbe3df01d	-0.18548627
61	0xbd6bae4e	-0.057539277
62	0xbdfd9b51	-0.1238314
63	0x3ecee381	0.40407947
64	0x3e157f2f	0.14599298
65	0xbd2397b1	-0.039939586
66	0x3d667ce5	0.056271452
67	0x3e7a2314	0.24427444
68	0xbd289a92	-0.041163035
69	0xbe001a5b	-0.12510054
70	0x3e33225e	0.17493579
71	0x3e9f5db6	0.31126183
72	0xbde18cc0	-0.11013174
73	0xbdcf9dbf	-0.101375096
74	0x3d35872a	0.044318356
75	0xbe6e893d	-0.2329454
76	0xbeaec284	-0.3413278
77	0xbe553936	-0.20822605
78	0xbe541afc	-0.20713419
79	0xbed4fc92	-0.41598946
80	0xbeaee681	-0.34160236
81	0xbdfe4b1c	-0.1241667
82	0xbd9c614b	-0.07635745
83	0xbe301f21	-0.17199375
84	0xbe9da707	-0.30791494
85	0xbeff6700	-0.4988327
86	0xbe9ed376	-0.31020707
87	0x3db065a5	0.08613137
88	0xbf004f04	-0.5012057
89	0xbe88db3e	-0.2672977
90	0xbbf536ae	-0.007483325
91	0xbdf6208a	-0.12017925
92	0xbdb10232	-0.08642997
93	0xbe678cae	-0.22612259
94	0xbefcdf2e	-0.49389023
95	0xbe274708	-0.1633569
96	0x3bf86010	0.007579811
97	0x3d8e5b95	0.06951062
98	0xbe0970fb	-0.13422005
99	0xbe6531d5	-0.2238229
100	0x3d7cceb1	0.061720554
101	0xbea46511	-0.32108358
102	0xbd835e71	-0.06414498
103	0x3e958033	0.2919937
104	0xbd3c3cc5	-0.04595639
105	0xbeed7de3	-0.46385106
106	0x3cb4248c	0.021990083
107	0x3e6004c6	0.21876821
108	0x3e4bed64	0.19914776
109	0x3e171e3a	0.14757624
110	0x3e28018a	0.16406837
111	0x3d96400c	0.07336435
112	0x3e539b23	0.20664649
113	0x3ef31f0c	0.47484624
114	0x3d801ae3	0.06255128
115	0xbe439266	-0.19098815
116	0x3ce8b259	0.028405355
117	0x3e86f991	0.2636228
118	0x3e5c1bc2	0.21494964
119	0xbe6cd8c5	-0.23129566
120	0xbd8333e3	-0.06406381
121	0x3dd8c275	0.10583965
122	0x3e7dde60	0.2479186
123	0x3e2e0958	0.16995752
124	0x3ce4d1c2	0.027932052
125	0xbdd053f9	-0.101722665
126	0x3d9f0172	0.077639475
127	0x3c376ade	0.011194913
128	0xbd886616	-0.06660096
129	0x3ec62c0e	0.38705486
130	0x3ec3668c	0.38164175
131	0xbce57d7b	-0.028013935
132	0xbe961e40	-0.29319954
133	0x3d8a4e2f	0.067531936
134	0xbdb3cbbb	-0.08779093
135	0x3d87cf5a	0.06631346
136	0xbd4bbf5c	-0.04974304
137	0xbe969a50	-0.29414606
138	0xbeaebbcf	-0.34127662
139	0xbf177ae3	-0.59171885
140	0xbe2ce465	-0.16884
141	0xbe349f65	-0.17638929
142	0x3e36affb	0.17840569
143	0xbdbc6544	-0.091990024
144	0xbdca4707	-0.09876829
145	0xbe438910	-0.19095254
146	0xbdaf02bc	-0.085454434
147	0x3f01bf75	0.50682765
148	0x3b961bca	0.0045809494
149	0xbe889891	-0.266789
150	0x3ef7a96d	0.4837145
151	0x3dca033f	0.098639004
152	0xbd7d979d	-0.061912168
153	0xbd551c41	-0.0520289
154	0x3d52ef54	0.051497772
155	0xbdcb53ac	-0.099280685
156	0x3d768d9f	0.060193654
157	0x3dde832e	0.10864864
158	0xbe9d0034	-0.30664217
159	0xbe001a56	-0.12510046
160	0xbd281427	-0.041034844
161	0xbe82f351	-0.2557626
162	0xbeb57814	-0.35443175
163	0xbe0b8127	-0.13623486
164	0xbc9ed7cc	-0.01939001
165	0x3e52610b	0.20544831
166	0xbe70fe38	-0.23534477
167	0x3ea2ef14	0.31823027
168	0x3e90b336	0.28261727
169	0xbebc631c	-0.36794364
170	0x3e373b9a	0.1789383
171	0xbe55db35	-0.20884402
172	0xbe8fc313	-0.28078517
173	0xbe30c14d	-0.17261238
174	0x3d5cfa40	0.053949594
175	0x3e6dfc81	0.23240854
176	0x3dd3084d	0.103043176
177	0x3d8c36ce	0.06846391
178	0x3df8aa44	0.121418506
179	0x3e92cf67	0.2867386
180	0xbe25becb	-0.16186063
181	0x3dcc58d9	0.09977884
182	0x3bf752f8	0.0075477324
183	0xbec730f9	-0.3890455
184	0xbe87a84f	-0.26495597
185	0x3d5f808e	0.05456596
186	0xbec24281	-0.37941363
187	0xbd7b7b52	-0.061396904
188	0xbdeaa097	-0.11456411
189	0xbebc3e03	-0.3676606
190	0xbe2c1856	-0.16806158
191	0xbe531528	-0.20613539
192	0x3d9c9540	0.07645655
193	0xbf0aac9b	-0.54169625
194	0xbdd48ef9	-0.10378832
195	0x3e251ed9	0.16125049
196	0xbe5d7bae	-0.21629211
197	0xbd8d5720	-0.069013834
198	0xbe2d2c10	-0.1691134
199	0xbd5df0cb	-0.054184716
200	0xbd979350	-0.074011445
201	0xbc02b169	-0.007976868
202	0x3e9010c5	0.28137794
203	0x3ea8ff37	0.33007213
204	0xbea0e254	-0.31422675
205	0x3de8a4b8	0.113595426
206	0xbdb61b7f	-0.08891963
207	0x3e8f088e	0.27936214
208	0xbd7c16ee	-0.061545305
209	0x3df3ede8	0.119106114
210	0x3efc292f	0.4925017
211	0x3ce5e659	0.02806394
212	0xbf111fcc	-0.56689143
213	0xbe4daecc	-0.20086211
214	0x3ec444f5	0.3833386
215	0xbf21d626	-0.6321739
216	0xbe7c9e25	-0.24669702
217	0x3ebc81f2	0.3681789
218	0xbe362e03	-0.1779099
219	0xbe94b4e3	-0.29044256
220	0xbd9a70b7	-0.0754103
221	0x3d827506	0.06369977
222	0xbf19b379	-0.6003948
223	0xbe64e7b6	-0.22354016
224	0x3e01befc	0.12670511
225	0xbe94586b	-0.28973708
226	0xbec38fa9	-0.38195542
227	0xbda1af67	-0.078947835
228	0x3e2979dc	0.16550392
229	0xbc0d9b77	-0.008643023
230	0x3e5d2cef	0.21599172
231	0xbe885fbc	-0.2663554
232	0x3d7a5d00	0.061123848
233	0x3d616c83	0.055035125
234	0xbe181474	-0.14851552
235	0xbe45e88e	-0.19326994
236	0x3dc00da5	0.093776025
237	0x3ea372aa	0.3192342
238	0x3de2b20b	0.11069115
239	0x3e04c58f	0.12965988
240	0xbe66c80e	-0.22537252
241	0xbca1b6cf	-0.01974049
242	0x3eb1bea1	0.3471575
243	0xbef35107	-0.47522756
244	0x3cfae8cf	0.03062859
245	0x3e2193a2	0.15778974
246	0xbc8a45d2	-0.016878996
247	0x3eb959a5	0.36201206
248	0x3d3482aa	0.044069923
249	0xbd6be16f	-0.057588037
250	0x3ed11e12	0.40843254
251	0xbd52208a	-0.051300563
252	0xbe8287da	-0.25494272
253	0xbdb6f3b1	-0.08933199
254	0x3dd4d2e3	0.10391786
255	0x3f0d25aa	0.55135596

conv3.0.bias f4 [32]
0	0xbd4993a0	-0.04921305
1	0x3d99139f	0.074744456
2	0x3d14f143	0.036362898
3	0xbd287d4e	-0.041135125
4	0x3ce30896	0.027714055
5	0x3cbe3a26	0.023221087
6	0xbd9c3d9a	-0.07628937
7	0x3d94070c	0.072279066
8	0x3d9a18f0	0.07524288
9	0x3d95b783	0.07310393
10	0xbcbd2770	-0.023090094
11	0xbcef078b	-0.029178401
12	0xbd2a583e	-0.04158806
13	0x388d45a0	6.7363726e-05
14	0x3cbf7386	0.023370516
15	0xbb244d6a	-0.0025070556
16	0x3cedb9f6	0.029019337
17	0x3cee8760	0.029117286
18	0xbd5728e8	-0.052529246
19	0xbd456e0e	-0.04820066
20	0xbcfeda7b	-0.031110039
21	0x3da70f9b	0.081572734
22	0xbd5db1c8	-0.054124624
23	0xbd374c33	-0.044750404
24	0xbd58fb2e	-0.05297392
25	0xbbc335f9	-0.005957362
26	0x3d808d1f	0.06276917
27	0xbc198b56	-0.009371599
28	0xbd3aa0f8	-0.045563668
29	0xbd8742fe	-0.066045746
30	0xbd8efebc	-0.069821805
31	0xbba14fd2	-0.0049228454

conv3.1.weight f4 [32]
0	0x3fa60551	1.2970372
1	0x3f97f429	1.1871387
2	0x3f7e65e7	0.9937424
3	0x3f923a9a	1.1424134
4	0x3fb9d318	1.4517546
5	0x3f859f4f	1.0439242
6	0x3fa67a02	1.3005984
7	0x3fa42c1a	1.2825959
8	0x3fa1ff6b	1.2656072
9	0x3f8806da	1.0627091
10	0x3f849518	1.0358
11	0x3f8fe0d5	1.1240488
12	0x3f9761a2	1.182667
13	0x3fa5f1c2	1.2964404
14	0x3f899561	1.0748712
15	0x3fa4baaa	1.2869465
16	0x3f9e6b09	1.2376415
17	0x3fa22578	1.2667685
18	0x3f8bf02e	1.0932672
19	0x3f998188	1.1992655
20	0x3f897eed	1.074186
21	0x3f83710e	1.0268877
22	0x3fa5a261	1.2940179
23	0x3fa24782	1.2678072
24	0x3fa977f6	1.3239734
25	0x3fa2a5d8	1.2706861
26	0x3f93a2e7	1.1534089
27	0x3f9017ed	1.1257302
28	0x3f7ee30c	0.99565196
29	0x3f5cf849	0.86316353
30	0x3f99fa0c	1.2029433
31	0x3f8cbd91	1.0995351

conv3.1.bias f4 [32]
0	0xbe1e0d83	-0.15434842
1	0x3cffa1ca	0.031205077
2	0xbe932262	-0.2873717
3	0xbe828441	-0.25491527
4	0xbe7932cc	-0.24335784
5	0xbe775009	-0.24151625
6	0xbdcb7692	-0.09934725
7	0xbe4982bb	-0.19678776
8	0xbde42dfa	-0.11141582
9	0x3d08deb4	0.03341551
10	0x3c60b5ce	0.013715221
11	0xbd39f527	-0.04539981
12	0xbe6b3edb	-0.22973196
13	0xbeb69b10	-0.35665178
14	0xbc00c694	-0.007859845
15	0xbe969cb5	-0.29416433
16	0xbeb3427d	-0.35011664
17	0xbef1da6c	-0.47236955
18	0xbddc074e	-0.10743581
19	0xbe91445f	-0.28372476
20	0xbe40057c	-0.18752092
21	0xbe86d9fa	-0.26338178
22	0xbd901005	-0.070343055
23	0xbe5f43ac	-0.21803159
24	0xbe988d90	-0.29795504
25	0xbdfb0a65	-0.12257842
26	0xbea0d13c	-0.31409633
27	0xbdd688ce	-0.10475312
28	0xbe7433cf	-0.23847888
29	0x3cc0a051	0.023513945
30	0xbe8ac0b7	-0.27100155
31	0xbbbd8df6	-0.0057847453

conv3.1.running_mean f4 [32]
0	0xc0952aac	-4.661459
1	0xc0738f8a	-3.805636
2	0x4003cff4	2.0595675
3	0xbf6d42ae	-0.9267987
4	0xc060b05e	-3.5107646
5	0x3f94ef48	1.1635523
6	0xc0a33b56	-5.100993
7	0xc09c431a	-4.883191
8	0xc016bb50	-2.3551826
9	0xc0901d75	-4.503596
10	0xc01baebf	-2.4325407
11	0xc02e5db8	-2.7244701
12	0x3fad5e79	1.3544456
13	0xc037f1c0	-2.8741302
14	0xc0b77bf1	-5.7338796
15	0xc092a11c	-4.5821667
16	0xbfdfbf65	-1.7480284
17	0x3ffb18aa	1.9616902
18	0x400318be	2.0483851
19	0xc029be14	-2.6522264
20	0xbf8eb367	-1.1148499
21	0xbcdff5c8	-0.027338877
22	0xc08ebb41	-4.460358
23	0xc094b744	-4.6473713
24	0xc0e1cadc	-7.056013
25	0xc013c412	-2.3088422
26	0xbf04a584	-0.51815057
27	0xc025e4c5	-2.592088
28	0xbe8507a8	-0.25982404
29	0x40739e4e	3.8065372
30	0xc01155f1	-2.2708704
31	0xc0804807	-4.0087924

conv3.1.running_var f4 [32]
0	0x41a77faf	20.937346
1	0x417e9e3d	15.913632
2	0x4127e311	10.492936
3	0x4146684e	12.400465
4	0x417d521d	15.832547
5	0x412fe3e4	10.993137
6	0x417dce9b	15.862941
7	0x4178d428	15.551796
8	0x4166a95a	14.416346
9	0x414f0cd3	12.940631
10	0x4152285a	13.134851
11	0x4157489e	13.455229
12	0x4144c178	12.297234
13	0x41697a7d	14.592404
14	0x413b4887	11.705207
15	0x4148413c	12.515926
16	0x4129e6d8	10.618858
17	0x4145de78	12.366814
18	0x4131f260	11.121674
19	0x413c0b65	11.752782
20	0x41457c44	12.342838
21	0x4125176e	10.31822
22	0x41433fa2	12.203035
23	0x416015d3	14.005328
24	0x41413910	12.076431
25	0x41486abf	12.526061
26	0x410ce7b9	8.806573
27	0x41450cae	12.315596
28	0x414545dc	12.3295555
29	0x412ad89c	10.677883
30	0x415c0ab0	13.752609
31	0x4117c73b	9.48614

conv3.3.weight f4 [32, 32, 3, 3]
0	0xbadbf320	-0.0016780831
1	0x3d7d6ddc	0.06187235
2	0xbccd7ded	-0.02508446
3	0x3eadf028	0.33972287
4	0xbe5a5f68	-0.21325457
5	0x3e38acb2	0.18034628
6	0x3e112e11	0.14177729
7	0xbea28764	-0.3174392
8	0xbd1a845d	-0.037723888
9	0xbe618599	-0.2202362
10	0x3c9b3aa9	0.01894887
11	0xbe271e82	-0.16320232
12	0xbe228378	-0.15870464
13	0xbdd71eed	-0.105039455
14	0xbe314ef0	-0.17315269
15	0x3db5811d	0.08862517
16	0x3ccc4960	0.024937332
17	0xbcc2e78c	-0.02379205
18	0xbec33294	-0.38124526
19	0x3d88f8ab	0.06688055
20	0x3dbfa819	0.09358234
21	0xbd6597de	-0.056053035
22	0x3d710e50	0.05885154
23	0xbc7280e2	-0.014801236
24	0xbeadb150	-0.3392434
25	0x3e3a43bf	0.18189906
26	0x39dcd146	0.0004211759
27	0x3e1ff33c	0.1562013
28	0x3d676955	0.056496937
29	0x3d1fbd6c	0.038999006
30	0xbe45e3e2	-0.19325212
31	0x3dd9d8c7	0.1063705
32	0x3d9a4c4f	0.07534086
33	0xbe42859c	-0.1899628
34	0xbe0ea218	-0.13929021
35	0xbe84206d	-0.2580599
36	0x3e5d10dc	0.21588463
37	0x3e748ce1	0.23881866
38	0x3dc30535	0.095224775
39	0x3e17eaca	0.14835659
40	0xbe368ce4	-0.17827183
41	0xbdc48b5f	-0.095968954
42	0x3d4d9b2f	0.050196823
43	0xbde64967	-0.11244469
44	0xbc94f3f9	-0.018182741
45	0xbc31afa7	-0.010845101
46	0xbe7d5a80	-0.24741554
47	0x3c89a326	0.016801428
48	0x3d00e2c4	0.03146626
49	0x3c56fcd2	0.0131218005
50	0x3dd97f3b	0.106199704
51	0xbe70f4dc	-0.23530906
52	0xbde59b5b	-0.11211272
53	0xbe979b21	-0.2961054
54	0x3e89f063	0.26941213
55	0x3e0e2285	0.13880356
56	0xbeb5dbe6	-0.35519332
57	0xbd87bb68	-0.06627542
58	0xbbd67b68	-0.006545473
59	0x3ed1b9ef	0.4096217
60	0x3e036a7f	0.12833594
61	0xbe86e3c3	-0.26345643
62	0x3dc3beb3	0.09557857
63	0xbdabdafe	-0.08391379
64	0x3da01608	0.07816702
65	0x3e2ce420	0.16883898
66	0xbccf57f0	-0.025310487
67	0xb9b1eddf	-0.000339373
68	0xbe79fc2d	-0.24412604
69	0xbc1f34e7	-0.009717203
70	0x3b114e41	0.0022171887
71	0xbe499701	-0.1968651
72	0xbe2428bb	-0.16031162
73	0xbd3d23b3	-0.046176624
74	0x3e6681bf	0.22510432
75	0xbe7ba823	-0.24575858
76	0xbe8c9c70	-0.27463102
77	0xbe73a4e4	-0.2379337
78	0xbe06174c	-0.13094825
79	0xbe763bde	-0.24046275
80	0xbe59d4b1	-0.21272542
81	0xbeb0f4fe	-0.34561914
82	0xbe78b12f	-0.2428634
83	0xbe1ea962	-0.15494302
84	0xbda7cce3	-0.08193376
85	0xbe46351d	-0.19356199
86	0xbd3751b2	-0.044755645
87	0x3dee5a08	0.11638266
88	0xbd98101a	-0.07424946
89	0x3e82d542	0.25553328
90	0x3dd57cac	0.1042417
91	0x3e9df021	0.30847266
92	0xbdd825f3	-0.10554113
93	0xbdb750df	-0.08950972
94	0x3deeb1ad	0.11654983
95	0x3e5fd152	0.21857193
96	0xbebb4e9d	-0.36583415
97	0xbc2ffbef	-0.010741218
98	0x3d77983c	0.060447916
99	0x3e5da431	0.21644665
100	0xbcf8f2c4	-0.030389197
101	0xbebf04fb	-0.37308487
102	0x3ea2531f	0.3170404
103	0x3d3594c4	0.044331327
104	0xbea2abd2	-0.31771713
105	0xbdf4d954	-0.119555146
106	0x3e55a28c	0.20862788
107	0x3caeb041	0.021324279
108	0xbe69aaf6	-0.22819123
109	0x3e0db348	0.13837922
110	0x3e620729	0.22073044
111	0x3e953872	0.29144627
112	0x3e36c049	0.17846788
113	0x3e4650a7	0.19366704
114	0xbdd4a6d9	-0.10383386
115	0xbcad3834	-0.021144964
116	0x3e2f02bd	0.17090888
117	0xbd6e1c94	-0.058132723
118	0x3e9b058d	0.30277672
119	0x3e8ce0d8	0.27515292
120	0xbde5f6d5	-0.1122872
121	0xbd1267f5	-0.035743672
122	0x3e048ab1	0.12943532
123	0xbea78bfb	-0.32723984
124	0x3d4441b1	0.04791421
125	0x3d47c171	0.048768464
126	0x3d29c774	0.04144998
127	0xbd596ae5	-0.05308046
128	0xbd674d16	-0.05647
129	0xbe5d6c9e	-0.21623465
130	0xbe874791	-0.26421788
131	0xbe845c2d	-0.25851575
132	0xbe260c86	-0.16215715
133	0x3e77c13f	0.24194811
134	0x3e8eb09a	0.2786911
135	0x3e055332	0.13020018
136	0x3d686295	0.05673464
137	0xbe2ee67f	-0.17080115
138	0x3d0c6623	0.034277093
139	0x3efa12b2	0.48842388
140	0xbe175b7e	-0.14780995
141	0xbe262d0e	-0.16228124
142	0x3cac648f	0.021044044
143	0xbe33acd7	-0.17546402
144	0xbe8c8b99	-0.27450255
145	0x3c2bbd8c	0.010482203
146	0xbe5df47b	-0.21675293
147	0x3db6cef2	0.089261904
148	0xbb767b5f	-0.0037610156
149	0x3e3b10bd	0.18268104
150	0x3e797f0f	0.24364875
151	0x3eca4af9	0.39510325
152	0x3d0730d8	0.033005565
153	0xbe4f2295	-0.20228036
154	0xbe408212	-0.18799618
155	0xbde3d425	-0.11124448
156	0xbd3ac4f0	-0.04559797
157	0xbe2a5db6	-0.1663731
158	0xbbcc789f	-0.006239965
159	0x3ea01d21	0.31272224
160	0x3b7f263f	0.0038932709
161	0xbefe683d	-0.49688902
162	0x3d84e99d	0.06489871
163	0x3d794538	0.060857028
164	0xbd9de7d7	-0.077102356
165	0xbe9819c2	-0.29707152
166	0xbec64e3b	-0.3873156
167	0xbe322574	-0.173971
168	0xbe5e1da3	-0.21690993
169	0x3c3d2c43	0.011546197
170	0x3e524f15	0.2053798
171	0x3e90d6e1	0.2828894
172	0x3e8bb297	0.2728469
173	0x3e882f31	0.26598504
174	0x3daefae8	0.0854395
175	0x3f03afdb	0.5144021
176	0x3e17dddd	0.14830728
177	0x3c8f2cac	0.017477356
178	0x3d9a5177	0.075350694
179	0xbd51ed9d	-0.051251996
180	0xbeb216ca	-0.34783012
181	0xbe1f27d4	-0.15542537
182	0xbe2fcdb0	-0.17168307
183	0x3e059449	0.13044848
184	0xbdd5f727	-0.10447531
185	0xbe328c61	-0.17436363
186	0x3cf8c562	0.030367557
187	0xbd7b8f55	-0.06141599
188	0xbd447025	-0.04795851
189	0x3e0ce725	0.1376005
190	0x3d1fc6a6	0.039007805
191	0x3e082078	0.13293636
192	0xbdf99365	-0.121863164
193	0x3df2a262	0.11847378
194	0x3db8abc5	0.090171374
195	0xbe8f6e64	-0.2801391
196	0xbd2ef6b0	-0.04271573
197	0x3e08dc44	0.13365275
198	0x3ebbc9d8	0.36677432
199	0xbe31697f	-0.173254
200	0x3d9c20cb	0.07623442
201	0xbcac739b	-0.021051219
202	0xbe01ad54	-0.12663776
203	0x3df8e800	0.121536255
204	0xbd3b55a4	-0.04573597
205	0xbe4ac862	-0.19803002
206	0x3dff52c0	0.12466955
207	0xbc2a97e2	-0.010412188
208	0x3dd4e5dc	0.10395405
209	0xbce085b9	-0.027407514
210	0xbe19c16c	-0.15015191
211	0xbd21d72e	-0.039511852
212	0xbe664138	-0.22485816
213	0x3c9d1de8	0.0191793
214	0xbe33082c	-0.17483586
215	0xbe26243c	-0.1622476
216	0xbcff6c41	-0.03117955
217	0xbe80a352	-0.25124604
218	0xbb6e7472	-0.0036385325
219	0x3d58ea40	0.052957773
220	0xbe5dbd3c	-0.21654218
221	0xbe929941	-0.28632548
222	0xbe77082d	-0.24124213
223	0xbe193708	-0.14962399
224	0x3aae187b	0.0013282442
225	0xbe135857	-0.14389168
226	0xbe721769	-0.23641743
227	0xbea92d05	-0.3304216
228	0x3e620d48	0.22075379
229	0xbd52af35	-0.05143662
230	0xbd9aad30	-0.07552564
231	0xbc87b81e	-0.016567286
232	0xbbc6d676	-0.006068046
233	0xbe3bb492	-0.18330601
234	0x3d8e3cba	0.069451764
235	0xbe2b2337	-0.16712652
236	0xbe95785f	-0.29193398
237	0x3deb7ba0	0.11498189
238	0xbe53d89e	-0.20688102
239	0xbe7f8636	-0.24953541
240	0x3cea8c5c	0.028631382
241	0x3e0e5db7	0.13902937
242	0x3df9ddad	0.122004844
243	0xbe421632	-0.1895378
244	0x3e1291c4	0.14313418
245	0xbdd25fd1	-0.10272182
246	0x3c2e7d83	0.0106500415
247	0x3dc34949	0.095354624
248	0x3c960d3f	0.018316863
249	0xbd89a113	-0.067201756
250	0xbe5b0ba7	-0.21391164
251	0x3e6870d5	0.22699292
252	0x3e32c669	0.174585
253	0xbe29d3d9	-0.1658472
254	0x3e952d75	0.29136243
255	0xbe73dedc	-0.23815483

conv3.3.bias f4 [32]
0	0xbc7b930d	-0.015354884
1	0xbd4b2160	-0.049592376
2	0x3d0bae84	0.034101978
3	0x3b32b7af	0.0027270128
4	0xbd33bbed	-0.043880392
5	0xbc21b5e9	-0.009870031
6	0x3cad093c	0.021122567
7	0x3ac8d368	0.0015321793
8	0xbcdfc733	-0.027316665
9	0x3cbda2c9	0.023148911
10	0x3c786c3e	0.015162526
11	0xbc7b7936	-0.015348723
12	0xbbabf7fe	-0.005248069
13	0xbd2a6a4d	-0.041605283
14	0x3ac8dab6	0.001532397
15	0xbd70aae1	-0.058756713
16	0x3cf038ea	0.029324014
17	0x3ae02de8	0.0017103525
18	0x3c169032	0.009189652
19	0xbccdd7fc	-0.025127403
20	0x3d6c3758	0.057669967
21	0xbd25f508	-0.040516883
22	0xbc0474fb	-0.008084531
23	0xbd02a595	-0.031896193
24	0xbd5677ef	-0.05236047
25	0x3c888d35	0.016668895
26	0x3c19c7e8	0.00938604
27	0x3c88cc0a	0.016698856
28	0xbbf07239	-0.007337835
29	0xbd60002c	-0.054687664
30	0x3d700cc0	0.05860591
31	0x3c497fe9	0.012298563
