trained_models/last_cnn.pt (torch, 958866 bytes, 92 tensors)

conv1.0.weight f4 [8, 3, 3, 3]
000000 1d 69 00 3f 7f 19 23 3f 06 d4 ca be f5 61 34 be
       0.5016039 0.6371078 -0.39614886 -0.17615493
000010 cb 99 e5 be b4 02 ae 3e a7 e5 52 be 31 66 26 bf
       -0.44843897 0.33986437 -0.20595418 -0.6499968
000020 51 28 dc 3d cd a1 97 3e a6 8b 69 be 03 3a 03 bf
       0.10749877 0.29615632 -0.22807178 -0.51260394
000030 48 d6 fe bd af 18 46 bf 55 ff 29 3f e7 74 fe 3e
       -0.12443215 -0.77381414 0.6640523 0.49698564
000040 cb 70 93 be f5 60 1e 3f ca 28 fd 3c 30 73 9a bd
       -0.28796992 0.61866695 0.030903239 -0.075415015
000050 30 dc 5b bf cf ac 12 3b 36 5c 6b be 25 7c 61 3f
       -0.85882854 0.0022380834 -0.22984394 0.88080055
000060 17 f8 83 3e 79 8a 11 bf d8 de e8 3e 57 3d 06 3e
       0.25775215 -0.5685192 0.45482516 0.13109337
000070 6e 25 48 3f 0e 41 b5 3d e2 cb fe 3e 7e 9f c7 3e
       0.78182113 0.08850299 0.49764925 0.3898887
000080 ff 01 5c 39 5a 7f b7 be d3 f2 9c bd 04 9a 9f 3e
       0.00020981579 -0.3583935 -0.076635025 0.31172192
000090 59 83 85 3e dd bb d4 3e 28 19 ab be bd f8 e2 bd
       0.26076773 0.41549578 -0.3341763 -0.11082599
0000a0 b8 f2 69 bc 61 03 bb be 64 fc de be 8e 5d cc be
       -0.01427906 -0.36526015 -0.43551934 -0.39915127
0000b0 71 b1 88 be 2b 39 ec 3e 79 bd a4 3e 53 8f bb bd
       -0.26697877 0.46137366 0.32175806 -0.09158196
0000c0 11 24 96 3e 1d f7 9a be 63 bc 08 bf 59 de 86 be
       0.2932439 -0.30266657 -0.53412455 -0.26341513
0000d0 73 e7 9b be ae 63 b7 3d 0d ee 5b 3d fa c4 db be
       -0.3045002 0.08954559 0.05369382 -0.4292372
0000e0 2d 5a 6e 3e ef 61 89 be 79 09 13 3c 86 14 f0 3e
       0.23276587 -0.2683253 0.008974426 0.46890658
0000f0 97 df e0 be 5e eb 02 bf 72 d3 f0 bd c5 78 41 3e
       -0.43920586 -0.5114039 -0.1175908 0.18893726
000100 38 d6 47 be f9 86 d5 bc 20 96 50 bd e2 49 bb 3e
       -0.19515312 -0.026065337 -0.05092442 0.36579806
000110 c9 8d 69 3e 07 7d f1 bc 5f 39 01 be 53 ac bd bd
       0.22807993 -0.029478563 -0.12619542 -0.09261384
000120 89 d5 e5 3e 07 60 e1 bc 43 12 70 bf 6d 9a 18 3f
       0.44889477 -0.02751161 -0.93777865 0.59610635
000130 1f 77 4f 3f 60 6a 1f 3d 1d ad 02 3f ff c9 b9 3e
       0.8104114 0.038919806 0.510454 0.36286923
000140 78 d5 e9 be 01 fd f5 bd da cb 58 3d dc 71 cc 3e
       -0.45670676 -0.12011147 0.052928783 0.39930618
000150 59 e7 30 bf 1b 58 00 bf 44 7c 4f 3d 4b 39 5c be
       -0.6910301 -0.5013444 0.05065562 -0.2150623
000160 35 3e 34 bd 9d 27 32 3f f6 35 c1 bd cf 2a a4 3c
       -0.044004638 0.69591695 -0.0943412 0.020039944
000170 6d c5 08 3f 78 9f 1f bf 36 3d 0a bf 6d 2d 88 be
       0.5342625 -0.62352705 -0.5399965 -0.26597157
000180 23 95 06 bf 1f 1d 0c be 33 62 18 3e b6 f7 25 3e
       -0.52571315 -0.13682984 0.1488121 0.16207775
000190 07 47 ee 3e ad f8 08 3f dc fc 89 be 3a 77 10 bc
       0.46538565 0.5350445 -0.2695073 -0.008817488
0001a0 25 2b f6 3d 16 2f 43 3e 08 b6 23 3e 8a 38 15 3e
       0.12019948 0.1906093 0.15987408 0.14572349
0001b0 b5 cb cd be 2a a4 a4 3e d3 1d ea 3e 86 97 0b 3f
       -0.4019448 0.32156497 0.4572588 0.5452808
0001c0 56 40 f3 3e a8 46 6e be 1f 5f 19 bd 05 00 4a be
       0.47510022 -0.2326914 -0.03744423 -0.1972657
0001d0 af e4 36 be 4a 1c ac be 30 96 9e be 25 4c ab be
       -0.17860673 -0.33615333 -0.3097396 -0.3345653
0001e0 e9 59 22 3f da 25 11 be 6e 6a 5d bf 08 7a 46 3e
       0.6341844 -0.14174595 -0.86490524 0.19382489
0001f0 57 11 48 bd 2a a6 ab be ef b6 b9 3d 1c e0 04 be
       -0.04884466 -0.3352521 0.09068095 -0.12976116
000200 06 fa 2f be 5d 1e 79 3f 9f 7e e6 3d 16 68 44 bf
       -0.1718522 0.97311956 0.1125462 -0.7672132
000210 ee d5 5a 3f f9 ae f6 3c b7 84 c1 be 04 e0 aa 3e
       0.8548268 0.03011273 -0.37796566 0.33374035
000220 fe 36 06 3f c5 c1 e1 3e 8c fa 90 bd 1b 29 cb be
       0.5242766 0.44093147 -0.07079038 -0.39679798
000230 c6 fb 62 3d 06 57 09 3e 23 35 15 bf 95 8c 04 bf
       0.05541589 0.13412103 -0.58284205 -0.5177701
000240 ec d8 8b 3e 3e c6 e9 3d 52 65 1e 3f 25 da 89 3c
       0.27313936 0.11414765 0.6187335 0.016827652
000250 eb 64 29 bf 31 c6 13 be 67 78 25 3f 17 f1 20 bf
       -0.66169614 -0.14431073 0.64636844 -0.62867874
000260 bb 7a b1 be a2 11 8a be bc 0c c7 be 93 44 fc 3e
       -0.34663948 -0.26966578 -0.38876903 0.49271068
000270 19 ca 01 be 26 ae 97 be c7 01 1f 3e d8 78 c5 3e
       -0.1267475 -0.29625052 0.15528022 0.3856876
000280 c0 b0 0f be ad 6a 04 3d e6 e3 f5 3e 56 09 3d 3b
       -0.14032269 0.032328296 0.48025435 0.0028844676
000290 b1 62 a4 3e ab 87 be 3d ee 4f d9 bd 5d 30 99 3f
       0.32106546 0.0930322 -0.106109485 1.1967884
0002a0 04 c8 be be dd 3f af be ea 5b 51 bf 71 84 76 bd
       -0.37261975 -0.3422841 -0.81780875 -0.0601849
0002b0 ab d9 06 bf 61 14 8b 3e 0b d7 c0 be 28 80 6f bf
       -0.52675885 0.27163985 -0.37664065 -0.93554926
0002c0 8a 54 66 3f 24 ab 37 3d a3 01 32 3e ff 7f a1 bd
       0.89972746 0.044840947 0.17383437 -0.078857414
0002d0 bb b8 19 3d ce c3 e2 be 8c d4 22 be d6 1c 9e 3e
       0.03752969 -0.44290012 -0.15901393 0.30881375
0002e0 78 25 27 bf f9 2c 24 3f f2 0a 02 3f a0 7a 79 3e
       -0.6529155 0.6413112 0.5079795 0.24363184
0002f0 fd 6a 4c be 04 59 27 be 7a 81 97 3e ad 12 b6 3e
       -0.19962688 -0.1634255 0.2959097 0.35561123
000300 5c dd 01 3e 2c 85 1c bd d2 9f e4 3b 38 da 29 3e
       0.12682098 -0.03821294 0.00697706 0.1658715
000310 30 68 6b be ae f4 40 be 8a 28 95 3d b4 ed 0e be
       -0.22988963 -0.18843338 0.07283123 -0.13957864
000320 de ee 2b be b2 24 31 3c 68 b1 ee be f4 17 2e be
       -0.1679034 0.0108119715 -0.46619725 -0.17001325
000330 32 1c 34 3d 2a 9e e8 be c4 d4 bf be 8a e1 04 3e
       0.0439722 -0.4543317 -0.37467015 0.12976661
000340 30 b8 de bc 0f 1c 84 bd 56 d5 e5 ba e4 bc 1e be
       -0.027187437 -0.06450664 -0.0017534893 -0.15501744
000350 72 34 e6 bd 5e fb 71 3e 15 d3 8d be 2a 9c 09 3e
       -0.11240472 0.23631045 -0.27700105 0.13438478

conv1.0.bias f4 [8]
000000 c1 7f 6a 3d cc 71 ac bd cd 1e 2d be c9 6c 10 3e
       0.057250742 -0.084201425 -0.16906281 0.14103998
000010 b6 14 f5 3d a4 a1 8e 3d 15 b4 ab bd 2c 0b 35 bc
       0.11966841 0.06964424 -0.08383957 -0.011050027

conv1.1.weight f4 [8]
000000 24 4a 93 3f 01 7c 31 3f e2 b6 2c 3f 10 d1 6c 3f
       1.1507001 0.6932984 0.6746656 0.92506504
000010 99 56 8f 3f 48 09 99 3f d1 f3 96 3f de 91 49 3f
       1.1198303 1.1955957 1.1793157 0.787382

conv1.1.bias f4 [8]
000000 8b 3a 54 3f 23 8f cc 3e 21 16 20 3e 89 94 82 3e
       0.8290183 0.39952955 0.15633442 0.25503948
000010 42 97 89 3d 77 9a 8d 3e 57 5e 6f 3f 55 fd 7d be
       0.06718303 0.2765691 0.93503326 -0.2480367

conv1.1.running_mean f4 [8]
000000 44 98 3a bd f7 20 89 3d cd 91 b9 3d a1 2a 19 be
       -0.045555368 0.06695741 0.090610124 -0.14957668
000010 8c 36 11 3d 3a 32 ce bd 2c 6b 7c bd 5b 80 35 bf
       0.03545241 -0.10068174 -0.061625645 -0.7089898

conv1.1.running_var f4 [8]
000000 aa 1b a6 3d 4e f3 56 3e fe b2 fd 3d fe eb 8d 3e
       0.08110745 0.20991251 0.12387656 0.2771911
000010 b4 fc 89 3e 70 37 32 3e 05 9e c7 3d 6e 50 20 3e
       0.2695061 0.1740396 0.09746937 0.15655681

conv1.3.weight f4 [8, 8, 3, 3]
000000 e4 0a 68 3e 7d 71 24 3e f4 8f b6 3e 9c 7e 8e be
       0.22660404 0.16058917 0.35656703 -0.2783097
000010 6a a3 15 be 6d 17 9a 3d 15 1a ab bd de b5 2a be
       -0.14613119 0.07523999 -0.08354584 -0.1667094
000020 4c ff 31 be 84 fe 7a be 2a 4f 86 be 4e db 0c bf
       -0.17382544 -0.24511153 -0.26232272 -0.5502213
000030 4e e9 2e 3e 62 b4 8a 3d e1 4d ee bd 8c be 59 3b
       0.17081186 0.067726865 -0.11635948 0.0033225147
000040 49 e2 4c bd 95 f9 23 bd 30 c3 df 3c 25 a6 a3 3e
       -0.05002049 -0.04003294 0.027314752 0.31962696
000050 1e 62 95 3e 9c 88 3f be b0 69 b7 be 8e 7a b2 bd
       0.2917642 -0.18704456 -0.3582282 -0.08714782
000060 b5 7c 2a 3e 71 62 86 3e 23 77 82 3e d0 db 1d bf
       0.16649134 0.2624698 0.2548152 -0.6166353
000070 d5 06 d8 be e8 ff 8d be 51 df 5b 3e 67 6e 30 3f
       -0.42192712 -0.27734303 0.21471907 0.6891846
000080 55 18 80 3e f3 e5 41 be 13 61 d0 3d 1a 4b 34 3e
       0.25018564 -0.18935375 0.101747654 0.17606774
000090 0f 32 18 3c ad 04 33 3e 72 ac 49 3e 4c 16 86 be
       0.009289279 0.17482252 0.19694689 -0.26188886
0000a0 4e 54 86 be 4a a0 f5 be 12 15 85 be d8 e8 11 be
       -0.26236194 -0.47973853 -0.25992638 -0.14248979
0000b0 9e 0b 7b be 7e 1e 79 3d 77 e7 24 bd 43 41 02 3e
       -0.2451615 0.060820095 -0.040259805 0.12720208
0000c0 f1 bf 95 3e c2 01 c7 3d c9 85 56 3d cc 83 30 be
       0.29248002 0.09717132 0.05237368 -0.17237777
0000d0 88 e2 27 3d d1 82 27 bd f1 1c db 3e 66 d1 dd 3e
       0.04098752 -0.04089624 0.42795518 0.4332382
0000e0 16 44 ca 3e 54 57 95 be 37 d9 6c bf bc 8a f6 be
       0.3950507 -0.2916819 -0.92518944 -0.4815272
0000f0 04 07 13 3d 27 28 0d 3d 17 51 10 3d 9f 89 de be
       0.035895362 0.03446212 0.035233583 -0.43464372
000100 b8 54 e7 be 8c ac cd 3c a5 7e 3b be 8b d6 fa bd
       -0.45181823 0.02510669 -0.1831003 -0.12247952
000110 bb 51 06 3e d3 12 2f 3c 9b 15 32 3e 35 46 4e 3e
       0.13117115 0.01068564 0.17391054 0.2014397
000120 b6 71 2a be ed 4c b2 3c 17 53 b0 be dc 86 15 be
       -0.1664494 0.021765197 -0.34438393 -0.14602226
000130 9b ac cf 3e 3d 7c 55 be bd 40 9f be 03 45 f6 3e
       0.40561375 -0.20848174 -0.3110408 0.48099527
000140 22 2e 10 3c 3c 23 54 3e 8a 7c a5 3d b0 3a 82 3e
       0.008800061 0.20716566 0.080803946 0.254354
000150 20 15 4a be d2 d6 25 be cc cb 33 3e 60 ab bc be
       -0.19734621 -0.16195229 0.17558211 -0.368495
000160 c0 a0 61 be 52 90 7a 3c 80 de 64 3e ad c6 b3 3e
       -0.22033978 0.015293198 0.22350502 0.35112515
000170 63 2c 88 3d f7 d9 de bd 13 3f 3b be b6 6e 57 be
       0.06649091 -0.10881417 -0.1828578 -0.21038327
000180 d4 19 11 be 8c dc 21 be 25 78 c3 be 97 64 f8 bd
       -0.14170009 -0.15806788 -0.381776 -0.12128561
000190 5f 98 b5 bd b8 e5 4f be 34 2d df 3e 94 97 3e 3f
       -0.08866953 -0.20302474 0.43589175 0.7445004
0001a0 7f b2 a3 3e 3f 96 e1 be 93 8e 37 bd 3d d3 01 bf
       0.3197212 -0.4405994 -0.044813704 -0.5071295
0001b0 45 02 31 be 73 80 e5 3d 9e 39 08 3e 25 d9 75 bd
       -0.17286022 0.1120614 0.13303229 -0.06002154
0001c0 08 19 90 be 74 16 91 be 84 99 17 bd 88 33 b1 3d
       -0.28144097 -0.28337443 -0.03701164 0.08652407
0001d0 ae 3f 8b 3e 15 37 84 be 3b 14 87 3d 53 3b b4 bd
       0.2719702 -0.25823274 0.065956555 -0.08800378
0001e0 3a 94 77 3e b3 20 8a 3e 88 81 71 3e 24 c9 db be
       0.24177638 0.26978073 0.23584569 -0.42926896
0001f0 3f 0f 02 bf e2 e0 04 bf 35 9a 2c 3c e2 95 2d 3f
       -0.50804514 -0.51905644 0.010534813 0.6780683
000200 39 ae 5d bd b9 9b c3 be 30 22 9b 3d 7a 26 bc be
       -0.05412123 -0.38204744 0.0757488 -0.36748105
000210 a5 6e 58 bd cd 5b 81 bd ae 3c 09 3c f9 6a 0e 3d
       -0.052839894 -0.06316338 0.008376284 0.034769986
000220 1f 82 84 3e bc a0 53 3e 0a 32 2e bc 9f 7a 13 3e
       0.25880525 0.20666784 -0.010632047 0.14402245
000230 68 1f 9e 3d 7f 52 71 be 2c 69 d6 3d 5e f5 c0 bd
       0.07720834 -0.23566626 0.10469279 -0.094218
000240 fa b6 3a 3e 42 96 88 3e 4d c1 a6 be 71 ef ff be
       0.18233863 0.26677138 -0.32569352 -0.49987367
000250 3a e3 87 3e 77 dd da 3e 69 59 35 3f c4 48 87 bf
       0.26540548 0.4274709 0.70839554 -1.0569081
000260 41 c9 85 be 81 c0 42 be 36 b0 38 3d ac 3c 73 3e
       -0.26130107 -0.19018747 0.045089923 0.23753613
000270 f3 f2 26 be 3f 85 d0 be f6 5d 69 be a2 16 ee ba
       -0.16303615 -0.4072666 -0.2278975 -0.0018164704
000280 ca f0 4f bd 5d 39 27 be 2f 13 0c bd 91 d4 96 be
       -0.050766744 -0.16330476 -0.034197982 -0.2945905
000290 d5 d8 17 be 34 a6 cb bd b8 6a 90 be bb 5c 24 bd
       -0.14828809 -0.0994381 -0.2820642 -0.040127497
0002a0 db 35 01 3d bd c7 f9 3d 5e 54 46 bd d1 a1 81 bd
       0.0315455 0.121963 -0.048420303 -0.06329692
0002b0 6d b9 08 3e 6c e9 8d 3d 8c 74 46 3e d5 f1 19 3b
       0.13351984 0.06929287 0.19380397 0.002349009
0002c0 54 24 5e 3e a1 84 a3 be d0 03 86 be 5a 08 c5 3e
       0.21693546 -0.31937125 -0.26174784 0.38482934
0002d0 49 67 d7 be 0f 37 8f be 23 ae a8 be 85 c1 da 3d
       -0.42070988 -0.27971694 -0.32945356 0.10681442
0002e0 f4 63 a1 3e 90 fa cf be 40 0d 7e bd 07 32 e1 3e
       0.3152157 -0.40620852 -0.062024355 0.4398348
0002f0 63 cf 98 3e c5 23 7b 3e ab 80 cf bd f7 a5 39 bf
       0.29845724 0.24525364 -0.10131963 -0.7251887
000300 5e f9 33 be d0 89 1b 3f 97 cb 6d 3e 0f b5 8f be
       -0.17575595 0.6075716 0.23222195 -0.28067824
000310 a5 f3 1e bc a4 46 1f 3e b4 49 dd 3e 33 fc dc bd
       -0.009701644 0.15554291 0.43220294 -0.10790291
000320 70 dc 8a bd 47 48 12 bf 0f 95 dc 3e de b9 b2 bc
       -0.06780326 -0.57141536 0.43082473 -0.021817144
000330 7d c2 1f bc f9 69 a4 be 71 b7 c2 3d da a2 5e 3e
       -0.009750959 -0.321121 0.09507645 0.2174181
000340 5f c1 6a 3e d7 aa 9b be 4c bc 69 bc a0 cc 51 3e
       0.22925328 -0.30403778 -0.014266085 0.20488214
000350 44 cc 17 3e fd 66 0c be 84 14 09 bc 45 e4 3d 3e
       0.14824015 -0.13711162 -0.008366708 0.18544109
000360 37 a5 b0 be 65 ef 45 be 16 b8 9a be 95 24 79 be
       -0.3450105 -0.19329603 -0.3021857 -0.24330361
000370 30 c2 73 bd 54 eb 8d 3d 93 0b fe 3e bb 25 2f 3e
       -0.059511364 0.06929651 0.49618205 0.17104237
000380 73 83 a6 3e 2b 3e c5 3c 41 4d 1f 3f 3f 5e b3 3d
       0.32522163 0.024077496 0.62227255 0.087582104
000390 08 96 bb 3e 67 4c da 3e 0a 4b ac bd 17 ac 30 be
       0.36637902 0.42636415 -0.0841275 -0.17253147
0003a0 fe 41 7c be 27 25 a9 3d 1c eb 0e 3e d4 09 50 3e
       -0.24634549 0.08259039 0.13956875 0.20316249
0003b0 22 2e 7b 3d f5 db f6 3d b6 4b 51 be 30 1d b2 bd
       0.061323293 0.12053672 -0.20439038 -0.08696973
0003c0 98 40 99 be 15 d7 9b be da 49 02 3e 5b 72 75 be
       -0.29932094 -0.30437532 0.12723485 -0.23969404
0003d0 8c 32 e4 bd 93 96 61 3e 6d 57 78 be 26 df 82 3d
       -0.111424536 0.22030096 -0.242521 0.063902184
0003e0 4f b8 8f 3e c6 44 84 3d f4 14 99 3e 0a bb c9 bd
       0.28070304 0.0645843 0.29898798 -0.09850128
0003f0 f4 f6 e9 3d c9 57 b6 3e b4 e0 46 3c 56 1a d4 3e
       0.11424056 0.3561385 0.012138534 0.41426343

conv1.3.bias f4 [8]
000000 6c 86 4f bd cc 29 eb 3c 13 43 33 3d 58 b2 b5 bd
       -0.050665304 0.028706454 0.04376514 -0.08871907
000010 d1 97 86 bc 76 f7 ce bd 02 87 92 bd d1 60 93 3c
       -0.016429814 -0.10105793 -0.07154657 0.017990502

conv1.4.weight f4 [8]
000000 e4 9f 97 3f 28 d4 91 3f b7 d0 90 3f 0a a7 70 3f
       1.184567 1.139287 1.1313695 0.9400488
000010 3e 7a a9 3f 2a 78 6c 3f 20 9d 85 3f 57 e4 8c 3f
       1.324043 0.92370856 1.0438576 1.1007184

conv1.4.bias f4 [8]
000000 7f ff 0a 3e 4f fa 8e be 10 66 24 bd 8f d6 88 3e
       0.13574027 -0.27925345 -0.040136397 0.26726195
000010 8a d3 5f bd 55 db ce 3e e9 73 8b 3e ab 74 52 bd
       -0.0546451 0.40401712 0.2723687 -0.051380794

conv1.4.running_mean f4 [8]
000000 1b fe 8f bf 68 a3 96 bf 3a e0 79 bf e8 94 c4 3f
       -1.1249422 -1.1768618 -0.9760777 1.5357943
000010 25 70 9e be 3b 59 9f 3f b1 87 ec bf 1d 39 19 bf
       -0.30944934 1.2449106 -1.847891 -0.5985277

conv1.4.running_var f4 [8]
000000 aa d5 3f 40 0c 42 53 40 93 e6 69 40 5f 03 42 40
       2.997416 3.3009062 3.6546981 3.0314558
000010 92 56 dc 40 07 48 3e 40 b0 a9 19 40 c7 7f 84 40
       6.8855677 2.9731462 2.400982 4.140598

conv2.0.weight f4 [16, 8, 3, 3]
000000 21 86 37 3d af 02 43 3d 99 24 4c bd 36 be f6 3d
       0.04480565 0.04760998 -0.04983959 0.120479986
000010 b2 05 4d be ac 72 51 bb ee 20 95 be 5b 2c a3 bd
       -0.20021704 -0.003195922 -0.29126686 -0.079674445
000020 21 bb aa 3c 5e d2 79 3e 29 73 88 3e d2 ea 7b 3d
       0.020841183 0.24396655 0.2665036 0.06150324
000030 48 31 c1 bd 5b 28 3c be 79 ad 08 be 1e 43 c8 3d
       -0.09433228 -0.1837477 -0.13347425 0.097784266
000040 4c d1 43 bb 40 8e 19 3e fe 92 7e 3b 40 53 2a 3e
       -0.002987939 0.1499567 0.0038844938 0.1663332
000050 72 ef a3 3e 97 d2 9d be 8a 61 d8 be 30 55 80 3d
       0.3201862 -0.3082473 -0.42261916 0.06266248
000060 90 f2 2f 3c 8c 8c 01 bd ae 97 9f 3e e9 db cd bd
       0.010738984 -0.031628177 0.3117041 -0.1005171
000070 2f 4d 2f be 7a 74 22 be 23 e7 4e 3e 65 4e 54 3d
       -0.17119287 -0.15864745 0.20205359 0.051832575
000080 b5 5e a1 bc 79 72 78 be 14 60 3a 3d 7a 79 a7 3d
       -0.01969848 -0.24262418 0.045501783 0.08177467
000090 8e 77 02 be 2c 06 15 be 6e 26 16 be b9 b9 71 be
       -0.12740919 -0.14553136 -0.14663097 -0.23606004
0000a0 34 62 fd be 97 61 2e be f9 02 d7 3b 02 c6 a2 bd
       -0.49488986 -0.17029415 0.0065616337 -0.07947923
0000b0 b5 95 09 3d 76 0a 1c be dd 17 96 be 94 78 ca be
       0.033590037 -0.15238366 -0.2931508 -0.3954512
0000c0 c4 0c b7 39 8f 0b 9c 3d 16 7d b1 bd 31 b8 82 be
       0.0003491399 0.07619392 -0.086664364 -0.25531152
0000d0 b9 7d 6b be b6 5c 71 3b 32 3c 14 3e e2 19 88 3e
       -0.22997178 0.0036828942 0.14476088 0.26582247
0000e0 78 7e 4e be d2 02 ee 3d 7f 35 29 3e 49 f6 1e be
       -0.20165431 0.11621632 0.16524313 -0.15523638
0000f0 80 58 37 be c1 3e 82 3d 6b 8c 37 be 31 3d 38 be
       -0.17904854 0.063596256 -0.17924659 -0.17992093
000100 a7 a4 ab be f6 15 26 be 30 13 a8 ba cd 6a ec be
       -0.33524057 -0.16219315 -0.0012823101 -0.46175233
000110 85 04 e9 be f6 3f 60 3e 55 cf 63 be 50 9c b1 bd
       -0.4551126 0.21899399 -0.2224706 -0.08672392
000120 4f 64 ed be 82 ad 8e be 19 d5 d9 3d da 85 ac be
       -0.46365592 -0.2786675 0.10636348 -0.3369587
000130 17 51 34 be a9 84 ab 3e fd f8 0a bd ed b9 18 bd
       -0.17609058 0.3349965 -0.03392886 -0.037286688
000140 cd b6 80 3e 6e 8e e4 bd a9 87 1c bc c3 c6 fa bc
       0.25139466 -0.11159979 -0.009553828 -0.030612355
000150 d1 8c ab 3b eb c3 26 3e 7a 26 84 bc 70 e3 70 3d
       0.0052352925 0.16285674 -0.016131628 0.05881065
000160 2b 2a 76 be cc 70 81 be f8 a8 dd 3c c7 f8 f1 bd
       -0.24039523 -0.2528137 0.02705811 -0.11815029
000170 14 18 d2 3d 66 83 cc bd 0c 9b 0f 3d 74 87 24 3e
       0.10258499 -0.09986 0.035059974 0.16067296
000180 0a 46 79 3d 6c 52 17 bc d3 94 1f be 11 5e ee bd
       0.06085781 -0.0092359595 -0.15584116 -0.116390355
000190 4b 3c 0a 3e 6e 58 5c 3e e1 5d 97 bd 1f b6 68 be
       0.13499562 0.21518108 -0.07390953 -0.22725724
0001a0 f7 65 8b be ea 85 66 be ab 00 eb be d4 b0 df bd
       -0.2722623 -0.22512022 -0.45898947 -0.10922399
0001b0 1c b5 ff 3d 16 9a f6 3d a0 ba 1f bc 8a b2 1a 3e
       0.12485716 0.12041108 -0.009749085 0.1510717
0001c0 41 3a bf 3b 67 4f 33 3e 16 e2 6e 3e 9a ad dc 3d
       0.005835802 0.17510758 0.23328432 0.10775299
0001d0 35 11 65 bd f5 31 7c bd e8 bf e9 be 11 3d 7a be
       -0.055924613 -0.06157108 -0.45654225 -0.24437357
0001e0 d6 09 0c 3e ab ed e9 be 05 76 34 bc 19 01 16 3c
       0.13675627 -0.4568914 -0.011014466 0.009155535
0001f0 27 ff f9 bd b3 ef fb bc af 46 78 3d 36 97 75 bd
       -0.122068696 -0.030753946 0.060614284 -0.05995866
000200 5f fc 0d bd 3b 07 14 be 0a aa 08 3e 7d 46 6c 3e
       -0.034664508 -0.14455883 0.13346115 0.23073764
000210 c1 38 34 be d8 76 2e 3e 6c 2d c4 3e d6 fe ec 3b
       -0.17599775 0.17037523 0.38315904 0.0072325272
000220 86 6b f8 3d 40 44 62 bd 25 c4 6d be b6 fd 43 3e
       0.121298835 -0.05524087 -0.23219354 0.19139752
000230 26 07 83 3e 31 94 fa bd 28 8b 50 3e b9 7b 07 3e
       0.2559139 -0.122352965 0.20365584 0.1323079
000240 8b f2 23 3c 66 4b cf be ee e2 ad be 7f 06 a5 be
       0.010006557 -0.40487212 -0.33962196 -0.3223152
000250 5b 4e de be fe 2e a9 be cb a1 9b be a8 33 44 be
       -0.43419155 -0.33043665 -0.30396876 -0.1916033
000260 a5 a3 85 be 29 39 88 bd 65 21 7a 3d 83 9a 93 be
       -0.26101413 -0.066515274 0.061067004 -0.2882882
000270 06 f4 9f be 7b dc 95 be 3f fd 9d be fd 47 49 be
       -0.31240863 -0.29269776 -0.30857274 -0.19656368
000280 32 04 45 be c8 95 6b 3e e1 cf 9d 3d 87 ab 56 3e
       -0.19239882 0.23006356 0.077056654 0.2096387
000290 79 b6 01 3e cd de 2f ba 30 01 a0 3e 1c cc 62 3e
       0.12667264 -0.000670892 0.31250906 0.22148174
0002a0 b1 81 8e 3e a5 82 94 bd 24 5d 40 3d 2a 6a 99 3e
       0.27833322 -0.07251481 0.046963826 0.2996381
0002b0 9a 89 5a 3e 49 84 58 be 51 f3 90 bb b7 c7 a5 be
       0.21341553 -0.21144213 -0.004423537 -0.32378933
0002c0 c3 d8 6b 3e ac f9 05 bf f5 7e 10 be 83 19 99 3d
       0.23031907 -0.52334094 -0.1411093 0.07475569
0002d0 9c c1 47 3e 36 2e 1a be c8 c8 d1 bd 27 6d 75 be
       0.1950745 -0.1505669 -0.10243374 -0.2396742
0002e0 37 39 4e 3d 26 a9 0c 3c d0 19 da bd b4 b3 6b 3d
       0.050347533 0.00858525 -0.106494546 0.057544425
0002f0 13 be b9 b8 73 4b 4f 3c d7 7b d0 b9 3f d9 59 3d
       -8.8568915e-05 0.012652266 -0.0003976512 0.053185698
000300 db 62 a8 3c 8c 59 28 be e2 9b d5 3d cd 85 a2 be
       0.02055495 -0.1644041 0.10430123 -0.31742707
000310 50 1c e8 3d 76 d5 08 bd 2d bc 9e bc 63 b4 c1 3e
       0.11333525 -0.033406697 -0.019376839 0.37832937
000320 36 1c 6a 3e e6 51 2e 3e 1f 98 d2 bd af ce b6 3e
       0.22862324 0.1702343 -0.10282921 0.35704562
000330 68 00 a6 be 31 bc da 3d 02 2b 43 3d c8 43 0f 3e
       -0.32422185 0.10680426 0.047648437 0.139907
000340 e2 31 8b 3e 83 60 77 3e b0 2c 6f 3e 61 cb 49 bd
       0.27186495 0.2415791 0.2335689 -0.049266223
000350 5a 8a ef 3d b5 a6 e8 3c 30 08 a2 ba a5 00 73 3e
       0.1169631 0.028399805 -0.0012362059 0.23730715
000360 fa 4f 94 3d 15 3a 71 3e f4 dc c3 3e 16 8f 58 3e
       0.07241817 0.23557313 0.3825451 0.21148333
000370 ba 04 14 be a6 6a 24 3d de 5c d5 be cd 4d dd bd
       -0.14454928 0.04014077 -0.41672415 -0.10805855
000380 55 df 22 3e 62 f4 8d bd 0f 20 2d be 11 73 19 3e
       0.15905507 -0.06931378 -0.1690676 0.149853
000390 aa 49 c6 bb a5 9c 71 bc 2f 48 6c bd 2e 80 ff bd
       -0.006051262 -0.01474682 -0.057686027 -0.1247562
0003a0 00 14 e3 3d ff 09 4b 3e e0 46 ad 3c 6b b9 41 3d
       0.11087799 0.19828032 0.02115196 0.04729597
0003b0 5d 45 f5 bc 91 11 95 bd 70 7e 00 3e ec 48 e1 3d
       -0.029940302 -0.07278741 0.12548232 0.11000237
0003c0 ca 65 ca 3e e5 d8 40 3d 30 a8 0f be 8a 5d 08 3d
       0.39530784 0.047081847 -0.14029002 0.03329233
0003d0 34 02 64 be ef 4b 87 be b0 85 4c be 48 a0 10 bf
       -0.22266465 -0.2642512 -0.19972873 -0.5649457
0003e0 8f 23 13 be 0c 5b ed bd e6 42 86 be 85 21 7e be
       -0.14369033 -0.115896314 -0.26222914 -0.24817474
0003f0 a7 02 78 3b 1b 78 90 3e e3 7b 87 bd 85 5f 20 3d
       0.0037843378 0.28216633 -0.066154264 0.039153595

conv2.0.bias f4 [16]
000000 5b c6 de bd ed fa a8 3d bc fc 89 bd e6 d5 19 3d
       -0.10877677 0.08250985 -0.067376584 0.037557505
000010 2d fb ad 3d d4 1e c2 3c 5e 22 cc bd 63 d2 a0 3d
       0.084951736 0.02369634 -0.099674925 0.07852628
000020 cf a2 cf bd be 94 4b bd a5 06 a7 bd b8 9b 2b bd
       -0.10138475 -0.0497024 -0.08155564 -0.04189655
000030 aa 40 46 3d 85 36 f1 3d 3c bc a4 bd 15 51 8d 3d
       0.048401512 0.11777977 -0.08043715 0.06900231

conv2.1.weight f4 [16]
000000 84 93 8a 3f fc 3e 6e 3f 26 cd 77 3f a1 5b 6f 3f
       1.0826268 0.93064857 0.96797407 0.9349919
000010 5c fe 7b 3f 4f 14 90 3f 6c 99 a4 3f ff 3c 82 3f
       0.98434997 1.1256198 1.2859321 1.0174865
000020 cd 89 ad 3f 8a 5b 66 3f 05 29 80 3f c6 a8 9e 3f
       1.3557678 0.8998343 1.0012518 1.2395256
000030 3b ad 56 3f 2f b1 89 3f d0 2c 80 3f 74 ff 4d 3f
       0.8385808 1.0757197 1.0013676 0.80467916

conv2.1.bias f4 [16]
000000 78 9c ae 3e 7f 32 07 3e ed 1b 8f 3d f3 6c 2e 3e
       0.3410375 0.13202856 0.06987748 0.17033748
000010 b6 bb 2d bc 57 48 53 3c ea 87 66 3c a6 51 6c bd
       -0.010603836 0.012895665 0.01407049 -0.057695054
000020 ee 26 1c be 49 ea 85 3e 2e b7 94 3e f2 4e 03 be
       -0.15249225 0.26155308 0.29046005 -0.12823084
000030 27 79 68 3e a9 f8 3a 3e de ea 07 3e 28 75 95 3e
       0.22702466 0.18258919 0.13273188 0.29190946

conv2.1.running_mean f4 [16]
000000 d8 28 64 c0 47 ed 8f bf ae ac 89 bf 6b 36 ef bf
       -3.564993 -1.1244286 -1.0755823 -1.8688482
000010 ec 80 7d be da 53 18 c0 60 e8 c7 bf 87 2a bb be
       -0.24756211 -2.380118 -1.561779 -0.36555883
000020 af eb 1c c0 09 3d 24 3f 28 94 e6 be 9b 44 96 bf
       -2.451885 0.6415563 -0.4503491 -1.1739687
000030 48 f9 eb 3f 02 be 6e c0 5d 66 c3 3d cb 86 c9 3f
       1.843545 -3.7303472 0.095410086 1.574426

conv2.1.running_var f4 [16]
000000 b2 5d 9c 40 86 6b 58 40 5c db 8f 40 53 aa 41 40
       4.8864374 3.3815627 4.4955273 3.0260208
000010 79 7e 37 40 40 7c 76 40 87 4f 9a 40 ab fc 59 40
       2.8670943 3.8513336 4.822208 3.4060466
000020 58 b0 a4 40 a6 eb 35 40 55 76 4b 40 60 ea ab 40
       5.1465263 2.8425078 3.1790974 5.37236
000030 8a 2d 5e 40 0f 9b 96 40 f4 45 4c 40 ba cf 41 40
       3.4715295 4.706428 3.1917696 3.0283036

conv2.3.weight f4 [16, 16, 3, 3]
000000 86 3f 71 3d c2 05 a1 bc 27 86 13 3d 21 f7 b4 3d
       0.05889847 -0.019656066 0.03601661 0.088361986
000010 a6 fe 03 3e 0d 7b 84 3d d3 82 97 be 15 83 28 3e
       0.1289011 0.064687826 -0.29591998 0.16456254
000020 1c 2d aa 3d fb 96 ba bd 78 85 bc 3c 12 95 35 be
       0.08309385 -0.091108285 0.023012862 -0.17732647
000030 ad 45 69 be 07 24 ea 3d 1f 37 06 3e d8 21 b3 bd
       -0.22780485 0.11432653 0.13106965 -0.087466896
000040 bb 4a 4d 3d 23 c1 2a 3e a7 c6 e6 3d 3f 80 2f 3e
       0.050120097 0.16675238 0.11268359 0.17138766
000050 af ec 99 3d c6 9c 23 bc 25 4b 04 3e 3c c8 fb bd
       0.07515847 -0.009986108 0.1291929 -0.12294051
000060 f0 a6 86 3d ce 31 96 3d 37 bf 1e be 96 df 55 be
       0.065748096 0.07333718 -0.1550263 -0.20886073
000070 1c 4c 0a bd 36 80 25 bd 4a 7e d1 3d 8b 89 70 3e
       -0.03376399 -0.040405475 0.10229166 0.23489968
000080 c9 75 91 3e 51 93 36 be b4 e6 d9 bd 79 fb ab 3d
       0.28410175 -0.17829634 -0.10639706 0.08397574
000090 ba 12 26 3d 81 31 1a 3e b6 a0 0c 3e 37 13 89 be
       0.040545203 0.15057947 0.13733181 -0.26772472
0000a0 4d 4f fd bd 78 66 32 be e1 8a 76 3e 63 ee 39 3e
       -0.12368641 -0.17421901 0.24076416 0.18157344
0000b0 36 5a 04 bd 01 1c bd 3c 72 7c 30 3e dd d4 9c 3e
       -0.032312594 0.023084642 0.17234972 0.30631152
0000c0 a4 5d e5 bd 7b 25 24 3c 44 19 0a 3d 9f 61 69 3c
       -0.11199501 0.010018702 0.0337155 0.014244466
0000d0 ed 6e 21 3d 8e 92 18 be ef c8 b7 bd 26 cf a1 bc
       0.039412428 -0.14899656 -0.08973872 -0.019752096
0000e0 63 b1 6e bd 97 6c c9 be 37 38 8c be 9d 3c 0c be
       -0.058274638 -0.3934066 -0.2738664 -0.13694997
0000f0 50 55 6b be 30 47 72 be af ff 8a be 09 b3 1c bd
       -0.22981763 -0.23659968 -0.27148196 -0.03825668
000100 d8 33 07 3d b7 2f 4e 3e eb 73 11 be 94 02 96 bc
       0.033008426 0.2013539 -0.14204375 -0.018311776
000110 4c 88 04 3d 93 47 95 3e fa f9 9a bc c0 92 88 3d
       0.032356545 0.2915617 -0.018918026 0.06668615
000120 fd a7 50 3d 06 5c 87 3d e2 20 33 3e 5d 08 cd be
       0.050941456 0.06609349 0.17493013 -0.40045443
000130 19 49 42 be 1e 86 92 bd d6 bb 18 be e9 0e 46 be
       -0.18973197 -0.07154487 -0.14915404 -0.19341625
000140 fc f0 5f 3d e5 d8 4a 3d 4e 45 af bb 5c 8e 00 3f
       0.05467318 0.049523253 -0.005348838 0.50217223
000150 0c fc 59 3e 5d a7 68 be 19 a0 75 3e 0e ba 1e 3e
       0.21287555 -0.22720094 0.23986854 0.15500662
000160 ce 92 23 bd 5e 8f cf 3d 60 f0 47 3d 9f 2c 6c 3d
       -0.039934926 0.10134767 0.048813224 0.05765974
000170 d3 85 29 be a8 25 dd 3d 77 c0 7c 3d 34 f3 58 bd
       -0.16554956 0.10798198 0.061706986 -0.05296631
000180 71 82 c7 3d 3f 03 0c 3d 53 2d ca 3d b4 8f 0a be
       0.097416766 0.034182783 0.09871926 -0.13531381
000190 ff f4 9a 3d b6 a5 c9 bd cf b5 57 3d ba b2 24 3d
       0.075662605 -0.0984606 0.05266362 0.04020951
0001a0 7c b8 67 3d 2a f9 c0 bd d7 f7 49 3d 4f 3d cd 3b
       0.056572422 -0.09422524 0.049308624 0.006263412
0001b0 dd 92 53 be 50 a9 b2 be 53 0e 38 be 0e 06 0d bd
       -0.20661493 -0.348948 -0.17974214 -0.034429602
0001c0 d4 c9 8a be b1 bb cf bc 8d c1 fd 3d b9 aa 38 bd
       -0.27107108 -0.025358053 0.123904325 -0.04508469
0001d0 d4 36 98 3c dd 8f 5d 3d 8c b3 2d 3e 2c c3 c6 3e
       0.018580832 0.054092277 0.16963023 0.3882078
0001e0 9a ba 31 3e 06 52 0a 3e 7a 4e 8b 3e 07 00 a1 bd
       0.17356339 0.13507852 0.2720831 -0.07861333
0001f0 db d8 af bd 2e e4 67 3e 8c e7 36 3e 8f 16 d9 bd
       -0.08586284 0.22645637 0.17861766 -0.10600006
000200 19 8a d8 3c 1f 64 38 be df c1 63 be 1c 73 68 be
       0.026433038 -0.18006943 -0.22241925 -0.2270016
000210 2b ed d0 bd c6 ff 21 be 85 3e c4 3c 66 85 a1 be
       -0.10201486 -0.15820226 0.023955593 -0.31547087
000220 db 80 d4 bd e9 8a c8 bd bb e1 9f bd 07 66 94 be
       -0.1037614 -0.0979212 -0.078067265 -0.2898409
000230 35 32 64 3d 97 70 19 3b 88 c7 d0 bd 90 56 22 bd
       0.055711944 0.0023413056 -0.101943076 -0.039633334
000240 1e 0f ba bd a6 fb ef bd a0 b4 c8 bd 2a ae 16 be
       -0.090849146 -0.1171792 -0.098000765 -0.14714876
000250 4b b2 c0 be 01 74 f3 3d 83 c3 22 3d fe 4e 03 be
       -0.37636027 0.1188736 0.039737236 -0.12823102
000260 a1 0d 8b 3d 06 81 cb 3c 17 ef ba 3d 09 34 65 be
       0.06789709 0.024841797 0.09127634 -0.22383131
000270 c0 49 89 bc 2f e9 c4 be 7a 46 a6 be ff c5 1f be
       -0.0167588 -0.38459155 -0.32475644 -0.15602873
000280 8e 9c 90 be c5 7a 2b 3e 57 e6 a6 3d 92 17 90 3c
       -0.28244442 0.16746052 0.081494026 0.017589364
000290 09 bf 38 3c 99 8b 01 3e 89 36 5a bc 16 b8 56 be
       0.011276015 0.12650909 -0.013318666 -0.2096866
0002a0 73 fc e2 bb c8 cf ff bd 72 5a ed bd 1e a4 5c be
       -0.006927067 -0.12490803 -0.11589517 -0.2154698
0002b0 2d ae 8e 3d 3f 24 f8 3d e4 ce c8 3d f6 57 ac bd
       0.06966815 0.121162884 0.09805086 -0.08415215
0002c0 a2 3c b2 be ea bc 41 be e0 49 49 be 3e 38 4d 3d
       -0.34811884 -0.18919721 -0.19657087 0.050102465
0002d0 e6 04 e1 3d ab 9f de bc 92 02 86 bd 5a df b0 bd
       0.109872624 -0.027175745 -0.06543459 -0.08636351
0002e0 54 3c 50 bd 1c bd 64 bd 88 0c 5b 3d 50 5e 58 be
       -0.050838783 -0.05584441 0.053478748 -0.21129727
0002f0 c3 fe 8d 3e ce df 81 3c 59 bf 2b 3e 4b d3 2f be
       0.2773343 0.015853789 0.16772212 -0.17170446
000300 52 ae 9b 3d 2f ac 81 be 62 32 10 bd f8 d4 6b 3c
       0.07601608 -0.25326678 -0.0352043 0.014394037
000310 2f 19 82 bd 1a 56 46 bc 34 e6 ac 3d de aa 60 be
       -0.0635246 -0.012105489 0.08442345 -0.2194018
000320 86 16 55 bd 55 0b 22 3e ab 31 6d 3e 4d 3d 35 bc
       -0.052023433 0.15824635 0.23163478 -0.0110619785
000330 24 93 9a 3c f3 2e 18 3d b1 ef 10 be e5 49 7d bd
       0.01886899 0.03715415 -0.14153935 -0.06183805
000340 92 fa 13 3e 19 71 07 be 55 f7 4a 3c b5 1f d7 3d
       0.14451054 -0.13226737 0.01238807 0.105040945
000350 77 47 8b 3e 11 43 87 3c 37 27 9c 3e d2 56 e3 3d
       0.2720296 0.016511472 0.3049867 0.11100544
000360 08 00 8e bc 54 2e 1a be 6f 71 a9 be 62 9f e9 be
       -0.017334 -0.15056735 -0.33094355 -0.45629412
000370 80 3f 8e be f0 6f 56 be 19 85 67 3e 6b c4 ae 3e
       -0.27782822 -0.20941138 0.22609366 0.3413423
000380 61 bc cf 3e 99 a0 72 bc 50 88 63 bd 41 d4 8c bc
       0.4057341 -0.014808797 -0.05554992 -0.017191054
000390 01 07 94 3e 9c 9b b5 3d fa 94 2f 3d 6c 51 63 3c
       0.28911594 0.08867571 0.042866684 0.013874393
0003a0 2f 40 30 be fa c2 3f 3e ae c8 d3 3d 5b 56 5a 3d
       -0.17211984 0.18726721 0.10341011 0.05330501
0003b0 96 aa 37 3e 08 ec 6e 3e 2f d5 9a bc 0e a6 2d be
       0.17936167 0.23332226 -0.018900482 -0.16957876
0003c0 98 f8 54 be 8e 1f aa 3d f4 99 47 3e 7c ef 91 3d
       -0.20797956 0.083068 0.19492322 0.07125756
0003d0 cb 0f 60 be bb 23 94 be 74 5f bc bc b5 6e 39 3d
       -0.21881025 -0.2893351 -0.022994734 0.045271594
0003e0 b8 6c a0 3b e9 a1 93 3c e9 13 d2 3d a2 01 cc 3e
       0.004895773 0.01802154 0.10257704 0.39844996
0003f0 a7 9e 20 3d 22 16 b9 bd 71 15 f1 bd 73 96 05 3e
       0.039213803 -0.090374246 -0.11771668 0.13045673

conv2.3.bias f4 [16]
000000 17 3e d2 3c 0e 7d 39 bd 69 d1 d7 3c ae e8 58 3d
       0.025664372 -0.045285277 0.026344972 0.052956276
000010 63 66 20 bd a6 23 97 ba 7d 2b 54 bc e4 79 0a bd
       -0.039160144 -0.001153101 -0.012949822 -0.03380765
000020 f3 69 80 bd 21 1f 3c 3c 92 f0 6d 3d c4 62 9a bd
       -0.06270208 0.011482031 0.058090754 -0.07538369
000030 ca fa 05 3d 8b d3 e8 3b 53 28 ab bc ae ec a3 3b
       0.032709874 0.007105296 -0.020893252 0.0050025797

conv2.4.weight f4 [16]
000000 80 7c 83 3f 9a ca 76 3f c9 37 71 3f 1a db 83 3f
       1.0272369 0.96402895 0.94225746 1.030124
000010 6b 58 8a 3f 25 bd 87 3f f7 c7 78 3f c6 ee 84 3f
       1.0808233 1.0604597 0.9718012 1.0385368
000020 32 07 85 3f 57 96 91 3f dd 9d 8c 3f 69 8d 7e 3f
       1.0392821 1.1374005 1.0985676 0.99434525
000030 56 52 8a 3f 96 6c 8a 3f 0a 35 90 3f 03 69 87 3f
       1.0806377 1.0814388 1.1266186 1.0578922

conv2.4.bias f4 [16]
000000 b4 91 d1 3d 3b 82 d3 3d 2d 5a 10 3e a5 0c 81 3d
       0.10232869 0.10327574 0.140969 0.0630124
000010 81 d3 f6 bd 91 5e 41 be 2a 20 b1 3d 1f 8a 30 3d
       -0.1205206 -0.1888373 0.08648713 0.043100473
000020 66 af 16 be 5b 63 53 be e6 dc a1 3d 7d 6c d0 3b
       -0.14715347 -0.2064337 0.07903461 0.006360589
000030 38 ae 74 bd d7 8e 5f 3d 3e ea 69 bd 65 ee a9 bd
       -0.05973646 0.054579582 -0.057108156 -0.08297423

conv2.4.running_mean f4 [16]
000000 b1 2d e2 be 02 9e 7b bf 1a 1a 8a be a5 26 05 c0
       -0.44175485 -0.98287976 -0.2697304 -2.0804837
000010 62 7e 06 c0 96 91 b9 bf 33 a5 2a 3f f1 ab b5 bf
       -2.1014638 -1.4497554 0.66658324 -1.4193097
000020 26 f4 07 3f a2 dd 77 bf 4e b1 47 bf 86 1f 85 bf
       0.53106916 -0.9682256 -0.7800492 -1.0400245
000030 33 dd e3 bf 8f da 42 c0 aa 9b 4b bf ce 40 77 3f
       -1.780188 -3.0445898 -0.795344 0.9658326

conv2.4.running_var f4 [16]
000000 0c aa 21 40 54 17 14 40 bd 60 ef 3f bf cd 11 40
       2.5260038 2.3139238 1.8701397 2.2781827
000010 d2 0a 1d 40 7a 51 1e 40 6f 61 2e 40 97 1c 17 40
       2.4537854 2.473723 2.7246969 2.36112
000020 8e b5 d1 3f 46 51 f9 3f 6d 61 0b 40 42 86 29 40
       1.6383531 1.9477928 2.1778214 2.6488194
000030 ed 9f 18 40 fe 1f 0e 40 3b ff f5 3f b4 36 1f 40
       2.384761 2.2207026 1.9218515 2.4877138

conv3.0.weight f4 [32, 16, 3, 3]
000000 98 50 b8 3e 19 60 11 3e 39 05 d6 3d ae 07 43 3d
       0.35998988 0.14196815 0.10450215 0.047614746
000010 7b c8 4d be 28 ec 26 be 8d 54 5d bd b6 20 4e 3b
       -0.20096008 -0.16301024 -0.054035712 0.0031452603
000020 21 c2 a3 bc 6b 2e f0 3d a5 28 b0 3d a2 dc d5 3d
       -0.019990029 0.117276035 0.08601502 0.10442473
000030 cd b3 2b be b3 c3 27 3e c4 71 9a ba d7 0d de bd
       -0.16767807 0.16383247 -0.0011783172 -0.108424835
000040 d1 ea cd 3d a9 1d 73 3d dc 94 68 be 6e 8a 08 3e
       0.10054553 0.059354458 -0.22713035 0.13334057
000050 bf b5 fb 3c 8e 1a 2c 3c 55 1e 9a 3d 19 b2 b6 3d
       0.030726312 0.010504378 0.075253166 0.08920688
000060 59 d2 81 3e ac 20 29 be 60 e0 61 be 37 ed 1f 3e
       0.25355795 -0.1651637 -0.22058249 0.15617834
000070 8c 5e 04 be dd 81 15 3e f4 ec 0d be 9c fc f9 bd
       -0.12926692 0.1460032 -0.13859922 -0.122063845
000080 94 a2 33 be 2d fc f6 bd 1a de 52 be 9a 73 23 be
       -0.17542487 -0.120598175 -0.20592538 -0.15962067
000090 a4 60 4e 3e 4f db cb bd d1 46 fe bc 99 27 50 3e
       0.20154053 -0.09953939 -0.031039627 0.20327605
0000a0 b6 4c 83 bd 44 89 dd bd 03 e1 a4 3d 37 b9 8f bc
       -0.06411116 -0.10817197 0.0805073 -0.017544372
0000b0 df f5 18 be 13 d4 b3 bc 3b 36 9c 3e 46 58 55 3e
       -0.14937542 -0.02195171 0.30510125 0.20834455
0000c0 67 ed 27 3e c8 f1 62 3e 5c d6 47 3c 3d d6 2d 3c
       0.16399156 0.22162545 0.012197103 0.01061016
0000d0 08 ad 50 3e 40 62 2b 3c ee a3 65 3c fb df a2 3d
       0.20378506 0.010460436 0.014016135 0.07952877
0000e0 f5 c5 af bd bc e3 13 be fc 54 2e be b2 e7 d6 bd
       -0.08582679 -0.14442343 -0.17024606 -0.10493411
0000f0 58 e8 e0 bd 5d ac a0 bc 4d 25 7e 3d 34 ef bf bd
       -0.10981816 -0.01961344 0.06204729 -0.09371796
000100 7b 01 af bd df 98 2e 3d 7f c8 05 be 87 96 16 bc
       -0.08545204 0.042626258 -0.13064764 -0.009191162
000110 3a b2 90 be 19 e3 18 3e 2c b5 8e 3c d4 32 00 bd
       -0.28260976 0.14930381 0.017420374 -0.031298473
000120 6a 9c d9 bc ce a8 9c 3c fa 37 9d be ac 25 ac 3d
       -0.026563842 0.019123461 -0.3070677 0.08405623
000130 21 22 d8 3d e6 95 1d be 54 e7 06 3e 52 dd 5d 3c
       0.105533846 -0.15389213 0.13174182 0.013541536
000140 d3 1f af 3d 84 bb 9a 3a 40 01 7f bd 0a 99 00 be
       0.08550992 0.0011805152 -0.06225705 -0.1255838
000150 56 46 8b be b2 64 a6 bd 84 9e dc bd e4 5e 09 3e
       -0.272021 -0.08124675 -0.10772422 0.13415104
000160 cb 79 42 bd b2 a4 3f 3d 06 4b 01 3e 8f 9b 73 bc
       -0.047479432 0.046787925 0.12626275 -0.014868631
000170 21 d5 49 3e 3b 20 c2 3c c5 ea 68 bd 1e 36 2a 3e
       0.19710208 0.02369701 -0.05686452 0.16622207
000180 8c c7 07 3e 8a d4 d1 bb 1e b7 a8 3e ca bd 6e 3e
       0.13259715 -0.0064035105 0.32952207 0.23314586
000190 3d 5b 64 be fc e4 c4 3d 7b 91 41 3d 57 53 fd bd
       -0.2230043 0.09613988 0.04725788 -0.123694114
0001a0 c8 7b 78 bd 21 e5 2f be 0f 62 ec be b8 25 0f ba
       -0.060664922 -0.1717725 -0.46168563 -0.00054606376
0001b0 cd d5 bf 3e a9 18 20 3e 1b 77 c5 ba 59 9e 9b 3d
       0.37467805 0.15634407 -0.0015065403 0.07598562
0001c0 9e 36 c4 bd c9 6e 73 be 7d 70 16 be 38 3a 2d be
       -0.0958073 -0.2377273 -0.14691348 -0.1691674
0001d0 b0 bf 68 be f4 40 c3 bd 9f c3 a0 3e fa 83 c6 3e
       -0.22729373 -0.09533873 0.31399247 0.38772565
0001e0 eb fc 56 3e c2 2e dd bb ce 13 2a bc 40 e2 6f 3d
       0.20994918 -0.0067499587 -0.010380698 0.05856538
0001f0 82 7e 4a 3b 8a d5 00 3d ec de a6 3d c0 85 ea bd
       0.0030898158 0.031453647 0.08147988 -0.11451292
000200 15 78 a5 3d 1d 14 f0 3d 33 fb 27 3d 55 7c 59 3d
       0.080795445 0.11722586 0.041011047 0.053097088
000210 2c f7 5a 3d d5 b5 48 be 7d f8 17 3d c5 23 c6 bd
       0.053458378 -0.19600613 0.03710221 -0.09674791
000220 0b 2b 34 be 99 06 fb bd 69 b7 37 bd 64 5f 5b 3d
       -0.17594545 -0.12257118 -0.044852648 0.05355777
000230 55 72 53 3d bb 9e 86 3c 79 67 04 be 0f c0 92 bd
       0.051622707 0.01643311 -0.12930097 -0.071655385
000240 0f 42 f1 bd e7 0b 9c bd 26 4b 65 bd 18 05 70 3b
       -0.11780178 -0.07619458 -0.05597987 0.003662413
000250 ff 46 80 bd 39 d9 2d 3e 54 38 d7 3d 77 14 7d 3d
       -0.062635414 0.16977395 0.105087906 0.061787095
000260 ae a1 5e 3e 5a 70 82 3c 93 bd a6 bd ef 8c 6c bd
       0.21741363 0.015922714 -0.08141627 -0.057751592
000270 d8 6f 53 bd 36 e8 25 be 83 92 79 bd 0f bd bf bc
       -0.051620334 -0.16201863 -0.06093074 -0.02340558
000280 52 21 aa 3a cc cd da 3d fb bd 1f 3e ec 2f 98 bd
       0.0012979901 0.10683784 0.15599816 -0.07431015
000290 20 72 84 3b b0 33 61 bd dd db e5 bd b3 83 dd bd
       0.004041925 -0.054980934 -0.11223576 -0.10816135
0002a0 a5 ec 13 be 93 a3 91 bc 82 cd 75 be bd fe 9e 3d
       -0.14445741 -0.017778194 -0.24004176 0.07763431
0002b0 52 be 69 bd bc c1 37 be 02 3d 51 3e af 94 0a be
       -0.05706627 -0.17944998 0.20433429 -0.13533281
0002c0 98 cc c3 3d 3a 28 73 3e 34 16 ec bd e1 90 61 3e
       0.095605075 0.23745814 -0.115276724 0.22027923
0002d0 ae 10 cb bd 59 7b 5c 3e 82 8f e1 3c 39 32 26 3e
       -0.09915291 0.21531428 0.02753425 0.16230096
0002e0 d3 71 f3 3d 4c 03 e4 bc 9d 61 a1 ba e6 f0 f7 3d
       0.118869446 -0.027833603 -0.0012312416 0.121064946
0002f0 2f 78 db bd 18 80 76 bd ba 8e 3f be 23 6f 89 be
       -0.107162826 -0.060180753 -0.1870679 -0.26842603
000300 1d 82 f8 3d 04 2c 32 3e 9d d6 39 bd 0e 1b 2e 3e
       0.12134192 0.17399603 -0.045370687 0.17002508
000310 d8 13 3c 3e fb d0 03 3e 85 19 14 be 20 b5 91 be
       0.18366945 0.12872688 -0.1446286 -0.284585
000320 b6 5e 0d be 4a 09 89 3d 76 d8 01 be c6 71 04 be
       -0.1380566 0.06691225 -0.1268023 -0.12934026
000330 e8 80 98 be 69 e0 03 bd 41 a2 26 3d 10 00 e7 bd
       -0.29785848 -0.032196436 0.04068208 -0.11279309
000340 77 61 4b 3d dc 5c 02 3e 40 76 a1 3d 9c 5e bc 3d
       0.049653497 0.12730736 0.078838825 0.09197733
000350 2b 8a 49 3e 58 27 9a 3e 2e b1 e5 3d 4a c3 82 3d
       0.19681613 0.30108142 0.11215435 0.06384905
000360 c9 a3 8a 3d 4f 25 90 3d 89 29 29 bb 5b 52 3a be
       0.06769521 0.07038366 -0.002581211 -0.18195479
000370 1f d0 c4 bc 05 9d ed 3d ce 3d 1a 3e 40 2f c4 bd
       -0.024025021 0.11602215 0.15062639 -0.09579325
000380 6a 7d 44 3e 9b 36 bb 3d fa af 31 bc 0f 7e 4f 3e
       0.19188467 0.091412745 -0.010845179 0.20262931
000390 fb ba 3f bc a7 09 d8 bd a4 2e 12 3e af 6e a6 bc
       -0.011702294 -0.10548716 0.14275604 -0.02031645
0003a0 e7 8d 93 bd 10 dc 94 bd ce 6c d5 bd 75 2d 85 3c
       -0.072048 -0.07268536 -0.104211435 0.016257027
0003b0 d2 4e 13 be ed 85 f9 bc f0 55 9f bd 46 b2 3c be
       -0.14385536 -0.030459369 -0.07780063 -0.18427381
0003c0 ab 53 c8 3c 6a 88 da 3c 8b 8e 67 3e fb 9d 3c 3e
       0.024453958 0.026676375 0.2261297 0.1841964
0003d0 5f cb d5 bd fc 5e 4c be 5d 63 11 3e 61 47 f4 bc
       -0.104391806 -0.19958109 0.1419806 -0.029819192
0003e0 8c 6d 87 be dc 4c ec 3c 0b 0c 1e be 32 97 0f be
       -0.26450765 0.028845243 -0.15434282 -0.1402252
0003f0 fe fc cc bd 2d 12 bd be c7 05 61 be a7 8c 05 3e
       -0.10009192 -0.3692793 -0.2197486 0.13041936

conv3.0.bias f4 [32]
000000 ac d1 bb bc 5a 97 94 bd ca b8 34 3d 66 17 df bc
       -0.022927128 -0.072554305 0.04412154 -0.027232837
000010 fa d9 20 3d 42 4c 6a 3d 45 78 8d 3d da 35 a1 bd
       0.03927038 0.05720163 0.06907705 -0.078715995
000020 02 3c 59 3d 0c 7d b2 bc d3 04 05 bd 28 44 00 3d
       0.053035744 -0.021788143 -0.032475304 0.031315
000030 0c 6f e4 bb f9 61 9d 3b f0 0e 8e 3c 2c 54 1c 3c
       -0.0069712456 0.004802939 0.017341107 0.0095415525
000040 8c 92 b8 bc 07 c3 a4 bd 1c 4f c7 bc 68 e3 2d bd
       -0.022530816 -0.08045011 -0.024329714 -0.0424532
000050 62 12 c0 bb da 88 63 3d 1b d6 64 bd d8 a3 56 3c
       -0.0058615664 0.055550434 -0.05586825 0.013100587
000060 7b 07 61 bd 74 36 f0 3c 7e 0c 6a 3c 52 f5 86 39
       -0.054938775 0.02932284 0.014285205 0.0002574125
000070 c4 0d 8c bc 90 17 b3 3c 5b 90 68 bd 58 9f fe bb
       -0.017096408 0.021861821 -0.056778293 -0.00777046

conv3.1.weight f4 [32]
000000 b2 f4 7f 3f 48 6a 75 3f 21 3d 87 3f 40 27 84 3f
       0.9998275 0.958653 1.056553 1.0324478
000010 29 cf 7e 3f d1 48 a1 3f e6 52 5e 3f 8a 2c 93 3f
       0.9953485 1.2600347 0.8684524 1.1497967
000020 a1 fa 90 3f 8a 46 7c 3f 74 58 80 3f 9c c8 73 3f
       1.1326486 0.98545134 1.0026994 0.9522798
000030 f7 bb 5e 3f 19 1e 7e 3f 07 83 8d 3f af 57 85 3f
       0.8700556 0.99264675 1.1055611 1.0417384
000040 8c a1 6a 3f b4 d5 76 3f 8b f2 8c 3f db 97 60 3f
       0.9165275 0.96419835 1.1011518 0.87731713
000050 2d 0a 71 3f 01 f1 82 3f 68 2f 7e 3f c6 ce 79 3f
       0.9415615 1.0229799 0.99291086 0.97581136
000060 f8 32 82 3f 3a 88 87 3f ce 23 87 3f b8 59 81 3f
       1.0171804 1.0588448 1.0557802 1.0105505
000070 6b 9e 88 3f 8b e6 87 3f 79 4c 76 3f 16 91 8a 3f
       1.0673345 1.0617231 0.9621044 1.0825527

conv3.1.bias f4 [32]
000000 f4 f2 6c be 35 dd 95 bd ed 7b 55 be a3 a2 0d 3e
       -0.23139554 -0.073175825 -0.20848055 0.13831572
000010 c8 d1 63 be f0 a8 94 be 43 76 15 be b0 ae 1e be
       -0.22247994 -0.2903514 -0.14595895 -0.15496325
000020 05 71 19 be b1 b2 f2 bd 6d d1 2d be 52 90 ba bd
       -0.1498452 -0.11850489 -0.16974421 -0.09109558
000030 81 65 78 be 23 85 66 be 07 9f 18 be 0b 28 1c be
       -0.2425747 -0.22511725 -0.14904414 -0.1524965
000040 e5 b8 1d be 16 a1 31 be c4 42 61 be 54 73 ed 3d
       -0.15402563 -0.17346606 -0.21998125 0.11594263
000050 8e 17 dd bd 3b 60 48 bd e1 0b b3 bd 4d c6 4c be
       -0.10795508 -0.048919898 -0.087425 -0.1999752
000060 e6 54 0b be d0 35 52 bd d4 5e 6f be e0 e4 84 be
       -0.13606605 -0.05132085 -0.23376018 -0.25955868
000070 8f 72 25 be ce c2 1f bd 80 60 dd bd 24 c4 31 be
       -0.16156982 -0.03900414 -0.108094215 -0.17359978

conv3.1.running_mean f4 [32]
000000 3f ef 98 be 49 cf 8a be e1 71 bc be 18 ae 0c c0
       -0.2987003 -0.2711127 -0.36805633 -2.1981258
000010 d7 f0 93 be b7 f1 a8 be 88 69 16 3f b6 99 0f c0
       -0.28894684 -0.32996914 0.5875478 -2.2437568
000020 a8 a6 d5 bf 67 c0 a3 bf bd 2e 35 bf c4 7a a4 3e
       -1.6691484 -1.2793092 -0.7077444 0.32124913
000030 c6 74 1d 40 d1 76 f6 3e 1f 6f 02 c0 4f d1 14 c0
       2.4602523 0.48137525 -2.0380323 -2.3252752
000040 fa 53 71 40 97 a1 46 bf bd 66 99 bf 04 64 13 c0
       3.7707505 -0.77590317 -1.1984478 -2.3029795
000050 ea f9 35 3f 4c 7b f5 be 0b 07 4b 3f 4d 31 06 be
       0.71084464 -0.4794563 0.7930762 -0.13104744
000060 34 dc 38 bf ed 2c 0a c0 aa 1c 04 c0 82 d0 1d 3e
       -0.72211003 -2.158992 -2.0642495 0.1541157
000070 16 7b 0d c0 67 69 e1 bf c6 5f df 3f 60 54 86 be
       -2.2106376 -1.7610291 1.7451103 -0.26236248

conv3.1.running_var f4 [32]
000000 2f 50 3f 40 c4 8d 1d 40 a4 68 43 40 34 0a 48 40
       2.989269 2.4617777 3.0532618 3.1256227
000010 a9 ea 2a 40 4b d3 90 40 e3 69 1f 40 f0 a5 68 40
       2.6705725 4.5257926 2.4908378 3.635128
000020 ef 0a 39 40 22 51 1c 40 20 9e 2b 40 05 a7 41 40
       2.8912923 2.442452 2.6815262 3.025819
000030 e9 6f 3a 40 eb c7 11 40 ed 41 55 40 b1 51 4b 40
       2.9130805 2.277827 3.3321488 3.176861
000040 29 3a 29 40 96 34 eb 3f 74 99 3e 40 07 c1 1d 40
       2.6441748 1.8375423 2.978116 2.4649065
000050 00 b7 2f 40 bd 38 42 40 3d ff 35 40 70 05 17 40
       2.7455444 3.034713 2.8437035 2.3597069
000060 34 ac 55 40 5e d6 51 40 73 b3 4b 40 de 30 2a 40
       3.3386354 3.278709 3.1828277 2.6592326
000070 ef a5 0d 40 99 d3 1a 40 5a 7c 07 40 78 26 47 40
       2.2132528 2.419165 2.1169648 3.111723
