trained_models/last_cnn.pt (torch, 958802 bytes, 92 tensors)

conv1.0.weight f4 [8, 3, 3, 3]
000000 d6 5e 39 3e 1f 0f 15 3e 20 24 8c 3c 56 90 1e 3e
       0.18102583 0.1455655 0.01710707 0.15484747
000010 f9 bd 77 3d ae 48 d7 3d f2 1e 4d bc 5e 0c 24 3e
       0.060483906 0.105119094 -0.012519585 0.16020343
000020 11 e8 8a 3d 83 7e 96 bd 8d 7e 31 3e 4d 38 42 be
       0.067825444 -0.07348349 0.17333432 -0.1896679
000030 ef d7 24 3e c1 b9 f0 3d 39 d9 41 3d 50 65 3a 3d
       0.16097997 0.1175418 0.0473263 0.045506775
000040 38 f5 51 3d 48 19 33 be e3 5b 56 3d 3f 8f 2a 3e
       0.05125925 -0.17490113 0.052333724 0.16656207
000050 fe 93 16 3e 47 37 42 3c 2b 84 d4 bd 6f 4a 81 bc
       0.14704892 0.011853999 -0.103767715 -0.015782563
000060 0e ef 51 3c 00 fc 4c 3e 00 a5 bf 3d f5 a3 0a be
       0.012813343 0.20018005 0.09357643 -0.13539107
000070 2f 6d 2e be 69 ba 6b 3e d9 fd ce 3d 02 91 a0 be
       -0.17033838 0.23020329 0.10107011 -0.31360632
000080 e9 cd 49 3e 93 75 08 3e e0 c5 dc bd 42 bf 44 3e
       0.19707455 0.13326101 -0.10779929 0.19213584
000090 b6 a4 07 be c9 84 f8 bd 22 5d 5a bb 3c 76 80 3e
       -0.13246426 -0.12134702 -0.0033319672 0.25090206
0000a0 7e 25 c1 be 76 14 2a 3d f5 62 4a 3e f3 4d c0 bd
       -0.37723917 0.04152342 0.19764312 -0.09389868
0000b0 5d 7f 82 be c1 df f8 3d ca 15 ed bc 20 8c 80 3c
       -0.25487795 0.12152053 -0.028941054 0.015691817
0000c0 ca 0f 87 3e 69 93 e9 bc 6c 4f 19 3e c9 1e eb 3d
       0.26379234 -0.028512673 0.14971703 0.11480481
0000d0 a5 12 46 be 30 34 1a be 2c e9 fc bc c7 d0 c1 3d
       -0.1934305 -0.1505897 -0.030872904 0.09463649
0000e0 76 4c 1e bd 69 3f 9f bd 1d 7c d2 bd 1e 80 13 3e
       -0.038647138 -0.077757664 -0.10277579 0.14404342
0000f0 61 10 d8 bd b9 fd 42 be 70 8f 59 be 40 b7 b6 bd
       -0.10549999 -0.190421 -0.21246123 -0.08921671
000100 e6 11 31 3d b7 3f 76 be 50 49 a3 3d 25 11 92 3d
       0.04322996 -0.24047743 0.079729676 0.07132176
000110 55 19 4c 3d c8 9c b9 bc b8 79 21 be f7 fd d7 3c
       0.049828846 -0.022657767 -0.15769088 0.026366217
000120 5a 1d 7f 3e e1 a4 29 3e c4 42 f2 bd 30 89 31 3e
       0.2491354 0.16566803 -0.11829141 0.17337489
000130 48 66 b7 3d 1d e9 d1 3d ac 93 a2 3d 3e a6 8c 3d
       0.089550555 0.10249541 0.079383224 0.06867646
000140 a6 35 1a 3e 97 c5 cc 3d 16 b9 60 3e 23 39 fb 3d
       0.15059528 0.09998625 0.21945605 0.12266757
000150 0e 05 39 bd 35 69 f3 3c 7a 50 3d 3e ab 6e 41 be
       -0.045170836 0.029713253 0.1848773 -0.18889873
000160 d8 15 13 be 27 e6 38 be 04 96 05 3e 79 d7 f2 3d
       -0.14363801 -0.18056546 0.13045508 0.118575044
000170 a1 38 92 bd 7f 69 9a be b0 5f b2 3d 7f 5a 2c 3e
       -0.07139707 -0.30158612 0.08709657 0.16831397
000180 e1 ae 2a be cf 18 5d be bb 5d e4 bc 23 98 20 3e
       -0.16668274 -0.21591495 -0.027876725 0.15683036
000190 58 11 bf bd 27 ef 42 be 1e e2 5a bd ab 69 14 3e
       -0.0932948 -0.19036542 -0.0534383 0.14493434
0001a0 4d 15 38 3e 88 c4 03 be 97 24 d7 3d d5 8f 50 bd
       0.17976876 -0.1286794 0.10505026 -0.05091842
0001b0 8e e2 05 3e cf 3f 0c 3e 50 1c b9 3d 14 7a 49 be
       0.13074705 0.13696216 0.09038603 -0.19675475
0001c0 43 c4 8b 3d 5b 7c b6 be 9b be b1 bc dc b1 95 bc
       0.06824543 -0.3564175 -0.021697333 -0.018273287
0001d0 06 a5 4e bc f4 d5 67 3e c6 ed 5f 3e 0c 0d 0b be
       -0.012612587 0.2264021 0.21868047 -0.13579196
0001e0 e1 e3 75 3d ca 33 8b bd a5 ce 24 be 45 17 14 be
       0.060031775 -0.06796987 -0.16094454 -0.14462002
0001f0 ac d4 6d be 9c 8e 4e 3d b4 b8 b1 3e fd f2 88 3d
       -0.23225659 0.05042897 0.3471123 0.06686971
000200 9e 0a 37 be fb 7c a4 bd cf 5e 6b 3d 8e 5e 48 bd
       -0.17875144 -0.08031651 0.057463463 -0.0489183
000210 4f ac 46 3e ac b7 62 3d c2 ac d3 3c 2b 97 08 3e
       0.19401668 0.055350944 0.025839213 0.13338916
000220 86 4c 7a bc bf 5d a9 3d 0e 54 bf bd d3 49 15 3d
       -0.015277034 0.08269834 -0.09342204 0.036447357
000230 f3 37 0e 3e 21 fe 07 be a0 8a 51 bb c5 7d ec 3d
       0.1388853 -0.13280536 -0.0031973496 0.11547426
000240 92 1f 63 3e b6 df 7f 3d 12 4e 18 be 9f e2 0d bc
       0.22180012 0.062469207 -0.14873531 -0.008659988
000250 fe fb 9e 3d 5f 7c 01 3d 75 b3 89 3d 0f ce 11 be
       0.077629074 0.03161275 0.06723682 -0.14238761
000260 0e db f2 3c 32 76 d8 3d 30 da 46 3e 66 ec e1 3d
       0.029645469 0.10569419 0.1941917 0.110314175
000270 13 ea ec bc 6e e1 f3 bd 38 34 3e bb 2d 37 88 be
       -0.028920209 -0.11908232 -0.0029022824 -0.26604596
000280 e8 17 20 be 71 34 ab bd 8f 98 59 3e 82 04 8a 3e
       -0.1563412 -0.08359612 0.21249603 0.26956564
000290 45 17 3b be e4 0a 78 3e 18 20 3c be 98 3e 88 3e
       -0.18270595 0.24222904 -0.18371618 0.26610255
0002a0 cd c7 86 be 8e e3 7f bd d9 3c 29 3e 98 e5 bc bb
       -0.2632431 -0.062472872 0.16527118 -0.0057646744
0002b0 55 0e fb 3c 03 88 3f bc 05 f8 8a bd 02 5c c7 be
       0.030646482 -0.011690143 -0.06785587 -0.38937384
0002c0 23 6d 47 bd 74 62 3d bd 0f be 20 be 8e 4b 04 3e
       -0.048688065 -0.04623647 -0.15697502 0.12919447
0002d0 f0 89 4f 3d b8 02 84 bd b5 57 3a bd dc bd 5f 3e
       0.050668657 -0.06445831 -0.0454938 0.2184977
0002e0 72 25 8e be b1 31 50 be 7d 3d 12 3e b4 26 ef 3d
       -0.27762944 -0.20331456 0.14281268 0.11677304
0002f0 53 32 52 bc aa e2 12 be 74 f2 0e bd 5f 2c 10 be
       -0.012829381 -0.14344278 -0.03489919 -0.14079426
000300 99 da 57 be ba 14 2a 3e 4b dc 4f be 6f 87 44 bc
       -0.21079482 0.16609469 -0.20298879 -0.0119951805
000310 48 e5 c5 3e 5e 69 15 3e 87 9f 93 bd b9 d5 47 be
       0.3865149 0.14590976 -0.07208162 -0.19515122
000320 b0 ea 6f 3d da 6a fc 3b 7b 56 2f 3e ab c1 56 be
       0.058573425 0.0077031674 0.17122833 -0.20972316
000330 e7 dd dd 3d c7 cc 85 3e 16 77 3c be a9 64 8f bd
       0.1083334 0.26132795 -0.18404803 -0.07001621
000340 26 4d 4f be 26 59 28 3e 04 cc 54 be 06 8a 0a 3e
       -0.20244274 0.16440257 -0.20780951 0.13529214
000350 c6 51 43 be 27 a4 73 3d 9e ca 4e 3e 6a 1f 19 bc
       -0.19074163 0.05948272 0.2019448 -0.009345869

conv1.0.bias f4 [8]
000000 0c 8c 6a 3d 16 ab 1e be 98 58 09 be e4 b4 3a 3e
       0.057262465 -0.15494952 -0.13412702 0.18233067
000010 5a a9 3f be d1 17 81 3d c2 6c 92 3d 76 a6 39 be
       -0.18716946 0.06303371 0.0714965 -0.18129906

conv1.1.weight f4 [8]
000000 8f af 57 3f c8 27 8f 3f ca 7e 65 3f ee 18 7e 3f
       0.84252256 1.1184015 0.8964659 0.9925679
000010 4b e2 87 3f 6a 75 61 3f d1 2d 83 3f 87 44 84 3f
       1.0615934 0.88069785 1.0248357 1.0333413

conv1.1.bias f4 [8]
000000 ea 5d 04 be 33 b5 d2 3e c2 31 bb bc 5d 04 b9 3c
       -0.1292645 0.4115387 -0.022850875 0.022585088
000010 e5 01 80 3e f3 ca c1 ba ed bd 41 3c e4 db 92 3d
       0.25001445 -0.0014785215 0.011825067 0.07170847

conv1.1.running_mean f4 [8]
000000 76 99 49 3f ca 71 7a be 0a b2 3d bd 41 62 38 3e
       0.7874979 -0.2445747 -0.04631237 0.18006231
000010 7d 30 2d be 0f 3c 1f 3e e9 8b 8f 3c da 9a 8d be
       -0.16913028 0.15550254 0.017522769 -0.27657205

conv1.1.running_var f4 [8]
000000 95 3d 00 3e a1 9e a2 3c a2 70 b9 3c a8 e7 e4 3c
       0.12523492 0.01985103 0.022636715 0.027942494
000010 c5 70 fb 3c e1 07 ab 3c cb ff 4d 3c cc 91 10 3d
       0.030693421 0.02087778 0.012573193 0.035295293

conv1.3.weight f4 [8, 8, 3, 3]
000000 97 7e fb bc dd 27 cb bd 77 65 4e 3d 83 2b fa bb
       -0.030700011 -0.09919713 0.050389733 -0.0076345815
000010 bd 94 b8 3c 0e 19 49 3d c6 ae 1f bd 71 84 88 bd
       0.022531861 0.04909616 -0.038985036 -0.06665886
000020 a6 02 9f 3d 82 e7 e9 3c 28 38 01 3d 8d 9f 04 3d
       0.07764177 0.028552774 0.031547695 0.032378722
000030 a7 ce 1f be 4d 60 1e 3e 35 f8 ce 3c 5d c2 0e 3d
       -0.15606175 0.15466423 0.025264839 0.034853328
000040 2c 67 e7 bd b1 69 1a bd d5 8e d2 3d 5d 55 1b 3e
       -0.11298975 -0.03769845 0.10281149 0.15169282
000050 99 56 c8 bd 97 36 9b bc 1d 06 1d 3e c6 d7 0a 3e
       -0.09782142 -0.018946929 0.15334363 0.13558874
000060 b4 2d f6 bc ad af cc 3d e8 f9 f0 3d 49 75 34 be
       -0.03005109 0.09994445 0.11766416 -0.17622866
000070 a5 52 24 3d 1a 0d ca 3b 68 96 29 be f4 e3 2d be
       0.04011788 0.0061661126 -0.16561282 -0.16981488
000080 e2 a0 20 be 2c 5e d6 3d e6 db 54 3c 04 54 ad 3d
       -0.15686372 0.104671806 0.012991881 0.0846329
000090 3f 08 80 bc 53 ad 01 be 7b 22 38 3d 97 d7 64 3d
       -0.015628932 -0.12663774 0.04495476 0.055869665
0000a0 fb da 2d be 0f 78 0b bc ec d5 bd bc dc 12 a6 3d
       -0.16978066 -0.008512511 -0.023173295 0.08109066
0000b0 67 22 9b bd 22 07 60 bd 2f ae 8d 3c 1e 39 ce 3c
       -0.07574921 -0.054694302 0.017294971 0.02517372
0000c0 f8 80 24 3e 74 60 62 3c ff 1e 99 bd 42 18 cd 3d
       0.16064823 0.0138169415 -0.07476615 0.100143924
0000d0 d6 3d 7f bd 86 c7 9c bc 04 cd 27 3d 71 2f 91 bc
       -0.06231483 -0.019138109 0.040967003 -0.017722817
0000e0 a7 d2 9a bd a6 bc a7 bd 4a 2e 3d bd e4 a4 42 3d
       -0.0755971 -0.08190279 -0.046186723 0.047520533
0000f0 92 d2 99 bd a9 b4 45 bd 5b ec fe 3d 15 5a 92 bc
       -0.07510866 -0.048267994 0.12447425 -0.01786522
000100 3d bc 01 be 54 16 a3 3d 86 6a 6d bd 67 43 80 bd
       -0.12669463 0.07963243 -0.057962917 -0.06262856
000110 0d 6d 6e 3d 08 6b 33 be 3a da a4 b9 7a a2 1c 3c
       0.058209468 -0.17521298 -0.0003144311 0.009560222
000120 14 83 be 3d b3 6f eb bd 68 07 6e 3d d2 a9 5e bd
       0.09302345 -0.11495914 0.058112532 -0.054361172
000130 f5 dd 98 3c 83 08 a5 bb a1 d3 2b 3c bc 26 aa 3d
       0.018660525 -0.005036415 0.010487468 0.08308169
000140 f1 6d eb bd 29 78 1a 3e c2 40 49 3d 3b 1a 31 be
       -0.11495579 0.150849 0.049134023 -0.17295162
000150 fb ea a4 3e 07 e2 95 bd 8c e7 00 be 03 45 86 3e
       0.32210526 -0.07318502 -0.12588328 0.26224527
000160 87 b8 45 be ea d5 d5 bb f4 f4 0e 3e e7 f4 f5 3a
       -0.19308673 -0.0065257447 0.1396063 0.0018765003
000170 1e ae 59 3d 30 0f 5c 3c a2 ce 18 3d bf 48 b0 bd
       0.053144567 0.013431355 0.037306435 -0.08607625
000180 bb ba a6 3d 3f 4e dc bd da e9 06 be 9b 63 81 bb
       0.08141085 -0.10757112 -0.13175145 -0.0039486415
000190 3c 9c b1 bd ab a7 07 3c e8 ff 47 bd f3 3a 4d bd
       -0.086723775 0.008279721 -0.048828036 -0.050105046
0001a0 dd 64 8c bc 90 e5 d8 bd f3 bf 40 3d 2c 2b af 3d
       -0.01713794 -0.105906606 0.047058057 0.08553156
0001b0 c0 7f 97 3c ba 7f 2d 3d fa 74 d3 bd e9 c9 0c 3e
       0.018493533 0.042358138 -0.10325046 0.13748898
0001c0 dd 8c df bd a8 b2 90 bc 0a 9b 83 3e 93 12 35 bd
       -0.109155394 -0.017663315 0.25704223 -0.044207167
0001d0 38 30 4a bd 0c 2a 41 bd 00 e0 79 3c 22 71 a8 bc
       -0.04936239 -0.04715924 0.01525116 -0.020561758
0001e0 4d 19 c6 bd 91 58 a6 bd 14 df 19 bd a0 b1 e2 3c
       -0.096727945 -0.081223615 -0.03756626 0.027672589
0001f0 14 a8 47 bd 4c 00 08 bc 33 41 cd 3c a1 3e 02 3e
       -0.048744276 -0.008300852 0.025055503 0.12719204
000200 87 6b 87 bd 09 cb 01 3d 03 35 ac 3d 35 dc 42 be
       -0.06612306 0.03168777 0.08408549 -0.19029315
000210 43 45 14 3e b8 e0 72 bd d9 64 88 bd 88 c3 43 3c
       0.14479546 -0.05929634 -0.0665986 0.011948474
000220 15 75 04 bd ad 15 7c bd 6e cf 35 be fe 62 eb bb
       -0.03233822 -0.06154411 -0.1775491 -0.0071834316
000230 6b 8f 63 3d 01 6d 9f bd 87 b5 87 3d 7d 20 c6 3c
       0.055556696 -0.07784463 0.066264205 0.024185413
000240 f5 ae 69 bd a1 5a c7 3d 1d d8 78 bd 2a 25 9d 3d
       -0.057051618 0.09734083 -0.060752977 0.07673104
000250 41 82 6a bd 09 76 8b 3d 7b 61 15 be e6 d6 8d bd
       -0.057253126 0.06809623 -0.14587967 -0.06925754
000260 d1 ca ad 3c 92 f2 6d be c7 53 90 3c 4a dc 26 be
       0.021214874 -0.23237064 0.017618073 -0.16294971
000270 d9 44 28 be a0 f9 a1 3d 21 84 1f 3d ab 28 4a 3c
       -0.16432513 0.0790894 0.038944367 0.012338798
000280 33 11 9d 3e 96 f2 a1 bc 20 c5 99 3c 68 c7 03 3e
       0.30677184 -0.019768994 0.018770754 0.12869036
000290 2d af 16 bd 46 4a 1f 3d 2d fe 3b bd ee 32 06 be
       -0.036788154 0.038889192 -0.045896698 -0.13105366
0002a0 85 0c e2 bd 62 8e 33 3d 8b 85 89 3d 0f 2f 7a bd
       -0.11037544 0.04383696 0.067149244 -0.061080035
0002b0 4a 2d a3 bd 27 e0 f7 ba ae c4 d4 3b 21 3d 0e be
       -0.079676226 -0.0018911407 0.0064931726 -0.13890506
0002c0 7e c1 b8 bd 39 bb 0b 3d af 4c 03 3e a0 ae 39 3d
       -0.09021281 0.034114096 0.12822221 0.04533255
0002d0 10 1b c5 3d 3c 32 81 3d 55 7e c9 3d 97 c8 f4 bd
       0.096243024 0.063084096 0.09838549 -0.11952322
0002e0 d4 fe 62 be 31 3c 80 bd 00 a8 2a 3d 15 3e 49 bd
       -0.22167522 -0.062614806 0.041664124 -0.04913147
0002f0 b4 7d 9b 3d 87 84 02 be c2 51 c8 3d f8 58 a5 3d
       0.07592335 -0.12745868 0.09781219 0.0807361
000300 de 41 7f 3d 4a f1 b1 bd cb 65 d2 bd d3 ab e6 3c
       0.062318675 -0.086886 -0.10273322 0.028158104
000310 08 4d c8 bc 77 f9 95 bd d3 0d b7 bd b8 0f 3e 3e
       -0.024450794 -0.07322972 -0.08938184 0.18560684
000320 85 48 0e 3b c9 62 20 be 95 c6 bb bd 7a c0 83 3b
       0.0021710705 -0.15662684 -0.09168736 0.0040207477
000330 92 34 ba bd ef 0f 44 bd 13 37 a2 bc fc cc e6 3d
       -0.09092058 -0.047866758 -0.019801652 0.112695664
000340 39 f8 b8 bd 6f f9 b5 3d a4 33 95 3c 51 5b 50 3a
       -0.0903172 0.08885466 0.0182131 0.00079481775
000350 23 1f f2 3d eb 26 42 3d 38 8d e9 bd 30 7d 05 3d
       0.11822345 0.047400396 -0.114038885 0.03259009
000360 aa 1a cf 3d ab c5 2e bd e5 21 13 bd 9a c1 1e 3c
       0.10112508 -0.04266898 -0.035920996 0.009689713
000370 ca 38 ad bd 04 62 05 be 60 e6 df 3d 9d 64 9b bd
       -0.08458097 -0.13025671 0.109326124 -0.0758755
000380 a7 81 9f bd df 15 25 3d c4 05 c5 3d cc 1c 5e bd
       -0.07788401 0.04030406 0.0962024 -0.05422668
000390 30 1c b3 bc ef c6 aa 3a cd e3 c8 3d fb a1 5e bd
       -0.021864027 0.0013029258 0.098090746 -0.054353695
0003a0 1b cc c7 3c 97 df 92 3d f2 80 f8 bd 7f 48 43 3c
       0.024389317 0.07171553 -0.12133969 0.01191914
0003b0 19 8f e3 bc b3 fa ed bc fd d8 ce bc fb eb 9b bc
       -0.027778195 -0.029050207 -0.025249952 -0.019033423
0003c0 53 48 a9 3c 03 ac 07 be 1e 45 f3 3c 22 b5 0c 3d
       0.02066437 -0.13249211 0.029696044 0.03435243
0003d0 73 82 95 bc c0 0d 5a 3e 04 47 88 3d 55 87 9a 3c
       -0.01825068 0.21294308 0.0665417 0.01886336
0003e0 70 ba f0 bd d3 79 36 3d be 2a 97 bd 41 54 cc bd
       -0.1175431 0.044549774 -0.07381199 -0.09977008
0003f0 65 a7 3f 3c 9a ad 56 bd 1f 72 97 3d 9f 1f f4 bc
       0.011697625 -0.052411653 0.07394814 -0.029800234

conv1.3.bias f4 [8]
000000 1a 69 e4 bd 2e 6a 02 3d 9a c5 89 bd a7 ae 91 bd
       -0.11152859 0.031839542 -0.06727143 -0.071133904
000010 a5 e4 81 3c d0 b9 04 bd 8d 37 19 3d fc ba 83 bd
       0.015856097 -0.032403767 0.037406493 -0.06432149

conv1.4.weight f4 [8]
000000 c8 da 7f 3f 70 cc 87 3f 62 d9 73 3f db 00 83 3f
       0.9994321 1.0609264 0.95253575 1.0234636
000010 e9 55 7e 3f 8a b3 80 3f 76 cc 84 3f 46 a8 6d 3f
       0.9934984 1.0054791 1.0374897 0.9283489

conv1.4.bias f4 [8]
000000 f0 36 bb 3b a9 1a 4e bc 2b 7a 36 bd c0 7e e0 37
       0.005713336 -0.012579598 -0.044550102 2.6761903e-05
000010 54 24 f2 bc 43 c6 1c 3d 03 68 06 3d c0 63 ff b9
       -0.029558338 0.038275015 0.032814037 -0.0004871171

conv1.4.running_mean f4 [8]
000000 5a 24 92 be fb c7 9b bc e6 ed b4 be c4 75 11 be
       -0.2854336 -0.019016257 -0.35337752 -0.1420508
000010 10 c6 c1 3d 2b a3 aa be 28 aa b7 be 1f 54 25 3f
       0.094616055 -0.33327612 -0.35872006 0.64581484

conv1.4.running_var f4 [8]
000000 f8 a6 81 3e 0e 8f db 3e 9f 3f aa 3e 71 8c ba 3e
       0.253227 0.4288258 0.33251664 0.36435273
000010 ad ca 53 3e b7 74 b6 3e fa 9a ae 3e 0d be 91 3e
       0.20682783 0.3563592 0.34102613 0.2846531

conv2.0.weight f4 [16, 8, 3, 3]
000000 f3 5f 2e bd 9a 93 a4 3d 9b f1 ba 3d 1d 10 d4 bd
       -0.042571973 0.08035965 0.09128114 -0.10354636
000010 ec 0d b3 bd 26 d6 07 be 58 5f 9d bd a5 86 de bd
       -0.0874289 -0.13265285 -0.07684201 -0.10865525
000020 f2 a3 2c 3d aa 93 1f bd 07 da ea 3d 12 b8 10 bd
       0.042148538 -0.038959183 0.11467367 -0.035331793
000030 dd 9d ab 3b f4 bd 99 3d 17 91 b8 3c 6d 94 24 3d
       0.0052373246 0.07506934 0.022530122 0.040180612
000040 a9 7f 3c 3d c4 70 85 bc cc 61 a9 bd c7 1b 01 be
       0.046020184 -0.016289122 -0.082706064 -0.12608252
000050 27 3d 0c be f8 b6 df 3c b9 d6 df bb 9a 59 ff 3d
       -0.13695203 0.027308926 -0.006831017 0.12468262
000060 44 3a 4d 3a e7 20 8f 3d 3c 23 a8 3d 2a 2f 26 be
       0.00078288116 0.069886975 0.082098454 -0.16228929
000070 20 c7 f2 bd 5c 66 a3 bd 0f 43 6f 3c c9 f2 36 bd
       -0.11854386 -0.07978508 0.01460339 -0.04466513
000080 eb 29 25 3c 3b 2d 83 3d 18 54 e3 3d e9 e1 61 3c
       0.010080795 0.064051114 0.11100024 0.013786771
000090 fd aa 8f 3a 12 03 6f bd a2 a6 95 3d 1a db d9 3d
       0.0010960993 -0.058352537 0.07307173 0.106374934
0000a0 92 90 77 3c c1 3b 28 bd 6a e1 db 3d 0d 5b e9 3d
       0.015110152 -0.04107261 0.10736354 0.1139432
0000b0 ad a9 95 bc 61 ec 79 ba cd 2a e0 bc 4d df 0c 3c
       -0.018269384 -0.00095338194 -0.027364159 0.008598161
0000c0 2a 73 a9 3c 50 ce 1d 3e 4d 5d 0d bd 18 f3 2a 3d
       0.020684797 0.15410733 -0.034512807 0.04173574
0000d0 f1 24 02 3e 22 6f 92 bc 6a 68 5a bd 68 78 dd bc
       0.12709405 -0.017875258 -0.053322233 -0.027034953
0000e0 69 79 9c bc bd c4 f3 bd 1f d4 ba bd 6c 75 a5 bd
       -0.019100862 -0.11902759 -0.0912249 -0.08079037
0000f0 22 bc ae bd 13 31 95 bd ba ff 3e 3d f2 07 08 3e
       -0.08531977 -0.07284751 0.0466306 0.13284281
000100 0e a8 12 3e 2d 4d 96 3d ff 44 0a bd 81 d2 22 bd
       0.1432192 0.07338939 -0.033757206 -0.039751533
000110 c1 3c f4 bd 26 d6 13 be 8f 6f 01 be e2 e0 03 be
       -0.119256504 -0.1443716 -0.12640212 -0.12878755
000120 5c e8 b9 3d a5 85 88 3b 9e 80 bc bd 9e ee 31 3d
       0.09077522 0.0041663223 -0.09204219 0.043440454
000130 84 29 8c 3d 38 fd 00 3e 8c ae 60 bd 7e 6e e2 3d
       0.06843856 0.12596595 -0.05485396 0.11056231
000140 90 38 1c 3d 1f 80 10 be e1 75 44 3d 2c cf 97 3d
       0.03813988 -0.14111374 0.04796398 0.07412562
000150 ea 60 0b be 0b 23 1b be 51 eb c9 3c b8 c1 23 be
       -0.13611189 -0.15150087 0.02464834 -0.15991867
000160 89 e0 0d be 6b be b9 bc 8a 64 75 3c d0 67 14 3d
       -0.13855185 -0.022673806 0.014977584 0.036231816
000170 f3 a7 1d 3d 0c d1 61 bd 69 a9 6f 3d 05 ff ff bc
       0.038490247 -0.055131003 0.05851117 -0.031249532
000180 5e 98 8c bd 3c 32 10 be 03 76 8b ba 98 c9 1e bd
       -0.06864999 -0.14081663 -0.0010640029 -0.038766474
000190 14 64 eb bc ac ef 09 bd e0 35 e0 3d 53 e7 5e bd
       -0.028734244 -0.033675835 0.10947776 -0.054419827
0001a0 7c 86 01 bd 3c 79 ec bc 2a 0a 11 3e aa bc 1d bd
       -0.031622395 -0.028866403 0.14164034 -0.038510002
0001b0 f4 b1 10 3e 38 ec 53 bd e4 0c d2 3c 17 94 ae 3d
       0.14130384 -0.051738948 0.025640912 0.0852434
0001c0 c8 b2 98 3c 54 99 2d 3e 43 84 06 bb a7 49 eb bd
       0.018639937 0.16953021 -0.0020525611 -0.114886574
0001d0 4e 68 7a 3c 05 10 e7 3b 1f 85 99 3d 33 5a 31 3d
       0.015283657 0.00705147 0.07496094 0.04329891
0001e0 c4 91 df bd 23 52 13 be ce 0d 82 3b 22 60 b7 bd
       -0.109164745 -0.14386801 0.003968931 -0.08953883
0001f0 78 59 57 3d 28 da 33 bd 0d 75 68 3d 03 b6 50 3d
       0.05257556 -0.043909222 0.056752253 0.05095483
000200 e1 1e 8e bc 04 2a 87 3c b7 29 86 bd 3b 1c b2 bd
       -0.017348709 0.016499527 -0.06550925 -0.08696791
000210 78 4c af bd bb 5d be bd d8 86 10 bd 9f 89 0f 3d
       -0.08559507 -0.092952214 -0.035284847 0.035043355
000220 87 87 a8 3c 37 5b 78 3d 84 98 8d bd e7 b7 95 bd
       0.020572437 0.060633864 -0.06913856 -0.07310467
000230 92 d4 3a bd e1 53 cc bd d4 2c ae 3d 6f 30 8f bc
       -0.04561288 -0.09976936 0.08504644 -0.01747915
000240 cd f4 85 3d bc 51 bb 3d 52 98 db bd d8 f3 57 bd
       0.06540833 0.09146449 -0.10722412 -0.052722782
000250 19 9f 80 3d 28 0b 7a 3d 8c 4b 1b bc a6 74 24 3d
       0.062803455 0.061045796 -0.009478461 0.040150307
000260 2f cb 0a 3d 15 70 f9 bd 1e 90 18 3d 7d 6e 0c 3d
       0.033885177 -0.12179581 0.037246816 0.034285057
000270 39 86 55 bd 98 b2 40 3d ad 7b 1e bd 45 be 8d 3d
       -0.052129958 0.04704532 -0.038692165 0.06921057
000280 62 97 bb bc 80 46 02 bd 67 ea 54 3d ed 49 c0 3d
       -0.022899333 -0.031805515 0.051981356 0.093891
000290 82 9a ca bd 16 2e e9 bd c3 67 aa bc 61 22 08 3d
       -0.09892751 -0.11385743 -0.02080143 0.03323591
0002a0 f1 2b b3 bd 7b 96 87 3d a7 2a 90 bd 8d 4a 77 bc
       -0.087486155 0.06620499 -0.07039385 -0.015093458
0002b0 e3 16 40 3d c7 25 05 3e 11 46 13 be 92 cc bd bc
       0.046896826 0.13002692 -0.14382197 -0.023168836
0002c0 a9 f6 23 3d ff 4e 04 be 85 fe 07 39 54 5c 7e bd
       0.040030155 -0.1292076 0.00012969419 -0.06209977
0002d0 0a 9e df bd 28 2e 85 3d e6 d4 e5 bd fc c3 1e be
       -0.109188154 0.06502944 -0.11222248 -0.1550445
0002e0 8d 19 de bd ef de 16 be a6 63 c4 bd ab 3d a6 3d
       -0.10844717 -0.1473348 -0.09589319 0.08117231
0002f0 2d 36 80 3d ca 65 cd 37 aa 25 ee 3d 1c d1 b4 3d
       0.06260333 2.4485304e-05 0.116282776 0.08828947
000300 81 e7 13 bd 14 27 be 3d 2b b9 61 bd 39 cf 98 3c
       -0.03610945 0.09284797 -0.05510823 0.018653499
000310 aa 12 0b 3e 28 1b 71 3d 3a 7b 47 bc f9 9f 82 bd
       0.13581339 0.05886379 -0.012175376 -0.063781686
000320 6b 57 75 bd c3 93 99 3d e8 21 0a be 4b b6 b3 bd
       -0.05989782 0.074988864 -0.13489497 -0.08775004
000330 f5 20 2f 3c 3b 5b d9 bd 12 31 cc bd 33 dd 14 bd
       0.01068901 -0.10613104 -0.09970297 -0.036343765
000340 69 3a 0f be 54 a4 98 bd c3 f1 98 3d 30 b7 96 bd
       -0.13987125 -0.07453218 0.074679874 -0.07359159
000350 75 3c 8e 3d c2 62 4f 3d d6 8b 6c 3d 2c cc 86 bc
       0.06945125 0.050631292 0.057750545 -0.016454779
000360 0a fa fe 3d e0 78 98 bd 1a 10 d5 bd a8 ec 68 bd
       0.12450035 -0.0744493 -0.10403462 -0.056866318
000370 4c 1b a2 bd 34 6b b8 bd 47 c7 0a be bd 38 93 bc
       -0.07915363 -0.090048224 -0.13552581 -0.01797139
000380 10 37 5c 3c 23 ec 01 be 8d e4 da 3d 4f 3f 49 3d
       0.013440862 -0.12687735 0.10688124 0.04913264
000390 c8 49 88 bd bb 14 e4 3d 27 da 4f 3d a3 b6 ac 3a
       -0.06654698 0.111367665 0.050745156 0.0013176989
0003a0 ac bd b0 3d 30 24 bb 3d da 80 b1 bd 31 0d 21 bd
       0.08629927 0.091377616 -0.086671546 -0.03931922
0003b0 f5 0e be bd 72 6f 8f bd 75 85 9c bd 48 f3 21 be
       -0.092801966 -0.070036784 -0.076426424 -0.1581546
0003c0 5e 6c 9b 3d 40 d6 38 3d 0c 69 5d bd ea c7 98 3d
       0.07589029 0.0451262 -0.05405526 0.074600056
0003d0 de 65 27 3e 45 4f 95 bc b9 07 9d bc d0 1f a8 bd
       0.16347453 -0.018226275 -0.019168722 -0.08209193
0003e0 12 2f 0e be 38 27 b6 3d 7c 7a 9b bc 61 a2 b1 bd
       -0.13885143 0.08894199 -0.018979304 -0.086735494
0003f0 5f 6a c7 3d 4b 32 77 bd bb 48 f2 bd 5f 4e 96 bd
       0.097370856 -0.060350697 -0.118302785 -0.07339167

conv2.0.bias f4 [16]
000000 1f 59 a8 3d 1a 64 67 bd fd 0d 98 3d 5b 3d 9b 3d
       0.082201235 -0.05649195 0.07424543 0.07580062
000010 11 35 67 bd 3a 84 04 3d 4d 3a 85 3d b6 05 40 bd
       -0.056447092 0.032352664 0.065052606 -0.046880446
000020 1c e6 b5 3c 24 bd bc 3c aa ca 27 3d ea 65 5a 3d
       0.022204451 0.023039408 0.04096476 0.05331985
000030 5b e1 c7 bd ae 0d 1b 3d ba 15 6e 3d 4a c8 ab bd
       -0.0975978 0.037854843 0.05812619 -0.083878115

conv2.1.weight f4 [16]
000000 7a 69 7e 3f 38 1e 84 3f 83 d4 82 3f f4 11 84 3f
       0.99379694 1.0321722 1.0221103 1.0317979
000010 b4 ca 81 3f 2f 79 7e 3f 4b ff 82 3f 3c 9a 70 3f
       1.0139985 0.9940366 1.0234159 0.9398534
000020 ad 22 7c 3f 76 fc 7a 3f 62 f6 75 3f e4 57 78 3f
       0.9849041 0.98041475 0.96079075 0.9700911
000030 d1 0c 79 3f 1c 31 86 3f 0d a1 84 3f d6 ca 7d 3f
       0.9728518 1.0483737 1.0361649 0.9913763

conv2.1.bias f4 [16]
000000 c3 17 93 3c 8c 5b 0b 3d da 2e aa 3c 62 a2 44 bb
       0.017955666 0.034022853 0.020774294 -0.0030004014
000010 29 f6 e5 bb 82 36 83 3c f3 0e 81 bd b1 58 80 3c
       -0.00701787 0.016017202 -0.063016795 0.015667291
000020 e4 30 0e bc a0 4c cf bc 63 11 9c 3c ee 5b 4e ba
       -0.008678649 -0.025305092 0.01905126 -0.0007871975
000030 2b e0 8e bc 6a df a5 3c 5e 81 f9 3c 32 44 c2 3b
       -0.017440876 0.020248134 0.030457195 0.0059285397

conv2.1.running_mean f4 [16]
000000 57 67 95 be 7d 00 0d bf 1d 28 ec be 00 c8 4c bf
       -0.29180405 -0.5507887 -0.46124354 -0.79992676
000010 28 87 93 3e 70 f7 38 bf d0 11 ca 3d a6 d8 a0 3d
       0.28814054 -0.7225256 0.09866679 0.078538224
000020 57 d7 49 3d 24 3f 4e be 22 66 0c 3f 71 f6 bc be
       0.04927763 -0.20141274 0.5484334 -0.3690677
000030 b9 9b 00 bf bf 16 9c bf 9a bc 4a bf 61 e8 fe be
       -0.50237614 -1.2194442 -0.79194033 -0.49786666

conv2.1.running_var f4 [16]
000000 8f 8d d5 3e 33 4e f8 3e 30 88 ae 3e d9 e7 de 3e
       0.41709563 0.4849716 0.34088278 0.4353626
000010 bb 0e 31 3f 6b 29 c4 3e 8e ce 99 3e 42 0f 8b 3e
       0.691631 0.3831285 0.300404 0.27160078
000020 75 a9 99 3e 89 74 a0 3e 47 58 d1 3e 23 05 ab 3e
       0.30012098 0.3133891 0.40887663 0.33402357
000030 c0 50 c5 3e e5 a7 f0 3e e6 78 af 3e 07 1e a4 3e
       0.3853817 0.47003093 0.34271926 0.3205416

conv2.3.weight f4 [16, 16, 3, 3]
000000 5e fa 00 3b 04 06 14 bd bd 7c 2a 3d c8 5f 16 3d
       0.001968048 -0.03613855 0.041622866 0.036712438
000010 03 64 de bd 7d c8 61 bc 91 1d eb bc d1 bc c3 bc
       -0.108589195 -0.01378071 -0.028700622 -0.023893746
000020 3d cf 5a bd 95 d9 c3 bc fe 3e e9 bb aa fd ca 3c
       -0.053420294 -0.023907462 -0.007118105 0.02477916
000030 5b 5a bc 3d 45 ab 84 bd 04 67 8a 3d b4 bf 5a 3d
       0.091969214 -0.064779796 0.0675793 0.05340548
000040 74 27 af 3d 08 13 2b bc 14 63 41 bd 79 71 ca bc
       0.08552447 -0.010441549 -0.04721363 -0.024712311
000050 c7 d2 26 bd 2a ef 83 bd f5 7b ff bc b2 e8 bb bd
       -0.040728357 -0.06442101 -0.031187037 -0.091752425
000060 23 07 24 3d 63 5c ab 3d f3 b8 e1 3c 54 07 90 3d
       0.04004587 0.08367231 0.027554011 0.07032648
000070 8a ed 8c bc 41 27 65 bd 71 96 76 bd 29 dc ac 3a
       -0.017203111 -0.05594564 -0.060202066 0.0013188171
000080 a9 40 83 bd 81 52 08 3d ec e2 dc bc b6 7c 89 3c
       -0.06408817 0.033281807 -0.026963674 0.0167831
000090 08 ac 21 bd 2a e3 e5 bd 8b 36 80 3d 17 0d 9a bd
       -0.039470702 -0.11224969 0.06260403 -0.07522028
0000a0 c0 f9 df bd bb 1b 87 bd fa 88 16 3c 46 d8 c7 3c
       -0.10936308 -0.06597086 0.009187931 0.02439512
0000b0 32 6c 49 bd 54 10 d5 bd d8 5a eb bb bb f5 10 bd
       -0.04917545 -0.10403505 -0.0071824603 -0.035390597
0000c0 83 0f a2 3b 5e 8f 6c bd 3b e8 eb 3c 64 c2 d0 3a
       0.004945697 -0.057753913 0.02879726 0.0015927074
0000d0 61 4f 41 3d eb 61 2b bd e0 ad 9e bd f9 b9 34 bd
       0.047194842 -0.04184143 -0.07748008 -0.04412267
0000e0 ae 2e 4b bd e0 34 27 bd 29 67 62 bd a6 f7 27 bc
       -0.049605064 -0.04082191 -0.055274162 -0.010251915
0000f0 43 b2 69 3c 9c 34 7b 3d ee 3b bc bc e4 5a 3f 3c
       0.014263692 0.06132947 -0.022977795 0.011679385
000100 88 d3 37 bd 28 a3 55 bc 7a f0 ee bb e0 39 02 bd
       -0.044879466 -0.013039388 -0.0072918506 -0.031793475
000110 de 54 01 3d dc 5a 4c 3d 09 d6 6d bc 2f 1e a9 bd
       0.031575076 0.049891338 -0.014516362 -0.0825771
000120 f3 21 90 bd 39 e5 10 3d 59 04 0d bd 41 15 f1 bd
       -0.07037725 0.035374854 -0.034427974 -0.11771632
000130 24 ea f4 bd b3 a9 04 bd 49 59 73 bd f2 34 f2 3c
       -0.11958721 -0.0323884 -0.05941132 0.029566262
000140 d7 91 e2 3c 4d 17 1d 3c 9c ec 9a 3d 5a 32 e0 3c
       0.027657432 0.009588075 0.07564661 0.02736776
000150 56 12 33 3d 41 34 b0 3d a5 e7 9f 3d 01 a3 a7 bc
       0.04371866 0.08603717 0.078078546 -0.020463469
000160 c4 f6 1c bd 46 f4 44 3d c2 a4 25 bd 69 e9 09 bd
       -0.03832127 0.04808452 -0.04044033 -0.033669863
000170 ee 75 2f 3d 5a 1e 6f bc 4b b2 a0 bd 7b 69 a4 bd
       0.042837076 -0.014594639 -0.07846507 -0.08027931
000180 ba 93 8b 3d e2 79 47 3d 6d 42 40 3c 25 94 34 ba
       0.06815286 0.04870022 0.011734587 -0.00068885303
000190 70 25 c7 3c c7 c7 5e bb a7 75 88 bd b9 76 a1 bd
       0.024309844 -0.0033993588 -0.066630654 -0.07883973
0001a0 0b a6 63 bc 64 f0 58 bd 14 52 34 bc 76 77 95 bc
       -0.013894568 -0.05296363 -0.011005897 -0.01824544
0001b0 8c 9a 9f bd 62 ed d4 3b 15 0b 43 3d 72 bf ae 3d
       -0.07793149 0.006498025 0.04761799 0.08532609
0001c0 40 63 49 3d db ea 8b 3d fe c8 43 bd 30 66 21 3d
       0.049166918 0.068319045 -0.047799103 0.039404094
0001d0 d9 a2 58 bc 10 26 a7 bd bb 50 d6 3c 39 84 db bd
       -0.01322242 -0.08161557 0.026161542 -0.10718579
0001e0 68 ff c1 bd df 19 03 bc 2e b6 2f bd 8a 7a 99 bd
       -0.09472543 -0.008001774 -0.04289835 -0.074940756
0001f0 32 5d 86 bc 91 30 1b bc b1 b9 95 bd 7b 45 27 bc
       -0.01640186 -0.009472028 -0.073108084 -0.0102094365
000200 03 74 3a bd fe 68 fa bc 89 78 07 bc a2 3e 67 3d
       -0.045520794 -0.030567642 -0.008268484 0.056456216
000210 21 c3 3e 3d 0f a8 1a 3b e2 ac 49 bd 24 a8 ba 3d
       0.04657281 0.0023598706 -0.04923714 0.091141015
000220 bd 2d a8 3d 45 44 65 bd 5d f6 9f bd 7e 8d 0e 3d
       0.08211849 -0.05597331 -0.07810662 0.034802906
000230 0c 02 64 3c 85 c6 11 3d 32 fb fb bc 99 42 fb 3a
       0.013916504 0.035589714 -0.030759428 0.0019169628
000240 b1 8c 9c bd 9b 31 dc bb 6d 74 2f 3c 62 97 86 bd
       -0.07644022 -0.0067197806 0.01070891 -0.06571843
000250 7a cf 82 b9 aa 4d 9f bd ee 42 d9 bd d3 11 3e bd
       -0.00024950114 -0.07778485 -0.10608469 -0.046403717
000260 99 4f 88 bd 1f bb 42 bd bf 15 7e 3c eb 7b 59 3d
       -0.06655807 -0.047541734 0.015508114 0.053096693
000270 a4 c6 b3 bc 93 79 4c bd d7 c7 d5 bb 23 15 8f bc
       -0.021945305 -0.04992063 -0.006524067 -0.017466133
000280 6b a2 a4 3d de 69 86 3d 4a 26 dc 3c c1 0c 7a 3c
       0.08038791 0.06563161 0.026873726 0.01526183
000290 3c e1 08 bd 20 4e 89 3c ab d5 8b bd 65 1b 99 bd
       -0.033417925 0.016760886 -0.06827863 -0.07475928
0002a0 15 28 ba bd ff 7a 8e bd 1f dc dc 3c 51 47 a5 bd
       -0.09089676 -0.069570534 0.02696043 -0.08070243
0002b0 92 ca 2f 3d 07 6a 87 3d 7c ab 1f 3c 38 06 72 3d
       0.042917795 0.0661202 0.009745475 0.059087962
0002c0 0a 9a 14 bc 0a 41 6b bd 31 8b 83 3d 8f 18 3f bc
       -0.009069929 -0.057435073 0.06423033 -0.01166357
0002d0 0e 5c 06 3d ae 64 56 bb cb 79 88 bd f4 86 c0 3d
       0.032802634 -0.0032713818 -0.06663855 0.0940074
0002e0 b5 3c b9 bd 27 74 fc 3d f0 f5 c5 bc dc eb f8 3d
       -0.09044782 0.12326842 -0.024165124 0.121543616
0002f0 28 4e 77 3d 02 f6 60 3a 1e 02 9d 3c 49 b5 00 3c
       0.06037727 0.000858158 0.019166049 0.007855722
000300 1a e9 37 3d 0e 1f 14 3d 95 5f 14 bc d9 d0 b6 bc
       0.044900037 0.03616243 -0.009055992 -0.022316383
000310 09 16 b1 bb c2 06 1e 3d 1d 83 23 bd 29 48 6f 3c
       -0.005404238 0.038580664 -0.03991996 0.014604607
000320 36 ac 32 3e ca 2b 90 3b 49 1f ad 3d ba 53 17 3e
       0.17448506 0.0043997513 0.08453233 0.14778033
000330 fa 2a a0 3c 05 da b2 3d 52 84 ca 3c 35 b9 e2 bd
       0.019551743 0.0873299 0.024721298 -0.11070482
000340 a5 6a 21 bd e7 83 33 bd 1b d1 7c bd 4f df b0 bb
       -0.039408345 -0.043826964 -0.061722856 -0.005397714
000350 84 7c e9 bc 03 ac 87 bd 12 e2 ee 3b 3c 04 3d 3d
       -0.028501756 -0.066246055 0.0072901333 0.046146616
000360 a9 4f 50 bd 15 11 38 3d 21 66 66 bd e2 f9 81 bd
       -0.05085722 0.044938166 -0.05624974 -0.063464895
000370 46 b0 8b bc 6b f4 7d 3b 99 80 1e bd 94 b0 e8 bc
       -0.017051827 0.003875042 -0.03869686 -0.028404512
000380 9c 62 b4 3d 30 ea 71 bd 98 25 73 bb 39 0d 9b bd
       0.08807871 -0.05906123 -0.0037101265 -0.075708814
000390 fb e2 a5 bc 48 95 35 bd 82 0e 70 3d a1 d7 03 3d
       -0.020249834 -0.04433182 0.058607586 0.03218806
0003a0 86 c8 9a ba 2e 4b 85 bc 49 78 64 3d 00 01 98 3d
       -0.0011809028 -0.0162712 0.055778775 0.07422066
0003b0 a5 55 a2 bc 8d 69 40 3c 74 cc fc 3c a7 66 ae 3c
       -0.01981623 0.011743915 0.03085921 0.021289183
0003c0 f0 e0 96 bd fa b4 77 3d cf 56 b7 3c 5b 0d f5 3c
       -0.07367122 0.060475327 0.02238026 0.029913595
0003d0 ba c8 ec bc 12 54 3e 3d 9c 98 c6 3c 49 0f cc bd
       -0.028904308 0.046466894 0.024242692 -0.09963853
0003e0 d1 52 6b bd 54 2c b9 bd 20 e3 b1 bd 09 2c 4f bb
       -0.057452027 -0.09041658 -0.08685899 -0.003161194
0003f0 a5 84 4b bd b8 ac a6 bc 89 39 a0 bc 68 2b 0f 3d
       -0.049687047 -0.02034603 -0.019558685 0.034953505

conv2.3.bias f4 [16]
000000 98 b3 31 bd f5 9f 38 bd 33 af 40 bd e8 fa 28 3d
       -0.043384165 -0.045074422 -0.047042083 0.041254908
000010 b4 5a 5b bd d8 7b 37 bd 3c 92 c7 3c 7c 73 93 bc
       -0.053553298 -0.04479584 0.024361722 -0.017999403
000020 06 39 75 bd 1b 8f 4b 3d a3 10 99 ba 20 ae 9d bd
       -0.059868835 0.049697023 -0.0011677932 -0.07699227
000030 82 85 94 bd 5e 0c a9 bc d3 a2 57 bc 76 e7 27 3d
       -0.07252027 -0.02063578 -0.013161379 0.040992223

conv2.4.weight f4 [16]
000000 24 3a 81 3f 01 03 82 3f e1 f1 7c 3f e8 74 82 3f
       1.0095868 1.0157167 0.9880658 1.0191927
000010 2f 0d 7e 3f f8 9c 7c 3f 85 26 76 3f 9d 9a 81 3f
       0.99238867 0.98677015 0.96152526 1.0125309
000020 8c 97 81 3f bc 3d 81 3f 2f 16 7b 3f 35 f2 83 3f
       1.0124373 1.0096965 0.98080724 1.0308291
000030 a4 34 81 3f ef 6e 7c 3f f9 84 7c 3f 6d 90 7f 3f
       1.009419 0.9860677 0.986404 0.9982975

conv2.4.bias f4 [16]
000000 6d 51 83 3c fe b8 ff 3b 25 d5 1a 3d 67 4e eb 3c
       0.016030038 0.007804035 0.037800927 0.028723909
000010 bf e0 0e 3a ee 89 9d b9 24 e1 b6 bc 17 11 af bb
       0.000545036 -0.0003004814 -0.022324152 -0.0053426134
000020 ac 2e 5c 3b 64 5c 0c bd 88 19 2a 3c cc d4 5c 3c
       0.0033597155 -0.034267798 0.010382064 0.013478469
000030 dd c7 18 3d f9 73 14 bc 66 44 db 3b 29 b0 e7 3c
       0.03729998 -0.009060853 0.0066915033 0.028282242

conv2.4.running_mean f4 [16]
000000 ca 2f 22 bf a4 1d 16 be a7 27 ab be 1f 23 9d be
       -0.6335417 -0.14659745 -0.3342869 -0.30690858
000010 43 e3 b3 be fd 14 b6 be 7d f0 33 3f fc 0a dc be
       -0.35134324 -0.35562888 0.7028883 -0.4297713
000020 74 41 b6 3e 33 9b a3 3d 92 0d 36 3f a6 8b 6a bd
       0.35596812 0.07988586 0.71114457 -0.057262085
000030 9c d3 f9 bd a7 42 5a 3e 07 fc 1c 3e ed 8f 42 bf
       -0.121985644 0.21314488 0.15330516 -0.76000863

conv2.4.running_var f4 [16]
000000 e0 37 5b 3e 29 55 81 3e 6f 3a 34 3e 5a 9e a1 3e
       0.21408033 0.25260285 0.17600416 0.31566125
000010 14 b1 74 3e 17 29 94 3e e3 25 73 3e c6 dd 44 3e
       0.23895675 0.289376 0.23744921 0.19225225
000020 9c 21 4f 3e b1 78 9c 3e 2d 48 49 3e 5b a8 7b 3e
       0.20227665 0.3056083 0.19656439 0.24575941
000030 78 cf 5f 3e 34 e3 92 3e 98 ff 54 3e 50 ce 60 3e
       0.21856487 0.28688967 0.20800626 0.21953702

conv3.0.weight f4 [32, 16, 3, 3]
000000 f9 72 4c bd f0 1d a5 bc 6d e6 ad bc 80 5b 09 bd
       -0.049914334 -0.020155877 -0.02122804 -0.033534527
000010 12 a7 da bc c2 cd aa 3c 7b fe 75 3d 27 f9 2f 3d
       -0.026690993 0.020850066 0.060057145 0.04296222
000020 eb b4 6d 3d c4 af 90 3c 62 38 49 bc 55 4a bc bb
       0.058033865 0.017661937 -0.012281509 -0.0057461658
000030 e0 b2 d0 3c 72 8a 74 3d 85 87 68 3d 12 fe 1f bc
       0.02547592 0.059702344 0.056769866 -0.009765165
000040 b9 59 87 3c ad 48 d6 3d b4 29 8a 3d f3 b6 0e bd
       0.016522275 0.104630806 0.067462355 -0.034842443
000050 e2 d8 ff 3c 2d 52 85 3d 7c 30 4f bd 3f 15 db 3c
       0.031231347 0.065098144 -0.050583348 0.02674353
000060 ef d1 66 3d fb 9e 91 bc 87 1f 94 bd 68 5e b6 bc
       0.056352552 -0.017776003 -0.07232576 -0.022261813
000070 9c bc 4e 3d 1b 71 6a bc ab a0 0a bd 94 37 b7 3c
       0.05047284 -0.014309193 -0.03384463 0.022365369
000080 f9 ad bd bc a3 fb 70 bc fe 55 a9 bd ff 59 f3 bd
       -0.023154246 -0.014708432 -0.08268355 -0.118824
000090 b0 5a e5 3c 3c 25 68 bd 4e 60 9d bc eb ed ed 3a
       0.027997345 -0.056676134 -0.01921096 0.001815257
0000a0 f2 17 80 bd 7f cd ad 3d 96 5b 93 3d 57 a2 0e bc
       -0.06254567 0.08486461 0.07195203 -0.008705697
0000b0 a2 a4 9e bc 74 d9 b8 bc f5 0d f2 bb da 3a a9 bc
       -0.019365612 -0.022564627 -0.0073869177 -0.020657945
0000c0 dc 90 36 3d f2 a4 ea bc 92 49 9d 3d 22 83 5f 3d
       0.044571742 -0.028643105 0.07680048 0.054568417
0000d0 7b 9d c4 bb d4 92 8a bd b0 ec f0 bb 1c 48 ce bd
       -0.0060002184 -0.067662865 -0.007352434 -0.100723475
0000e0 45 b7 e6 bc df c3 20 bd 5c e4 83 bd a7 8b 82 bd
       -0.028163562 -0.039249297 -0.064400405 -0.06374293
0000f0 97 36 32 bd f4 51 28 3c e9 32 01 bd fc ef 79 3d
       -0.043509092 0.010273445 -0.031542692 0.061019883
000100 eb be b1 3d 06 b5 1e bc ec 8e a4 3d 02 b2 7e bd
       0.08678993 -0.009686714 0.08035073 -0.06218148
000110 e9 96 97 bd 29 f1 1d bd 8f 96 b5 bc c8 a2 05 bd
       -0.07401831 -0.038560066 -0.022166518 -0.032625943
000120 0e 3b a3 bb ab 3c 85 3d ca 9f 12 bd 86 95 9d bd
       -0.004981405 0.06505712 -0.035796918 -0.07694535
000130 2e 14 b0 bd e4 67 95 bd cb 27 48 bd 5c 07 cb bd
       -0.08597599 -0.07295206 -0.048866075 -0.09913513
000140 fb 6d e1 bd c2 6d 0e bc f4 a0 60 3d fc 01 99 3d
       -0.11007305 -0.0086931605 0.054840997 0.074710816
000150 be 8c c2 bb 5c c6 4c bd 3d 74 a9 bd b1 da 8f 3d
       -0.005937188 -0.049993858 -0.08274124 0.07024134
000160 87 39 a8 3d c2 66 79 bd 2f 1d d3 bb 2d 55 99 ba
       0.082140975 -0.060889013 -0.006442688 -0.0011698358
000170 32 e9 c4 3d 3f 0b 3e bd e1 bb ae bd 90 82 5e bd
       0.09614791 -0.046397444 -0.08531929 -0.054323733
000180 dc 5b e6 bc 79 73 a2 bc 70 84 d9 3c ec 7b 8b bc
       -0.028119974 -0.019830452 0.026552409 -0.017026864
000190 a5 09 03 3d 86 25 5a 3d 64 36 98 bc fc cf 81 bd
       0.03199162 0.05325844 -0.018580623 -0.06338498
0001a0 36 90 ab bd bd 38 be bd d1 e4 8f 3c 2b 8b 88 3d
       -0.083771154 -0.09288166 0.017565163 0.06667169
0001b0 98 ee a9 3d 10 68 90 3d 50 43 c5 bc 7f 92 ad bd
       0.08297461 0.07051098 -0.024079949 -0.084752075
0001c0 f4 94 c6 3c 08 1f 8f 3d 22 c8 2c bd 6c b0 64 bc
       0.024240948 0.069883406 -0.04218305 -0.013958078
0001d0 21 7c fb bc 8a d2 53 bb 18 fc 22 3d 66 7b ed bc
       -0.030698838 -0.0032321536 0.039791197 -0.028989505
0001e0 06 2c 8e bc 27 45 e4 bd 7e e2 99 bb b4 d4 4f bd
       -0.017354976 -0.11146002 -0.0046961894 -0.05073996
0001f0 c7 ef 98 bd 32 51 8b bd 7c 21 cc 3c 02 73 61 bd
       -0.07467609 -0.06802596 0.02491831 -0.05504132
000200 70 e5 55 bd 87 34 3d bc 0d 73 0d bc 15 b1 60 bd
       -0.05222076 -0.011548168 -0.008633387 -0.05485638
000210 60 c7 57 3d 49 a1 be 3b 40 4a c4 38 c3 a1 4a 3d
       0.052680373 0.0058175665 9.3598384e-05 0.049470674
000220 9a db 2a 3d 02 be de ba 10 7f 3e 3d 2b 4e 77 3d
       0.041713335 -0.0016993883 0.046507895 0.06037728
000230 42 f9 b5 bc 00 2f d2 3d 46 79 02 3d 3c 0c bc 3d
       -0.022213582 0.10262871 0.031853937 0.09182021
000240 4a 20 02 3d 76 23 9e 3d af f7 73 3d 27 58 a1 bd
       0.031769074 0.077216074 0.05956238 -0.07878142
000250 93 14 2e bc b9 72 d8 3c 67 07 a0 bd 40 e1 1c 3d
       -0.010625022 0.026421892 -0.07813912 0.038300753
000260 61 d4 8c 3c f0 20 e3 bc c9 77 52 bd 82 ac 78 3d
       0.017191114 -0.027725667 -0.051383767 0.06071139
000270 e4 53 63 bd eb 29 92 3d f2 6e 94 3d 86 81 bd 3c
       -0.055499926 0.071369015 0.07247724 0.02313305
000280 43 5b 7d bd 98 99 35 3d 9c 47 6b bb 4a 0d 12 3d
       -0.061854612 0.04433593 -0.0035900837 0.035657205
000290 c9 4b 96 bd 9f f1 5b bb 34 dc 44 3d 17 b9 a5 bc
       -0.073386736 -0.0033560765 0.048061565 -0.02022986
0002a0 de da 92 bd 8c 34 c3 39 b5 38 38 3d 0a e0 be 3c
       -0.07170652 0.0003723245 0.044975955 0.02330019
0002b0 54 69 ca 3d 0b 10 91 3d ee c4 10 3d c9 dd 64 3d
       0.09883371 0.07083138 0.035344057 0.055875573
0002c0 71 02 e3 bb 0f 9c db 3d 92 2e 5c 3d e0 05 43 3d
       -0.0069277813 0.10723125 0.05375535 0.047613025
0002d0 55 81 77 3d c7 e1 7f 3d 96 c0 6c 3d 5b c2 38 3d
       0.060426075 0.062471177 0.05780085 0.045107227
0002e0 4c de 86 bd c8 c3 7d 3d f8 a0 0d bd 4b 37 de bc
       -0.065853685 0.06195429 -0.03457734 -0.027125975
0002f0 69 80 bb 3d e6 92 94 bd 6d 26 36 bd 5e 01 e8 bc
       0.09155352 -0.07254581 -0.04447024 -0.028320964
000300 9d 08 6f 3c ba 30 4d bd d1 36 1b bd fc f4 de bc
       0.014589456 -0.050095297 -0.037894074 -0.027216427
000310 d3 27 99 bd c3 cf 87 bd e4 94 d4 bc 65 de 56 3d
       -0.07478299 -0.06631424 -0.025949903 0.052458186
000320 ae 0c 3b bd a3 f2 9e bd 45 f8 a0 bd 94 f7 ff 3c
       -0.04566639 -0.07761123 -0.07859854 0.031245984
000330 fa 5e d3 3c c2 95 c9 39 20 32 6b bd 9f 95 8c 3c
       0.025802124 0.00038449286 -0.05742085 0.017161189
000340 d0 d3 d6 3c ab 9c 84 bd 6a a8 92 bd c8 d2 e1 bd
       0.026224047 -0.064751945 -0.07161029 -0.110265315
000350 20 22 49 bd c3 99 c1 bd 94 90 91 bd 80 e9 2a 3d
       -0.04910481 -0.09453156 -0.07107654 0.04172659
000360 f2 4a 22 3c 41 94 be 3d ef 4e 1d bd 26 72 3a bc
       0.009905564 0.09305621 -0.038405355 -0.011379754
000370 38 d8 55 3d 28 e5 4b 3d 14 fb 85 bc 28 bf 22 3d
       0.052208155 0.049779087 -0.016355075 0.039733082
000380 98 c5 5f bd dd 7a 29 b9 76 dc 92 3c cf 4e a1 3d
       -0.0546318 -0.00016162866 0.01792739 0.0787636
000390 71 b7 0a 3c 1c f0 fb bc db d1 2b 3d d8 9a 85 bc
       0.008466587 -0.030754142 0.04194818 -0.016309187
0003a0 be 91 ed 3c 2b ca 82 bd e8 0a 6d bd 9d 4b b3 bd
       0.02900016 -0.06386217 -0.05787173 -0.087546565
0003b0 2f 45 bf bd 3d cc 51 3c ae a3 20 bd f4 01 f5 3b
       -0.093393676 0.012805042 -0.039218597 0.0074770395
0003c0 a5 b4 8a 3d 2b 33 47 3d a2 81 0a bc e7 07 b6 3a
       0.067727365 0.048632782 -0.008453758 0.0013887853
0003d0 2d 7a 35 3d 0e 33 2b bd b8 59 cb bd 62 b9 a6 bd
       0.04430597 -0.041796736 -0.09929222 -0.08140828
0003e0 31 c8 a9 bd c1 e0 10 bc 77 54 86 bd e4 21 be bd
       -0.082901366 -0.008842648 -0.06559079 -0.09283808
0003f0 bb da 22 3d 6b a8 1a bd b1 38 80 3d fe 63 6c bb
       0.03975938 -0.037758272 0.06260813 -0.0036070342

conv3.0.bias f4 [32]
000000 b4 89 48 bb eb 6f 1d bd e0 bc 64 3c 12 15 6c 3d
       -0.0030599656 -0.03843681 0.013961047 0.05763728
000010 e4 aa a9 bc 1c 58 b3 bc 82 15 2a 3d 54 70 94 bc
       -0.02071137 -0.0218926 0.041524418 -0.018119968
000020 08 ac 5f 3c ce 16 9c bd 87 0b 19 3c bb 9c 73 bd
       0.013651855 -0.07621537 0.009341127 -0.05947564
000030 66 a1 4c 3d 00 71 28 bc 52 32 56 3d 02 3a 36 3d
       0.04995861 -0.010280848 0.052294083 0.044488914
000040 1a ed 36 3d 54 0b 95 bc 0f 94 a1 3d 9c 6f b8 bc
       0.04465971 -0.018193878 0.07889568 -0.022514157
000050 5b 5b 99 bd 08 c7 41 bd 11 ff ef 3b f6 16 ac bc
       -0.07488128 -0.04730895 0.0073241075 -0.021007042
000060 60 b6 57 bd 81 27 89 3d c5 ab 9e 3d 30 62 c8 bb
       -0.05266416 0.06696988 0.07747606 -0.0061152205
000070 f6 d8 e8 bc dc e6 db 3c bf a9 a8 3d 2f dd a5 bd
       -0.028423768 0.02684348 0.082355015 -0.08098828

conv3.1.weight f4 [32]
000000 54 cb 7c 3f dc 1b 83 3f c5 8c 7f 3f d2 00 81 3f
       0.98747754 1.0242877 0.9982417 1.0078375
000010 21 74 7f 3f 87 89 7c 3f b4 32 7c 3f 71 35 7b 3f
       0.99786574 0.9864735 0.98514867 0.9812842
000020 a7 6d 7f 3f 35 63 7d 3f 4c 9c 80 3f 5a ce 79 3f
       0.9977669 0.989795 1.0047698 0.9758049
000030 f0 1d 80 3f 5e 19 81 3f 32 d5 81 3f 79 ba 7c 3f
       1.0009136 1.0085866 1.0143187 0.98722035
000040 cb 6d 7f 3f 8b d6 7e 3f 75 c0 7e 3f 99 ef 81 3f
       0.99776906 0.99546117 0.99512416 1.0151244
000050 d7 4c 81 3f ac 44 7e 3f 11 f7 81 3f 71 d0 7e 3f
       1.0101575 0.99323535 1.0153524 0.99536806
000060 61 0f 82 3f c9 85 81 3f b0 9d 7e 3f bc 9b 80 3f
       1.0160943 1.0118953 0.9945936 1.0047526
000070 dc 2a 81 3f 9b 41 7a 3f c4 21 7f 3f 70 11 83 3f
       1.0091205 0.97756356 0.996609 1.0239697

conv3.1.bias f4 [32]
000000 e5 4e 80 3b 73 a2 82 bc ed 2a 6d 3b 1b 36 31 3c
       0.003915655 -0.015946602 0.0036188916 0.010816122
000010 2f a0 1b bb 74 51 fc bb 72 45 09 bc c1 d9 a4 bc
       -0.00237466 -0.0077001397 -0.008378373 -0.020123364
000020 32 62 56 bc 1c ee 4f 3c 0b 43 86 bc 71 61 4b bc
       -0.013084935 0.012691047 -0.01638939 -0.012413369
000030 fe cd a0 bb db ed c2 3b 98 89 f0 3b 10 8a 41 bc
       -0.0049073687 0.0059487647 0.007340621 -0.011812702
000040 fd 9c 19 bb f4 9d fb bb f6 ce 9b ba a0 7d 7e ba
       -0.002343952 -0.0076787416 -0.0011887241 -0.00097080506
000050 be a1 15 3c dc 85 d6 bc 43 06 ee 3b 8b 4f 5d bb
       0.009132801 -0.026186876 0.00726393 -0.0033769335
000060 6f 4e 91 3c e4 8d 3f 3c 97 81 43 bc 91 0c 28 3c
       0.017737595 0.011691544 -0.011932752 0.010256902
000070 37 4f 8d bc 58 e5 ed bb e8 f0 d0 3b d0 46 36 bc
       -0.017249687 -0.007260006 0.0063763745 -0.011125281

conv3.1.running_mean f4 [32]
000000 dd c0 1d bf 0f 69 08 bf b7 7b 84 bd 34 8b 9c bf
       -0.6162241 -0.53285307 -0.06468909 -1.2229981
000010 4d b3 25 bf 84 71 92 bd e0 74 83 3e 7e ac a8 be
       -0.64726716 -0.07150558 0.25675106 -0.329441
000020 86 d1 b5 bf b7 2d c8 3d f1 9e 50 be 32 53 50 bd
       -1.4204566 0.097743444 -0.20373131 -0.05086059
000030 c0 a9 45 bf 30 96 d2 bf f9 75 aa 3c f2 54 98 3e
       -0.7721214 -1.6452084 0.020808207 0.29752308
000040 40 8c 41 bf 2c ca db 3e 24 d4 ec 3c 2e 12 c9 be
       -0.7560463 0.42927682 0.02890975 -0.39271683
000050 d3 f8 59 bf 89 ab 79 be 47 da 8a bf 2f ed 48 3e
       -0.851453 -0.24381842 -1.0847863 0.19621728
000060 43 7b 97 3b 28 e6 a7 3e c0 ac 22 3f d1 cf 58 bf
       0.0046228482 0.32792783 0.63544846 -0.846921
000070 dc d6 e9 be 1a 71 49 bf de 67 76 3f 21 65 8f 3d
       -0.45671737 -0.78688204 0.9625224 0.07001711

conv3.1.running_var f4 [32]
000000 9c aa b9 3e cf c3 06 3f 4c a3 b4 3e 98 53 c1 3e
       0.36262977 0.5264253 0.35280836 0.3775909
000010 1a a0 a8 3e c5 6f f1 3e 68 c8 88 3e 0f 64 ab 3e
       0.32934648 0.47155586 0.26715398 0.33474776
000020 97 43 c7 3e 33 fe 90 3e b3 af bc 3e da 4e 82 3e
       0.38918754 0.2831894 0.36852798 0.25450784
000030 69 c9 c3 3e 16 40 cb 3e 1e e5 bb 3e 21 f1 c5 3e
       0.382396 0.3969733 0.3669824 0.3866053
000040 c5 cd a5 3e 10 b2 bf 3e 1f 73 86 3e 14 b6 bc 3e
       0.32383552 0.37440538 0.26259705 0.36857665
000050 53 f0 c6 3e e0 dc f2 3e 61 e1 ac 3e 2a 3b a3 3e
       0.38855228 0.4743414 0.337657 0.31881076
000060 7e 44 a3 3e 9d ea 87 3e eb c5 dc 3e 33 89 8e 3e
       0.31888193 0.26546183 0.4311975 0.2783905
000070 fc ab d9 3e 6d ec 83 3e 99 0a c7 3e fc d7 e0 3e
       0.42514026 0.25766316 0.38875273 0.43914783
