trained_models/last_cnn.pt (torch, 958866 bytes, 92 tensors)

conv1.0.weight f4 [8, 3, 3, 3]
0.58405066 0.72647166 -0.40181944 -0.2150865 -0.55839634 0.3627324 -0.18906127 -0.7330955
0.060398303 0.38619506 -0.19444656 -0.5425914 -0.12307079 -0.89442855 0.73838377 0.5968107
-0.36226377 0.631671 0.048170183 -0.072046585 -0.95608723 0.0049129874 -0.25756335 1.0089986
0.34912562 -0.621274 0.46645698 0.16737969 0.86239976 0.08994934 0.5550652 0.46662903
-0.0010865405 -0.38538498 -0.08717766 0.3326254 0.25460523 0.45955145 -0.36967206 -0.15506533
-0.027340064 -0.43393114 -0.53241515 -0.46642932 -0.2763114 0.58817554 0.4286309 -0.04982324
0.3486436 -0.27898544 -0.5409104 -0.2538385 -0.30460474 0.1843359 0.02343664 -0.5066994
0.21190935 -0.30669576 -0.03322616 0.477815 -0.5059129 -0.6081714 -0.14735407 0.1941533
-0.23936489 -0.074541695 -0.029094119 0.38118368 0.2036471 -0.049832117 -0.17889085 -0.1613478
0.47089028 -0.040075734 -1.060235 0.6736528 0.8977304 -0.0112715755 0.6292689 0.45657822
-0.482535 -0.1471571 0.0878566 0.47613704 -0.77384174 -0.537419 0.09251708 -0.23437318
-0.016750835 0.7919079 -0.12552969 0.0322186 0.6042958 -0.7113259 -0.6284212 -0.267527
-0.537827 -0.17475028 0.16910732 0.1740863 0.4917068 0.6068002 -0.2869208 -0.058235332
0.11737442 0.26786593 0.15890124 0.14243184 -0.40224478 0.36694902 0.5485427 0.63974994
0.5539035 -0.2289075 -0.03905205 -0.24254745 -0.23468241 -0.4417186 -0.3725859 -0.34987918
0.6393232 -0.18442725 -0.98475266 0.15208326 -0.14234528 -0.4557473 0.055161767 -0.13814501
-0.1914755 1.0637759 0.14279152 -0.85932136 0.888071 0.017045757 -0.45583716 0.39172566
0.575931 0.45772776 -0.060530614 -0.42195165 0.0072323703 0.13515255 -0.69172007 -0.5870639
0.31273475 0.11130807 0.6787839 0.026245411 -0.747785 -0.18417402 0.70018387 -0.7651644
-0.42509118 -0.2512178 -0.3854539 0.552709 -0.15463637 -0.39510348 0.10672136 0.4992927
-0.18724328 0.04965521 0.53849304 0.008197333 0.33605233 0.1543407 -0.088350646 1.3687218
-0.38752872 -0.39586657 -0.93170226 -0.080556065 -0.6341036 0.29876515 -0.3904806 -1.041018
1.0361247 0.09598687 0.11004367 -0.17729653 0.07543085 -0.5016199 -0.18395415 0.37230536
-0.69603413 0.7109739 0.650469 0.247266 -0.30714116 -0.12501317 0.34609783 0.3785818
0.16787025 0.01675119 0.0630389 0.14430392 -0.25385657 -0.18048851 0.08701403 -0.17009917
-0.24159355 0.03287672 -0.49785078 -0.2160919 0.023113782 -0.53517014 -0.43559968 0.15769184
-0.029556127 -0.096443176 0.008246385 -0.18981387 -0.15218458 0.27272063 -0.2924166 0.14641565
00000000: 5884 153f 0cfa 393f 47bb cdbe a33f 5cbe
00000010: 10f3 0ebf 10b8 b93e 4799 41be 26ac 3bbf
00000020: 3664 773d 5cbb c53e 001d 47be 45e7 0abf
00000030: 8a0c fcbd 45f9 64bf b806 3d3f 96c8 183f
00000040: a37a b9be 31b5 213f 194e 453d 298d 93bd
00000050: 22c2 74bf 20fd a03b 58df 83be de26 813f
00000060: 98c0 b23e d00b 1fbf 73d3 ee3e 9565 2b3e
00000070: 3bc6 5c3f 5c37 b83d c118 0e3f 00ea ee3e
00000080: 406a 8eba 2e51 c5be 338a b2bd e04d aa3e
00000090: 9e5b 823e 544a eb3e a845 bdbe 72c9 1ebe
000000a0: 45f8 dfbc 392c debe 5c4c 08bf d3cf eebe
000000b0: b078 8dbe ac92 163f 8275 db3e 7413 4cbd
000000c0: 6a81 b23e 2ed7 8ebe 1b79 0abf 1ff7 81be
000000d0: 27f5 9bbe 8dc2 3c3e 32fe bf3c 0db7 01bf
000000e0: c4fe 583e 3a07 9dbe 2718 08bd 2ba4 f43e
000000f0: 8283 01bf 1fb1 1bbf fce3 16be 1fd0 463e
00000100: 121c 75be 51a9 98bd ca56 eebc 822a c33e
00000110: de88 503e c31c 4cbd 2a2f 37be 5c38 25be
00000120: 8818 f13e 7426 24bd c8b5 87bf 8374 2c3f
00000130: a9d1 653f 6aac 38bc c417 213f 9fc4 e93e
00000140: d40e f7be 5ab0 16be 29ee b33d 3cc8 f33e
00000150: 7e1a 46bf 4b94 09bf 9879 bd3d 86ff 6fbe
00000160: 0c39 89bc 7aba 4a3f db8a 00be a7f7 033d
00000170: 21b3 1a3f 7419 36bf 36e0 20bf 4df9 88be
00000180: 08af 09bf bdf1 32be 782a 2d3e ae43 323e
00000190: fec0 fb3e 4257 1b3f 48e7 92be 2c88 6ebd
000001a0: 0062 f03d b925 893e 02b7 223e a7d9 113e
000001b0: 07f3 cdbe bee0 bb3e 4b6d 0c3f a7c6 233f
000001c0: 9fcc 0d3f ba66 6abe 0bf5 1fbd 5c5e 78be
000001d0: 9650 70be f128 e2be 94c3 bebe 5d23 b3be
000001e0: afaa 233f 7fda 3cbe c018 7cbf b7bb 1b3e
000001f0: f6c2 11be b657 e9be 4ef1 613d e375 0dbe
00000200: 2712 44be cf29 883f f137 123e 7cfc 5bbf
00000210: 9f58 633f 8ba3 8b3c 7d63 e9be 4490 c83e
00000220: 3770 133f 4b5b ea3e f3ee 77bd 0c0a d8be
00000230: 85fd ec3b 6e65 0a3e 9114 31bf d249 16bf
00000240: c51e a03e 7cf5 e33d c8c4 2d3f 9e00 d73c
00000250: d66e 3fbf 1d98 3cbe 403f 333f d0e1 43bf
00000260: 8da5 d9be 9f9f 80be 375a c5be 567e 0d3f
00000270: ff58 1ebe 014b cabe ba90 da3d 4ba3 ff3e
00000280: b4bc 3fbe 4363 4b3d aeda 093f 1b4e 063c
00000290: 0d0f ac3e 7d0b 1e3e 2ff1 b4bd 4732 af3f
000002a0: 2a6a c6be 06af cabe 0a84 6ebf 94fa a4bd
000002b0: 9d54 22bf bff7 983e 13ed c7be 1440 85bf
000002c0: bc9f 843f c494 c43d 935e e13d 398d 35be
000002d0: 7d7b 9a3d 296a 00bf 7a5e 3cbe cf9e be3e
000002e0: 4b2f 32bf 6302 363f 2385 263f 4c33 7d3e
000002f0: 9b41 9dbe 7403 00be bc33 b13e 79d5 c13e
00000300: 2ee6 2b3e cb39 893c 8a1a 813d 68c4 133e
00000310: 7df9 81be fbd1 38be 6934 b23d 7a2e 2ebe
00000320: 4d64 77be bda9 063d 4ce6 febe 3247 5dbe
00000330: 1d59 bd3c e900 09bf ec06 dfbe f879 213e
00000340: b11f f2bc 0084 c5bd d81b 073c 915e 42be
00000350: 46d6 1bbe 0aa2 8b3e a1b7 95be fced 153e

conv1.0.bias f4 [8]
0.057250295 -0.084201425 -0.16906281 0.14103998 0.11966836 0.06964434 -0.0838397 -0.011049056
00000000: 497f 6a3d cc71 acbd cd1e 2dbe c96c 103e
00000010: af14 f53d b1a1 8e3d 26b4 abbd 1a07 35bc

conv1.1.weight f4 [8]
1.2285975 0.7103414 0.74296665 0.88808006 1.2119212 1.2068403 1.1874721 0.80960566
00000000: af42 9d3f efd8 353f 1033 3e3f 3759 633f
00000010: 3c20 9b3f be79 9a3f 16ff 973f 5142 4f3f

conv1.1.bias f4 [8]
0.8610842 0.41064095 0.11964245 0.34907165 0.07291037 0.33983302 1.0578694 -0.22715902
00000000: 0470 5c3f 883f d23e 1a07 f53d 85b9 b23e
00000010: 0852 953d 98fe ad3e 4468 873f 609c 68be

conv1.1.running_mean f4 [8]
-0.015314024 0.22320092 -0.0650862 -0.09593265 -0.12542081 -0.21559456 0.02519575 -0.7334001
00000000: ace7 7abc c88e 643e ea4b 85bd 5678 c4bd
00000010: 506e 00be d2c4 5cbe 5167 ce3c 1cc0 3bbf

conv1.1.running_var f4 [8]
0.09431142 0.25316444 0.13158683 0.32715005 0.33680606 0.24339785 0.12571892 0.18668108
00000000: 5926 c13d c59e 813e b3be 063e 3680 a73e
00000010: d871 ac3e 493d 793e 76bc 003e 5329 3f3e

conv1.3.weight f4 [8, 8, 3, 3]
0.29771927 0.17563601 0.3898781 -0.3249614 -0.13212872 0.015525219 -0.04425365 -0.24406786
-0.11298473 -0.3033514 -0.29029116 -0.6667637 0.17755476 0.058011394 -0.17726672 -0.04001206
-0.047021393 -0.04936594 -0.024067229 0.3129215 0.30514652 -0.28864655 -0.4091505 -0.13013464
0.13083495 0.27409112 0.31382164 -0.70843065 -0.5389476 -0.3229659 0.20606457 0.71762043
0.2906879 -0.21184745 0.0911522 0.20567428 -0.030029887 0.1363598 0.19006868 -0.31660494
-0.35525438 -0.49492085 -0.30641964 -0.16114108 -0.27047548 0.055749986 -0.058941066 0.16356315
0.3162813 0.050058108 0.05070701 -0.13926071 0.020796947 -0.028575707 0.4743197 0.48209277
0.45606065 -0.3903574 -0.9900334 -0.55240613 0.0053121513 0.04812795 0.00717669 -0.5079438
-0.52208304 -0.040678877 -0.2375562 -0.14850374 0.11156074 -0.006288487 0.21882081 0.22884397
-0.1722922 0.027213797 -0.3359056 -0.11889349 0.47216916 -0.24826622 -0.3638093 0.5652486
-0.0034721447 0.23286057 0.09523571 0.2796111 -0.18797684 -0.17063971 0.19160366 -0.44046763
-0.3032691 0.0076679736 0.2262417 0.34652498 0.06556541 -0.12537807 -0.18836011 -0.2363163
-0.1604383 -0.16729489 -0.39888203 -0.16496977 -0.10656857 -0.20251578 0.4717091 0.8171596
0.42601728 -0.52316266 -0.079721764 -0.53758234 -0.17048682 0.0856812 0.1239713 -0.082020834
-0.311731 -0.27927643 0.019782113 0.0955878 0.34584796 -0.24481028 0.11676697 -0.09293158
0.32600635 0.3657524 0.25711104 -0.44640806 -0.5642271 -0.6122919 0.018113298 0.7524466
0.027575005 -0.45372763 0.07403766 -0.39630452 -0.06712815 -0.06624818 0.028325869 0.017009707
0.2631119 0.19817606 -0.048488133 0.1316275 0.06907324 -0.26633036 0.098834366 -0.111636125
0.2682321 0.31798044 -0.3453128 -0.6105428 0.22335254 0.5068882 0.78444195 -1.0942425
-0.31593108 -0.20566688 0.060133573 0.27039802 -0.25948507 -0.45084944 -0.22004732 -0.0519874
-0.08812524 -0.25846195 -0.05981821 -0.31031817 -0.15054938 -0.13871747 -0.32023132 -0.05796312
0.028409883 0.11701901 -0.079776734 -0.083872356 0.21961659 0.04988222 0.19676512 0.08445707
0.21540381 -0.3746168 -0.25589538 0.40342903 -0.5092183 -0.27895388 -0.3459485 0.09463714
0.3346497 -0.50543445 -0.00057174 0.5011686 0.25049654 0.33479804 -0.073934264 -0.7838499
-0.16310976 0.71933085 0.24653769 -0.36419395 -0.02328905 0.1753997 0.5105347 -0.0949711
-0.14812255 -0.5917062 0.4812 -0.019342003 -0.05273553 -0.3824379 0.16282682 0.2043738
0.21360105 -0.3543686 -0.03867161 0.22902139 0.16880669 -0.18136148 0.007771969 0.23599413
-0.36634102 -0.2608256 -0.27870408 -0.1944817 -0.10818648 0.07812846 0.547588 0.15494528
0.40056092 0.033113383 0.6978732 0.11688747 0.4042576 0.48786446 -0.103065565 -0.17760393
-0.27662453 0.07300766 0.16369125 0.18623176 0.046117004 0.13845125 -0.21216284 -0.09011661
-0.33325675 -0.3607325 0.11454067 -0.2893234 -0.112768896 0.23825155 -0.3298858 0.08985956
0.30961862 0.024093146 0.35346 -0.07698957 0.11612332 0.35483414 0.00583543 0.50459886
00000000: a96e 983e edd9 333e 1a9e c73e 5761 a6be
00000010: c04c 07be 7d5d 7e3c 5143 35bd edec 79be
00000020: 8a64 e7bd e050 9bbe 0ba1 94be 07b1 2abf
00000030: ead0 353e 5b9d 6d3d 6885 35be b0e3 23bd
00000040: 8199 40bd f133 4abd a328 c5bc 3f37 a03e
00000050: 2a3c 9c3e 7bc9 93be 2d7c d1be 0442 05be
00000060: 99f9 053e ac55 8c3e 3bad a03e b65b 35bf
00000070: 78f8 09bf c95b a5be 9702 533e f9b5 373f
00000080: 0bd5 943e 8aee 58be 01ae ba3d 479c 523e
00000090: 3d01 f6bc e7a1 0b3e 5da1 423e 0b1a a2be
000000a0: e7e3 b5be 4466 fdbe 09e3 9cbe 2b02 25be
000000b0: c37b 8abe 195a 643d 306c 71bd 197d 273e
000000c0: 9fef a13e bb09 4d3d 27b2 4f3d 5c9a 0ebe
000000d0: 5c5e aa3c 9a17 eabc 08da f23e ddd4 f63e
000000e0: c880 e93e eddc c7be d472 7dbf 7d6a 0dbf
000000f0: 8e11 ae3b d021 453d 702a eb3b 9b08 02bf
00000100: 3ca7 05bf e59e 26bd ef41 73be 5d11 18be
00000110: f579 e43d a70f cebb 9012 603e 1356 6a3e
00000120: 5e6d 30be 78ef de3c d2fb abbe 6e7e f3bd
00000130: 28c0 f13e 8039 7ebe 3645 babe 22b4 103f
00000140: ec8c 63bb 0073 6e3e f10a c33d 3029 8f3e
00000150: 007d 40be 2dbc 2ebe c033 443e f984 e1be
00000160: 1646 9bbe a043 fb3b e7ab 673e b96b b13e
00000170: 2847 863d 1c63 00be 79e1 40be e6fc 71be
00000180: f049 24be 5a4f 2bbe 443a ccbe d6ed 28be
00000190: 9f40 dabd 4c60 4fbe db83 f13e 5f31 513f
000001a0: f01e da3e fded 05bf 2a45 a3bd ff9e 09bf
000001b0: 1994 2ebe a079 af3d aae4 fd3d 8afa a7bd
000001c0: 359b 9fbe 52fd 8ebe 190e a23c 89c3 c33d
000001d0: fc12 b13e 8caf 7abe 8523 ef3d ea52 bebd
000001e0: 4eea a63e e643 bb3e 0fa4 833e 998f e4be
000001f0: 3071 10bf 29bf 1cbf 5762 943c 57a0 403f
00000200: fae4 e13c fd4e e8be 0fa1 973d 6de8 cabe
00000210: 7c7a 89bd 20ad 87bd a70b e83c f157 8b3c
00000220: 9ab6 863e aaee 4a3e 7e9b 46bd 5cc9 063e
00000230: 4576 8d3d 745c 88be ac69 ca3d 7ba1 e4bd
00000240: b855 893e 55ce a23e d7cc b0be 884c 1cbf
00000250: 87b6 643e 6dc3 013f 30d1 483f 2310 8cbf
00000260: b8c1 a1be 579a 52be 9f4e 763d 9c71 8a3e
00000270: 3adb 84be bdd5 e6be 1654 61be bdf0 54bd
00000280: 017b b4bd 2055 84be f003 75bd 06e2 9ebe
00000290: 9e29 1abe f40b 0ebe 5cf5 a3be bd6a 6dbd
000002a0: d8bb e83c aaa7 ef3d fc61 a3bd 45c5 abbd
000002b0: 2ce3 603e 4c51 4c3d cc7c 493e d4f7 ac3d
000002c0: d192 5c3e c6cd bfbe b804 83be 408e ce3e
000002d0: 215c 02bf 0bd3 8ebe 2920 b1be 1ed1 c13d
000002e0: 3557 ab3e 2764 01bf d2e0 15ba 964c 003f
000002f0: 1541 803e a66a ab3e d96a 97bd 63aa 48bf
00000300: 3f06 27be 1126 383f 6074 7c3e a177 babe
00000310: aec8 bebc fb9b 333e 67b2 023f 3580 c2bd
00000320: 70ad 17be 0f7a 17bf d95f f63e 1f73 9ebc
00000330: 3601 58bd e7ce c3be 13bc 263e 5e47 513e
00000340: 3cba 5a3e cd6f b5be 1f66 1ebd 9584 6a3e
00000350: a9db 2c3e d3b6 39be 00ac fe3b 72a8 713e
00000360: 0d91 bbbe ef8a 85be 4db2 8ebe 3626 47be
00000370: e090 ddbd d001 a03d ba2e 0c3f faa9 1e3e
00000380: 5216 cd3e e6a1 073d d1a7 323f b362 ef3d
00000390: dafa ce3e 5fc9 f93e 0a14 d3bd cedd 35be
000003a0: bba1 8dbe 0a85 953d ae9e 273e 8ab3 3e3e
000003b0: 2fe5 3c3d 2ac6 0d3e 3741 59be 0f8f b8bd
000003c0: a1a0 aabe eeb1 b8be 4c94 ea3d 3222 94be
000003d0: 61f3 e6bd 37f8 733e cbe6 a8be 4a08 b83d
000003e0: 5586 9e3e fd5e c53c b6f8 b43e b5ac 9dbd
000003f0: 10d2 ed3d d2ac b53e 2337 bf3b 642d 013f

conv1.3.bias f4 [8]
-0.050665293 0.028706528 0.043765076 -0.08871907 -0.016430004 -0.10105793 -0.07154657 0.017990561
00000000: 6986 4fbd f429 eb3c 0243 333d 58b2 b5bd
00000010: 3798 86bc 76f7 cebd 0287 92bd f160 933c

conv1.4.weight f4 [8]
1.2294521 1.2574897 1.1972326 1.0322577 1.3376217 1.0321137 1.0509821 1.1274707
00000000: b05e 9d3f 6cf5 a03f eb3e 993f 0521 843f
00000010: 3037 ab3f 4d1c 843f 9586 863f f650 903f

conv1.4.bias f4 [8]
0.11449792 -0.2671151 -0.07395863 0.29524943 -0.159453 0.4465319 0.29047003 -0.14291428
00000000: e37d ea3d 4fc3 88be 9f77 97bd ef2a 973e
00000010: a647 23be d49f e43e 7db8 943e 1f58 12be

conv1.4.running_mean f4 [8]
-1.8109429 -1.1368415 -1.1037763 1.7813884 0.20522587 1.4179242 -2.346361 -0.3913597
00000000: facc e7bf 0684 91bf 8b48 8dbf 8904 e43f
00000010: bb26 523e 8a7e b53f c72a 16c0 4c60 c8be

conv1.4.running_var f4 [8]
4.2362103 4.4007225 5.956413 3.9576979 9.859544 4.318853 3.5640635 5.853455
00000000: 098f 8740 b8d2 8c40 ef9a be40 ec4a 7d40
00000010: b1c0 1d41 0b34 8a40 9e19 6440 814f bb40

conv2.0.weight f4 [16, 8, 3, 3]
0.047013603 0.034231152 -0.065030634 0.072706394 -0.2296352 0.005774101 -0.32311606 -0.08876829
0.03826753 0.2688871 0.2838959 0.064658105 -0.11204479 -0.20738985 -0.110436976 0.13942356
-0.03344716 0.08573776 -0.013405965 0.26557043 0.44125214 -0.35466442 -0.5166784 0.0764424
0.01448318 -0.053376988 0.3685179 -0.11159267 -0.15668187 -0.19291767 0.16118069 0.04730077
0.030918417 -0.17782246 0.10172181 0.047938235 -0.10298728 -0.17456964 -0.19782132 -0.27166247
-0.52361083 -0.22747561 -0.0022627288 -0.002557116 0.0308246 -0.15944354 -0.2778608 -0.40659297
0.000505606 0.17801487 -0.0477849 -0.3369021 -0.19344518 0.052877504 0.13154292 0.31932965
-0.261221 0.11047554 0.16353807 -0.18133971 -0.25186715 0.08577295 -0.17421886 -0.16480507
-0.38587755 -0.18113075 0.004565109 -0.54344195 -0.48819742 0.19331822 -0.28000548 -0.028580096
-0.49869496 -0.33933562 0.04307799 -0.40929118 -0.21785067 0.36657476 -0.100780115 -0.052409697
0.31148663 -0.090584785 0.015361129 -0.06079377 0.0716406 0.19113003 -0.0651798 0.076406114
-0.26698676 -0.20391059 0.024971977 -0.121838436 0.07675958 -0.10756109 0.009546197 0.14613803
0.099172115 -0.046382036 -0.19443025 -0.11910984 0.1479039 0.28863096 -0.096879296 -0.24902642
-0.3372316 -0.23514497 -0.5473315 -0.13337769 0.1500401 0.1347949 -0.009466604 0.14494641
0.025073644 0.19272794 0.30026066 0.1293001 0.009210909 -0.054302894 -0.47305274 -0.28192288
0.13478917 -0.5311537 -0.10063624 0.022326807 -0.15892085 -0.122462094 0.022090636 -0.0443077
-0.05988071 -0.27263966 0.15155476 0.21849416 -0.22132894 0.11067522 0.3091139 0.013114589
0.1479459 -0.10550325 -0.31044707 0.17929415 0.27000073 -0.12352804 0.22314014 0.098594174
0.011267847 -0.45754915 -0.30864838 -0.41115654 -0.49920484 -0.3671914 -0.44096452 -0.2733726
-0.23552264 -0.032053918 0.031539798 -0.32933882 -0.31093037 -0.31655777 -0.39611945 -0.23509234
-0.23991735 0.17001717 0.020664696 0.22550872 0.15833692 -0.02333769 0.27102658 0.2520006
0.28058264 -0.090529986 0.05667527 0.33486485 0.28176698 -0.20846416 -0.015634725 -0.3541364
0.26603532 -0.6210285 -0.13325903 0.07960664 0.21857296 -0.23685282 -0.12530522 -0.301009
0.030985242 0.0072986507 -0.050994657 0.060297597 0.023565983 -0.039930366 -0.014724513 0.013903637
-0.015838474 -0.22836784 0.056842115 -0.41032666 0.059968777 -0.103949 0.0005744333 0.44702697
0.23538378 0.1603294 -0.105518416 0.45835826 -0.33057255 0.10974809 -0.028716976 0.17174263
0.18815088 0.26847765 0.2313162 -0.079029 0.11078503 0.057113174 0.033495698 0.19027638
0.07045839 0.18218751 0.42527485 0.34651592 -0.036811266 0.06330501 -0.44271675 -0.13995953
0.122811526 -0.097520076 -0.2138819 0.138093 0.045082174 0.019308295 -0.047765147 -0.1190978
0.071347706 0.21635997 0.0125507135 0.06900901 -0.023360947 -0.0059191156 0.21130256 0.16323678
0.44419357 0.07243962 -0.14237624 0.035886716 -0.2216449 -0.2734544 -0.21019083 -0.6062273
-0.117381245 -0.11153067 -0.263275 -0.29298705 0.07706609 0.3097415 -0.057691105 0.098855086
00000000: 5691 403d f735 0c3d c82e 85bd 17e7 943d
00000010: 7d25 6bbe ab34 bd3b 786f a5be 26cc b5bd
00000020: 6abe 1c3d 92ab 893e ce5a 913e 786b 843d
00000030: bd77 e5bd 015e 54be c82c e2bd 0dc5 0e3e
00000040: e4ff 08bd 4797 af3d b1a4 5bbc d9f8 873e
00000050: cdeb e13e 9396 b5be 0945 04bf d58d 9c3d
00000060: dc4a 6d3c d4a1 5abd 61ae bc3e b38a e4bd
00000070: 3671 20be 368c 45be 8d0c 253e 74be 413d
00000080: 9f48 fd3c 1717 36be 8653 d03d e25a 443d
00000090: ffea d2bd 62c2 32be ac91 4abe 5817 8bbe
000000a0: 5c0b 06bf 5eef 68be 4a4a 14bb 4a95 27bb
000000b0: df83 fc3c 2b45 23be c543 8ebe f42c d0be
000000c0: a58a 043a 8849 363e 19ba 43bd 6f7e acbe
000000d0: 7e16 46be 1596 583d 30b3 063e 2d7f a33e
000000e0: c2be 85be 0041 e23d 8676 273e 1eb1 39be
000000f0: bbf4 80be baa9 af3d 6e66 32be a9c2 28be
00000100: be91 c5be 577a 39be e996 953b 031f 0bbf
00000110: 03f5 f9be 36f5 453e e15c 8fbe ce20 eabc
00000120: f254 ffbe 66bd adbe 8c72 303d 9d8e d1be
00000130: 3f14 5fbe b0af bb3e ce65 cebd 8dab 56bd
00000140: 2d7b 9f3e 8484 b9bd 3fad 7b3c e302 79bd
00000150: 4fb8 923d 97b7 433e fd7c 85bd cf7a 9c3d
00000160: 7db2 88be f0cd 50be 0892 cc3c 6e86 f9bd
00000170: 2034 9d3d fd48 dcbd a767 1c3c 35a5 153e
00000180: c01a cb3d 17fb 3dbd b918 47be dcef f3bd
00000190: 1f74 173e 70c7 933e a768 c6bd c800 7fbe
000001a0: 9fa9 acbe d8c9 70be eb1d 0cbf 2994 08be
000001b0: 1da4 193e ad07 0a3e d119 1bbc d56c 143e
000001c0: 3e67 cd3c 795a 453e c4bb 993e 3f67 043e
000001d0: 5ae9 163c b66c 5ebd f833 f2be 3258 90be
000001e0: 2c06 0a3e b0f9 07bf 5f1a cebd b5e6 b63c
000001f0: 26bc 22be 68cd fabd 6cf7 b43c fe7b 35bd
00000200: 7a45 75bd 6d97 8bbe 2c31 1b3e efbc 5f3e
00000210: 0ea4 62be b1a9 e23d 2d44 9e3e 93de 563c
00000220: 217f 173e 1712 d8bd ebf2 9ebe e398 373e
00000230: 893d 8a3e 45fc fcbd d97e 643e beeb c93d
00000240: c79c 383c e243 eabe 2907 9ebe 1c83 d2be
00000250: c797 ffbe 8300 bcbe 1ac6 e1be 7ef7 8bbe
00000260: d92c 71be f84a 03bd e02f 013d 199f a8be
00000270: 4432 9fbe dc13 a2be 2bd0 cabe 0cbc 70be
00000280: e5ac 75be fb18 2e3e 0249 a93c c2eb 663e
00000290: 1323 223e af2e bfbc ffc3 8a3e 3906 813e
000002a0: 87a8 8f3e c967 b9bd 5424 683d 6873 ab3e
000002b0: c343 903e a177 55be 6514 80bc 5e51 b5be
000002c0: c835 883e b9fb 1ebf 0e75 08be ce08 a33d
000002d0: 97d1 5f3e 8c89 72be 0350 00be da1d 9abe
000002e0: c3d4 fd3c 8529 ef3b c6df 50bd 9dfa 763d
000002f0: 730d c13c 068e 23bd 153f 71bc 15cc 633c
00000300: b0bf 81bc 42d9 69be 47d3 683d 5616 d2be
00000310: d2a1 753d 37e3 d4bd 9195 163a b8e0 e43e
00000320: 7208 713e 642d 243e 0a1a d8bd efad ea3e
00000330: ce40 a9be 9bc3 e03d dd3f ebbc 4ddd 2f3e
00000340: a0aa 403e e775 893e 27de 6c3e f5d9 a1bd
00000350: 43e3 e23d 81ef 693d c932 093d d0d7 423e
00000360: 7d4c 903d 5d8f 3a3e a0bd d93e 896a b13e
00000370: 69c7 16bd 0fa6 813d c5ab e2be 8d51 0fbe
00000380: 9c84 fb3d 9bb8 c7bd db03 5bbe 4068 0d3e
00000390: 16a8 383d 6e2c 9e3c 63a5 43bd 8ce9 f3bd
000003a0: bf1e 923d 788d 5d3e 82a1 4d3c 9954 8d3d
000003b0: 755f bfbc 24f5 c1bb b35f 583e 8b27 273e
000003c0: 576d e33e 395b 943d 14cb 11be f3fd 123d
000003d0: e1f6 62be 3702 8cbe 443c 57be b631 1bbf
000003e0: 9465 f0bd 316a e4bd fbcb 86be 6602 96be
000003f0: d4d4 9d3d 7096 9e3e 824d 6cbd 8974 ca3d

conv2.0.bias f4 [16]
-0.10877677 0.08250985 -0.067376584 0.037557505 0.084951736 0.02369634 -0.099674925 0.07852628
-0.10138475 -0.0497024 -0.08155564 -0.04189655 0.048401512 0.11777977 -0.08043715 0.06900231
00000000: 5bc6 debd edfa a83d bcfc 89bd e6d5 193d
00000010: 2dfb ad3d d41e c23c 5e22 ccbd 63d2 a03d
00000020: cfa2 cfbd be94 4bbd a506 a7bd b89b 2bbd
00000030: aa40 463d 8536 f13d 3cbc a4bd 1551 8d3d

conv2.1.weight f4 [16]
1.089944 0.96378726 0.94765353 0.8126859 1.0559235 1.0904713 1.415452 1.0568243
1.4371201 0.82350236 1.0364176 1.30032 0.88131374 1.1580157 1.0223542 0.75355613
00000000: 4983 8b3f c3ba 763f 6c99 723f 2f0c 503f
00000010: 8028 873f 9094 8b3f 882d b53f 0546 873f
00000020: 8df3 b73f 0dd1 523f 55a9 843f e370 a63f
00000030: c79d 613f dc39 943f 81dc 823f 0ee9 403f

conv2.1.bias f4 [16]
0.3687703 0.14281324 0.12674637 0.26824132 0.018763607 0.029235207 0.0053711426 -0.04338745
-0.2202668 0.33261564 0.3238754 -0.15803272 0.31267434 0.17662817 0.12131603 0.31910494
00000000: 76cf bc3e a23d 123e cdc9 013e ed56 893e
00000010: 23b6 993c ac7e ef3c 6900 b03b 0ab7 31bd
00000020: 9f8d 61be 994c aa3e ffd2 a53e 54d3 21be
00000030: da16 a03e 04de 343e 8a74 f83d b961 a33e

conv2.1.running_mean f4 [16]
-3.7214565 -2.3323684 -2.1199229 -2.2029264 0.10135237 -2.90654 -1.1391667 -0.73906595
-2.3909297 0.4617927 -0.7951399 -1.268528 2.4358828 -4.4899235 -0.108689405 1.8456558
00000000: 582c 6ec0 8645 15c0 d1ac 07c0 bffc 0cc0
00000010: d591 cf3d c004 3ac0 37d0 91bf 6d33 3dbf
00000020: fe04 19c0 1870 ec3e 4a8e 4bbf 205f a2bf
00000030: 81e5 1b40 74ad 8fc0 8d98 debd 733e ec3f

conv2.1.running_var f4 [16]
6.7554355 4.4825764 5.3574085 4.0864115 4.0388937 5.937999 6.6854978 4.3243675
7.155963 4.4759226 5.019754 7.4391093 5.3286524 6.7779436 4.777531 4.3422847
00000000: 872c d840 4471 8f40 e46f ab40 e2c3 8240
00000010: 9e3e 8140 1604 be40 99ef d540 3861 8a40
00000020: a6fd e440 c23a 8f40 d3a1 a040 2f0d ee40
00000030: 5284 aa40 eae4 d840 89e1 9840 fff3 8a40

conv2.3.weight f4 [16, 16, 3, 3]
0.07534974 0.010558743 0.04506316 0.039131753 0.09950136 0.042799998 -0.31870154 0.1892192
0.06293577 -0.13257797 0.07337647 -0.19219498 -0.2496563 0.14261992 0.1288298 -0.05446756
0.0069006155 0.12921742 0.1145973 0.14881603 0.12629957 -0.049686123 0.047831185 -0.09278175
0.008489733 0.15433507 -0.09833506 -0.21962906 -0.007162704 -0.056398813 0.11610919 0.26918256
0.34747905 -0.16818158 -0.14221503 0.10075078 0.07017255 0.21999398 0.18027148 -0.29062572
-0.12743762 -0.1804254 0.26079923 0.17274266 -0.054363944 0.018485418 0.21884349 0.2969596
-0.10163471 -0.00023925501 0.050181907 0.02287065 -0.0015684557 -0.19510776 -0.12299464 -0.026742078
-0.112691835 -0.44991985 -0.33275676 -0.14794777 -0.26849008 -0.31798393 -0.33376342 -0.042627014
0.00398642 0.259187 -0.13052967 -0.022477143 0.10220966 0.3316105 -0.027174389 0.0017285934
0.031331528 0.08223191 0.22427593 -0.4423434 -0.2184544 -0.055096317 -0.1446328 -0.21542932
0.044792335 0.059747033 -0.02251601 0.50158685 0.2692466 -0.26334372 0.34737635 0.15540506
-8.3872226e-05 0.0935371 0.117054485 0.06771237 -0.1403029 0.118902005 0.10131676 -0.060916442
0.10427739 0.072477505 0.020407341 -0.17163673 0.07901462 -0.07019716 0.056133248 0.09836047
0.04470154 -0.050740365 0.09860242 -0.02344822 -0.29160792 -0.3544718 -0.22797506 -0.048655443
-0.31362522 -0.08289103 0.1495578 -0.12497608 -0.029924968 0.09139676 0.18084386 0.4317095
0.16946593 0.10398805 0.29279932 -0.16541837 -0.066227086 0.24964845 0.1770735 -0.13746588
-0.003451789 -0.161095 -0.22978415 -0.23952772 -0.105448656 -0.13447416 0.12247688 -0.33905524
-0.08448249 -0.11626607 -0.07482887 -0.23704596 0.08589257 -0.04002793 -0.14920656 -0.03168595
-0.12957999 -0.17416802 -0.13693729 -0.21559255 -0.41496396 0.1536656 0.046723634 -0.1905865
0.007427919 0.03245065 0.07742731 -0.2660523 -0.011998386 -0.44416398 -0.367047 -0.22837815
-0.30552697 0.19178751 0.047417253 0.028495386 -0.027270755 0.15325028 -0.05490676 -0.20547374
-0.044277254 -0.17653115 -0.07307249 -0.22220002 0.0021245878 0.13379933 0.08147203 -0.08569251
-0.35338303 -0.20068467 -0.2509548 0.038590934 0.15508983 -0.012574676 -0.12751412 -0.10516179
-0.03368156 -0.06919774 0.057158228 -0.2194232 0.3264158 0.016787102 0.1698117 -0.24895631
0.09519348 -0.22867014 -0.052796524 0.009942147 -0.089139946 -0.01613467 0.15764554 -0.29532203
-0.08006888 0.22334224 0.26988846 -0.008055105 0.0052918927 -0.037678856 -0.15509754 -0.062671274
0.12597391 -0.15804276 0.018042067 0.095730804 0.34607214 0.0071419193 0.2879117 0.11716399
-0.021130402 -0.15724787 -0.34916574 -0.4537852 -0.3247964 -0.21222255 0.31500566 0.35890052
0.48383826 -0.0094211595 -0.025233047 -0.059259683 0.38308045 0.09808397 0.02418705 0.018574871
-0.20746234 0.18812238 0.10224975 0.090763286 0.21222425 0.22035132 -0.07383663 -0.19469632
-0.2399557 0.10243537 0.17971195 0.03755152 -0.20501342 -0.29965785 0.005887564 0.1065358
0.020684635 0.04506572 0.07105128 0.45045057 0.022389203 -0.10879621 -0.09987221 0.21895227
00000000: f750 9a3d 94fe 2c3c 2694 383d 9e48 203d
00000010: 5ec7 cb3d 0d4f 2f3d d92c a3be aec2 413e
00000020: 78e4 803d 85c2 07be 6746 963d c3ce 44be
00000030: e7a5 7fbe f50a 123e f6eb 033e 6019 5fbd
00000040: 8f1e e23b 9251 043e fdb1 ea3d 3b63 183e
00000050: ad54 013e ad83 4bbd a2ea 433d 5c04 bebd
00000060: 8518 0b3c 030a 1e3e e463 c9bd 71e6 60be
00000070: 1eb5 eabb 7102 67bd a8ca ed3d 4cd2 893e
00000080: c6e8 b13e cb37 2cbe d1a0 11be 6d56 ce3d
00000090: a0b6 8f3d 1a46 613e 1699 383e e5cc 94be
000000a0: 027f 02be 70c1 38be 7a87 853e 74e3 303e
000000b0: baac 5ebd bb6e 973c 8218 603e 170b 983e
000000c0: dc25 d0bd 87e0 7ab9 8b8b 4d3d 3b5b bb3c
000000d0: a494 cdba 54ca 47be 9de4 fbbd 3412 dbbc
000000e0: faca e6bd e55b e6be 185f aabe 9f7f 17be
000000f0: 8877 89be cace a2be 0ae3 aabe aa99 2ebd
00000100: 84a0 823b 29b4 843e 92a9 05be fc21 b8bc
00000110: 4c53 d13d dac8 a93e d39c debc f891 e23a
00000120: 7d55 003d 3469 a83d 97a8 653e d67a e2be
00000130: 83b2 5fbe adac 61bd 9f1a 14be 8199 5cbe
00000140: 2b78 373d 4eb9 743d 7f73 b8bc ff67 003f
00000150: b1da 893e fdd4 86be 50db b13e 8122 1f3e
00000160: 8fe4 afb8 6190 bf3d 43ba ef3d c8ac 8a3d
00000170: 90ab 0fbe e582 f33d 297f cf3d 8583 79bd
00000180: 628f d53d 166f 943d 4c2d a73c 8ac1 2fbe
00000190: 6bd2 a13d 87c3 8fbd faeb 653d 3771 c93d
000001a0: f618 373d 21d5 4fbd 11f0 c93d 7b16 c0bc
000001b0: a24d 95be 547d b5be 4b72 69be ee4a 47bd
000001c0: 7c93 a0be c6c2 a9bd ae25 193e 76f3 ffbd
000001d0: 3525 f5bc 392e bb3d 222f 393e 0709 dd3e
000001e0: 7a88 2d3e b0f7 d43d cbe9 953e 6f63 29be
000001f0: 11a2 87bd d8a3 7f3e c152 353e dbc3 0cbe
00000200: 6937 62bb 16f6 24be 894c 6bbe c146 75be
00000210: 77f5 d7bd 98b3 09be 29d5 fa3d a698 adbe
00000220: 2805 adbd e81c eebd e13f 99bd 2dbc 72be
00000230: 72e8 af3d 54f4 23bd 9bc9 18be 20c9 01bd
00000240: 9eb0 04be 1a59 32be 4a39 0cbe 4bc4 5cbe
00000250: 2876 d4be 845a 1d3e 4861 3f3d 1c29 43be
00000260: e765 f33b f9ea 043d 3692 9e3d 0238 88be
00000270: e194 44bc 7669 e3be 96ed bbbe f6db 69be
00000280: 086e 9cbe f263 443e 9838 423d 286f e93c
00000290: eb66 dfbc a4ed 1c3e e9e5 60bd b567 52be
000002a0: 115c 35bd 95c4 34be 08a7 95bd 6788 63be
000002b0: ab3c 0b3b b102 093e cfda a63d 8e7f afbd
000002c0: 9fee b4be 4880 4dbe 267d 80be 8711 1e3d
000002d0: decf 1e3e 0406 4ebc 1093 02be 115f d7bd
000002e0: adf5 09bd 8bb7 8dbd bf1e 6a3d 7ab0 60be
000002f0: f91f a73e 1b85 893c 1ee3 2d3e 67ee 7ebe
00000300: cdf4 c23d 8128 6abe 2b41 58bd 63e4 223c
00000310: 018f b6bd db2c 84bc d56d 213e 7334 97be
00000320: 27fb a3bd d4b3 643e d22e 8a3e 8ff9 03bc
00000330: 9d67 ad3b 2555 1abd e4d1 1ebe cc59 80bd
00000340: 4eff 003e f6d5 21be f5cc 933c 830e c43d
00000350: 5e30 b13e c306 ea3b 2a69 933e adf3 ef3d
00000360: aa19 adbc 9605 21be dac5 b2be 8956 e8be
00000370: b74b a6be de50 59be 6c48 a13e cfc1 b73e
00000380: a6b9 f73e 355b 1abc 89b5 cebc 48ba 72bd
00000390: 1f23 c43e 40e0 c83d ec23 c63c 542a 983c
000003a0: 0271 54be 27a3 403e 5168 d13d 1ae2 b93d
000003b0: 5051 593e c7a3 613e a937 97bd 795e 47be
000003c0: f2b6 75be a3c9 d13d 6906 383e 9fcf 193d
000003d0: 0aef 51be c16c 99be 77ec c03b 712f da3d
000003e0: d372 a93c d596 383d 5583 913d 75a1 e63e
000003f0: 9069 b73c 8cd0 debd cd89 ccbd 0635 603e

conv2.3.bias f4 [16]
0.025664372 -0.045285277 0.026344972 0.052956276 -0.039160144 -0.0011530346 -0.01294983 -0.03380765
-0.06270208 0.011482036 0.058090754 -0.07538369 0.032709874 0.0071053067 -0.020893252 0.0050025457
00000000: 173e d23c 0e7d 39bd 69d1 d73c aee8 583d
00000010: 6366 20bd 6c21 97ba 862b 54bc e479 0abd
00000020: f369 80bd 261f 3c3c 92f0 6d3d c462 9abd
00000030: cafa 053d a2d3 e83b 5328 abbc 65ec a33b

conv2.4.weight f4 [16]
1.0414447 0.9890236 0.9935596 1.1084852 1.190125 1.0932288 0.99627054 1.0135655
1.0124286 1.1626623 1.0794832 1.0064776 1.1146014 1.0900036 1.1564051 1.1105307
00000000: 0f4e 853f a730 7d3f ec59 7e3f d8e2 8d3f
00000010: 0456 983f ecee 8b3f 960b 7f3f 84bc 813f
00000020: 4397 813f 1ed2 943f 812c 8a3f 42d4 803f
00000030: 42ab 8e3f 3d85 8b3f 1505 943f df25 8e3f

conv2.4.bias f4 [16]
0.031791147 0.13346517 0.16658056 0.03604308 -0.13701731 -0.2736306 0.067239724 0.05823367
-0.17525491 -0.17479238 0.19157004 0.07282184 -0.035881538 0.10940672 0.0063537145 -0.16306186
00000000: 6f37 023d 18ab 083e 1894 2a3e e9a1 133d
00000010: 444e 0cbe 4f19 8cbe fbb4 893d 6e86 6e3d
00000020: 0676 33be c6fc 32be f02a 443e 9e23 953d
00000030: 85f8 12bd a110 e03d d232 d03b b0f9 26be

conv2.4.running_mean f4 [16]
-0.66273195 -1.4900937 -0.13859005 -2.8823864 -2.2992716 -1.5999264 0.66639006 -1.6110244
0.47914636 -1.2611518 -1.0605503 -1.7983464 -2.343853 -3.839935 -1.398019 1.2862374
00000000: cda8 29bf 64bb bebf 8dea 0dbe 0579 38c0
00000010: 4427 13c0 63ca ccbf 8a98 2a3f 0c36 cebf
00000020: ac52 f53e 6c6d a1bf 1dc0 87bf 3730 e6bf
00000030: b001 16c0 7fc1 75c0 49f2 b2bf 6da3 a43f

conv2.4.running_var f4 [16]
3.4847734 3.0970323 2.6252534 3.2660184 2.940263 3.6337862 3.7989998 3.207678
2.1130795 2.7565162 3.63741 3.5268373 3.0366156 3.0182579 2.9359982 3.4400415
00000000: 8706 5f40 c735 4640 2704 2840 7206 5140
00000010: 452d 3c40 f48f 6840 d022 7340 994a 4d40
00000020: b23c 0740 c36a 3040 53cb 6840 b4b7 6140
00000030: e957 4240 232b 4140 65e7 3b40 a429 5c40

conv3.0.weight f4 [32, 16, 3, 3]
0.45096308 0.16791767 0.13924503 0.06295639 -0.25179166 -0.14342923 -0.060832497 -0.01080492
-0.028241936 0.18710232 0.10655264 0.113548376 -0.1933647 0.16728209 -0.051350564 -0.052099235
0.1960828 0.09435929 -0.1872786 0.19523981 0.040281344 0.017637758 0.066083126 0.07806905
0.3214429 -0.17107898 -0.26601556 0.17925796 -0.05403808 0.21719363 -0.12770937 -0.1173386
-0.15800025 -0.07722487 -0.256602 -0.16285922 0.21160772 -0.116309084 -0.06685177 0.2110657
-0.05755004 -0.15132461 0.14397983 -0.040739752 -0.14213873 -0.0059036314 0.37564927 0.27540758
0.16570832 0.2459646 0.020146541 0.017442103 0.20728399 -0.023177885 0.038874898 0.07101914
-0.09940792 -0.15386263 -0.1565365 -0.1426284 -0.14648776 0.0049706404 0.089996554 -0.073258854
-0.06869618 0.023337442 -0.12290672 -0.0492992 -0.3171928 0.17411807 0.03750172 -0.04285429
-0.07584799 0.07535243 -0.35067967 0.110959806 0.089724764 -0.19587103 0.12784956 0.011611409
0.044366486 0.01871914 -0.018439356 -0.11280552 -0.2947514 -0.04910402 -0.10332373 0.13517462
-0.069753595 0.05913682 0.11979618 -0.034926325 0.21456651 0.04492793 -0.017384997 0.16467474
0.15186173 0.06531758 0.35193443 0.25868553 -0.20524389 0.11746287 0.09701641 -0.12925774
-0.1345688 -0.1726421 -0.47520208 -0.022344291 0.41594315 0.16679406 -0.011050917 0.08690417
-0.13450846 -0.28781715 -0.19133247 -0.2057716 -0.25178057 -0.07507743 0.31557757 0.41679257
0.2516651 0.0017367174 0.035914116 0.053799767 0.008116893 0.026763564 0.09023507 -0.112473466
0.09052854 0.10732023 0.0017752758 0.05736809 0.039252628 -0.27439198 0.020147966 -0.1139039
-0.18844339 -0.11537032 -0.042358454 0.06420976 0.060219947 0.09616963 -0.16276017 -0.057460926
-0.028282225 -0.067931026 -0.10152798 0.03320906 -0.07933733 0.1897822 0.09470189 0.089455776
0.29705155 0.01634369 -0.1374069 -0.029008461 -0.04953546 -0.106819555 -0.061014116 -0.03549462
0.011049544 0.12249834 0.2094674 -0.13472283 0.0046919044 -0.07644745 -0.09810628 -0.11129354
-0.14429234 -0.02716615 -0.27956232 0.072306715 -0.061651383 -0.19603397 0.23915742 -0.11290786
0.09512546 0.2652855 -0.14737259 0.21405382 -0.09988989 0.2559389 0.09317954 0.19484201
0.1124999 -0.078400515 0.03383797 0.08063228 -0.13707936 -0.057157937 -0.17671059 -0.21029858
0.152566 0.23436679 0.005917763 0.22018515 0.24548312 0.13338824 -0.17361535 -0.29581848
-0.14438598 0.0701991 -0.11752143 -0.15021315 -0.33190975 -0.047532514 0.0717405 -0.10016432
0.07943642 0.13145673 0.09057689 0.094225995 0.17637658 0.3148246 0.10664808 0.07620363
0.051792953 0.119140774 -0.0016189989 -0.13383782 -0.027323999 0.18836978 0.17843398 -0.10760418
0.19656415 0.13161232 0.0066392273 0.24711286 -0.0040474054 -0.15067208 0.21953055 -0.055998042
-0.09361805 -0.06339906 -0.066480875 0.08227539 -0.14112633 -0.080069594 -0.07164265 -0.17329499
0.024016565 0.048078377 0.25051516 0.1776421 -0.118819796 -0.21877743 0.13147926 -0.049055073
-0.33575436 0.042639084 -0.21953931 -0.09605976 -0.14463685 -0.39002395 -0.22302358 0.15717247
00000000: a2e4 e63e 9cf2 2b3e 4096 0e3e 48ef 803d
00000010: d6ea 80be 1ddf 12be 7f2b 79bd 1f07 31bc
00000020: a25b e7bc c097 3f3e 4538 da3d 0d8c e83d
00000030: 6501 46be ff4b 2b3e f854 52bd 0266 55bd
00000040: eec9 483e 723f c13d f6c5 3fbe f2ec 473e
00000050: 0dfe 243d 0f7d 903c 9756 873d abe2 9f3d
00000060: 2a94 a43e 542f 2fbe 3133 88be 668f 373e
00000070: 0957 5dbd 0268 5e3e 3fc6 02be 384f f0bd
00000080: d1ca 21be 1328 9ebd 5661 83be 91c4 26be
00000090: b2af 583e 7533 eebd 95e9 88bd 9b21 583e
000000a0: 97b9 6bbd d7f4 1abe 736f 133e bade 26bd
000000b0: d18c 11be 4073 c1bb 1a55 c03e 3902 8d3e
000000c0: 71af 293e 25de 7b3e 5c0a a53c bee2 8e3c
000000d0: 4142 543e 8cdf bdbc 493b 1f3d 7c72 913d
000000e0: 6196 cbbd 2a8e 1dbe 1b4b 20be 2e0d 12be
000000f0: e300 16be c1e0 a23b 1d50 b83d bd08 96bd
00000100: 95b0 8cbd 2a2e bf3c 85b6 fbbd f5ed 49bd
00000110: 1867 a2be 024c 323e 679b 193d fb87 2fbd
00000120: 3156 9bbd 6052 9a3d 498c b3be e53e e33d
00000130: 9ec1 b73d 6a92 48be ffea 023e c73d 3e3c
00000140: a2b9 353d e258 993c 220e 97bc 9506 e7bd
00000150: a8e9 96be 4c21 49bd 649b d3bd 376b 0a3e
00000160: f9da 8ebd 7339 723d b357 f53d e80e 0fbd
00000170: 53b7 5b3e 5906 383d fb6a 8ebc 7fa0 283e
00000180: a481 1b3e 39c5 853d c030 b43e 6e72 843e
00000190: 742b 52be 6090 f03d 8ab0 c63d 245c 04be
000001a0: 67cc 09be 17c9 30be b04d f3be 600b b7bc
000001b0: 80f6 d43e 10cc 2a3e e80e 35bc d0fa b13d
000001c0: 96bc 09be c55c 93be a9ec 43be cab5 52be
000001d0: 62e9 80be 32c2 99bd 6293 a13e d665 d53e
000001e0: 3fda 803e 91a2 e33a ae1a 133d 255d 5c3d
000001f0: b7fc 043c 433f db3c 2acd b83d 7d58 e6bd
00000200: 0767 b93d b5ca db3d 5fb0 e83a cdfa 6a3d
00000210: 5dc7 203d 1b7d 8cbe 590d a53c 7346 e9bd
00000220: 4ef7 40be 4647 ecbd 0f80 2dbd 6880 833d
00000230: 31a9 763d 95f4 c43d 9aaa 26be 265c 6bbd
00000240: 20b0 e7bc 6c1f 8bbd e7ed cfbd 3906 083d
00000250: 9c7b a2bd 4456 423e 11f3 c13d 9734 b73d
00000260: 2417 983e 34e3 853c 65b4 0cbe 27a3 edbc
00000270: b2e5 4abd 36c4 dabd f0e9 79bd cf62 11bd
00000280: 2609 353c 69e0 fa3d 9f7e 563e c8f4 09be
00000290: 8cbe 993b 7b90 9cbd f2eb c8bd deed e3bd
000002a0: 5fc1 13be 8c8b debc cb22 8fbe 8b15 943d
000002b0: 2986 7cbd 21bd 48be afe5 743e 3c3c e7bd
000002c0: 23d1 c23d 80d3 873e d7e8 16be ed30 5b3e
000002d0: 1293 ccbd 6c0a 833e ead4 be3d aa84 473e
000002e0: 5966 e63d 7390 a0bd af99 0a3d 8922 a53d
000002f0: 885e 0cbe 711e 6abd 9ff3 34be 8358 57be
00000300: 433a 1c3e d9fd 6f3e cbe9 c13b 3778 613e
00000310: ed5f 7b3e ed96 083e 39c8 31be 8575 97be
00000320: ebd9 13be 8cc4 8f3d 13af f0bd 7ad1 19be
00000330: 13f0 a9be 74b1 42bd afec 923d f322 cdbd
00000340: 90af a23d 989c 063e 6080 b93d 8ff9 c03d
00000350: 109c 343e b130 a13e 4f6a da3d a610 9c3d
00000360: d924 543d 1400 f43d 9734 d4ba c80c 09be
00000370: 94d6 dfbc 02e4 403e 66b7 363e 955f dcbd
00000380: 1d48 493e 61c5 063e e08d d93b 270b 7d3e
00000390: 19a0 84bb c849 1abe 9ecc 603e 345e 65bd
000003a0: d2ba bfbd 5ed7 81bd 2027 88bd 0080 a83d
000003b0: 6c83 10be 87fb a3bd 62b9 92bd 3e74 31be
000003c0: 63be c43c d5ed 443d 8643 803e d0e7 353e
000003d0: cb57 f3bd 3107 60be 80a2 063e f9ed 48bd
000003e0: ffe7 abbe 52a6 2e3d eace 60be fbba c4bd
000003f0: af1b 14be 38b1 c7be 4b60 64be d2f1 203e

conv3.0.bias f4 [32]
-0.022927128 -0.072554305 0.04412154 -0.027232837 0.03927038 0.05720163 0.06907705 -0.078715995
0.053035744 -0.021788143 -0.032475304 0.031315 -0.006971246 0.0048029404 0.017341107 0.0095415525
-0.022530816 -0.08045011 -0.024329714 -0.0424532 -0.005861566 0.055550434 -0.05586825 0.013100587
-0.054938775 0.02932284 0.014285205 0.00025745542 -0.017096408 0.021861821 -0.056778293 -0.007770463
00000000: acd1 bbbc 5a97 94bd cab8 343d 6617 dfbc
00000010: fad9 203d 424c 6a3d 4578 8d3d da35 a1bd
00000020: 023c 593d 0c7d b2bc d304 05bd 2844 003d
00000030: 0d6f e4bb fc61 9d3b f00e 8e3c 2c54 1c3c
00000040: 8c92 b8bc 07c3 a4bd 1c4f c7bc 68e3 2dbd
00000050: 6112 c0bb da88 633d 1bd6 64bd d8a3 563c
00000060: 7b07 61bd 7436 f03c 7e0c 6a3c 15fb 8639
00000070: c40d 8cbc 9017 b33c 5b90 68bd 5e9f febb

conv3.1.weight f4 [32]
1.0435313 0.935329 1.0371542 1.0362623 0.9355709 1.2915725 0.87597734 1.2004333
1.1269301 1.0331806 1.048297 0.95929736 0.8391262 1.0559384 1.1655806 1.0976931
0.87478054 1.0472343 1.1062363 0.81853557 0.9775057 1.1083748 1.0358135 1.0386859
1.0805396 1.0504674 1.159658 0.97868043 1.0996075 1.0403162 0.9295485 1.0609236
00000000: 6f92 853f b971 6f3f 78c1 843f 3ea4 843f
00000010: 9381 6f3f 3f52 a53f 0d40 603f cca7 993f
00000020: 3f3f 903f 433f 843f 992e 863f 8394 753f
00000030: fad0 563f fd28 873f bf31 953f 3581 8c3f
00000040: 9ef1 5f3f c60b 863f 2799 8d3f 8c8b 513f
00000050: d03d 7a3f 3adf 8d3f 8995 843f a9f3 843f
00000060: 1f4f 8a3f b775 863f ac6f 943f cd8a 7a3f
00000070: f0bf 8c3f 1529 853f e4f6 6d3f 58cc 873f

conv3.1.bias f4 [32]
-0.18309385 -0.027822908 -0.19199371 0.09542269 -0.2955173 -0.3929968 -0.12186779 -0.12925532
-0.13641858 -0.1525068 -0.14848131 -0.006265327 -0.20124683 -0.26155633 -0.13864619 -0.19798382
-0.078277975 -0.15330589 -0.2858461 0.07238656 -0.08118766 -0.09416467 -0.11036862 -0.16422382
-0.1299168 -0.046900935 -0.22573164 -0.2683202 -0.2329442 -0.019083612 -0.06864098 -0.115355566
00000000: f47c 3bbe deec e3bc 009a 44be f96c c33d
00000010: 0b4e 97be e036 c9be d295 f9bd 825b 04be
00000020: 50b1 0bbe be2a 1cbe 7c0b 18be 5f4d cdbb
00000030: a613 4ebe b6ea 85be 44f9 0dbe 45bc 4abe
00000040: 3450 a0bd 38fc 1cbe 6c5a 92be 683f 943d
00000050: b745 a6bd 68d9 c0bd f108 e2bd 4a2a 28be
00000060: e908 05be 321b 40bd 3226 67be 4461 89be
00000070: ed88 6ebe 3c55 9cbc a493 8cbd 8a3f ecbd

conv3.1.running_mean f4 [32]
0.24415322 0.32765883 -0.46009988 -2.4131885 -1.2711864 -0.36893314 0.9459259 -3.0804577
-1.524364 -1.5469275 -0.49712303 0.75757235 3.2434146 0.77001345 -3.1735373 -2.4834597
3.7894242 -1.3794954 -1.4400109 -3.0101008 0.78667593 -1.0784453 0.5575697 -0.48547053
-0.9519058 -2.6209168 -3.2387662 0.076165475 -2.869308 -2.5131307 2.1279352 -0.5896826
00000000: 4d03 7a3e e6c2 a73e 3692 ebbe ae71 1ac0
00000010: 3cb6 a2bf cee4 bcbe 3328 723f 3826 45c0
00000020: 5c1e c3bf b801 c6bf e986 febe 43f0 413f
00000030: 1b94 4f40 9a1f 453f 3c1b 4bc0 01f1 1ec0
00000040: ed85 7240 4e93 b0bf 4752 b8bf 7ea5 40c0
00000050: 9863 493f 7f0a 8abf e3bc 0e3f 988f f8be
00000060: 19b0 73bf 1abd 27c0 f247 4fc0 a5fc 9b3d
00000070: bea2 37c0 22d7 20c0 1730 0840 70f5 16bf

conv3.1.running_var f4 [32]
4.5402904 3.0927634 4.2721066 4.79108 3.6577487 6.638921 3.435617 5.9249616
3.8854396 3.7558646 4.023489 4.7428226 4.4906063 3.3126364 4.9754176 4.591128
3.5946815 2.8074417 4.453613 3.6623912 4.1951346 4.2562456 4.3470073 3.2602162
4.9897304 4.310936 5.392287 3.7764578 3.8467748 4.037089 3.5501027 4.264443
00000000: 0f4a 9140 d6ef 4540 19b5 8840 8750 9940
00000010: 8e18 6a40 0a72 d440 26e1 5b40 4999 bd40
00000020: 0bab 7840 1660 7040 6cc0 8040 34c5 9740
00000030: 0cb3 8f40 3c02 5440 9f36 9f40 85ea 9240
00000040: 430f 6640 20ad 3340 ff83 8e40 9e64 6a40
00000050: 8b3e 8640 2a33 8840 af1a 8b40 62a7 5040
00000060: dfab 9f40 30f3 8940 9d8d ac40 7cb1 7140
00000070: 8f31 7640 d52f 8140 e234 6340 5176 8840

conv3.3.weight f4 [32, 32, 3, 3]
-0.10023339 -0.1697172 0.061369166 -0.07546775 -0.22691806 -0.19300295 0.19835322 -0.167904
-0.17163178 -0.15495808 0.05255841 0.016108997 0.2083755 0.11624573 0.23428601 -0.031243553
0.063924186 0.142868 0.17532282 -0.081678174 0.010200609 0.15433456 -0.017656656 -0.06593331
0.049126223 0.021681335 -0.012323461 -0.061192747 -0.011532916 -0.15712285 -0.09804369 -0.23284885
0.11690021 -0.0010571897 -0.23517068 -0.020889204 -0.12178717 -0.22801276 0.17446266 0.12421499
-0.14327726 -0.042019505 0.18528713 -0.010841016 -0.16424416 0.14425623 -0.13145007 0.009147453
0.021326493 -0.09970515 -0.13337606 0.01244295 0.24246943 0.1372109 -0.11409508 -0.10335664
0.013188563 -0.022953503 0.14652728 -0.019728255 -0.0031807753 0.07267413 0.07823148 0.02511577
0.22261482 0.06776718 0.0411149 -0.120353125 -0.009035041 0.015211584 0.023034979 -0.16773964
-0.1275713 -0.028279178 -0.17033595 -0.096580796 0.22477609 -0.22063056 -0.40992787 -0.15625867
-0.14094532 0.11578338 -0.088369 0.098182395 0.24095884 -0.050263613 -0.10700953 -0.13855408
0.0078102387 -0.098244525 -0.3255308 0.090460226 -0.062245436 -0.14831348 -0.28680405 0.08325874
-0.1589358 -0.06333357 -0.041988377 -0.022268575 0.045540553 -0.026833313 -0.038283713 -0.06398751
0.050843827 -0.1130802 -0.13573949 0.030287249 -0.17396869 -0.21154673 -0.049322955 0.06620734
-0.32255733 0.01242511 0.07826276 -0.044245806 -0.07452772 -0.17111845 -0.08356071 0.029744215
-0.13771582 -0.04206316 0.019434156 -0.01031432 0.133672 0.009029235 -0.022610007 0.0034275923
-0.15703 -0.1990634 0.037498616 0.27928704 0.37119868 -0.19692276 0.012067784 -0.018221742
0.0072429883 0.13728185 -0.054061048 -0.021760505 0.044854794 -0.15635656 -0.08207966 0.1733238
0.16670173 -0.29703683 -0.15378879 0.056989945 0.03281764 -0.01703085 0.010225669 -0.06292616
-0.14747255 0.07637402 -0.03790367 -0.118936725 0.08687036 0.255348 -0.002527583 0.22635381
0.02733641 -0.068315014 0.34058058 -0.01886136 -0.2326924 0.061008167 0.13340591 -0.15659668
-0.027624382 -0.054736767 -0.15774228 -0.057017528 -0.0023202517 0.056639 0.062254574 0.048056703
0.05197152 0.04834189 -0.26575786 -0.010013531 0.021776179 0.0924179 0.042089213 -0.11861865
-0.12534666 -0.04346468 0.19579832 0.1638214 -0.19541411 0.01940856 -0.045838013 -0.03116472
0.036975402 -0.03302365 0.049177803 -0.1911977 -0.24464107 -0.052450933 -0.1061833 -0.30913088
-0.02059354 0.055986032 0.16889231 -0.011994653 -0.14725746 0.09574817 0.23406449 -0.031352296
0.093835115 -0.13574526 0.03971875 0.01254151 -0.070298925 0.04660448 -0.1274365 0.07751977
-0.039947893 -0.059821706 0.16085467 0.04408277 -0.011608553 -0.13805643 0.074783295 -0.10118431
0.023137493 -0.09445091 0.077082075 -0.01593376 0.043191534 0.040854774 -0.017164266 -0.12796366
-0.21396685 0.14877377 0.12685873 0.23306537 0.12157315 0.114475615 0.10962159 -0.017331678
-0.058323078 -0.24090053 -0.102801666 -0.10658552 -0.06726323 0.06574447 0.25450623 -0.060166247
-0.11835654 0.036660384 -0.068447895 -0.18068281 -0.20482923 0.13758448 -0.071199656 0.01218896
00000000: 2a47 cdbd 58ca 2dbe 3c5e 7b3d d68e 9abd
00000010: 355d 68be 91a2 45be 1b1d 4b3e 07ef 2bbe
00000020: 3ec0 2fbe 55ad 1ebe 7d47 573d 04f7 833c
00000030: 6360 553e 3e12 ee3d ace8 6f3e 7bf2 ffbc
00000040: afea 823d fd4b 123e d387 333e e346 a7bd
00000050: 7520 273c e109 1e3e b1a4 90bc 0b08 87bd
00000060: 9438 493d 0e9d b13c 57e8 49bc 3fa5 7abd
00000070: 8ef4 3cbc d0e4 20be 21cb c8bd ee6f 6ebe
00000080: 6169 ef3d 6691 8aba 95d0 70be d61f abbc
00000090: 8d6b f9bd 2d7c 69be 57a6 323e 6e64 fe3d
000000a0: 46b7 12be a51c 2cbd e9bb 3d3e 849e 31bc
000000b0: 9f2f 28be e8b7 133e d99a 06be 33df 153c
000000c0: e6b4 ae3c 3732 ccbd bc93 08be 84dd 4b3c
000000d0: e849 783e 0481 0c3e aeaa e9bd a5ac d3bd
000000e0: d814 583c fc08 bcbc 3f0b 163e 269d a1bc
000000f0: 8e74 50bb 2dd6 943d d437 a03d 96bf cd3c
00000100: 24f5 633e 85c9 8a3d 1968 283d b37b f6bd
00000110: b507 14bc 023a 793c dab3 bc3c f1c3 2bbe
00000120: 0da2 02be bca9 e7bc 8c6c 2ebe 27cc c5bd
00000130: b42b 663e faec 61be 11e2 d1be 4602 20be
00000140: f853 10be d61f ed3d cefa b4bd da13 c93d
00000150: eabd 763e 38e1 4dbd d027 dbbd 1fe1 0dbe
00000160: 08ed ff3b 6d34 c9bd f9ab a6be 3643 b93d
00000170: 12f5 7ebd 7ddf 17be fbd7 92be 8f83 aa3d
00000180: 11c0 22be 08b5 81bd 01fc 2bbd 966c b6bc
00000190: bb88 3a3d 89d1 dbbc 62cf 1cbd e20b 83bd
000001a0: 9e41 503d 9896 e7bd 4bff 0abe f71c f83c
000001b0: d924 32be b59f 58be de06 4abd b797 873d
000001c0: 3c26 a5be b092 4b3c 3a48 a03d 173b 35bd
000001d0: fda1 98bd ad39 2fbe e121 abbd 24aa f33c
000001e0: 6005 0dbe 6c4a 2cbd 6134 9f3c 65fd 28bc
000001f0: 50e1 083e 5bef 133c 9f38 b9bc 75a1 603b
00000200: 79cc 20be 47d7 4bbe 2698 193d b6fe 8e3e
00000210: c10d be3e 1fa6 49be f4b7 453c c345 95bc
00000220: 9756 ed3b 9d93 0c3e 1e6f 5dbd 1643 b2bc
00000230: a9b9 373d ef1b 20be 6119 a8bd cb7b 313e
00000240: dcb3 2a3e 3615 98be cf7a 1dbe 4a6e 693d
00000250: ca6b 063d 4884 8bbc 9089 273c 6edf 80bd
00000260: 0b03 17be fb69 9c3d e140 1bbd 1995 f3bd
00000270: 16e9 b13d f9bc 823e cea5 25bb 4bc9 673e
00000280: 9bf0 df3c bee8 8bbd 9460 ae3e 2483 9abc
00000290: eb46 6ebe b3e3 793d 8f9b 083e e15a 20be
000002a0: 874c e2bc a933 60bd 3187 21be 368b 69bd
000002b0: 5d0f 18bb 4cfe 673d a7fe 7e3d 1bd7 443d
000002c0: 17e0 543d 2502 463d 6a11 88be cb0f 24bc
000002d0: f563 b23c 9945 bd3d bd65 2c3d 56ee f2bd
000002e0: e05a 00be 0508 32bd 5b7f 483e ccc0 273e
000002f0: a31a 48be b3fe 9e3c a4c0 3bbd 284d ffbc
00000300: 8573 173d cf43 07bd aa6e 493d 54c9 43be
00000310: 3083 7abe cad6 56bd a176 d9bd 6746 9ebe
00000320: c9b3 a8bc 9c51 653d 1bf2 2c3e 3985 44bc
00000330: a9ca 16be 9e17 c43d 9aae 6f3e 446b 00bd
00000340: a02c c03d ce00 0bbe 21b0 223d e87a 4d3c
00000350: e2f8 8fbd 57e4 3e3d b77e 02be afc2 9e3d
00000360: 67a0 23bd 9b07 75bd 16b7 243e 2290 343d
00000370: cd31 3ebc aa5e 0dbe fc27 993d b839 cfbd
00000380: d78a bd3c 7b6f c1bd 35dd 9d3d 8487 82bc
00000390: 9be9 303d 5657 273d 139c 8cbc e808 03be
000003a0: 201a 5bbe 2758 183e 41e7 013e b0a8 6e3e
000003b0: 58fb f83d 3172 ea3d 4981 e03d 2afb 8dbc
000003c0: 2ee4 6ebd a1ae 76be ae89 d2bd 8249 dabd
000003d0: 4ec1 89bd 09a5 863d a44e 823e e270 76bd
000003e0: ea64 f2bd 3329 163d 692e 8cbd ea04 39be
000003f0: c1be 51be f2e2 0c3e 20d1 91bd 34b4 473c

conv3.3.bias f4 [32]
-0.055112805 0.051712785 0.023722287 -0.0582992 -0.0016117244 0.042765293 0.00626998 -0.04177297
-0.043767136 0.017278563 -0.052083395 0.04674164 0.027618844 0.05385222 -0.03300088 -0.004941917
-0.05250785 -0.0045344355 0.03681011 -0.047978014 -0.038286857 0.009270125 0.044379983 0.0008663804
-0.041854504 -0.042893983 -0.014270237 0.038707178 0.0004711172 0.01729389 0.024848219 -0.052538328
00000000: f7bd 61bd c9d0 533d 3e55 c23c 24cb 6ebd
00000010: 7f40 d3ba a92a 2f3d 6874 cd3b 221a 2bbd
00000020: 2b45 33bd c68b 8d3c 6655 55bd 2974 3f3d
00000030: ea40 e23c 2594 5c3d ee2b 07bd ceef a1bb
00000040: 7912 57bd 9a95 94bb 33c6 163d 9884 44bd
00000050: aed2 1cbd b9e1 173c c9c7 353d ce1d 633a
00000060: a16f 2bbd 9ab1 2fbd b6cd 69bc 6b8b 1e3d
00000070: 4800 f739 eaab 8d3c 7e8e cb3c 6e32 57bd

conv3.4.weight f4 [32]
1.1013917 1.0595539 0.91516143 0.9999095 0.870012 0.9468598 0.860294 1.0473366
1.2015613 0.9580896 1.024352 1.0459014 1.0420319 0.8963163 0.93694645 0.9224461
1.080371 1.0271716 0.9733869 1.1170266 0.9483383 0.9924477 0.9808699 1.0338476
1.0531869 1.0182056 0.92757505 0.9775357 0.8433358 0.9266727 0.96625316 0.89816076
00000000: 67fa 8c3f 769f 873f 0548 6a3f 12fa 7f3f
00000010: 1bb9 5e3f 6765 723f 3a3c 5c3f 200f 863f
00000020: c3cc 993f 5c45 753f f71d 833f 19e0 853f
00000030: 4d61 853f fc74 653f b9db 6f3f 6d25 6c3f
00000040: 9949 8a3f 5c7a 833f e22f 793f bafa 8e3f
00000050: 4dc6 723f 0d11 7e3f 4a1a 7b3f 1e55 843f
00000060: d4ce 863f 9054 823f 8f75 6d3f c83f 7a3f
00000070: dbe4 573f 6c3a 6d3f 5e5c 773f dded 653f

conv3.4.bias f4 [32]
-0.40887547 -0.32367203 -0.24716257 -0.48991346 -0.15934916 -0.25611383 -0.2967221 -0.15414602
-0.48758513 -0.33600682 -0.20620283 -0.4558353 -0.3182501 -0.32990405 -0.24726503 -0.3335895
-0.41926238 -0.32694355 -0.29236296 -0.27016404 -0.3398138 -0.2710795 -0.33978122 -0.45238772
-0.3854472 -0.30382538 -0.2988982 -0.46290255 -0.3143928 -0.26947802 -0.44228184 -0.25004104
00000000: 2058 d1be 57b8 a5be 2f18 7dbe f0d5 fabe
00000010: 6d2c 23be 5a21 83be f6eb 97be 74d8 1dbe
00000020: c2a4 f9be 1609 acbe d626 53be 3f63 e9be
00000030: adf1 a2be 2fe9 a8be 0b33 7dbe 3ecc aabe
00000040: 8fa9 d6be 2565 a7be 99b0 95be f152 8abe
00000050: 13fc adbe efca 8abe cef7 adbe 5d9f e7be
00000060: 5659 c5be 008f 9bbe 2f09 99be 9001 edbe
00000070: 18f8 a0be 06f9 89be c472 e2be 6105 80be

conv3.4.running_mean f4 [32]
-1.3314825 -1.8997344 -1.9099685 0.6544645 0.6819321 -1.4068478 -0.021659259 -1.8375857
-1.2091327 -2.1573253 -2.8292596 -1.6565846 -1.6522986 0.009496005 -1.0061042 -0.7730614
-0.8445984 -1.7758015 -0.11353994 -1.4811032 -0.06761121 -0.49310657 -1.4088591 -1.1026305
-1.3272762 -0.23695128 -0.72191775 -0.94293386 -0.84974194 -1.282471 -0.48018855 -0.46951622
00000000: 056e aabf 7f2a f3bf d979 f4bf fc8a 273f
00000010: 1a93 2e3f 9713 b4bf c26e b1bc 0236 ebbf
00000020: dcc4 9abf 9e11 0ac0 9712 35c0 f70a d4bf
00000030: 857e d3bf 2295 1b3c 06c8 80bf 5ae7 45bf
00000040: 9a37 58bf 774d e3bf a187 e8bd ca94 bdbf
00000050: bf77 8abd 7778 fcbe 7f55 b4bf ff22 8dbf
00000060: 30e4 a9bf 5ba3 72be 9acf 38bf 1d64 71bf
00000070: b088 59bf 0228 a4bf 46db f5be 6e64 f0be

conv3.4.running_var f4 [32]
2.0890286 2.3596134 2.0192711 2.1305685 1.8122817 2.1817453 1.7236913 2.1028168
1.8657435 1.7845477 2.2361927 2.2785795 2.1883082 1.7247707 1.6265185 1.7497177
2.4963274 2.2423725 1.8390468 2.412685 1.7628614 1.68398 1.9035754 2.1541116
2.1758516 1.9676828 1.9181106 1.6862766 1.5402057 1.7738463 1.8973993 2.281759
00000000: a5b2 0540 e803 1740 bd3b 0140 3c5b 0840
00000010: d9f8 e73f b7a1 0b40 eba1 dc3f 8d94 0640
00000020: afd0 ee3f 0f6c e43f c81d 0f40 3fd4 1140
00000030: 3e0d 0c40 49c5 dc3f c231 d03f c0f6 df3f
00000040: d4c3 1f40 0883 0f40 e365 eb3f 6e69 1a40
00000050: 71a5 e13f a88c d73f 5ca8 f33f f7dc 0940
00000060: 2741 0b40 08dd fb3f a684 f53f e9d7 d73f
00000070: 7625 c53f 650d e33f fbdd f23f 5708 1240
