trained_models/last_cnn.pt (torch, 958866 bytes, 92 tensors)

conv1.0.weight f4 [8, 3, 3, 3]
-0.3907652 -0.1425435 0.56201315 -0.58247596 -0.3287493 0.33127955 -1.2425158 -0.8928268
-0.29419222 0.07740562 0.048394393 -0.012122736 0.36721337 0.8500906 0.17848362 -0.48955008
-0.16960469 -0.0968011 0.15392448 -0.14562432 -1.0249127 0.9011211 0.73574734 -0.48271617
1.0914958 1.0215176 0.21968521 -0.023910902 1.4702913 -0.19245355 0.73523957 -1.327414
-0.84061503 0.8324929 0.49104786 -0.90867877 -0.13371618 0.5304181 0.054554384 0.47251666
-1.927022 -0.5908083 0.7610196 0.2677375 0.2371783 -0.2630908 0.37971112 0.9095678
-0.13520235 -1.5944164 0.5349812 -0.08283712 -0.4344649 0.8121589 0.32262504 0.42925116
0.018271921 -0.6172075 0.39330706 0.8919089 -0.6237777 -0.03384975 0.18633345 -0.36046436
-0.03713805 -0.3921374 -1.1023884 -0.4145724 0.19697104 -0.8750156 -0.44092003 -0.03585038
0.24205379 0.27352154 -0.19061443 -0.28917947 0.14955534 0.34997004 -0.069763854 0.16953227
0.4955069 -0.18276161 -0.097609766 0.47652495 0.075105324 -0.12490182 -0.4083269 0.08269316
-0.35500094 -0.27815908 0.23552942 0.4588819 0.17450283 -0.119633466 0.22463658 -0.3909958
-0.52593297 -0.6195312 -0.6759513 -0.054911908 0.3860145 -0.55213666 0.08603266 0.55956244
-0.73997015 0.16371204 0.36839664 -0.7476091 -0.07022545 1.0491314 1.3580574 0.97610474
-0.96417785 1.142157 -0.82149976 -0.33071876 -0.75004095 -0.39765018 -0.7643367 0.1984283
0.8177884 -2.0171082 0.19671541 0.121707305 -0.3763406 -0.031573642 -0.6199486 -0.31384632
0.27711993 0.4915017 -1.5627546 0.4468212 0.3061687 0.7521005 0.9995258 0.101901814
0.046002876 0.49763855 1.332717 -0.7874027 -0.037250835 -0.8245397 -0.47657466 0.8530881
0.4333173 -0.16860168 0.10035598 1.4311069 -0.8723754 -0.76153105 -1.0951267 -0.74115795
0.24844801 0.4127759 0.087643765 -0.73156005 1.3292015 -0.6094903 -1.2962236 0.53440225
0.66108435 0.38569883 -0.9910183 -0.9163534 0.5075051 0.67891973 -0.95560145 0.0006000709
1.265867 -0.44885373 0.42352238 -0.36477455 -0.47601768 0.42692962 1.2961845 -0.58028364
0.16697767 0.6941085 -0.36829644 -0.1934623 -0.4742599 -0.14365116 -0.041678727 1.1614928
0.09480304 -0.47618565 0.83390737 -0.14576334 -1.0495471 -0.40043256 0.10882589 0.54575807
0.34652576 0.45664635 0.49614438 -0.1895389 -0.10230138 0.25132123 -0.9990781 -0.32480127
-0.04797522 -0.12269043 0.38298035 -0.058873195 0.031479243 0.19486846 -0.5111383 -0.82177526
0.10411582 0.020220287 0.24435279 0.82980263 0.30711994 0.3508072 0.56305146 -0.17075165
00000000: 6012 c8be ecf6 11be 18e0 0f3f 251d 15bf
00000010: d451 a8be 799d a93e c20a 9fbf 4c90 64bf
00000020: 5da0 96be d686 9e3d 3339 463d 719e 46bc
00000030: 6403 bc3e 8a9f 593f 69c4 363e 4fa6 fabe
00000040: daac 2dbe a83f c6bd 619e 1d3e 8b1e 15be
00000050: 5730 83bf dfaf 663f f059 3c3f 9326 f7be
00000060: 22b6 8b3f 17c1 823f 29f5 603e cce0 c3bc
00000070: 8132 bc3f 8b12 45be a938 3c3f b4e8 a9bf
00000080: 8c32 57bf 411e 553f a06a fb3e 2c9f 68bf
00000090: e5ec 08be 7bc9 073f 6b74 5f3d b4ed f13e
000000a0: a8a8 f6bf 363f 17bf 2ed2 423f e414 893e
000000b0: dede 723e d6b3 86be 7f69 c23e 6fd9 683f
000000c0: 7c72 0abe d615 ccbf 87f4 083f 82a6 a9bd
000000d0: 2f72 debe a5e9 4f3f 1c2f a53e cfc6 db3e
000000e0: ffae 953c 5001 1ebf 8b5f c93e 2454 643f
000000f0: e5af 1fbf 09a6 0abd 32ce 3e3e c98e b8be
00000100: 111e 18bd 3cc6 c8be 101b 8dbf d542 d4be
00000110: c7b2 493e 0601 60bf 45c0 e1be d9d7 12bd
00000120: f3dc 773e 040b 8c3e 6e30 43be 550f 94be
00000130: 0925 193e 462f b33e 5ae0 8ebd de99 2d3e
00000140: 15b3 fd3e dc25 3bbe a1e7 c7bd 14fb f33e
00000150: d2d0 993d 87cc ffbd 3910 d1be 085b a93d
00000160: afc2 b5be de6a 8ebe a02e 713e 92f2 ea3e
00000170: dfb0 323e 6402 f5bd 2207 663e 9a30 c8be
00000180: 8ba3 06bf 9999 1ebf 250b 2dbf 4feb 60bd
00000190: b1a3 c53e d458 0dbf e431 b03d 7c3f 0f3f
000001a0: af6e 3dbf 21a4 273e 7c9e bc3e 4f63 3fbf
000001b0: 5cd2 8fbd f049 863f d3d4 ad3f 00e2 793f
000001c0: 5cd4 76bf 3332 923f cf4d 52bf f853 a9be
000001d0: af02 40bf ce98 cbbe 92ab 43bf ca30 4b3e
000001e0: 955a 513f 4d18 01c0 c46f 493e ae41 f93d
000001f0: b7af c0be 5d53 01bd f4b4 1ebf 77b0 a0be
00000200: aae2 8d3e 1ca6 fb3e 5808 c8bf c0c5 e43e
00000210: 25c2 9c3e a989 403f ece0 7f3f e6b1 d03d
00000220: 836d 3c3d 7bca fe3e 7896 aa3f 3993 49bf
00000230: 5594 18bd 0915 53bf 9801 f4be fb63 5a3f
00000240: c4db dd3e eba5 2cbe 7087 cd3d 832e b73f
00000250: ff53 5fbf b3f3 42bf 1d2d 8cbf 87bc 3dbf
00000260: 2869 7e3e 5d57 d33e 937e b33d 8547 3bbf
00000270: 4623 aa3f 8e07 1cbf a8ea a5bf 96ce 083f
00000280: d33c 293f 517a c53e 60b3 7dbf 2396 6abf
00000290: dbeb 013f afcd 2d3f 4ca2 74bf 144e 1d3a
000002a0: ee07 a23f 28d0 e5be edd7 d83e bbc3 babe
000002b0: 97b8 f3be 8596 da3e 60e9 a53f 788d 14bf
000002c0: 32fc 2a3e 18b1 313f 5a91 bcbe fb1a 46be
000002d0: 32d2 f2be 4a19 13be 50b7 2abd ccab 943f
000002e0: 1928 c23d 9bce f3be f47a 553f fc42 15be
000002f0: 8f57 86bf 7f05 cdbe 1ce0 de3d cdb6 0b3f
00000300: d36b b13e 8dcd e93e a306 fe3e 7c16 42be
00000310: 6383 d1bd 2dad 803e 95c3 7fbf 5a4c a6be
00000320: aa81 44bd 1f45 fbbd 0016 c43e 0525 71bd
00000330: 61f0 003d 998b 473e f6d9 02bf dd5f 52bf
00000340: ad3a d53d 04a5 a53c 9e37 7a3e f26d 543f
00000350: d33e 9d3e 009d b33e 2424 103f 85d9 2ebe

conv1.0.bias f4 [8]
-0.118531324 0.06999848 0.06864759 -0.056413975 -0.1737845 -0.046791077 0.14155398 0.05510933
00000000: 8dc0 f2bd 5d5b 8f3d 1c97 8c3d 5712 67bd
00000010: 90f4 31be 00a8 3fbd 87f3 103e 52ba 613d

conv1.1.weight f4 [8]
0.7110754 1.5518948 0.98942435 1.3361255 1.3937024 1.2728451 1.3923043 0.8242982
00000000: 0a09 363f 7da4 c63f ea4a 7d3f 2906 ab3f
00000010: d764 b23f 97ec a23f 0737 b23f 3505 533f

conv1.1.bias f4 [8]
0.32598513 0.8816297 -0.17288569 -0.7411129 0.92208683 1.1428887 0.9519148 0.24029219
00000000: 86e7 a63e 7cb2 613f f208 31be 93b9 3dbf
00000010: e20d 6c3f 2d4a 923f b0b0 733f 280f 763e

conv1.1.running_mean f4 [8]
-0.092297666 -0.025856264 -0.58112794 -1.2188534 -0.21876241 -0.07667936 0.0794324 0.7713481
00000000: 8f06 bdbd 84d0 d3bc cdc4 14bf 6303 9cbf
00000010: 4103 60be 110a 9dbd 74ad a23d 1277 453f

conv1.1.running_var f4 [8]
0.2667103 0.30324742 0.3736432 0.515142 0.29975507 0.32309538 0.4642362 0.30221
00000000: 418e 883e 3f43 9b3e 294e bf3e 59e0 033f
00000010: 7f79 993e c26c a53e 5eb0 ed3e 45bb 9a3e

conv1.3.weight f4 [8, 8, 3, 3]
0.33252847 0.63373667 -0.29842994 -0.13591355 0.68015844 0.024248173 -0.18408439 0.3986382
-0.12220661 0.4446169 -0.46844196 -0.31227392 0.690209 -0.7614664 -0.27235785 0.510711
-0.43013668 -0.18490815 -0.21665671 -0.18426129 0.014660959 -0.04817314 0.03900169 0.018196696
0.26791233 0.028296325 -0.12505205 0.13826151 0.43480906 0.024441937 -0.2384524 0.2739643
-0.049413234 -0.3994249 -0.035549104 -0.48484325 0.27524456 -0.14888449 -0.044735737 0.17065854
-0.4175758 -0.16441904 0.3668356 -0.22184265 -0.23607655 -0.46193296 0.40888327 0.20208949
-0.82513833 0.34952453 0.42044547 -0.38368362 0.5273142 0.10377852 -0.2484096 0.33482438
0.04237288 -0.7859031 0.33278728 0.14542742 -0.7061277 0.42884848 0.16528173 0.094661154
0.30924013 -0.15197822 -0.13551748 0.0022610642 0.05980006 -0.16400617 -0.02598845 0.23312353
-0.088880695 0.03875187 0.2477499 -0.41406554 -0.4690555 0.039327588 0.44522288 -0.15548627
-0.11536927 0.09118448 -0.5829209 0.035887513 0.6486418 -0.073346436 -0.3589313 0.1868148
0.31520337 -0.05887908 0.5267167 0.38924363 -0.09193184 0.1526273 0.73063236 0.2323829
0.045215186 0.26904047 0.73427206 -0.10463337 -0.28036943 -0.61623275 0.23046394 0.048203595
0.012647806 0.4394816 0.042672087 0.11542393 0.52685684 -0.16603917 -0.117138304 0.30363446
0.092692874 -0.46199733 0.32755876 0.54965496 0.7279868 -0.27891886 -0.07649911 -0.013511345
0.03591122 -0.20724542 -0.38789564 0.5102378 0.09410931 0.014655459 -0.5039543 -0.43481037
-0.47297078 0.28452632 -0.26026535 -0.56351763 0.39701357 0.68062353 -0.48722526 0.24055983
-0.04252793 0.1408576 0.14298771 -0.19960892 -0.17517495 0.06366484 -0.061123423 -0.093614794
-0.24300998 0.2322973 -0.70756525 -0.14702861 0.30483413 -0.061238788 0.25374502 0.15591149
-0.3537518 0.2203155 0.5605126 -0.49761397 -0.9160475 -0.23325357 0.9621049 0.6739476
-0.8388168 -0.30487695 -0.29485622 -0.20111668 0.4794637 -0.08896634 -0.49840203 -0.36980337
-0.034308795 -0.104113296 -0.42344457 0.1770775 0.8643255 0.34892318 -0.469442 0.25525314
-0.29652417 -0.37612712 0.1048983 -0.2356271 -0.17429982 0.93541807 -0.66396755 -0.54992765
-0.5146755 0.8547173 0.9080665 -1.24508 -0.28784257 0.07446935 0.042615846 -0.78508836
-0.15311033 0.79979736 -0.16007018 -0.08653098 -0.11532361 0.055691592 0.29259533 0.7496822
-0.7529527 -0.4936866 0.23221357 0.6346784 0.09118402 -0.5439476 0.12536247 -0.26968825
0.20311274 -0.26984435 -0.4011736 0.021191642 0.16255386 0.075144745 -0.24818064 -0.03672519
-0.004560601 -0.08828595 -0.2245422 -0.011460692 0.21009439 0.25227106 -0.1751293 0.10466754
-0.12494061 0.021372767 0.48076692 -0.35905087 -0.14925577 0.34748244 -0.34093115 0.03616325
0.10727486 -0.32194722 -0.48607716 -0.047153886 -0.1467302 -0.34952414 0.16714768 0.3896112
-0.2434052 0.023665568 0.4409974 0.075631805 -0.404453 -0.23461804 0.4044338 -0.42650035
0.20129889 0.4438927 -0.13385405 0.28269124 -0.6288293 0.7979671 -0.08196717 -0.970484
00000000: 2c41 aa3e 913c 223f cfcb 98be ec2c 0bbe
00000010: dd1e 2e3f 1ba4 c63c 9e80 3cbe 4e1a cc3e
00000020: 7647 fabd d4a4 e33e a0d7 efbe 5ee2 9fbe
00000030: 89b1 303f 76ef 42bf 7d72 8bbe f5bd 023f
00000040: e03a dcbe 9058 3dbe 42db 5dbe feae 3cbe
00000050: 8534 703c 3351 45bd 3cc0 1f3d 3d11 953c
00000060: ce2b 893e b2cd e73c a50d 00be 6d94 0d3e
00000070: 4b9f de3e 753a c83c de2c 74be 0c45 8c3e
00000080: 8865 4abd 6c81 ccbe f09b 11bd 603d f8be
00000090: dbec 8c3e 2d75 18be d23c 37bd 1dc1 2e3e
000000a0: 7fcc d5be 775d 28be e0d1 bb3e b82a 63be
000000b0: 0dbe 71be 7a82 ecbe 2659 d13e 8cf0 4e3e
000000c0: 443c 53bf e1f4 b23e a144 d73e 2e72 c4be
000000d0: 10fe 063f d589 d43d 165f 7ebe 1a6e ab3e
000000e0: 2f8f 2d3d f230 49bf 1863 aa3e edea 143e
000000f0: c9c4 34bf 0792 db3e 9d3f 293e b5dd c13d
00000100: b954 9e3e 2ea0 1bbe 18c5 0abe 5d2e 143b
00000110: e8f0 743d 3cf1 27be bbe5 d4bc efb7 6e3e
00000120: 1507 b6bd 48ba 1e3d 26b2 7d3e 6600 d4be
00000130: 0b28 f0be f715 213d 41f4 e33e cb37 1fbe
00000140: b946 ecbd eebe ba3d 4e3a 15bf c9fe 123d
00000150: 640d 263f a836 96bd d8c5 b7be 614c 3f3e
00000160: 5662 a13e 312b 71bd e8d6 063f f14a c73e
00000170: c346 bcbd 554a 1c3e b90a 3b3f c8f5 6d3e
00000180: 8f33 393d acbf 893e 41f9 3b3f 054a d6bd
00000190: 958c 8fbe 6ec1 1dbf bdfe 6b3e 2271 453d
000001a0: be38 4f3c bb03 e13e edc8 2e3d 6263 ec3d
000001b0: 17e0 063f 2c06 2abe 35e6 efbd fa75 9b3e
000001c0: c3d5 bd3d ea8a ecbe c8b5 a73e 30b6 0c3f
000001d0: 585d 3a3f 74ce 8ebe 91ab 9cbd b05e 5dbc
000001e0: a517 133d 2538 54be 429a c6be f29e 023f
000001f0: 62bc c03d 731d 703c 2603 01bf 779f debe
00000200: 3a29 f2be 6fad 913e 8041 85be b142 10bf
00000210: 5d45 cb3e 583d 2e3f 9775 f9be 5155 763e
00000220: c431 2ebd fa3c 103e 5f6b 123e 4866 4cbe
00000230: 1061 33be b662 823d 8e5c 7abd 1db9 bfbd
00000240: 9cd7 78be 58df 6d3e ff22 35bf ab8e 16be
00000250: 3813 9c3e 86d5 7abd deea 813e 43a7 1f3e
00000260: f51e b5be 639a 613e c17d 0f3f 42c7 febe
00000270: 1782 6abf 06da 6ebe 824c 763f d487 2c3f
00000280: b3bc 56bf d518 9cbe 65f7 96be 88f1 4dbe
00000290: 447c f53e fc33 b6bd 8d2e ffbe de56 bdbe
000002a0: 6187 0cbd 5a39 d5bd bacd d8be ce53 353e
000002b0: 7044 5d3f 0fa6 b23e b45a f0be 8ab0 823e
000002c0: 04d2 97be bc93 c0be ebd4 d63d 3b48 71be
000002d0: a77b 32be 8f77 6f3f c7f9 29bf 0fc8 0cbf
000002e0: c6c1 03bf c1ce 5a3f 0c77 683f c85e 9fbf
000002f0: 1a60 93be 6383 983d f48d 2e3d 8dfb 48bf
00000300: f4c8 1cbe 85bf 4c3f 70e9 23be 2837 b1bd
00000310: c92e ecbd de1c 643d 0ecf 953e 2ceb 3f3f
00000320: 82c1 40bf 7dc4 fcbe 65c9 6d3e 497a 223f
00000330: b0be ba3d 2640 0bbf 055f 003e 9414 8abe
00000340: c9fc 4f3e 0a29 8abe a066 cdbe 189a ad3c
00000350: 8574 263e 7de5 993d 1123 7ebe 276d 16bd
00000360: 1871 95bb 44cf b4bd 64ee 65be a0c5 3bbc
00000370: fc22 573e ac29 813e 1855 33be ef5b d63d
00000380: dde0 ffbd f115 af3c 1527 f63e 84d5 b7be
00000390: 81d6 18be 38e9 b13e 878e aebe eb1f 143d
000003a0: ecb2 db3d 44d6 a4be 1bdf f8be 6f24 41bd
000003b0: 7140 16be d4f4 b2be c328 2b3e 1f7b c73e
000003c0: 363f 79be 4bde c13c 69ca e13e d9e4 9a3d
000003d0: 7714 cfbe b63f 70be f211 cf3e 415e dabe
000003e0: 4c21 4e3e e745 e33e 0911 09be e8bc 903e
000003f0: f5fa 20bf 9247 4c3f 67de a7bd a471 78bf

conv1.3.bias f4 [8]
0.09810505 -0.016812677 0.101534344 0.10899192 0.042918507 -0.10797962 -0.09414168 0.05929663
00000000: 4deb c83d bdba 89bc 3df1 cf3d 2837 df3d
00000010: 51cb 2f3d 6b24 ddbd 5acd c0bd 06e1 723d

conv1.4.weight f4 [8]
1.3082566 1.44501 1.6153328 1.7548262 1.1279356 1.4388722 1.7585477 1.7004147
00000000: f474 a73f 16f6 b83f 3ac3 ce3f 259e e03f
00000010: 3260 903f f72c b83f 1718 e13f 30a7 d93f

conv1.4.bias f4 [8]
0.05184156 0.3193487 0.099207066 -0.032203693 0.097465344 -0.0647802 -0.06787009 0.0756295
00000000: d157 543d ac81 a33e 132d cb3d 05e8 03bd
00000010: e99b c73d 7bab 84bd 79ff 8abd a4e3 9a3d

conv1.4.running_mean f4 [8]
-0.5218869 0.70416117 -1.9569752 -0.5229879 3.9760315 3.6188376 -2.2730784 -2.9587452
00000000: 619a 05bf e843 343f 2a7e fabf 89e2 05bf
00000010: 4d77 7e40 099b 6740 1e7a 11c0 155c 3dc0

conv1.4.running_var f4 [8]
6.3492384 16.396952 14.54294 23.752378 6.8639016 11.621304 19.03641 16.793264
00000000: f62c cb40 f52c 8341 e2af 6841 df04 be41
00000010: 15a5 db40 dcf0 3941 914a 9841 9b58 8641

conv2.0.weight f4 [16, 8, 3, 3]
-0.19706327 -0.26355162 -0.33814508 0.2166894 -0.21916044 0.029102802 0.016568227 -0.3266547
0.09654411 0.0049673277 -0.08917314 0.41772527 -0.6113813 -0.33158967 0.6509869 -0.51678133
-0.87092894 0.02879237 -0.32239679 -0.21219185 0.068300694 0.54412746 0.11980934 0.08904348
-0.27710384 -0.47611386 0.71265906 0.18185873 0.2347803 0.12283379 -0.3616595 -0.41713157
-0.1614695 -0.4053208 -0.9377231 -0.14616129 -0.23142463 -0.46467313 -0.0930764 0.087644786
-0.08271114 -0.119546935 0.08002099 0.10771236 0.28938618 0.4971593 0.11708417 0.50774926
0.19576827 0.5998068 0.3017212 0.32278198 0.24178588 -0.17582615 -0.18657686 -0.39170334
0.5577874 0.17494135 0.25453478 0.20931989 0.12524022 0.08615042 0.1464258 -0.3122315
-0.5098466 -0.17767471 -0.21606585 -0.38478935 -0.18430586 0.5120869 0.07042194 -0.26139754
-0.21620134 0.11134417 -0.5458155 0.0050495807 -0.00738001 -0.33402064 0.15506808 -0.2415244
-0.26562896 -0.17689264 -0.51242673 -0.47816756 -0.7479864 -0.897309 -0.89315337 -0.11820375
-0.6365216 0.3088472 0.065194055 0.34047663 0.22171147 -0.2535122 -0.6498997 -0.28393313
-0.030929878 -0.555002 -0.3857361 0.2196174 0.007814621 0.11111409 -0.18759528 -0.36682177
0.2732311 0.21996258 0.122274354 0.19702233 -0.5468803 0.041963544 0.037588876 -0.20965545
0.021665465 0.073722646 -0.27671975 -0.3096012 -0.19969165 -0.030160988 -0.5288798 -0.3018033
-0.010291731 -0.072204396 -0.09373219 0.49616313 0.22804798 0.110741034 0.14913887 0.13249727
0.21005815 0.12431753 0.027621448 0.45695195 0.08842821 0.34413788 -0.017953573 0.10385905
0.14878608 0.35958305 0.16287114 0.66644335 0.14591114 0.28644672 0.34509537 0.19441293
-0.46068466 -0.24267256 -0.7020457 0.11004747 0.050512575 0.32550853 -0.061980747 -0.06141441
0.28395152 0.1952675 -0.5132305 -0.30461833 -0.05084348 -0.38720652 -0.38059577 0.3870766
0.4143447 0.49376386 -0.20535582 0.08655972 -0.37344357 0.25357205 0.04911954 -0.044132866
-0.1335767 -0.12003145 -0.35425428 -0.1324032 0.2561327 -0.043435898 -0.3015221 -0.28435108
-0.044639915 -0.06792425 0.41908213 0.47678545 -0.20261902 -0.25461385 -0.0414932 0.2881142
0.43312255 0.4447356 -0.110172905 0.17442743 0.12445604 -0.26874182 -0.046846703 -0.37245002
-0.26916176 -0.24704999 -0.35087898 -0.017664114 0.41655132 0.38551432 -0.29762805 -0.2563449
-0.1079738 0.21663886 0.16713288 0.29527333 0.5378131 0.6169052 0.5776512 -0.09883552
-0.03131333 0.18298574 0.38515922 0.23978554 0.22175434 -0.07870584 -0.33092755 -0.18342073
0.016206853 -0.07217981 0.12929827 -0.2994383 -0.069594726 0.14449425 0.19585946 0.04145999
-0.05305237 -0.34372142 -0.3690528 -0.0012906272 0.34057653 -0.30409762 -0.29986086 0.14764999
0.4343109 0.27170047 0.32311442 0.04151608 0.34496203 0.0061257705 0.051674187 0.6592535
-0.089697 0.13141324 0.20920148 -0.08121403 0.0039595943 0.3681961 -0.2918506 -0.27316716
-0.21688572 -0.02449822 -0.14739397 -0.15542534 -0.13114682 0.015251833 -0.13439997 0.14327489
00000000: f4ca 49be 3df0 86be 5a21 adbe d3e3 5d3e
00000010: 986b 60be 0069 ee3c 17ba 873c 493f a7be
00000020: ebb8 c53d f7c4 a23b 68a0 b6bd 16e0 d53e
00000030: 7c83 1cbf 1fc6 a9be 14a7 263f c84b 04bf
00000040: 33f5 5ebf fadd eb3c 3111 a5be d248 59be
00000050: 3ce1 8b3d f04b 0b3f 995e f53d 6e5c b63d
00000060: 8ee0 8dbe 32c5 f3be d370 363f 2d39 3a3e
00000070: 3f6a 703e 4890 fb3d 6f2b b9be 4592 d5be
00000080: 4358 25be 3586 cfbe 9f0e 70bf 4eab 15be
00000090: 94fa 6cbe a3e9 edbe d79e bebd 1c7f b33d
000000a0: 7564 a9bd 06d5 f4bd 0be2 a33d 4c98 dc3d
000000b0: 6d2a 943e aa8b fe3e d3c9 ef3d dbfb 013f
000000c0: 7a77 483e f08c 193f 337b 9a3e ae43 a53e
000000d0: b896 773e c50b 34be 010e 3fbe 578d c8be
000000e0: 28cb 0e3f d323 333e 6252 823e f457 563e
000000f0: f93e 003e a26f b03d a5f0 153e cfdc 9fbe
00000100: 4f85 02bf 5cf0 35be 5e40 5dbe 1c03 c5be
00000110: adba 3cbe 2118 033f 6139 903d e6d5 85be
00000120: e263 5dbe 6a08 e43d 91ba 0bbf f476 a53b
00000130: 03d4 f1bb c104 abbe 2bca 1e3e 2c52 77be
00000140: 8500 88be 5823 35be 662e 03bf 61d2 f4be
00000150: 097c 3fbf 0bb6 65bf b3a5 64bf cf14 f2bd
00000160: 14f3 22bf 3821 9e3e 7684 853d f452 ae3e
00000170: 5508 633e 5acc 81be d45f 26bf af5f 91be
00000180: a860 fdbc 9c14 0ebf 347f c5be 62e3 603e
00000190: e508 003c c98f e33d fa18 40be 10d0 bbbe
000001a0: f2e4 8b3e df3d 613e fa6a fa3d 39c0 493e
000001b0: 5900 0cbf f7e1 2b3d cbf6 193d ebaf 56be
000001c0: c67b b13c e6fb 963d 36ae 8dbe 0c84 9ebe
000001d0: f87b 4cbe 2d14 f7bc ab64 07bf f685 9abe
000001e0: a69e 28bc e6df 93bd aaf6 bfbd 1809 fe3e
000001f0: 6985 693e 32cc e23d dcb7 183e 5dad 073e
00000200: 7c19 573e 309a fe3d 6046 e23c 9bf5 e93e
00000210: d919 b53d d732 b03e 5f13 93bc 0eb4 d43d
00000220: 615b 183e 451b b83e b1c7 263e 089c 2a3f
00000230: bb69 153e 25a9 923e 57b0 b03e 2f14 473e
00000240: dcde ebbe 287f 78be 44b9 33bf 9160 e13d
00000250: 46e6 4e3d 0ea9 a63e 86df 7dbd ad8d 7bbd
00000260: 1862 913e 34f4 473e 1363 03bf eff6 9bbe
00000270: 4141 50bd ef3f c6be 73dd c2be e72e c63e
00000280: fd24 d43e 9ece fc3e cc48 52be 3946 b13d
00000290: ff33 bfbe 32d4 813e 9231 493d aac4 34bd
000002a0: 55c8 08be 0dd3 f5bd d160 b5be b494 07be
000002b0: d323 833e d7e9 31bd 1b61 9abe 7796 91be
000002c0: 58d8 36bd df1b 8bbd ef91 d63e 391d f43e
000002d0: 5c7b 4fbe bf5c 82be c6f4 29bd b483 933e
000002e0: 3dc2 dd3e 62b4 e33e 55a2 e1bd 1b9d 323e
000002f0: cfe2 fe3d 8798 89be 54e2 3fbd c5b1 bebe
00000300: 92cf 89be acfa 7cbe 69a6 b3be 55b4 90bc
00000310: 3746 d53e 2262 c53e b462 98be a43f 83be
00000320: 5e21 ddbd 94d6 5d3e e224 2b3e 112e 973e
00000330: 1fae 093f 80ed 1d3f f3e0 133f 476a cabd
00000340: 6842 00bd 9d60 3b3e 9733 c53e 578a 753e
00000350: 9213 633e 8730 a1bd 566f a9be a5d2 3bbe
00000360: 3cc4 843c 02d3 93bd c466 043e fa4f 99be
00000370: ae87 8ebd 4df6 133e 628f 483e f3d1 293d
00000380: 714d 59bd 41fc afbe 7df4 bcbe 432a a9ba
00000390: 0c60 ae3e afb2 9bbe 5d87 99be 8f31 173e
000003a0: 005e de3e 531c 8b3e 416f a53e c40c 2a3d
000003b0: dd9e b03e b0ba c83b 50a8 533d d6c4 283f
000003c0: 10b3 b7bd 3191 063e ea38 563e 8b53 a6bd
000003d0: 7cbf 813b 3384 bc3e 716d 95be 91dc 8bbe
000003e0: 4a17 5ebe 7eb0 c8bc 72ee 16be d227 1fbe
000003f0: 5a4b 06be d3e2 793c 25a0 09be a7b6 123e

conv2.0.bias f4 [16]
-0.1155599 -0.04151417 -0.051364012 -0.07821032 0.0775144 0.06475423 0.027765555 -0.042254183
0.031564478 0.037396323 -0.057853237 -0.05441935 -0.013135045 -0.008218177 0.09096446 -0.0717081
00000000: abaa ecbd c30a 2abd 1263 52bd bb2c a0bd
00000010: dfbf 9e3d de9d 843d 9774 e33c b912 2dbd
00000020: c149 013d e32c 193d 84f7 6cbd d3e6 5ebd
00000030: 5f34 57bc 88a5 06bc 934b ba3d b2db 92bd

conv2.1.weight f4 [16]
1.1768423 1.1188787 1.0997787 1.2332143 1.2016692 1.3805528 1.0001487 1.3889583
1.2701889 1.5007478 0.98010576 1.6281582 1.3510576 0.8937753 1.2361406 1.381876
00000000: c5a2 963f 6b37 8f3f 8cc5 8c3f f7d9 9d3f
00000010: 4cd0 993f f4b5 b03f df04 803f 63c9 b13f
00000020: 8d95 a23f 8118 c03f 36e8 7a3f 7d67 d03f
00000030: 75ef ac3f 75ce 643f db39 9e3f 50e1 b03f

conv2.1.bias f4 [16]
0.26217896 0.4773911 0.1752967 0.32427847 0.14621934 0.04715933 0.12092965 0.2672324
0.091588855 -0.05417503 0.1255092 -0.29280022 0.17288989 0.0831427 0.26627234 -0.40385944
00000000: 523c 863e 9b6c f43e fa80 333e d407 a63e
00000010: 86ba 153e 242a 413d f7a9 f73d afd2 883e
00000020: f092 bb3d a3e6 5dbd 7c85 003e e9e9 95be
00000030: 0c0a 313e b846 aa3d d954 883e aac6 cebe

conv2.1.running_mean f4 [16]
-3.2792296 -4.0409265 0.6940191 -4.047176 -2.679113 -5.680497 0.8067591 -2.9220092
-2.5620108 -4.131764 -1.4761586 -4.873988 -4.353352 0.7431292 -5.5565248 -3.7765627
00000000: e6de 51c0 454f 81c0 3cab 313f 7782 81c0
00000010: 9676 2bc0 a2c6 b5c0 c487 4e3f 3302 3bc0
00000020: fcf7 23c0 6937 84c0 c4f2 bcbf b6f7 9bc0
00000030: a94e 8bc0 b73d 3e3f 0dcf b1c0 34b3 71c0

conv2.1.running_var f4 [16]
23.901009 21.250399 18.894499 18.21338 19.1026 26.78024 14.061372 20.465103
18.139193 21.3025 14.601415 30.283108 19.272738 17.391184 22.947956 15.701281
00000000: 4435 bf41 d100 aa41 ef27 9741 01b5 9141
00000010: 20d2 9841 ee3d d641 61fb 6041 88b8 a341
00000020: 111d 9141 856b aa41 659f 6941 ce43 f241
00000030: 912e 9a41 2521 8b41 6a95 b741 7238 7b41

conv2.3.weight f4 [16, 16, 3, 3]
-0.29368213 0.26922613 0.021797908 -0.5467685 -0.31563014 -0.267119 -0.35196647 -0.2816735
-0.038464982 -0.18243237 0.012148476 0.083920464 -0.25551766 -0.04103424 0.44010603 -0.3882338
-0.3326595 0.21111672 -0.22636265 -0.38453382 -0.2122063 -0.25017497 0.385012 0.6771161
-0.1887392 0.029687915 0.29083076 0.055196024 -0.22104482 0.23383659 0.044766724 -0.10219613
0.13403584 0.18832055 0.057045095 0.21020666 -0.15551896 -0.10213711 -0.12309453 -0.34942675
-0.4436475 -0.023285557 -0.09979752 -0.362869 -0.24503382 -0.00056594977 0.14275518 0.1669296
0.045332883 0.1808468 -0.30899042 -0.015752062 -0.205429 -0.10824507 0.09361152 0.07186029
-0.07036117 0.15422548 0.7182985 0.22335814 0.07803113 0.38700333 -0.08080418 -0.29129982
0.001002062 0.064577416 -0.43221518 0.17295296 0.046210885 0.014701876 0.22148982 0.48101154
-0.023955489 0.060455672 0.19391353 0.290592 0.56057894 0.278832 -0.054223746 0.31403202
-0.28212035 -0.0876763 -0.3284828 0.48103073 0.12224667 -0.21270958 -0.051386192 -0.18032753
-0.15387546 0.18969423 0.04922168 0.14235201 0.13553073 -0.012013766 0.0816148 -0.11643251
-0.19127038 0.19615681 -0.24301437 -0.24933614 0.07341117 0.14067595 -0.14492251 0.085571036
0.024543935 -0.05086869 0.2618163 0.15571561 -0.22584304 0.12105593 -0.12541564 0.0755017
0.34220463 0.24063855 -0.28984895 0.58832943 -0.20580217 0.25472653 0.028446935 -0.2500101
-0.035151694 -0.11187846 -0.31778237 -0.16981816 -0.13844012 -0.13233061 -0.14994131 0.060864996
0.014422725 -0.099629246 0.2618963 -0.43938485 0.15948716 0.6084746 0.4814642 -0.0143330265
-0.0847295 0.02601936 0.07343307 0.10517032 -0.059127368 -0.21725929 0.014048178 -0.09836915
0.5233301 0.18297195 -0.10770017 0.2527315 0.5921769 0.6521692 -0.27170905 -0.3739804
0.056830853 -0.23185505 -0.46972272 -0.53530514 0.2793963 -0.21801694 -0.47651568 -0.03202483
0.090427704 0.10446584 -0.28727534 -0.36530563 -0.11909255 -0.49443847 0.17981973 0.16730721
-0.087103374 0.039560504 -0.18159336 0.34577456 -0.29476082 -0.15016681 0.3263742 0.20858338
-0.041303754 0.005996368 0.03248279 -0.12711069 -0.03871814 0.05412236 0.0069725267 0.21391997
-0.032695748 0.13827606 -0.06295697 0.007927705 0.20772925 0.1205138 0.20851253 -0.34974903
0.23454349 0.3845683 -0.41429657 0.44620833 0.12759 -0.073319875 0.11711995 -0.3486038
0.40119812 0.5033255 0.2704274 0.032365523 0.0017827234 0.30297732 0.094398424 0.17294931
0.027534846 -0.112152435 0.06791564 -0.12300964 0.54577965 -0.056254696 0.08575887 -0.11322268
-0.18964002 -0.30234724 -0.16934957 -0.12849742 -0.32178843 0.03914178 0.13603829 0.12662317
0.074932456 -0.24415216 -0.02210477 0.11281214 0.01642245 -0.16596377 0.2807148 0.07921953
0.394928 -0.13086456 -0.4445344 -0.10100389 0.1774117 0.07489146 0.03300149 0.08769079
0.16172482 0.19610779 0.24844751 0.08236593 0.03503505 0.08161542 0.281156 0.41445205
0.27223307 -0.06742135 0.2913645 0.114472486 0.3768469 -0.097420216 -0.09115649 -0.02494099
00000000: 815d 96be 02d8 893e 8791 b23c 05f9 0bbf
00000010: 469a a1be d2c3 88be f334 b4be 8237 90be
00000020: 758d 1dbd 8dcf 3abe 670a 473c 7ede ab3d
00000030: 36d3 82be 8513 28bd 9455 e13e 95c6 c6be
00000040: 5952 aabe fb2e 583e 9ccb 67be 9ee1 c4be
00000050: 9c4c 59be ef16 80be 4b20 c53e 7b57 2d3f
00000060: d944 41be 1234 f33c c5e7 943e 3a15 623d
00000070: 9359 62be dc72 6f3e 505d 373d 344c d1bd
00000080: b140 093e 1ad7 403e 1ea8 693d 6a40 573e
00000090: 5d40 1fbe 432d d1bd fc18 fcbd 10e8 b2be
000000a0: c425 e3be 5ac1 bebc a462 ccbd f7c9 b9be
000000b0: 25ea 7abe 3f5c 14ba 6a2e 123e 98ef 2a3e
000000c0: f9ae 393d e72f 393e fe33 9ebe 780a 81bc
000000d0: fb5b 52be 97af ddbd 66b7 bf3d 7d2b 933d
000000e0: 8419 90bd 49ed 1d3e 69e2 373f ffb7 643e
000000f0: c9ce 9f3d 4d25 c63e a97c a5bd 4025 95be
00000100: 9f57 833a 2a41 843d 4f4b ddbe 951a 313e
00000110: a047 3d3d 23e0 703c 3ace 623e 2547 f63e
00000120: 4d3e c4bc 5ea0 773d 4591 463e 7ac8 943e
00000130: 1a82 0f3f 11c3 8e3e b819 5ebd cec8 a03e
00000140: 1472 90be a28f b3bd e62e a8be a949 f63e
00000150: 765c fa3d 8ad0 59be 547a 52bd c8a7 38be
00000160: 8791 1dbe 343f 423e ac9c 493d bac4 113e
00000170: 91c8 0a3e 63d5 44bc a925 a73d 2b74 eebd
00000180: 62dc 43be 55dd 483e c2d8 78be f951 7fbe
00000190: 9858 963d 5b0d 103e 9166 14be de3f af3d
000001a0: 5d10 c93c b05b 50bd c90c 863e ea73 1f3e
000001b0: 6643 67be 2cec f73d f56c 00be a3a0 9a3d
000001c0: 7235 af3e f469 763e 1567 94be c29c 163f
000001d0: cebd 52be 846b 823e 8c09 e93c 5301 80be
000001e0: 39fb 0fbd 8920 e5bd 5fb4 a2be d0e4 2dbe
000001f0: 3fc3 0dbe ad81 07be 378a 19be 934d 793d
00000200: 4b4d 6c3c 6b0a ccbd 4617 863e 0df7 e0be
00000210: 9a50 233e fec4 1b3f 7a82 f63e 12d5 6abc
00000220: a986 adbd 8e26 d53c 1464 963d 8963 d73d
00000230: 8a2f 72bd 3879 5ebe 542a 663c c475 c9bd
00000240: f6f8 053f 005d 3b3e e891 dcbd 0666 813e
00000250: e898 173f 90f4 263f 731d 8bbe 5c7a bfbe
00000260: 78c7 683d 696b 6dbe 7f7f f0be c209 09bf
00000270: 080d 8f3e d53f 5fbe ddf9 f3be 782c 03bd
00000280: 2932 b93d 30f2 d53d c115 93be 5709 bbbe
00000290: cbe6 f3bd 0a27 fdbe aa22 383e 9552 2b3e
000002a0: 4163 b2bd 320a 223d 9cf3 39be 5d09 b13e
000002b0: e4ea 96be 54c5 19be 851a a73e e296 553e
000002c0: 202e 29bd 2e7d c43b ad0c 053d 4e29 02be
000002d0: ea96 1ebd 68af 5d3d cb79 e43b d60d 5b3e
000002e0: faeb 05bd 3d98 0d3e 95ef 80bd 34e3 013c
000002f0: fab6 543e f0cf f63d 4f84 553e 4e12 b3be
00000300: 2b2c 703e 23e6 c43e ae1e d4be 6b75 e43e
00000310: f4a6 023e bb28 96bd 96dc ef3d 337c b2be
00000320: d769 cd3e f1d9 003f 7675 8a3e b691 043d
00000330: 45aa e93a d81f 9b3e f653 c13d a019 313e
00000340: c290 e13c 2db0 e5bd 5b17 8b3d 7aec fbbd
00000350: 37b8 0b3f 536b 66bd 59a2 af3d 4be1 e7bd
00000360: fe30 42be 42cd 9abe f969 2dbe d494 03be
00000370: 74c1 a4be 2253 203d 9f4d 0b3e 81a9 013e
00000380: 3076 993d 0603 7abe 1015 b5bc 0d0a e73d
00000390: 6088 863c 68f2 29be dab9 8f3e d93d a23d
000003a0: 0134 ca3e 5c01 06be 039a e3be 21db cebd
000003b0: 6aab 353e b260 993d 922c 073d 3b97 b33d
000003c0: 319b 253e 7bd0 483e 0669 7e3e 78af a83d
000003d0: ea80 0f3d fc25 a73d aef3 8f3e 0f33 d43e
000003e0: 2262 8b3e 3414 8abd ba2d 953e 8d70 ea3d
000003f0: 14f2 c03e 4084 c7bd 41b0 babd 0c51 ccbc

conv2.3.bias f4 [16]
0.007304487 -0.003776844 -0.0015610096 0.058283858 0.053989105 0.047380947 -0.024254657 0.054836374
-0.00031319674 -0.069933966 -0.030702665 0.04203213 -0.022250703 0.066304974 -0.05468987 -0.0043652123
00000000: 7a5a ef3b ed84 77bb ca9a ccba 0ebb 6e3d
00000010: ae23 5d3d 8612 423d b4b1 c6bc 1b9c 603d
00000020: 8e34 a4b9 8a39 8fbd 2884 fbbc e229 2c3d
00000030: 1b47 b6bc e7ca 873d 7c02 60bd 0e0a 8fbb

conv2.4.weight f4 [16]
1.393161 1.2685947 1.2844312 1.1725357 1.2365469 1.2327908 1.3656502 1.0339255
1.1278201 1.2101588 1.0853562 1.2111162 1.3596745 1.304878 1.2110057 1.2611065
00000000: 1a53 b23f 5061 a23f 3e68 a43f a615 963f
00000010: 2b47 9e3f 17cc 9d3f a0cd ae3f ac57 843f
00000020: 695c 903f 7ce6 9a3f f4ec 8a3f db05 9b3f
00000030: d009 ae3f 3e06 a73f 3c02 9b3f f06b a13f

conv2.4.bias f4 [16]
0.12892571 -0.12882948 0.025280528 0.16705698 0.084342815 -0.2204979 0.09736654 0.4964405
0.022030083 0.023962695 0.0048398892 0.2397042 0.152104 0.095662326 0.33403733 0.1922613
00000000: 1a05 043e e0eb 03be 1c19 cf3c fc10 2b3e
00000010: edbb ac3d 34ca 61be 1c68 c73d 732d fe3e
00000020: 6f78 b43c 6a4d c43c ef97 9e3b 0575 753e
00000030: 27c1 1b3e 9cea c33d f106 ab3e 25e0 443e

conv2.4.running_mean f4 [16]
0.0057037417 1.9606816 -1.8832319 -1.677345 -3.7416196 -0.2482166 -0.43603754 -1.6499416
1.5420642 0.69422436 2.0560505 -3.1934237 -4.4269896 -3.9363139 -4.44511 -1.6265305
00000000: 74e6 ba3b 9df7 fa3f be0d f1bf 3eb3 d6bf
00000010: b276 6fc0 7e2c 7ebe 5040 dfbe 4931 d3bf
00000020: 5c62 c53f b0b8 313f 5596 0340 0e61 4cc0
00000030: e6a9 8dc0 91ec 7bc0 573e 8ec0 2732 d0bf

conv2.4.running_var f4 [16]
9.2765665 8.605873 7.849279 7.625557 9.070856 5.7105494 9.880701 7.854944
7.628909 8.430587 5.4642897 7.6522584 10.860034 9.130833 7.911238 8.387765
00000000: d16c 1441 a8b1 0941 4b2d fb40 9004 f440
00000010: 3a22 1141 d2bc b640 5a17 1e41 b45b fb40
00000020: 0620 f440 afe3 0641 76db ae40 4ddf f440
00000030: b3c2 2d41 e417 1241 dd28 fd40 4934 0641

conv3.0.weight f4 [32, 16, 3, 3]
-0.08048734 -0.17591672 0.14361702 -0.072818734 -0.15259495 0.065585926 0.27466512 -0.07161809
-0.12909557 -0.039281774 0.14477572 0.0776858 0.32401094 0.2515954 -0.0678803 0.10927153
0.2483809 -0.08468623 0.24339357 -0.07638406 -0.25618726 -0.28962946 -0.24076107 -0.023734905
0.23960444 -0.07623572 -0.33492276 0.15499926 0.15384202 0.124795996 -0.25231677 0.005107638
0.10804203 -0.043960597 -0.15811956 0.09235393 0.023036726 -0.20718929 -0.21154751 -0.3745647
-0.35338235 -0.11232853 -0.4609817 -0.14754385 -0.37649673 0.015982283 0.050865013 0.15005244
-0.068076156 -0.12403817 -0.005751449 0.03947025 0.1980875 0.041114002 -0.098339245 -0.0050610797
-0.17800546 0.15738383 0.26168168 0.13604568 -0.18254347 -0.059321467 -0.1110616 0.3915165
0.12968864 -0.045906235 0.043054115 0.2565857 -0.047629878 -0.11715844 0.21110965 0.3127154
-0.103795536 -0.0976639 0.056738265 -0.21521536 -0.34712517 -0.19009702 -0.21325295 -0.4171432
-0.3370334 -0.09463753 -0.066374525 -0.17805189 -0.30580327 -0.50021887 -0.288637 0.067243144
-0.49720702 -0.22260518 -0.032123547 -0.13068195 -0.080232 -0.23953238 -0.520815 -0.1647402
0.03866006 0.0875085 -0.12506129 -0.21922468 0.06349891 -0.31702137 -0.0726796 0.29053178
-0.053973373 -0.45489633 0.014302255 0.22628362 0.2028424 0.1411023 0.15249145 0.079782344
0.20092563 0.46586883 0.089709915 -0.18401252 0.044755027 0.2632976 0.20377013 -0.2456677
-0.08743391 0.09002239 0.24699825 0.14914308 0.015436451 -0.117830746 0.079304755 0.011975081
-0.057167284 0.39640543 0.38021335 -0.027529644 -0.2975842 0.0708165 -0.070215404 0.06072151
-0.058221694 -0.2920142 -0.33965847 -0.5979995 -0.18299311 -0.17996116 0.17208707 -0.099677294
-0.094563425 -0.18228498 -0.06857143 0.52317655 -0.004837408 -0.26364747 0.48295298 0.11384563
-0.044356477 -0.05899711 0.06447178 -0.10372186 0.049954347 0.106215164 -0.31827354 -0.14181717
-0.032357924 -0.2505309 -0.33521527 -0.12640065 -0.008734013 0.20871677 -0.2598526 0.32970354
0.29001853 -0.35867757 0.17353533 -0.2075871 -0.2742493 -0.17207626 0.050254382 0.22924134
0.1020847 0.086736545 0.110579826 0.2774101 -0.13897732 0.13244303 0.015641669 -0.39084202
-0.27126208 0.06252114 -0.3737124 -0.056388088 -0.12030001 -0.3791262 -0.15539247 -0.19278558
0.06868634 -0.5581016 -0.10664063 0.16715734 -0.19964837 -0.08349174 -0.17787059 -0.06380742
-0.06759721 -0.01248777 0.27546147 0.3187881 -0.31685984 0.10402137 -0.07011669 0.28911343
-0.06633727 0.12806635 0.48229703 0.015486934 -0.5700974 -0.22143668 0.36656892 -0.6455136
-0.23519519 0.3810295 -0.16538888 -0.29339585 -0.063581824 0.063865684 -0.59947133 -0.21256171
0.11902714 -0.30614725 -0.37538472 -0.055441454 0.15255411 0.0047909007 0.22835043 -0.2653479
0.08967474 0.04038214 -0.17615414 -0.18618312 0.082410425 0.2944987 0.10284858 0.121594496
-0.20944577 -0.004970302 0.36003858 -0.4574534 0.05825034 0.17705293 -0.019166099 0.36277324
0.067709796 -0.044612788 0.4243341 -0.035830993 -0.25110617 -0.094991915 0.11535007 0.56891525
00000000: 8cd6 a4bd 8323 34be 5710 133e fd21 95bd
00000010: da41 1cbe ea51 863d e8a0 8c3e 81ac 92bd
00000020: a131 04be ede5 20bd 1640 143e bc19 9f3d
00000030: c3e4 a53e 1dd1 803e d404 8bbd c0c9 df3d
00000040: 9057 7e3e f96f adbd 2a3c 793e 3f6f 9cbd
00000050: fa2a 83be 504a 94be 128a 76be b46f c2bc
00000060: de5a 753e 7921 9cbd ff7a abbe 20b8 1e3e
00000070: c388 1d3e 0b95 ff3d aa2f 81be f95d a73b
00000080: 2445 dd3d 0710 34bd 18ea 21be 0f24 bd3d
00000090: 84b7 bc3c 6e29 54be e99f 58be f2c6 bfbe
000000a0: 88ee b4be 800c e6bd cb05 ecbe bc15 17be
000000b0: 2ec4 c0be 47ed 823c d557 503d 59a7 193e
000000c0: 836b 8bbd b907 febd a776 bcbb 8fab 213d
000000d0: 73d7 4a3e 2867 283d 1666 c9bd 6ad7 a5bb
000000e0: 1047 36be 3a29 213e 24fb 853e 8f4f 0b3e
000000f0: adec 3abe 11fb 72bd 4474 e3bd da74 c83e
00000100: 19cd 043e 2d08 3cbd 8359 303d 335f 833e
00000110: 8c17 43bd c4f0 efbd 212d 583e 3c1c a03e
00000120: c192 d4bd 0304 c8bd 6266 683d 6a61 5cbe
00000130: 64ba b1be cba8 42be fb5e 5abe cb93 d5be
00000140: a48f acbe 52d1 c1bd 5eef 87bd 3c53 36be
00000150: 3f92 9cbe 580e 00bf 3bc8 93be c6b6 893d
00000160: eb91 febe 9df2 63be fb93 03bd 7dd1 05be
00000170: ad50 a4bd fa47 75be 2254 05bf a8b1 28be
00000180: 035a 1e3d a837 b33d 1110 00be 6f7c 60be
00000190: b70b 823d a050 a2be 0bd9 94bd 95c0 943e
000001a0: 2f13 5dbd 2ce8 e8be 0154 6a3c e5b6 673e
000001b0: ebb5 4f3e 1f7d 103e b826 1c3e ed64 a33d
000001c0: 73bf 4d3e 5c86 ee3e d5b9 b73d c76d 3cbe
000001d0: 0c51 373d f1ce 863e 1ea9 503e 5090 7bbe
000001e0: 8d10 b3bd a95d b83d 1ced 7c3e f7b8 183e
000001f0: 2be9 7c3c 3f51 f1bd 886a a23d 2133 443c
00000200: 3e28 6abd a7f5 ca3e 53ab c23e d985 e1bc
00000210: f55c 98be 3e08 913d 18cd 8fbd 1eb7 783d
00000220: df79 6ebd e382 95be b7e7 adbe 7f16 19bf
00000230: 8c62 3bbe bd47 38be 9837 303e 9c23 ccbd
00000240: 78aa c1bd eaa8 3abe 2e6f 8cbd e6ee 053f
00000250: 1f83 9ebb cdfc 86be 9d45 f73e e627 e93d
00000260: 23af 35bd f4a6 71bd c809 843d 206c d4bd
00000270: ee9c 4c3d 5687 d93d c0f4 a2be 8538 11be
00000280: be89 04bd 9645 80be 56a1 abbe 2c6f 01be
00000290: 1b19 0fbc d9b9 553e 660b 85be e7ce a83e
000002a0: 4f7d 943e 96a4 b7be 3fb3 313e b691 54be
000002b0: 676a 8cbe c234 30be 8ad7 4d3d 3ebe 6a3e
000002c0: c811 d13d eea2 b13d ad77 e23d b208 8e3e
000002d0: 1250 0ebe 259f 073e f522 803c 721c c8be
000002e0: dde2 8abe 150b 803d 3b57 bfbe 32f7 66bd
000002f0: da5f f6bd d41c c2be 341f 1fbe 9569 45be
00000300: 6cab 8c3d bfdf 0ebf 6766 dabd 4b2b 2b3e
00000310: 9f70 4cbe b8fd aabd b523 36be 77ad 82bd
00000320: 6870 8abd 8199 4cbc 4909 8d3e 3238 a33e
00000330: 743b a2be 2809 d53d 5799 8fbd ad06 943e
00000340: d6db 87bd d323 033e a3ef f63e e9bc 7d3c
00000350: e7f1 11bf 4cc0 62be ecae bb3e 6140 25bf
00000360: 02d7 70be 4c16 c33e b45b 29be fb37 96be
00000370: 3037 82bd 03cc 823d f476 19bf c7a9 59be
00000380: 80c4 f33d 55bf 9cbe 6d32 c0be 9416 63bd
00000390: 2537 1c3e fdfc 9c3b b2d4 693e aedb 87be
000003a0: 64a7 b73d be67 253d c061 34be caa6 3ebe
000003b0: ccc6 a83d 89c8 963e 47a2 d23d 8906 f93d
000003c0: f478 56be eadd a2bb fa56 b83e 5537 eabe
000003d0: e997 6e3d 5d4d 353e 3902 9dbc 6abd b93e
000003e0: 6fab 8a3d e6bb 36bd 5242 d93e 85c3 12bd
000003f0: fd90 80be 1f8b c2bd a83c ec3d 6ea4 113f

conv3.0.bias f4 [32]
-0.04921305 0.074744456 0.036362898 -0.041135125 0.027714055 0.023221087 -0.07628937 0.072279066
0.07524288 0.07310393 -0.023090094 -0.029178401 -0.04158806 6.737433e-05 0.023370516 -0.002507055
0.029019337 0.029117286 -0.052529246 -0.04820066 -0.031110039 0.081572734 -0.054124624 -0.044750404
-0.05297392 -0.005957362 0.06276917 -0.009371599 -0.045563668 -0.066045746 -0.069821805 -0.0049228454
00000000: a093 49bd 9f13 993d 43f1 143d 4e7d 28bd
00000010: 9608 e33c 263a be3c 9a3d 9cbd 0c07 943d
00000020: f018 9a3d 83b7 953d 7027 bdbc 8b07 efbc
00000030: 3e58 2abd 514b 8d38 8673 bf3c 674d 24bb
00000040: f6b9 ed3c 6087 ee3c e828 57bd 0e6e 45bd
00000050: 7bda febc 9b0f a73d c8b1 5dbd 334c 37bd
00000060: 2efb 58bd f935 c3bb 1f8d 803d 568b 19bc
00000070: f8a0 3abd fe42 87bd bcfe 8ebd d24f a1bb

conv3.1.weight f4 [32]
1.2499012 1.2206196 1.0438306 1.1508033 1.4114709 1.0915142 1.3466496 1.2919165
1.2410957 1.0472755 1.0035537 1.097278 1.164707 1.3128991 1.1379099 1.218821
1.2438356 1.2618877 1.1040386 1.1787218 1.1170979 1.0436096 1.2079743 1.2382897
1.3528359 1.2842512 1.1656337 1.1098753 1.0104944 0.8817587 1.2052776 1.1270227
00000000: c3fc 9f3f 433d 9c3f 3e9c 853f 864d 933f
00000010: 14ab b43f bdb6 8b3f 045f ac3f 855d a53f
00000020: 39dc 9e3f 200d 863f 7374 803f 9b73 8c3f
00000030: 1e15 953f 140d a83f 08a7 913f 5402 9c3f
00000040: 0136 9f3f 8985 a13f 2351 8d3f 5be0 963f
00000050: 10fd 8e3f 0095 853f e79e 9a3f 4780 9e3f
00000060: ba29 ad3f 5862 a43f 7c33 953f 6510 8e3f
00000070: e157 813f f0ba 613f 8946 9a3f 4842 903f

conv3.1.bias f4 [32]
-0.15691167 0.06969346 -0.28214815 -0.29126224 -0.25875214 -0.21535511 -0.08091778 -0.15679361
-0.102956146 0.048725184 -0.02292424 -0.042254463 -0.2821327 -0.33291745 -0.009909592 -0.31718713
-0.3528047 -0.49073878 -0.1575543 -0.3145569 -0.21593405 -0.25070676 -0.13734171 -0.25808054
-0.31305635 -0.15429585 -0.33783644 -0.111774325 -0.24353175 0.01645315 -0.2664149 -0.019955136
00000000: 74ad 20be 72bb 8e3d b975 90be 5320 95be
00000010: 297b 84be 0d86 5cbe 39b8 a5bd 818e 20be
00000020: acda d2bd 0f94 473d 9ecb bbbc 0413 2dbd
00000030: b273 90be 2874 aabe d75b 22bc 5a66 a2be
00000040: d1a2 b4be 1d42 fbbe ea55 21be 9a0d a1be
00000050: d11d 5dbe a35c 80be 4ea3 0cbe 2223 84be
00000060: ec48 a0be bbff 1dbe e6f8 acbe f0e9 e4bd
00000070: 6360 79be c2c8 863c 8967 88be f478 a3bc

conv3.1.running_mean f4 [32]
-4.671403 -3.5979707 1.5574733 -0.6364588 -3.8535824 1.6098837 -4.3762546 -4.6267343
-2.207749 -4.0789576 -2.245611 -2.6211472 1.461192 -2.1932843 -5.422879 -4.6082563
-2.0794234 1.6627136 1.3777697 -2.6135497 -0.79645455 -0.14726873 -4.3877373 -4.7137966
-7.0411453 -2.206449 -0.2205674 -2.316352 -0.86416113 3.7908382 -2.2274008 -4.786187
00000000: 227c 95c0 2745 66c0 495b c73f f7ee 22bf
00000010: 18a1 76c0 ab10 ce3f 470a 8cc0 350e 94c0
00000020: c24b 0dc0 d286 82c0 17b8 0fc0 e0c0 27c0
00000030: 5708 bb3f c55e 0cc0 3a88 adc0 d676 93c0
00000040: 4615 05c0 cdd3 d43f c25a b03f 6644 27c0
00000050: 72e4 4bbf 9dcd 16be 5868 8cc0 6cd7 96c0
00000060: 1051 e1c0 7636 0dc0 6cdc 61be 1c3f 14c0
00000070: aa39 5dbf 189d 7240 bc8d 0ec0 7228 99c0

conv3.1.running_var f4 [32]
21.458107 15.273893 10.214451 12.855158 16.380825 10.935131 14.904701 15.612787
14.759463 13.091942 13.015063 13.268812 12.3036 14.744385 11.782307 12.724389
10.321416 12.414069 10.8832445 12.145611 11.509376 10.872554 13.392085 13.977613
11.416417 12.826581 9.347335 12.786447 11.073066 10.955487 14.143609 9.716666
00000000: 34aa ab41 de61 7441 646e 2341 baae 4d41
00000010: ee0b 8341 4cf6 2e41 a879 6e41 facd 7941
00000020: c326 6c41 9878 5141 b33d 5041 0e4d 5441
00000030: 8cdb 4441 00e9 6b41 5484 3c41 1997 4b41
00000040: 8524 2541 07a0 4641 c521 2e41 6c54 4241
00000050: 6726 3841 fbf5 2d41 fb45 5641 4ea4 5f41
00000060: a5a9 3641 ad39 4d41 af8e 1541 4995 4c41
00000070: 472b 3141 ad49 2f41 394c 6241 7777 1b41

conv3.3.weight f4 [32, 32, 3, 3]
-0.009254473 0.041430123 -0.0375653 0.33279988 -0.21400842 0.18114305 0.1380206 -0.31738678
-0.042840507 -0.21263583 0.012626935 -0.1777941 -0.16308725 -0.11923422 -0.1574278 0.08095191
0.031663775 -0.03601566 -0.36050686 0.07037271 0.11695751 -0.047257364 0.05415425 -0.0061181053
-0.35142657 0.15996894 -0.0058544935 0.18526022 0.08038735 0.058623582 -0.1793871 0.10204761
0.052066065 -0.16146018 -0.14352567 -0.26273793 0.1731813 0.24296357 0.09237424 0.14878835
-0.17243387 -0.077047996 0.04260163 -0.11932891 -0.0017444534 0.0055001075 -0.225514 0.018480845
0.050176818 -0.004414336 0.12194077 -0.2604347 -0.1249874 -0.27245733 0.2587602 0.13027544
-0.34558964 -0.05283182 -0.0071385577 0.41151097 0.11840879 -0.2660027 0.08782212 -0.07982836
0.049847007 0.16321854 -0.038714 -0.016912067 -0.24151854 -0.024708442 0.012161949 -0.198593
-0.15186182 -0.052431803 0.22847949 -0.2198624 -0.27440766 -0.21818347 -0.11581372 -0.23141427
-0.20081414 -0.34693024 -0.27077132 -0.16215256 -0.078170426 -0.20240314 -0.039395757 0.14160787
-0.07259155 0.26280516 0.09892454 0.32875976 -0.07115706 -0.080278076 0.12675042 0.22257859
-0.39778283 -0.028108278 0.058499392 0.18833718 -0.049446326 -0.42344415 0.30610374 0.0637763
-0.3199862 -0.11124738 0.21595939 0.022173537 -0.23108855 0.14128795 0.19719027 0.2804508
0.1845595 0.19567797 -0.12638025 -0.033900972 0.18023548 -0.076977424 0.29872584 0.31024122
-0.110900685 -0.029523827 0.12923817 -0.31813908 0.033753064 0.03792401 0.042910714 -0.07677476
-0.07575754 -0.19668703 -0.28051344 -0.26523718 -0.14725667 0.26966697 0.3079681 0.16387841
0.043935005 -0.17280428 0.04424168 0.51102805 -0.15918036 -0.15607472 0.037617892 -0.16964303
-0.27854246 0.022044055 -0.22925156 0.099657305 0.023232762 0.17008269 0.22009765 0.3640214
0.026161645 -0.18277068 -0.19851443 -0.12185702 -0.062996075 -0.17691468 0.010068235 0.29505405
0.011626557 -0.52317303 0.081211664 0.055925917 -0.08826724 -0.32839724 -0.39349142 -0.16813211
-0.24179338 0.03681654 0.2149222 0.30304414 0.25278157 0.26187426 0.061556686 0.48000637
0.14515755 -0.0016448819 0.053437747 -0.07596935 -0.3397617 -0.15581386 -0.17375182 0.122607626
-0.11126435 -0.18051615 0.032087985 -0.070781186 -0.06976072 0.14518152 0.056940816 0.120308466
-0.12897559 0.08402888 0.086256586 -0.27385998 -0.031350676 0.16180508 0.35691932 -0.17522082
0.06790241 -0.05366408 -0.12889247 0.08414477 -0.06686615 -0.23135658 0.1491707 -0.02056912
0.084010825 -0.0034594336 -0.14373797 -0.056927208 -0.22464946 0.011473459 -0.18904093 -0.17668349
-0.036928304 -0.2557011 -0.028564788 0.056339975 -0.1869155 -0.27467504 -0.23443805 -0.14492814
0.0028808333 -0.120187655 -0.257033 -0.34950116 0.2422316 -0.0534086 -0.06581862 0.01002766
0.025673538 -0.16780192 0.055824842 -0.17759502 -0.2925816 0.09680686 -0.21820465 -0.25977716
0.029039765 0.10910766 0.093181156 -0.17938295 0.1282377 -0.11292979 0.034970164 0.06355563
-0.03497821 -0.06572742 -0.18849848 0.22481444 0.18315889 -0.15437284 0.2986388 -0.24822304
00000000: 13a0 17bc a2b2 293d 12de 19bd bf64 aa3e
00000010: 0625 5bbe 907d 393e 4655 0d3e 8580 a2be
00000020: 8779 2fbd 35bd 59be 34e1 4e3c a80f 36be
00000030: 5800 27be 1231 f4bd c134 21be 1dca a53d
00000040: e0b1 013d 2885 13bd 5b94 b8be 911f 903d
00000050: 6b87 ef3d f090 41bd d9d0 5d3d 637a c8bb
00000060: 2fee b3be e6ce 233e 0dd7 bfbb dbb4 3d3e
00000070: 1fa2 a43d 481f 703d 40b1 37be 56fe d03d
00000080: 3a43 553d d155 25be 65f8 12be 9685 86be
00000090: 7056 313e 71cb 783e b52e bd3d f95b 183e
000000a0: 8192 30be 57cb 9dbd 0c7f 2e3d b762 f4bd
000000b0: 25a6 e4ba 3f3a b43b 24ed 66be 2465 973c
000000c0: 3586 4d3d 22a6 90bb 15bc f93d b257 85be
000000d0: 65f9 ffbd 877f 8bbe 387c 843e ed66 053e
000000e0: 20f1 b0be 2e66 58bd 90ea e9bb 91b1 d23e
000000f0: 4f80 f23d 8231 88be 15dc b33d 0d7d a3bd
00000100: 602c 4c3d c322 273e 9292 1ebd 2d8b 8abc
00000110: a350 77be 5c69 cabc e942 473c f75b 4bbe
00000120: aa81 1bbe bbc2 56bd 87f6 693e 9c23 61be
00000130: 297f 8cbe 7d6b 5fbe be2f edbd ddf7 6cbe
00000140: 39a2 4dbe d7a0 b1be 8aa2 8abe 520b 26be
00000150: d117 a0bd c542 4fbe 725d 21bd a701 113e
00000160: e1aa 94bd 668e 863e f398 ca3d 3353 a83e
00000170: cbba 91bd d568 a4bd ddca 013e a4eb 633e
00000180: 31aa cbbe 5543 e6bc 0f9d 6f3d 76db 403e
00000190: 3b88 4abd accd d8be a1b9 9c3e 269d 823d
000001a0: 3bd5 a3be abd5 e3bd 7524 5d3e 47a5 b53c
000001b0: 7aa2 6cbe caad 103e 3fec 493e 3f97 8f3e
000001c0: 2afd 3c3e ce5f 483e d369 01be bfdb 0abd
000001d0: a68f 383e 57a6 9dbd 98f2 983e f0d7 9e3e
000001e0: e61f e3bd f4db f1bc 0357 043e 20e3 a2be
000001f0: a740 0a3d 3556 1b3d 25c3 2f3d 163c 9dbd
00000200: c526 9bbd 5368 49be 759f 8fbe 2bcd 87be
00000210: 74ca 16be ca11 8a3e ffad 9d3e becf 273e
00000220: 31f5 333d 9bf3 30be c436 353d bcd2 023f
00000230: 2d00 23be 0dd2 1fbe 3815 1a3d e7b6 2dbe
00000240: 1e9d 8ebe bc95 b43c ecc0 6abe 2119 cc3d
00000250: a252 be3c 282a 2e3e 4761 613e 0361 ba3e
00000260: f250 d63c 3d28 3bbe 5e47 4bbe 2c90 f9bd
00000270: 1604 81bd 1f29 35be 3df5 243c 5311 973e
00000280: 517d 3e3c abee 05bf 4d52 a63d 9312 653d
00000290: 74c5 b4bd af23 a8be b577 c9be d32a 2cbe
000002a0: af98 77be f1cc 163d 9114 5c3e 9a28 9b3e
000002b0: 966c 813e 6214 863e dd22 7c3d 65c3 f53e
000002c0: 2ea4 143e 1499 d7ba 8ae1 5a3d d295 9bbd
000002d0: 3ff5 adbe ab8d 1fbe ffeb 31be b519 fb3d
000002e0: 90de e3bd 3ad9 38be b16e 033d baf5 90bd
000002f0: b5de 8ebd 77aa 143e c63a 693d 4964 f63d
00000300: 2d12 04be 5517 ac3d 4ba7 b03d 6037 8cbe
00000310: 9169 00bd 3bb0 253e 21be b63e 166d 33be
00000320: 6b10 8b3d dece 5bbd 63fc 03be 1854 ac3d
00000330: 1ff1 88bd bde8 6cbe 34c0 183e 9280 a8bc
00000340: de0d ac3d aab7 62bb 0c30 13be 812c 69bd
00000350: 820a 66be 2dfb 3b3c f293 41be 84ec 34be
00000360: 2242 17bd 41eb 82be b400 eabc bfc4 663d
00000370: c766 3fbe 35a2 8cbe 8710 70be 0b68 14be
00000380: 5dcc 3c3b f224 f6bd d499 83be d1f1 b2be
00000390: 900b 783e fac2 5abd eacb 86bd 0e4b 243c
000003a0: 5051 d23c 44d4 2bbe 97a8 643d 78db 35be
000003b0: 41cd 95be ad42 c63d 0a71 5fbe 8301 85be
000003c0: cde4 ed3c d673 df3d c3d5 be3d 2ab0 37be
000003d0: be50 033e bc47 e7bd e03c 0f3d 7429 823d
000003e0: 5045 0fbd 199c 86bd bf05 41be c235 663e
000003f0: 018e 3b3e ea13 1ebe 2fe7 983e 2e2e 7ebe

conv3.3.bias f4 [32]
-0.015354884 -0.049592376 0.034101978 0.0027270152 -0.043880392 -0.009870031 0.021122567 0.0015321694
-0.027316665 0.023148911 0.015162526 -0.015348723 -0.005248069 -0.041605283 0.0015324051 -0.058756713
0.029324014 0.0017103548 0.009189652 -0.025127403 0.057669967 -0.040516883 -0.008084531 -0.031896193
-0.05236047 0.016668895 0.00938604 0.016698856 -0.007337835 -0.054687664 0.05860591 0.012298563
00000000: 0d93 7bbc 6021 4bbd 84ae 0b3d b9b7 323b
00000010: edbb 33bd e9b5 21bc 3c09 ad3c 13d3 c83a
00000020: 33c7 dfbc c9a2 bd3c 3e6c 783c 3679 7bbc
00000030: fef7 abbb 4d6a 2abd fcda c83a e1aa 70bd
00000040: ea38 f03c fc2d e03a 3290 163c fcd7 cdbc
00000050: 5837 6c3d 08f5 25bd fb74 04bc 95a5 02bd
00000060: ef77 56bd 358d 883c e8c7 193c 0acc 883c
00000070: 3972 f0bb 2c00 60bd c00c 703d e97f 493c

conv3.4.weight f4 [32]
1.0759817 1.0420583 1.0549545 1.1599444 1.0175898 1.0644081 0.91616696 1.2232481
1.1564871 1.1964431 1.1385821 1.1367213 0.97988313 1.360733 1.0492233 1.049385
1.0887076 0.9532306 1.1735326 1.0118577 1.090256 1.1566306 1.0808401 1.0396534
0.9930025 0.9869996 0.96027637 1.0301956 1.0205588 1.2358222 1.1679039 1.0219116
00000000: c5b9 893f 2b62 853f c008 873f 0f79 943f
00000010: 6240 823f 863e 883f eb89 6a3f 6593 9c3f
00000020: c507 943f 0c25 993f 0fbd 913f 1580 913f
00000030: 9fd9 7a3f 802c ae3f f34c 863f 3f52 863f
00000040: c55a 8b3f ec06 743f 5136 963f 8e84 813f
00000050: 828d 8b3f 790c 943f f858 8a3f 5d13 853f
00000060: 6935 7e3f 01ac 7c3f acd4 753f 73dd 833f
00000070: aca1 823f 6c2f 9e3f e07d 953f 00ce 823f

conv3.4.bias f4 [32]
-0.6393444 -0.31275985 -0.55830586 -0.58555955 -0.500035 -0.5390587 -0.41066644 -0.6985346
-0.69946694 -0.5513693 -0.59927285 -0.48110646 -0.41084206 -0.56022435 -0.40678474 -0.40493396
-0.57125443 -0.40384516 -0.35295957 -0.31277198 -0.47884232 -0.5083504 -0.6370385 -0.45380113
-0.17727055 -0.5047107 -0.38904914 -0.58137035 -0.3021263 -0.5620925 -0.57888323 -0.37247565
00000000: 13ac 23bf 0f22 a0be 22ed 0ebf 3be7 15bf
00000010: 4b02 00bf c0ff 09bf df42 d2be 2ad3 32bf
00000020: 4410 33bf 8a26 0dbf f269 19bf 9653 f6be
00000030: e459 d2be dd6a 0fbf 1746 d0be 8153 cfbe
00000040: bb3d 12bf cbc4 cebe 1eb7 b4be a623 a0be
00000050: d22a f5be 4023 02bf f514 23bf 9f58 e8be
00000060: 6986 35be b834 01bf 7331 c7be b0d4 14bf
00000070: 4cb0 9abe 4be5 0fbf b131 14bf 21b5 bebe

conv3.4.running_mean f4 [32]
-2.1146908 -1.7030249 -0.99441814 -5.7083945 -0.42967921 -2.5230467 0.16754241 -1.6849413
-1.0046313 -2.755161 -0.83613133 -1.7688521 1.8480225 -2.7021203 -2.2793632 -3.0667253
-0.5983921 -1.5534214 -1.579607 1.1443652 1.1297369 -1.804518 -1.8176467 -1.8637123
-3.1142154 -0.6115173 0.4121132 -2.0323732 -1.48327 -3.2041042 -0.9050948 -0.8754308
00000000: 1857 07c0 b8fc d9bf 3092 7ebf 2bab b6c0
00000010: eafe dbbe 9979 21c0 3d90 2b3e 28ac d7bf
00000020: c297 80bf 8f54 30c0 b40c 56bf bf69 e2bf
00000030: 008c ec3f 8aef 2cc0 16e1 11c0 3a45 44c0
00000040: 3a30 19bf 83d6 c6bf 9030 cabf 8f7a 923f
00000050: 389b 903f 72fa e6bf a6a8 e8bf 208e eebf
00000060: 4e4f 47c0 668c 1cbf 8000 d33e 6712 02c0
00000070: cbdb bdbf 0b10 4dc0 4bb4 67bf 3c1c 60bf

conv3.4.running_var f4 [32]
4.1704965 4.729899 4.4237857 5.600448 4.3257155 5.4444494 3.4826083 6.5895576
3.993228 4.5450683 4.6933537 4.473301 3.9133916 6.870037 4.772501 4.5760303
4.4082313 4.5079074 5.8247914 3.5055606 4.438627 4.505781 5.454642 3.6855397
4.1331873 4.4170756 3.9170108 4.746268 4.270434 4.278057 6.4880967 4.1945057
00000000: b574 8540 555b 9740 a78f 8d40 df36 b340
00000010: 436c 8a40 ee38 ae40 0ee3 5e40 a8dd d240
00000020: 0c91 7f40 3371 9140 f42f 9640 4825 8f40
00000030: 0275 7a40 58d7 db40 54b8 9840 d76e 9240
00000040: 3b10 8d40 c740 9040 b164 ba40 1b5b 6040
00000050: 3b09 8e40 5c2f 9040 6d8c ae40 e2df 6b40
00000060: 1243 8440 af58 8d40 4eb0 7a40 6de1 9740
00000070: 65a7 8840 d8e5 8840 7d9e cf40 6439 8640
