trained_models/last_cnn.pt (torch, 958866 bytes, 92 tensors)

conv1.0.weight f4 [8, 3, 3, 3]
0.39703012 0.5142114 -0.29603487 -0.14968497 -0.35805216 0.27943534 -0.17144322 -0.53649485
0.11775721 0.25769818 -0.1989619 -0.38957337 -0.1284898 -0.6579844 0.5305991 0.44165018
-0.2153634 0.5300061 0.011211011 -0.043068618 -0.64373094 -0.030318577 -0.15127647 0.7437064
0.18847664 -0.46571234 0.3731757 0.05164877 0.64334834 0.068457484 0.38470808 0.28989848
-0.032361288 -0.30544278 -0.07877458 0.24918875 0.2563031 0.36745644 -0.25512767 -0.08582907
0.04403113 -0.23809786 -0.32038268 -0.31517616 -0.21934278 0.39622366 0.27770016 -0.06764008
0.2537664 -0.23638448 -0.44131687 -0.25835526 -0.27510804 0.062065594 0.0027453452 -0.3970169
0.17611027 -0.22663084 0.012684402 0.36309525 -0.34859583 -0.4093749 -0.12381866 0.13991348
-0.17968965 -0.038299814 -0.0614438 0.30257893 0.16505414 0.023184732 -0.08791875 -0.072935365
0.38419834 -0.02561414 -0.79324144 0.4886561 0.6814761 0.09869698 0.393509 0.2988373
-0.33531561 -0.09353577 0.054738812 0.33986112 -0.5673731 -0.4040168 0.047406927 -0.19811152
-0.10930337 0.5832812 -0.097382635 -0.010608661 0.4516893 -0.49878666 -0.4082267 -0.21187635
-0.45402044 -0.10843365 0.16767855 0.13318455 0.393013 0.4074392 -0.21140125 0.03658841
0.120355695 0.16324836 0.0846107 0.14213732 -0.31575635 0.29071334 0.38766816 0.43911335
0.38589814 -0.17188522 -0.044046763 -0.17524321 -0.11255735 -0.23839107 -0.25035563 -0.30245313
0.5062975 -0.13799688 -0.7277439 0.09934452 -0.006845631 -0.27169868 0.1222917 -0.0998027
-0.14163755 0.78132355 0.08356418 -0.65480745 0.70683944 0.021214772 -0.33181873 0.32542595
0.44756883 0.31125206 -0.025818784 -0.30024216 0.052436646 0.120667465 -0.46892104 -0.3932571
0.24724759 0.10432258 0.49496484 0.03345834 -0.498202 -0.12882249 0.5368255 -0.5229131
-0.26621622 -0.23648943 -0.35967314 0.3999148 -0.09401941 -0.18117782 0.13469505 0.2964118
-0.087333575 0.036732223 0.4244006 -0.0078116586 0.23877862 0.10999971 -0.10053249 0.9270147
-0.29693753 -0.2939239 -0.61558646 -0.09438032 -0.394221 0.24093284 -0.31489187 -0.7984747
0.68107986 0.03855996 0.14875488 -0.09123827 0.026975602 -0.33539718 -0.093012355 0.34691674
-0.5744832 0.53260684 0.4629398 0.187555 -0.18615611 -0.13927595 0.23992169 0.3037562
0.113807425 -0.03039257 -0.019876327 0.13539274 -0.18933792 -0.14506148 0.06397174 -0.1187141
-0.13979745 -0.012517133 -0.36766353 -0.107152894 -0.014213648 -0.3535957 -0.28952014 0.123668015
-0.020403925 -0.083384156 -0.026879175 -0.092889 -0.1089344 0.119500235 -0.24096611 0.1444746
00000000: 8847 cb3e 5ca3 033f e291 97be 0447 19be
00000010: 9d52 b7be 2612 8f3e d08e 2fbe ba57 09bf
00000020: b12a f13d 04f1 833e abbc 4bbe 2976 c7be
00000030: d592 03be aa71 28bf 58d5 073f f91f e23e
00000040: 3988 5cbe 7bae 073f 63ae 373c b868 30bd
00000050: 8dcb 24bf aa5e f8bc 38e8 1abe 8b63 3e3f
00000060: 0500 413e d971 eebe e310 bf3e a98d 533d
00000070: 7ab2 243f 7033 8c3d 75f8 c43e 936d 943e
00000080: 458d 04bd ff62 9cbe 9154 a1bd 562b 7f3e
00000090: 293a 833e 4023 bc3e 18a0 82be 27c7 afbd
000000a0: fc59 343d edcf 73be 3309 a4be c55e a1be
000000b0: 659b 60be d4dd ca3e b72e 8e3e e286 8abd
000000c0: abed 813e c60e 72be 49f4 e1be 2447 84be
000000d0: f6da 8cbe 7e38 7e3d 40eb 333b cd45 cbbe
000000e0: 4056 343e ea11 68be 3dd2 4f3c 9fe7 b93e
000000f0: 277b b2be 9699 d1be a394 fdbd 7b45 0f3e
00000100: 9000 38be 44e0 1cbd 7eac 7bbd a0eb 9a3e
00000110: f403 293e e8ed bd3c bf0e b4bd 235f 95bd
00000120: a5b5 c43e bfd4 d1bc df11 4bbf 2231 fa3e
00000130: 3875 2e3f a421 ca3d 037a c93e 3401 993e
00000140: 7dae abbe af8f bfbd ce35 603d 4702 ae3e
00000150: 5d3f 11bf 4adb cebe c42d 423d bfdd 4abe
00000160: 72da dfbd eb51 153f 8c70 c7bd f3cf 2dbc
00000170: d243 e73e f760 ffbe 1703 d1be 1df6 58be
00000180: 5e75 e8be 7612 debd edb3 2b3e 8861 083e
00000190: 0039 c93e df9b d03e 9279 58be bbdd 153d
000001a0: 0c7d f63d 942a 273e 6048 ad3d 728c 113e
000001b0: d1aa a1be 61d8 943e 717c c63e 77d3 e03e
000001c0: 7194 c53e ae02 30be 616a 34bd f572 33be
000001d0: 7884 e6bd ca1c 74be 9d2e 80be 23db 9abe
000001e0: b79c 013f 0e4f 0dbe 6d4d 3abf 2475 cb3d
000001f0: 5151 e0bb 171c 8bbe 1274 fa3d 5c65 ccbd
00000200: 6f09 11be d204 483f b223 ab3d 76a1 27bf
00000210: 6ef3 343f 9aca ad3c 25e4 a9be 3b9e a63e
00000220: be27 e53e 6e5c 9f3e ea81 d3bc 57b9 99be
00000230: cfc7 563d 8120 f73d 6b16 f0be ff58 c9be
00000240: 792e 7d3e 14a7 d53d 086c fd3e 9d0b 093d
00000250: 5514 ffbe 0bea 03be 656d 093f a2dd 05bf
00000260: 7e4d 88be 492a 72be 1427 b8be a2c1 cc3e
00000270: 408d c0bd ae86 39be 80ed 093e 4ac3 973e
00000280: f2db b2bd 8774 163d 094b d93e f1f8 ffbb
00000290: 6282 743e 8747 e13d fae3 cdbd d650 6d3f
000002a0: 3208 98be 327d 96be 1397 1dbf 784a c1bd
000002b0: 56d7 c9be 19b7 763e 8239 a1be d768 4cbf
000002c0: 405b 2e3f 0cf1 1d3d 3353 183e 21db babd
000002d0: f0fb dc3c 2eb9 abbe 437d bebd 129f b13e
000002e0: 5511 13bf ec58 083f 7206 ed3e 6b0e 403e
000002f0: b59f 3ebe 5b9e 0ebe 08ae 753e ef85 9b3e
00000300: de13 e93d d7f9 f8bc aed3 a2bc 65a4 0a3e
00000310: cde1 41be ff8a 14be 9e03 833d 6120 f3bd
00000320: 1027 0fbe a914 4dbc 653e bcbe fa72 dbbd
00000330: 5ce0 68bc 7f0a b5be fc3b 94be a845 fd3d
00000340: 2226 a7bc 50c5 aabd b731 dcbc 973c bebd
00000350: 0019 dfbd 8abc f43d d2bf 76be 26f1 133e

conv1.0.bias f4 [8]
0.05724971 -0.08420147 -0.1690628 0.14103998 0.119668186 0.06964421 -0.08383921 -0.011049161
00000000: ac7e 6a3d d271 acbd cc1e 2dbe c96c 103e
00000010: 9814 f53d a0a1 8e3d e4b3 abbd 8a07 35bc

conv1.1.weight f4 [8]
1.1682267 0.6711392 0.6878724 0.8731128 1.0920205 1.098467 1.0786967 0.7327417
00000000: 7488 953f c7cf 2b3f 6818 303f 5284 5f3f
00000010: 54c7 8b3f 919a 8c3f bc12 8a3f f694 3b3f

conv1.1.bias f4 [8]
0.7264876 0.39328608 0.12057862 0.25249702 0.052637093 0.27093905 0.8705668 -0.25471953
00000000: 17fb 393f cb5c c93e ecf1 f63d 4a47 813e
00000010: fe99 573d 86b8 8a3e 77dd 5e3f 996a 82be

conv1.1.running_mean f4 [8]
-0.020956887 0.033313304 0.0012029817 -0.06499042 0.036290154 0.0011740013 -0.014134536 -0.5912498
00000000: c7ad abbc 8873 083d 5ead 9d3a b319 85bd
00000010: fca4 143d f2e0 993a 8a94 67bc 265c 17bf

conv1.1.running_var f4 [8]
0.053282898 0.13965034 0.07962527 0.1898789 0.17965718 0.10733831 0.06413649 0.1058329
00000000: 2b3f 5a3d 8000 0f3e 9312 a33d 9d6f 423e
00000010: 0df8 373e 30d4 db3d fe59 833d ebbe d83d

conv1.3.weight f4 [8, 8, 3, 3]
0.18728064 0.13456252 0.32841778 -0.26754892 -0.13400696 0.061870888 -0.06743547 -0.19548073
-0.12764573 -0.19805911 -0.2210042 -0.4334848 0.18144943 0.05970793 -0.079908095 -0.009952076
-0.075503685 -0.018422911 0.06351058 0.27772665 0.24726842 -0.15303534 -0.31399584 -0.02130636
0.13298547 0.21479458 0.21797001 -0.50835484 -0.347829 -0.16938473 0.18299617 0.5332225
0.19646627 -0.14864728 0.009830609 0.13887073 0.011287387 0.10405831 0.19181389 -0.23888496
-0.2765735 -0.3642666 -0.23733142 -0.107421644 -0.2006282 0.0330032 -0.02379822 0.08725001
0.23904064 0.04364732 0.008424178 -0.18990864 0.009586012 -0.043586195 0.31749216 0.31205434
0.3037221 -0.20106876 -0.7348863 -0.3575429 -0.008478761 -0.01938865 -0.002882718 -0.3540444
-0.36429372 0.027213553 -0.17592514 -0.14309302 0.116577104 -0.012313799 0.13258702 0.18447725
-0.13721582 0.061276957 -0.23701464 -0.12539104 0.3419422 -0.20325544 -0.22794436 0.3854647
0.018555762 0.13062553 0.09174715 0.22729558 -0.17115827 -0.110368036 0.13891862 -0.29072192
-0.18206191 0.0045015025 0.20710814 0.3059719 0.055090897 -0.09735422 -0.20767444 -0.18719868
-0.119442195 -0.13341816 -0.3045672 -0.15600537 -0.10418701 -0.16154703 0.37331516 0.6494751
0.30002427 -0.3380233 -0.005300548 -0.41504133 -0.07309588 0.14660823 0.11766902 -0.050532755
-0.25587136 -0.24527138 -0.046293437 0.07584439 0.19776712 -0.21472357 0.061286062 -0.060693927
0.23600475 0.19964036 0.18295483 -0.31241143 -0.34525427 -0.41737935 0.048923407 0.6057688
-0.005289267 -0.31523564 0.13423558 -0.2770295 -0.071663834 -0.07891859 0.014070263 0.027115934
0.21609794 0.17908493 -0.0058868206 0.13048598 0.06696679 -0.22528195 0.0820219 -0.077914976
0.15739448 0.20209605 -0.21014525 -0.37246403 0.253675 0.39538074 0.55450356 -0.89296865
-0.25015014 -0.15856941 0.024224302 0.16895491 -0.08052607 -0.28881666 -0.19246793 -0.06738124
-0.012561836 -0.12859209 -0.029787371 -0.25884715 -0.15595491 -0.110798106 -0.19973303 -0.0056534936
0.060610794 0.15568241 -0.043856334 -0.06560115 0.098542675 0.09212831 0.14340726 -0.009374914
0.21443121 -0.26582634 -0.22089215 0.31033874 -0.40771005 -0.22985186 -0.29684472 0.12525846
0.28251857 -0.3004469 -0.049855877 0.35415196 0.19692533 0.21758598 -0.14755341 -0.5210386
-0.10724853 0.4753131 0.23307377 -0.18561581 -0.022158341 0.14733261 0.38297522 -0.10607806
-0.023292724 -0.4698 0.3534566 -0.047826044 -0.043128166 -0.24784543 0.06039779 0.20659538
0.1993204 -0.25648573 0.014828405 0.11179504 0.103536196 -0.06606814 -0.0004295173 0.14580356
-0.30772454 -0.12813126 -0.23807636 -0.1577546 -0.04689003 0.061539426 0.4306885 0.14739503
0.27879968 -0.016664863 0.5067454 0.076783165 0.25380966 0.3485543 -0.09368699 -0.15266219
-0.19389236 0.08726148 0.020528622 0.14311783 0.0045231655 0.095989354 -0.18568851 -0.090667345
-0.28142825 -0.25840905 0.13856739 -0.10695139 -0.07991314 0.18347108 -0.19452812 0.040565323
0.2335173 0.054737095 0.22274151 -0.09580838 0.07929728 0.30100858 0.03021802 0.37117192
00000000: 7fc6 3f3e c2ca 093e 6026 a83e 2cfc 88be
00000010: 1f39 09be 546c 7d3d 9c1b 8abd 1a2c 48be
00000020: 90b5 02be 02d0 4abe ed4e 62be b8f1 ddbe
00000030: e1cd 393e 4d90 743d dba6 a3bd 080e 23bc
00000040: ada1 9abd a5eb 96bc d611 823d 3032 8e3e
00000050: ef33 7d3e 4cb5 1cbe 10c4 a0be ad8a aebc
00000060: 582d 083e 1cf3 5b3e 8833 5f3e 8b23 02bf
00000070: a516 b2be 3173 2dbe 5963 3b3e 4581 083f
00000080: 742e 493e fe36 18be 9010 213c 2134 0e3e
00000090: bcee 383c 861c d53d dc6a 443e 429e 74be
000000a0: 0b9b 8dbe 2781 babe 0207 73be e1ff dbbd
000000b0: 7b71 4dbe 5d2e 073d 7cf4 c2bc 22b0 b23d
000000c0: 12c7 743e 88c7 323d 9005 0a3c 6977 42be
000000d0: a60e 1d3c 7087 32bd 558e a23e 96c5 9f3e
000000e0: 7781 9b3e f8e4 4dbe 8221 3cbf dd0f b7be
000000f0: 80ea 0abc f2d4 9ebc fceb 3cbb 4f45 b5be
00000100: b584 babe f5ee de3c b825 34be fa86 12be
00000110: fabf ee3d d1bf 49bc e4c4 073e 9be7 3c3e
00000120: 4e82 0cbe 8cfd 7a3d f7b3 72be 8266 00be
00000130: 0c13 af3e 3222 50be 3f6a 69be a15b c53e
00000140: 4102 983c b3c2 053e eee5 bb3d 2cc0 683e
00000150: 1d44 2fbe a308 e2bd af40 0e3e 81d9 94be
00000160: 706e 3abe 5781 933b 2814 543e 59a8 9c3e
00000170: fea6 613d a661 c7bd 9ca8 54be 03b1 3fbe
00000180: 1c9e f4bd c59e 08be 3bf0 9bbe dfbf 1fbe
00000190: 0060 d5bd 966c 25be 2a23 bf3e 0044 263f
000001a0: c89c 993e 6411 adbe 38b0 adbb 4c80 d4be
000001b0: 4bb3 95bd 7820 163e 75fc f03d 6ffb 4ebd
000001c0: 9201 83be 6c28 7bbe 309e 3dbd 4e54 9b3d
000001d0: 7783 4a3e 7fe0 5bbe 1807 7b3d 329a 78bd
000001e0: 3bab 713e 866e 4c3e 8358 3b3e 64f4 9fbe
000001f0: 2bc5 b0be bfb2 d5be e963 483d aa13 1b3f
00000200: 9651 adbb 9166 a1be 0d75 093e d0d6 8dbe
00000210: 7dc4 92bd 12a0 a1bd f686 663c 3c22 de3c
00000220: c748 5d3e 0a62 373e 3be6 c0bb 1e9e 053e
00000230: e225 893d 50b0 66be 19fb a73d e391 9fbd
00000240: 052c 213e 44f2 4e3e 5130 57be 9bb3 bebe
00000250: b1e1 813e 586f ca3e f2f3 0d3f 9899 64bf
00000260: ae13 80be 0560 22be 0b72 c63c 8402 2d3e
00000270: daea a4bd c7df 93be 5016 45be 2dff 89bd
00000280: 29d0 4dbc a5ad 03be a504 f4bc 9d87 84be
00000290: a5b2 1fbe 1eea e2bd d186 4cbe f140 b9bb
000002a0: 0643 783d 366b 1f3e b3a2 33bd e559 86bd
000002b0: bed0 c93d c4ad bc3d 5ad9 123e 3d99 19bc
000002c0: db93 5b3e 641a 88be 8d31 62be b8e4 9e3e
000002d0: 5fbf d0be 495e 6bbe 08fc 97be c143 003e
000002e0: 46a6 903e 2dd4 99be ad35 4cbd 6853 b53e
000002f0: cba6 493e dcce 5e3e 3e18 17be c962 05bf
00000300: 1ea5 dbbd 3d5c f33e e4aa 6e3e 1212 3ebe
00000310: 6985 b5bc 5cde 163e 5415 c43e 743f d9bd
00000320: 62d0 bebc a089 f0be 43f8 b43e 3ee5 43bd
00000330: 29a7 30bd 31cb 7dbe ac63 773d bd8d 533e
00000340: a61a 4c3e 1952 83be d7f2 723c ccf4 e43d
00000350: c90a d43d bc4e 87bd d630 e1b9 874d 153e
00000360: 128e 9dbe d734 03be 4aca 73be 6c8a 21be
00000370: c30f 40bd c410 7c3d 3483 dc3e b9ee 163e
00000380: d5be 8e3e c084 88bc 11ba 013f 7e40 9d3d
00000390: 57f3 813e b675 b23e f7de bfbd 7a53 1cbe
000003a0: b88b 46be 26b6 b23d a42b a83c 7b8d 123e
000003b0: 1037 943b 1196 c43d 2125 3ebe cdaf b9bd
000003c0: 5d17 90be 314e 84be 9ce4 0d3e 5509 dbbd
000003d0: 80a9 a3bd d8df 3b3e 6132 47be d327 263d
000003e0: 291f 6f3e 0134 603d 5a16 643e 2f37 c4bd
000003f0: 9d66 a23d cc1d 9a3e c88b f73c 3f0a be3e

conv1.3.bias f4 [8]
-0.050665263 0.028706407 0.04376548 -0.08871907 -0.016430136 -0.10105793 -0.07154658 0.017990544
00000000: 6186 4fbd b329 eb3c 6f43 333d 58b2 b5bd
00000010: 7e98 86bc 76f7 cebd 0387 92bd e860 933c

conv1.4.weight f4 [8]
1.1081593 1.0779383 1.1058654 0.8965141 1.2302606 0.879503 0.956372 1.0513525
00000000: 2ad8 8d3f e2f9 893f ff8c 8d3f f381 653f
00000010: 2e79 9d3f 1c27 613f ccd4 743f b892 863f

conv1.4.bias f4 [8]
0.1530036 -0.2069375 -0.027480824 0.20788047 -0.033818305 0.3612157 0.18207094 -0.116464496
00000000: faac 1c3e 6de7 53be 771f e1bc 9ede 543e
00000010: 1085 0abd 44f1 b83e ce70 3a3e f084 eebd

conv1.4.running_mean f4 [8]
-1.1240863 -0.55615604 -0.60655475 1.0703743 -0.06635584 1.098017 -1.3666565 -0.4902772
00000000: 0fe2 8fbf 3e60 0ebf 2c47 1bbf 0602 893f
00000010: 92e5 87bd d28b 8c3f 9aee aebf 9d05 fbbe

conv1.4.running_var f4 [8]
1.6459817 2.0165272 2.2218113 1.5879786 3.9832263 1.8483524 1.3533505 2.3449302
00000000: 87af d23f c80e 0140 2832 0e40 e242 cb3f
00000010: 2eed 7e40 d096 ec3f 973a ad3f 5613 1640

conv2.0.weight f4 [16, 8, 3, 3]
0.027919542 0.045255948 -0.07820468 0.12669528 -0.15916593 0.011314775 -0.1914853 -0.04049171
-0.021466639 0.17026296 0.20261605 0.048440192 -0.04542194 -0.17038326 -0.13743488 0.0889236
0.044433378 0.1478341 -0.04467476 0.14959183 0.30614415 -0.26177165 -0.34348142 0.05226189
-0.014806846 -0.002314709 0.23591708 -0.10845777 -0.16146377 -0.10045712 0.1565858 0.06117362
-0.033369012 -0.17364016 0.05407763 0.10699295 -0.0854591 -0.08579534 -0.15937848 -0.17567497
-0.42619276 -0.15537499 -0.007885856 -0.09413825 0.042826813 -0.06244973 -0.21115342 -0.33664742
0.005314327 0.09428434 -0.059890218 -0.19861957 -0.17635873 0.030465562 0.12450498 0.21631072
-0.14319277 0.06574494 0.1683919 -0.12357701 -0.13271293 0.053634673 -0.14110576 -0.117118835
-0.3138569 -0.15703307 -0.016927153 -0.31292316 -0.36916432 0.19432603 -0.16853346 -0.08123306
-0.32414195 -0.18358736 0.10786689 -0.26256794 -0.15433124 0.23894171 0.012678136 0.014357316
0.19777505 -0.08428466 -0.030093767 -0.0111443205 0.0053662607 0.1642889 0.028521381 0.044261314
-0.21966936 -0.2379209 0.06947411 -0.13430238 0.08212433 -0.037179556 -0.022536354 0.11911722
0.06708724 0.022833103 -0.12335947 -0.13420367 0.123221405 0.198476 -0.079310775 -0.17355789
-0.22851823 -0.16600867 -0.34871286 -0.08981964 0.18385583 0.088403635 0.051326614 0.110613815
0.052117698 0.13130097 0.16664696 0.0884369 -0.084915295 -0.14154641 -0.41322765 -0.19534533
0.11716127 -0.40128383 0.027491998 0.020244297 -0.1448503 -0.044106066 0.08535218 -0.041411385
0.019166032 -0.14017227 0.097127505 0.17203744 -0.11299573 0.09519945 0.31709173 0.07555502
0.06887058 -0.037136346 -0.1673701 0.168624 0.23263982 -0.095383495 0.11916376 0.11139984
-0.002751256 -0.32123 -0.2706048 -0.29936162 -0.3373464 -0.31536776 -0.24105677 -0.1760707
-0.25838208 -0.04158924 0.0041230465 -0.27318424 -0.2316609 -0.24083193 -0.24721254 -0.15109693
-0.15249127 0.20909034 0.031588417 0.18148148 0.1073578 -0.03304565 0.20352465 0.19262011
0.23300414 -0.09782888 -0.008121707 0.24321294 0.21515046 -0.13823831 -0.04649589 -0.24113093
0.17349914 -0.4004472 -0.097685814 0.051999595 0.18772589 -0.077397786 -0.05681215 -0.21026258
0.07415253 0.019015964 -0.121034525 0.05469926 -0.009482964 -0.019028636 0.026852138 0.10516512
0.0014129785 -0.1628943 0.08731655 -0.22266294 0.08354279 -0.0425498 -0.06973885 0.3002026
0.24337162 0.09858273 -0.112668715 0.2634053 -0.22597903 0.040231165 0.049704842 0.13208312
0.21251772 0.19296081 0.23818569 -0.042878386 0.07646355 -0.02075534 -0.03324067 0.14923893
0.046784293 0.14491089 0.24007604 0.19751011 -0.123421565 0.0790343 -0.34857434 -0.10592268
0.09122223 -0.068553686 -0.14371815 0.12595403 -0.028461654 0.03467206 0.020131519 -0.12648658
0.080659494 0.1979819 0.008317934 0.0599781 0.009471145 -0.04277362 0.13314399 0.123469934
0.32393408 0.06377492 -0.06485671 0.032540727 -0.15663521 -0.18252508 -0.12048022 -0.44552508
-0.053330775 -0.085690685 -0.22206123 -0.22035922 0.038495053 0.19880717 -0.020481635 -0.00016671824
00000000: 86b7 e43c 4d5e 393d c629 a0bd 68bc 013e
00000010: 65fc 22be 9b61 393c b914 44be a3da 25bd
00000020: ceda afbc 6a59 2e3e 957a 4f3e 3969 463d
00000030: 5b0c 3abd f378 2ebe bbbb 0cbe 941d b63d
00000040: c6ff 353d d361 173e e2fc 36bd 9a2e 193e
00000050: edbe 9c3e ef06 86be ccdc afbe 9010 563d
00000060: 6a98 72bc 5fb2 17bb 3f94 713e 1b1f debd
00000070: c256 25be 76bc cdbd 0758 203e 3191 7a3d
00000080: f2ad 08bd bace 31be 8180 5d3d 1f1f db3d
00000090: 2e05 afbd 78b5 afbd 1d34 23be 24e4 33be
000000a0: f035 dabe 9f1a 1fbe ad33 01bc 8ecb c0bd
000000b0: 2b6b 2f3d 4acb 7fbd 9a38 58be 0d5d acbe
000000c0: ce23 ae3b 2618 c13d 724f 75bd ee62 4bbe
000000d0: 6297 34be ea92 f93c 78fc fe3d 8f80 5d3e
000000e0: 20a1 12be 48a5 863d ed6e 2c3e f215 fdbd
000000f0: e6e5 07be 08b0 5b3d 077e 10be 00dc efbd
00000100: dab1 a0be 47cd 20be d0aa 8abc 7737 a0be
00000110: 1b03 bdbe 67fd 463e 0994 2cbe 855d a6bd
00000120: eff5 a5be 53fe 3bbe 51e9 dc3d 4e6f 86be
00000130: 0209 1ebe 23ad 743e f5b7 4f3c f33a 6b3c
00000140: 8b85 4a3e 709d acbd 3487 f6bc ab96 36bc
00000150: 75d7 af3b 593b 283e aca5 e93c 5a4b 353d
00000160: 01f1 60be 89a1 73be 7148 8e3d 9086 09be
00000170: cd30 a83d 9749 18bd 299e b8bc bbf3 f33d
00000180: 0965 893d 7d0c bb3c e4a3 fcbd b06c 09be
00000190: 815b fc3d 4b3d 4b3e b06d a2bd 29b9 31be
000001a0: af00 6abe 2dfe 29be 7e8a b2be 5cf3 b7bd
000001b0: b444 3c3e f70c b53d db3b 523d 7f89 e23d
000001c0: 5e79 553d c373 063e 80a5 2a3e 681e b53d
000001d0: 12e8 adbd 8bf1 10be 9392 d3be 9b08 48be
000001e0: 3ff2 ef3d 1375 cdbe e636 e13c 5ed7 a53c
000001f0: a353 14be 90a8 34bd 20cd ae3d fc9e 29bd
00000200: 1502 9d3c 5289 0fbe c9ea c63d 952a 303e
00000210: 4e6a e7bd eef7 c23d d959 a23e 97bc 9a3d
00000220: 050c 8d3d 481c 18bd 1163 2bbe c5ab 2c3e
00000230: 2239 6e3e 6c58 c3bd 210c f43d 9925 e43d
00000240: 6b4e 34bb 4278 a4be b68c 8abe ed45 99be
00000250: abb8 acbe e277 a1be 96d7 76be e14b 34be
00000260: a84a 84be 7b59 2abd 9f1a 873b cede 8bbe
00000270: 8438 6dbe a59c 76be 4925 7dbe 27b9 1abe
00000280: ac26 1cbe c71b 563e db62 013d 48d6 393e
00000290: 68de db3d e05a 07bd c468 503e 353e 453e
000002a0: a398 6e3e 825a c8bd e810 05bc d00c 793e
000002b0: 6750 5c3e 588e 0dbe 7972 3ebd 07eb 76be
000002c0: c2a9 313e 6a07 cdbe 800f c8bd 87fd 543d
000002d0: 373b 403e bb82 9ebd dbb3 68bd 134f 57be
000002e0: 48dd 973d 5ec7 9b3c f3e0 f7bd 550c 603d
000002f0: 6f5e 1bbc f1e1 9bbc 04f9 db3c cf60 d73d
00000300: b133 b93a c3cd 26be 05d3 b23d c101 64be
00000310: 7b18 ab3d b348 2ebd 3ed3 8ebd 28b4 993e
00000320: 6936 793e bee5 c93d dbbe e6bd 0fdd 863e
00000330: 0c67 67be 6fc9 243d 4e97 4b3d cc40 073e
00000340: 3f9e 593e 8597 453e f3e6 733e 3fa1 2fbd
00000350: ec98 9c3d 1a07 aabc 5e27 08bd 17d2 183e
00000360: e3a0 3f3d 8563 143e 7ed6 753e 1740 4a3e
00000370: 72c4 fcbd bcdc a13d 5678 b2be fded d8bd
00000380: b8d2 ba3d e065 8cbd da2a 13be 18fa 003e
00000390: 6a28 e9bc 4a04 0e3d dbea a43c b385 01be
000003a0: ce30 a53d c4bb 4a3e f247 083c 99ab 753d
000003b0: dd2c 1b3c 6433 2fbd e656 083e cedd fc3d
000003c0: b0da a53e 6d9c 823d 98d3 84bd 6d49 053d
000003d0: fb64 20be dbe7 3abe 55be f6bd dd1b e4be
000003e0: 5f71 5abd 997e afbd 0564 63be d9a5 61be
000003f0: fdac 1d3d 1b94 4b3e 1ac9 a7bc 16d1 2eb9

conv2.0.bias f4 [16]
-0.10877677 0.08250985 -0.067376584 0.037557505 0.084951736 0.02369634 -0.099674925 0.07852628
-0.10138475 -0.0497024 -0.08155564 -0.04189655 0.048401512 0.11777977 -0.08043715 0.06900231
00000000: 5bc6 debd edfa a83d bcfc 89bd e6d5 193d
00000010: 2dfb ad3d d41e c23c 5e22 ccbd 63d2 a03d
00000020: cfa2 cfbd be94 4bbd a506 a7bd b89b 2bbd
00000030: aa40 463d 8536 f13d 3cbc a4bd 1551 8d3d

conv2.1.weight f4 [16]
1.0203876 0.85825795 0.9609182 0.9001622 0.9236599 1.080755 1.2418321 0.98278064
1.2809153 0.8592583 1.0271457 1.1879267 0.8798417 1.0752914 1.0005013 0.80241895
00000000: 109c 823f cbb6 5b3f bcfe 753f 0871 663f
00000010: fa74 6c3f 2e56 8a3f 5bf4 9e3f 8397 7b3f
00000020: 08f5 a33f 5af8 5b3f 8379 833f fb0d 983f
00000030: 4e3d 613f 26a3 893f 6d10 803f 546b 4d3f

conv2.1.bias f4 [16]
0.33079553 0.17081565 0.03451612 0.10676365 0.07336955 0.02717667 -0.0070089693 -0.032009874
-0.18374561 0.1861399 0.2433466 -0.08919024 0.20028672 0.10353431 0.10660799 0.2790829
00000000: 085e a93e 4cea 2e3e c660 0d3d e7a6 da3d
00000010: c642 963d 9ca1 de3c 7fab e5bb c91c 03bd
00000020: cf27 3cbe 759b 3e3e da2f 793e 5fa9 b6bd
00000030: f617 4d3e cc09 d43d 4a55 da3d f4e3 8e3e

conv2.1.running_mean f4 [16]
-2.4819593 -0.6691756 -1.1872758 -0.7577316 -0.09835015 -1.7845147 -1.2902455 -0.2387579
-1.8189538 0.5211179 -0.30513567 -1.039842 1.3410246 -2.529431 -0.30559212 1.1016457
00000000: 6cd8 1ec0 184f 2bbf a7f8 97bf b3fa 41bf
00000010: ce6b c9bd fa6a e4bf c426 a5bf f37c 74be
00000020: 7ad3 e8bf fc67 053f be3a 9cbe 8b19 85bf
00000030: b2a6 ab3f 33e2 21c0 9276 9cbe ba02 8d3f

conv2.1.running_var f4 [16]
2.7068152 2.0580354 2.7936943 1.4650911 1.6991342 2.3457549 2.977163 1.8428677
3.0404718 1.7345253 1.8051945 3.074455 2.0208676 2.4992988 1.9181156 1.7291852
00000000: 763c 2d40 dab6 0340 e3cb 3240 1b88 bb3f
00000010: 3b7d d93f d920 1640 d789 3e40 17e3 eb3f
00000020: 1797 4240 ed04 de3f 9d10 e73f dfc3 4440
00000030: e555 0140 83f4 1f40 d084 f53f f155 dd3f

conv2.3.weight f4 [16, 16, 3, 3]
0.05565773 -0.022626549 0.00018850098 0.06926834 0.10758931 0.04059979 -0.20018531 0.11395469
0.08237044 -0.047602255 0.011054288 -0.12338851 -0.15583201 0.07481031 0.119338274 -0.032064512
0.010514712 0.14386752 0.1432452 0.14827308 0.051245783 -0.013006009 0.11825326 -0.09673928
0.011050331 0.08494297 -0.12430397 -0.0949616 -0.050133012 -0.028191218 0.06688343 0.16522424
0.2371032 -0.07794545 -0.108328395 0.018843489 0.06248945 0.13260959 0.10910052 -0.20200498
-0.13978109 -0.1447244 0.20147644 0.115989104 -0.021905437 0.03714858 0.11584496 0.2408321
-0.09877355 -0.02420768 0.027698696 -0.0018973683 0.04393235 -0.12340248 -0.07698416 -0.006474461
-0.03456525 -0.32658327 -0.31575242 -0.14956956 -0.21100618 -0.20828211 -0.20455335 0.015515944
0.052401878 0.20128398 -0.108298995 0.04655474 0.01881999 0.24281153 0.006395811 0.086110525
0.09738528 0.052176423 0.12646058 -0.31618503 -0.21037024 -0.05664325 -0.10292792 -0.15914692
0.03741874 0.051622637 0.022439308 0.39659747 0.14958212 -0.18190956 0.18831891 0.15541518
-0.053583536 0.063620515 0.086336724 0.07761191 -0.14315534 0.08826515 0.03902412 -0.025336219
0.03085669 0.03820525 0.09117524 -0.10970678 0.0655416 -0.056276556 0.024965849 0.060676213
0.024826426 -0.07758427 0.023182241 0.017724035 -0.14370376 -0.24938847 -0.084130816 -0.020213824
-0.26670894 -0.03383955 0.050448447 -0.052025992 0.010688682 0.048921347 0.12643139 0.31686845
0.11954667 0.12486704 0.24544601 0.025818795 -0.1292044 0.18565911 0.10324896 -0.10674766
0.049473662 -0.12721023 -0.17404622 -0.15056513 -0.12586689 -0.13787164 0.015180146 -0.24666299
-0.10687757 -0.08432489 -0.09147687 -0.20895608 0.03215569 -0.038180348 -0.10951882 -0.026626952
-0.115106896 -0.11574083 -0.1036901 -0.121436685 -0.3118281 0.06987866 0.055148017 -0.04218723
0.0016625694 0.002915986 0.053427402 -0.16396497 -0.05151636 -0.33117154 -0.22805662 -0.1371105
-0.20529565 0.11993071 0.03244014 0.012995007 0.0095623145 0.066789135 0.012797563 -0.10045895
-0.060067594 -0.09082387 -0.08436782 -0.20174113 0.043870896 0.083585516 0.14210337 -0.06610014
-0.26902944 -0.10619964 -0.16657451 0.0054785255 0.08589952 0.004187702 -0.11557496 -0.112562634
0.00726487 -0.018943476 0.017460167 -0.1595938 0.20393343 -0.00017684032 0.13684449 -0.11377427
0.08379293 -0.19508599 -0.03892723 0.02763789 -0.027192265 -0.0013885454 0.0566179 -0.18835641
-0.07788703 0.14247449 0.14128533 0.04832263 -0.0038367899 0.04534696 -0.20784171 -0.10657193
0.12833387 -0.08381904 0.022270406 0.07157398 0.21234514 -0.017065052 0.2628063 0.08543908
-0.0049892836 -0.138091 -0.27063844 -0.33978662 -0.24817756 -0.15299481 0.19586027 0.27206755
0.35557464 -0.029740158 -0.021676278 -0.006321794 0.22047774 0.08491369 0.018140638 0.03400345
-0.14019209 0.19018644 0.113544516 0.04982444 0.15719022 0.17352705 0.0057040723 -0.11011896
-0.17988425 0.04257382 0.10491658 0.08194558 -0.16506948 -0.23921761 -0.025332646 0.047811974
0.010849272 0.03784256 0.039871734 0.31588748 0.069964394 -0.044369407 -0.10489198 0.113766655
00000000: 5cf9 633d 505b b9bc 59a8 4539 8fdc 8d3d
00000010: c957 dc3d f74b 263d 61fd 4cbe 1461 e93d
00000020: d5b1 a83d 95fa 42bd 0b1d 353c 1db3 fcbd
00000030: 6d92 1fbe 2636 993d a067 f43d 1456 03bd
00000040: e645 2c3c 0252 133e dfae 123e e6d4 173e
00000050: 19e7 513d 2817 55bc c42e f23d 3e1f c6bd
00000060: 730c 353c 94f6 ad3d 1493 febd 3a7b c2bd
00000070: 4658 4dbd 45f1 e6bc 2efa 883d 8b30 293e
00000080: 2ecb 723e dda1 9fbd 47db ddbd a95d 9a3c
00000090: f0f4 7f3d cfca 073e 1870 df3d 65da 4ebe
000000a0: c622 0fbe a232 14be d74f 4e3e b28b ed3d
000000b0: 0873 b3bc 1c29 183d 1f40 ed3d b19c 763e
000000c0: c949 cabd 2f4f c6bc 60e8 e23c 1eb1 f8ba
000000d0: 68f2 333d 70ba fcbd dfa9 9dbd b727 d4bb
000000e0: 4b94 0dbd ec35 a7be 4daa a1be c328 19be
000000f0: 0112 58be e847 55be 6f76 51be 9636 7e3c
00000100: 5aa3 563d 631d 4e3e ddcb ddbd 2fb0 3e3d
00000110: 612c 9a3c 96a3 783e f493 d13b b75a b03d
00000120: ef71 c73d f2b6 553d e27e 013e 01e3 a1be
00000130: 4c6b 57be c102 68bd e0cb d2bd 69f7 22be
00000140: 6544 193d 4272 533d a4d2 b73c d30e cb3e
00000150: 0e2c 193e 8046 3abe acd6 403e 2825 1f3e
00000160: 697a 5bbd 794b 823d 4fd1 b03d fef2 9e3d
00000170: 5097 12be 5cc4 b43d c1d7 1f3d e78d cfbc
00000180: 2bc7 fc3c 1c7d 1c3d 16ba ba3d f3ad e0bd
00000190: ad3a 863d 3f82 66bd 2e85 cc3c 9f87 783d
000001a0: ca60 cb3c 80e4 9ebd afe8 bd3c ff31 913c
000001b0: 1427 13be b15f 7fbe c74c acbd 7697 a5bc
000001c0: 138e 88be 579b 0abd 08a3 4e3d 3519 55bd
000001d0: 951f 2f3c c061 483d 3b77 013e 953c a23e
000001e0: e2d4 f43d 4aba ff3d 3356 7b3e f081 d33c
000001f0: 294e 04be 6c1d 3e3e 3174 d33d 849e dabd
00000200: e5a4 4a3d 6643 02be 2c39 32be bf2d 1abe
00000210: 40e3 00be 392e 0dbe 26b6 783c 3995 7cbe
00000220: a1e2 dabd 87b2 acbd 3a58 bbbd 95f8 55be
00000230: afb5 033d ff62 1cbd 674b e0bd c420 dabc
00000240: 2abd ebbd 8709 edbd 7a5b d4bd ccb3 f8bd
00000250: efa7 9fbe 8b1c 8f3d e3e2 613d 84cc 2cbd
00000260: 92ea d93a 211a 3f3b b1d6 5a3d 6fe6 27be
00000270: d202 53bd 518f a9be ad87 69be b266 0cbe
00000280: 0639 52be 3b9e f53d f4df 043d 03e9 543c
00000290: 41ab 1c3c bec8 883d dfac 513c 6cbd cdbd
000002a0: 7009 76bd dd01 babd 09c9 acbd 3a95 4ebe
000002b0: f8b1 333d e22e ab3d 8c83 113e 835f 87bd
000002c0: 3abe 89be 327f d9bd 8292 2abe 3485 b33b
000002d0: 16ec af3d fe38 893b 91b2 ecbd 3d87 e6bd
000002e0: 260e ee3b 592f 9bbc a008 8f3c 8f6c 23be
000002f0: edd3 503e 366e 39b9 f620 0c3e 7c02 e9bd
00000300: a19b ab3d 9fc4 47be 2972 1fbd db68 e23c
00000310: 50c2 debc daff b5ba 2ce8 673d 81e0 40be
00000320: 3c83 9fbd d5e4 113e 1aad 103e f3ed 453d
00000330: a772 7bbb bcbd 393d 75d4 54be 6242 dabd
00000340: f469 033e 51a9 abbd 6d70 b63c 6195 923d
00000350: 0171 593e 02cc 8bbc 8c8e 863e affa ae3d
00000360: 257d a3bb ba67 0dbe 1f91 8abe 83f8 adbe
00000370: 4222 7ebe acaa 1cbe 988f 483e 704c 8b3e
00000380: e10d b63e a2a1 f3bc 7392 b1bc 0d27 cfbb
00000390: ebc4 613e 3be7 ad3d ad9b 943c 3447 0b3d
000003a0: 848e 0fbe 3cc0 423e 078a e83d b614 4c3d
000003b0: 79f6 203e 13b1 313e 3ae9 ba3b 0d86 e1bd
000003c0: 9433 38be e361 2e3d 81de d63d 16d3 a73d
000003d0: f907 29be 76f5 74be 6986 cfbc 7dd6 433d
000003e0: 25c1 313c cd00 1b3d 8b50 233d 01bc a13e
000003f0: 7e49 8f3d b2bc 35bd 9bd1 d6bd 7efe e83d

conv2.3.bias f4 [16]
0.025664372 -0.045285266 0.026344972 0.052956276 -0.039160144 -0.0011530343 -0.012949806 -0.033807646
-0.06270208 0.011482019 0.058090754 -0.07538369 0.032709874 0.0071054394 -0.020893252 0.00500242
00000000: 173e d23c 0b7d 39bd 69d1 d73c aee8 583d
00000010: 6366 20bd 6921 97ba 6c2b 54bc e379 0abd
00000020: f369 80bd 141f 3c3c 92f0 6d3d c462 9abd
00000030: cafa 053d bfd4 e83b 5328 abbc 57eb a33b

conv2.4.weight f4 [16]
1.0304202 0.946085 0.9490858 1.0414308 1.0613697 1.0143938 0.92333436 1.0122377
1.002274 1.1027552 1.0308357 0.9779806 1.0294124 1.0454961 1.0947583 1.0200177
00000000: cfe4 833f a032 723f 49f7 723f 9b4d 853f
00000010: f6da 873f a8d7 813f a45f 6c3f 0191 813f
00000020: 844a 803f 1527 8d3f 6df2 833f f05c 7a3f
00000030: c9c3 833f d1d2 853f 0a21 8c3f f18f 823f

conv2.4.bias f4 [16]
0.07019254 0.11071626 0.09513294 0.0013959692 -0.096711695 -0.14356448 0.003839244 0.06948336
-0.14871432 -0.16377705 -0.008433272 0.060351945 -0.104533635 0.039056964 -0.07078106 -0.12530994
00000000: 1bc1 8f3d 35bf e23d 0fd5 c23d f4f8 b63a
00000010: c810 c6bd 9102 13be d39b 7b3b 4b4d 8e3d
00000020: 9148 18be 2cb5 27be b52b 0abc 9a33 773d
00000030: bb15 d6bd 32fa 1f3d a9f5 90bd 4051 00be

conv2.4.running_mean f4 [16]
-0.38033426 -0.7977951 -0.15584625 -1.7513953 -1.639758 -0.9062182 0.30622828 -1.1790606
0.61755764 -0.5773454 -0.7835532 -0.76853335 -1.2896787 -2.3778088 -0.58426046 0.7727098
00000000: 2cbb c2be 4d3c 4cbf 2996 1fbe b92d e0bf
00000010: 97e3 d1bf eafd 67bf f4c9 9c3e 75eb 96bf
00000020: 4218 1e3f e8cc 13bf f196 48bf 9abe 44bf
00000030: 3114 a5bf 052e 18c0 1892 15bf 4fd0 453f

conv2.4.running_var f4 [16]
1.5543286 1.2692236 1.1563501 1.3107591 1.2874002 1.2548506 1.520826 1.2742411
0.9455684 1.0922784 1.3572991 1.5760244 1.5640513 1.2597059 1.2567977 1.5683447
00000000: 3df4 c63f eb75 a23f 4803 943f f4c6 a73f
00000010: 88c9 a43f f29e a03f 6daa c23f 551a a33f
00000020: c510 723f c7cf 8b3f fabb ad3f 2bbb c93f
00000030: d532 c83f 0b3e a13f bfde a03f 85bf c83f

conv3.0.weight f4 [32, 16, 3, 3]
0.31768683 0.14788298 0.07923706 0.053676512 -0.12913693 -0.13293862 -0.038146842 0.0009974481
-0.021469796 0.12245825 0.073045164 0.05431681 -0.1100794 0.10412458 -0.014750437 -0.07192858
0.09045114 0.07218848 -0.1582891 0.17530242 0.002359635 -0.019822631 0.13762051 0.0775582
0.21007864 -0.08716857 -0.20996952 0.09641972 -0.14100309 0.11412748 -0.12574875 -0.045135457
-0.11884017 -0.10856028 -0.19572315 -0.1328794 0.19361405 -0.0719053 -0.02322247 0.2227643
-0.022075076 -0.028579876 0.061755024 -0.03235845 -0.0954056 -0.013960707 0.19406356 0.16477753
0.15662186 0.17247453 -0.0011755589 0.013214103 0.15892021 -0.037841853 0.01819266 0.1076401
-0.049327414 -0.12779428 -0.13690093 -0.08024083 -0.065754205 0.035478026 -0.004724291 -0.060439225
-0.10601796 0.056975506 -0.11030216 -0.059909467 -0.25692067 0.108842224 -0.00013836246 -0.015140469
0.024727205 -0.015375526 -0.22679776 0.08996162 0.09598854 -0.09117584 0.14620344 0.04595495
0.09541559 0.023945441 -0.009024356 -0.091076426 -0.19226755 -0.045467716 -0.052374225 0.13060223
-0.0025735218 0.035886128 0.06726936 -0.024197763 0.13239154 0.029094646 -0.038933028 0.11309755
0.10729015 0.045238942 0.24333915 0.17632583 -0.22227632 0.038780455 0.031060982 -0.06129278
-0.05000811 -0.14343064 -0.34921235 0.01613373 0.31104127 0.14482713 0.024823837 0.007447148
-0.1010562 -0.20628811 -0.057357095 -0.1346728 -0.15397957 -0.06781015 0.2843461 0.29381528
0.16796745 -0.02294833 -0.033889804 0.056072567 0.01665343 0.020486364 0.047988813 -0.0800132
0.052969195 0.09053507 0.023178613 0.016430078 0.036414858 -0.16567856 0.023939475 -0.044086203
-0.13998382 -0.101945974 -0.03731333 0.002779977 0.052411746 0.023091458 -0.118648686 -0.06773661
-0.06108255 -0.06773468 -0.06270624 0.04021522 -0.029862294 0.11146667 0.06820918 0.014265605
0.20898966 0.009506222 0.00018515722 -0.048809744 0.0047165747 -0.10290354 -0.06068115 -0.06547103
-0.0444121 0.08126765 0.11412828 -0.020250319 0.028450444 -0.046703562 -0.11736041 -0.105562426
-0.08948887 -0.046796605 -0.20120826 0.020598024 -0.045565564 -0.14453702 0.1925253 -0.16166596
0.10772918 0.18116555 -0.099284336 0.16296583 -0.061643943 0.1646092 0.04431003 0.14036648
0.058273707 -0.012558621 0.027271051 0.098571576 -0.111419186 -0.016653687 -0.11188806 -0.23852058
0.10134393 0.12922475 -0.0542495 0.17859228 0.17143908 0.15953952 -0.1434137 -0.23925155
-0.07415646 -0.0042524207 -0.10485754 -0.0643022 -0.28058732 -0.02375263 0.047527093 -0.060173202
0.02894195 0.06939521 0.03468841 0.03148063 0.13121487 0.2498237 0.0445052 0.0672257
0.028080115 0.060838833 -0.012033417 -0.13661438 -0.009329325 0.05749361 0.13942038 -0.077040926
0.18054324 0.03649609 0.03595185 0.17481151 -0.0048725842 -0.036553863 0.0744795 -0.03236032
-0.068719074 -0.05745384 -0.07678683 0.013972543 -0.12074209 0.032316726 -0.04619387 -0.12088392
-0.01943856 -0.01236549 0.17690918 0.12930319 -0.10180727 -0.14416921 0.07337934 -0.044284925
-0.2097869 0.00662375 -0.12052669 -0.11010559 -0.09025533 -0.28479165 -0.2302998 0.11454753
00000000: d9a7 a23e a36e 173e 0a47 a23d e7db 5b3d
00000010: 793c 04be 1021 08be dd3f 1cbd cebc 823a
00000020: 6de1 afbc 64cb fa3d b498 953d 4e7b 5e3d
00000030: 4f71 e1bd 453f d53d d1ab 71bc 4b4f 93bd
00000040: 733e b93d 8ed7 933d 8a16 22be 7a82 333e
00000050: 1ba4 1a3b 1263 a2bc 64ec 0c3e d5d6 9e3d
00000060: db1e 573e 6f85 b2bd 4002 57be b477 c53d
00000070: 1d63 10be abbb e93d 48c4 00be f5df 38bd
00000080: 7a62 f3bd da54 debd a66b 48be 8a11 08be
00000090: c342 463e 1643 93bd 0d3d bebc 531c 643e
000000a0: cad6 b4bc 5820 eabc d6f2 7c3d 4b8a 04bd
000000b0: 0364 c3bd 73bb 64bc 99b8 463e 71bb 283e
000000c0: 7b61 203e 2a9d 303e 3615 9aba f77f 583c
000000d0: fbbb 223e 0f00 1bbd c608 953c 6a72 dc3d
000000e0: 8b0b 4abd 81dc 02be c22f 0cbe 4e55 a4bd
000000f0: 24aa 86bd 6851 113d 3ace 9abb 1f8f 77bd
00000100: f21f d9bd 265f 693d 19e6 e1bd a163 75bd
00000110: 1b8b 83be ace8 de3d 6415 11b9 bb0f 78bc
00000120: b590 ca3c a1e9 7bbc ac3d 68be cc3d b83d
00000130: a495 c43d 66ba babd 5bb6 153e 423b 3c3d
00000140: 4069 c33d 3b29 c43c e4da 13bc 4786 babd
00000150: c9e1 44be 5b3c 3abd 5b86 56bd 97bc 053e
00000160: 88a8 28bb 55fd 123d 85c4 893d 633a c6bc
00000170: a691 073e e557 ee3c 3d78 1fbd b09f e73d
00000180: f0ba db3d 784c 393d e62d 793e c28e 343e
00000190: 679c 63be 41d8 1e3d 9a73 fe3c 230e 7bbd
000001a0: 4ed5 4cbd 7bdf 12be f6cb b2be e22a 843c
000001b0: cd40 9f3e 904d 143e 5c5b cb3c 3507 f43b
000001c0: 8ef6 cebd 313d 53be 46ef 6abd abe7 09be
000001d0: d2ac 1dbe 0ce0 8abd d095 913e f56e 963e
000001e0: a9ff 2b3e 23fe bbbc 09d0 0abd 59ac 653d
000001f0: c66c 883c 05d3 a73c eb8f 443d f6dd a3bd
00000200: 3af6 583d 736a b93d 13e1 bd3c 5f98 863c
00000210: bf27 153d a4a7 29be b81c c43c bc93 34bd
00000220: eb57 0fbe 0dc9 d0bd ddd5 18bd 4630 363b
00000230: b3ad 563d 4c2a bd3c 15fe f2bd 7eb9 8abd
00000240: b231 7abd 7bb8 8abd 216c 80bd b7b8 243d
00000250: c5a1 f4bc a348 e43d 41b1 8b3d 49ba 693c
00000260: 6301 563e fcbf 1b3c c326 4239 baec 47bd
00000270: 7f8d 9a3b 17bf d2bd cc8c 78bd ad15 86bd
00000280: 76e9 35bd a76f a63d 16bc e93d ffe3 a5bc
00000290: e810 e93c 3c4c 3fbd a85a f0bd 1d31 d8bd
000002a0: f145 b7bd ccad 3fbd 8a09 4ebe 30bd a83c
000002b0: f5a2 3abd 8301 14be 5a25 453e c38b 25be
000002c0: 1ea1 dc3d 7683 393e 9655 cbbd 84e0 263e
000002d0: 5c7e 7cbd 508f 283e 6f7e 353d 3bbc 0f3e
000002e0: 69b0 6e3d adc2 4dbc 8a67 df3c e5df c93d
000002f0: be2f e4bd 506d 88bc 9125 e5bd bd3e 74be
00000300: 688d cf3d 7e53 043e b934 5ebd e5e0 363e
00000310: ba8d 2f3e 545e 233e 0adb 12be 5cfe 74be
00000320: 58df 97bd e457 8bbb 8dbf d6bd dfb0 83bd
00000330: 24a9 8fbe e094 c2bc c5ab 423d 2d78 76bd
00000340: ab17 ed3c 131f 8e3d 6f15 0e3d d5f1 003d
00000350: 315d 063e c9d1 7f3e 164b 363d a1ad 893d
00000360: 4508 e63c 2432 793d cf27 45bc a4e4 0bbe
00000370: 06da 18bc 6b7e 6b3d 37c4 0e3e a2c7 9dbd
00000380: 54e0 383e ed7c 153d 3f42 133d ca01 333e
00000390: 33aa 9fbb 81b9 15bd b588 983d 418c 04bd
000003a0: 96bc 8cbd b854 6bbd 6a42 9dbd 18ed 643c
000003b0: a147 f7bd 8b5e 043d c935 3dbd fd91 f7bd
000003c0: 9d3d 9fbc a098 4abc ae27 353e 0e68 043e
000003d0: 5480 d0bd 18a1 13be e847 963d 1c64 35bd
000003e0: 61d2 56be 0b0c d93b b2d6 f6bd 0a7f e1bd
000003f0: c9d7 b8bd 36d0 91be b6d3 6bbe e597 ea3d

conv3.0.bias f4 [32]
-0.022927128 -0.072554305 0.04412154 -0.027232837 0.03927038 0.05720163 0.06907705 -0.078715995
0.053035744 -0.021788143 -0.032475304 0.031315 -0.006971252 0.0048029353 0.017341107 0.0095415525
-0.022530816 -0.08045011 -0.024329714 -0.0424532 -0.005861558 0.055550434 -0.05586825 0.013100587
-0.054938775 0.02932284 0.014285205 0.0002573974 -0.017096408 0.021861821 -0.056778293 -0.007770468
00000000: acd1 bbbc 5a97 94bd cab8 343d 6617 dfbc
00000010: fad9 203d 424c 6a3d 4578 8d3d da35 a1bd
00000020: 023c 593d 0c7d b2bc d304 05bd 2844 003d
00000030: 1a6f e4bb f161 9d3b f00e 8e3c 2c54 1c3c
00000040: 8c92 b8bc 07c3 a4bd 1c4f c7bc 68e3 2dbd
00000050: 5012 c0bb da88 633d 1bd6 64bd d8a3 563c
00000060: 7b07 61bd 7436 f03c 7e0c 6a3c 4bf3 8639
00000070: c40d 8cbc 9017 b33c 5b90 68bd 699f febb

conv3.1.weight f4 [32]
0.9841298 0.9685458 0.99794304 1.0358429 0.9689225 1.1716944 0.8747991 1.1240017
1.1016204 0.9678928 0.9900065 0.9673625 0.8586904 0.99472857 1.1310601 1.0181211
0.86906207 0.9655589 1.0858834 0.8908976 0.9530801 1.0577239 0.96921295 0.94379425
1.0119278 1.0607569 1.0333486 0.9667083 1.0303613 1.0513533 0.94073766 1.050123
00000000: eeef 7b3f 9ef2 773f 3279 7f3f 8096 843f
00000010: 4e0b 783f 15fa 953f d5f2 5f3f 4adf 8f3f
00000020: e601 8d3f d3c7 773f 1171 7d3f 12a5 773f
00000030: 22d3 5b3f 88a6 7e3f 94c6 903f cb51 823f
00000040: da7a 5e3f de2e 773f 3afe 8a3f dd11 643f
00000050: 0ffd 733f 7f63 873f 571e 783f 809c 713f
00000060: da86 813f e2c6 873f c444 843f 327a 773f
00000070: e1e2 833f bf92 863f 2fd4 703f 6e6a 863f

conv3.1.bias f4 [32]
-0.18774718 -0.10442907 -0.15521295 0.06769725 -0.1349986 -0.22956926 -0.1442523 -0.14806704
-0.1169615 -0.113513164 -0.11059502 -0.07119232 -0.23952678 -0.19581738 -0.13301209 -0.075246125
-0.122327 -0.1328981 -0.22141005 0.023381906 -0.10165647 -0.046231132 -0.08406219 -0.13594608
-0.062403336 -0.036222395 -0.21965432 -0.22333835 -0.11054983 -0.0907247 -0.102381565 -0.15660712
00000000: cc40 40be e9de d5bd 25f0 1ebe dba4 8a3d
00000010: 133d 0abe 3414 6bbe e0b6 13be e39e 17be
00000020: 8389 efbd 9779 e8bd a47f e2bd 47cd 91bd
00000030: 8246 75be 5a84 48be 5234 08be a41a 9abd
00000040: 9486 fabd 7116 08be 51b9 62be 698b bf3c
00000050: 4431 d0bd db5c 3dbd cc28 acbd 7335 0bbe
00000060: a49a 7fbd ef5d 14bd 10ed 60be cfb2 64be
00000070: f367 e2bd dfcd b9bd 6dad d1bd 9e5d 20be

conv3.1.running_mean f4 [32]
0.10708959 -0.3410458 -0.35564166 -1.7347717 -0.5006951 -0.15460236 0.3086794 -1.4707439
-1.3913785 -0.9974985 -0.47437418 0.5249374 1.8372309 0.36135268 -1.4470738 -1.7228878
2.9504488 -0.61882997 -0.5445037 -1.7573475 0.8051568 -0.73250544 0.6071434 -0.30847278
-0.72173196 -1.5939212 -1.3709247 0.44466338 -1.6653705 -1.3526555 1.3769931 0.072067864
00000000: c951 db3d 8e9d aebe aa16 b6be 000d debf
00000010: 8e2d 00bf 1550 1ebe 3a0b 9e3e 5641 bcbf
00000020: b118 b2bf 105c 7fbf 2ce1 f2be 4c62 063f
00000030: 622a eb3f 3803 b93e b739 b9bf 9687 dcbf
00000040: 27d4 3c40 a46b 1ebf 9864 0bbf c3f0 e0bf
00000050: c21e 4e3f 7a85 3bbf c06d 1b3f 25f0 9dbe
00000060: 6dc3 38bf 9c05 ccbf 767a afbf ebaa e33e
00000070: dc2a d5bf d123 adbf 4f41 b03f 5198 933d

conv3.1.running_var f4 [32]
1.8520274 1.3623646 1.6542194 1.6636056 1.5766857 2.4225671 1.3637065 1.8983585
1.598976 1.4228235 1.5743887 1.764009 1.7290223 1.3503412 1.7389996 1.8592603
1.5288016 1.1250362 1.6632136 1.5811762 1.5144258 1.7924815 1.6423908 1.3721361
1.9525725 1.7583292 1.6719323 1.5946381 1.2751292 1.4941117 1.3074069 1.7001697
00000000: 3c0f ed3f f761 ae3f 76bd d33f 07f1 d43f
00000010: d6d0 c93f 570b 1b40 ef8d ae3f 69fd f23f
00000020: 3fab cc3f 151f b63f 9285 c93f 0ccb e13f
00000030: 9a50 dd3f fbd7 ac3f 8a97 de3f 3efc ed3f
00000040: c5af c33f 3001 903f 2fe4 d43f fb63 ca3f
00000050: b4d8 c13f 0970 e53f dd39 d23f 28a2 af3f
00000060: e5ed f93f ee10 e13f e101 d63f 1a1d cc3f
00000070: 6f37 a33f 0d3f bf3f 1c59 a73f 299f d93f

conv3.3.weight f4 [32, 32, 3, 3]
-0.06522185 -0.12438821 0.0138446465 -0.011287107 -0.12474983 -0.12972298 0.10528452 -0.07284913
-0.14516592 -0.11285099 0.032755677 0.00050541945 0.03259347 0.079423875 0.13855949 -0.018042797
0.05996292 0.13198115 0.18375835 -0.07596645 0.011131675 0.12271029 -0.016067538 -0.065428235
0.055059016 -0.008090977 -0.05863779 0.022314085 0.0051849983 -0.13055097 -0.07783903 -0.14827564
0.058549996 -0.058341727 -0.15498288 -0.03948525 -0.08339655 -0.17007448 0.12894316 0.13498603
-0.13130961 -0.042267174 0.08891689 -0.03334554 -0.13555798 0.117766924 -0.06427905 0.059918877
-0.005601303 -0.077853054 -0.09493497 -0.0036135796 0.16727291 0.106405966 -0.098409735 -0.08097075
0.004273424 -0.006434115 0.10935524 -0.07259452 0.011141407 0.07704117 0.056983456 0.0082329
0.100986265 0.045790166 0.040086865 -0.07613044 -0.050032232 0.06294741 0.0014721141 -0.10346072
-0.09702112 0.012718877 -0.0877208 -0.07940637 0.19227158 -0.14006695 -0.26844117 -0.06151056
-0.09505869 0.1024734 -0.025723781 0.05725146 0.13261008 -0.07482927 -0.088472 -0.0710839
0.05581702 -0.042727545 -0.20477286 0.074138924 -0.03469457 -0.0686538 -0.21595009 0.014430302
-0.114259824 -0.09345251 -0.011025012 -0.018828593 -0.008106296 -0.053945184 -0.011186621 -0.014092667
0.084391125 -0.049521066 -0.11486194 0.011207565 -0.06007241 -0.19321513 -0.060516432 0.031968974
-0.22199182 -0.009585592 0.06787937 -0.05733582 -0.05250217 -0.034165937 -0.06731327 0.044447042
-0.15085836 -0.034359876 0.039611552 -0.052581325 0.034332458 -0.013550564 -0.05648521 -0.014283071
-0.13395682 -0.09346063 0.041137658 0.22160175 0.28433207 -0.10392005 -0.010497933 0.021007068
-0.040901747 0.08988531 -0.014682341 -0.057601582 -0.011055061 -0.09189495 -0.05438262 0.0920841
0.1376746 -0.20363139 -0.079891324 -0.056784566 0.018731115 0.020816159 -0.06667955 -0.07704478
-0.14232573 0.01574503 -0.06657759 -0.042677365 0.06669948 0.17852756 -0.0072300904 0.15308227
0.022301733 -0.07823122 0.20441552 -0.035288982 -0.15256026 0.023920689 0.11303584 -0.056977466
0.01491666 -0.0662389 -0.14522709 -0.0772704 -0.057252668 -0.0018942135 0.07794941 0.038956493
0.051889047 0.009576198 -0.22427481 -0.03797056 0.0018920145 0.077831715 0.042148184 -0.09837734
-0.13096163 -0.043610383 0.13794984 0.10652447 -0.15979035 -0.03497698 -0.030123487 0.00012644267
-0.0048251497 -0.006487238 0.06332091 -0.106354035 -0.19413741 -0.074160725 -0.055334516 -0.2416818
0.10786569 0.025230478 0.12139115 -0.036621537 -0.11157819 0.046834495 0.12647548 -0.023896262
0.062290817 -0.049116757 -0.052919798 0.026558986 -0.05074739 0.08100843 -0.06127285 0.06092904
-0.0441536 -0.07860596 0.087692894 0.0345968 -0.028317306 -0.07285653 0.035406627 -0.015132068
0.064120494 -0.10636317 0.015362628 -0.02208158 0.04352958 -0.017874695 -0.042399913 -0.05160133
-0.17052624 0.09037452 0.046699233 0.13244651 0.10908178 0.103780635 0.07582702 -0.005886465
-0.03777796 -0.18672065 -0.095132194 -0.11821792 -0.1080213 0.0026081628 0.12654544 -0.113167174
-0.08281971 0.054577697 -0.06703825 -0.08632875 -0.14969413 0.115259826 -0.02110711 -0.005857315
00000000: 0993 85bd 3fbf febd a8d4 623c 8fed 38bc
00000010: d77c ffbd 1ad6 04be 699f d73d ed31 95bd
00000020: 60a6 14be 6b1e e7bd d12a 063d 207e 043a
00000030: bb80 053d fca8 a23d 8ae2 0d3e 7dce 93bc
00000040: ae9b 753d 1126 073e 262b 3c3e 4c94 9bbd
00000050: a161 363c 884f fb3d 12a0 83bc 3dff 85bd
00000060: 9085 613d 0490 04bc 2e2e 70bd 07cc b63c
00000070: ebe6 a93b 27af 05be 126a 9fbd 92d5 17be
00000080: 1fd2 6f3d bcf7 6ebd d5b3 1ebe 49bb 21bd
00000090: cfcb aabd 0128 2ebe ad09 043e c739 0a3e
000000a0: 0776 06be 5820 2dbd 0f1a b63d 5595 08bd
000000b0: b6cf 0abe c92f f13d bca4 83bd 7f6d 753d
000000c0: 238b b7bb 6c71 9fbd 446d c2bd ced1 6cbb
000000d0: 9749 2b3e 5feb d93d 0b8b c9bd fed3 a5bd
000000e0: 1408 8c3b 45d5 d2bb a4f5 df3d 70ac 94bd
000000f0: 738a 363c c3c7 9d3d 7c67 693d 49e3 063c
00000100: e3d1 ce3d 788e 3b3d 2032 243d 47ea 9bbd
00000110: 99ee 4cbd 92ea 803d f4f3 c03a 37e3 d3bd
00000120: 02b3 c6bd d662 503c f6a6 b3bd cf9f a2bd
00000130: d7e2 443e b66d 0fbe 1f71 89be 7ff2 7bbd
00000140: 21ae c2bd 93dd d13d aeba d2bc 8280 6a3d
00000150: f0ca 073e 1740 99bd cf30 b5bd 7094 91bd
00000160: 63a0 643d 1403 2fbd faaf 51be 26d6 973d
00000170: e51b 0ebd 5d9a 8cbd 0522 5dbe 136d 6c3c
00000180: 0e01 eabd 0864 bfbd 40a2 34bc 6c3e 9abc
00000190: 45d0 04bc a0f5 5cbd 1748 37bc eee4 66bc
000001a0: 41d5 ac3d 9ad6 4abd bd3c ebbd ef9f 373c
000001b0: 7d0e 76bd 30da 45be 14e0 77bd e6f1 023d
000001c0: d351 63be e30c 1dbc 5704 8b3d f7d8 6abd
000001d0: 840c 57bd 95f1 0bbd 8adb 89bd 1a0e 363d
000001e0: 9d7a 1abe f1bc 0cbd b93f 223d 845f 57bd
000001f0: 31a0 0c3d 2f03 5ebc 095d 67bd 8b03 6abc
00000200: fa2b 09be 4968 bfbd f67f 283d 92eb 623e
00000210: f993 913e 09d4 d4bd 86ff 2bbc 0417 ac3c
00000220: 9788 27bd ca15 b83d 348e 70bc a3ef 6bbd
00000230: 4920 35bc 6b33 bcbd 4fc0 5ebd 9796 bc3d
00000240: 92fa 0c3e bf84 50be 109e a3bd ef96 68bd
00000250: ff71 993c a686 aa3c 4a8f 88bd a7c9 9dbd
00000260: d6bd 11be b9fb 803c d559 88bd 76ce 2ebd
00000270: bd99 883d eecf 363e 65ea ecbb 99c1 1c3e
00000280: 20b2 b63c b137 a0bd 4d52 513e 2e8b 10bd
00000290: c238 1cbe 52f5 c33c 567f e73d 3461 69bd
000002a0: 0265 743c 43a8 87bd 69b6 14be f23f 9ebd
000002b0: c681 6abd 4247 f8ba f1a3 9f3d d890 1f3d
000002c0: 9c89 543d 7ce5 1c3c 4ca8 65be 0587 1bbd
000002d0: 79fd f73a 3c66 9f3d 93a3 2c3d 0f7a c9bd
000002e0: ce1a 06be cda0 32bd b942 0d3e 8029 da3d
000002f0: 15a0 23be 0644 0fbd 88c5 f6bc b295 0439
00000300: 4a1c 9ebb e692 d4bb 65ae 813d 25d0 d9bd
00000310: f5cb 46be 94e1 97bd 72a6 62bd 6f7b 77be
00000320: b0e8 dc3d 26b0 ce3c ec9b f83d 7700 16bd
00000330: 1b83 e4bd 87d5 3f3d ca82 013e 18c2 c3bc
00000340: a824 7f3d a72e 49bd 6ec2 58bd 3b92 d93c
00000350: 7fdc 4fbd bfe7 a53d 3df9 7abd bb90 793d
00000360: 68da 34bd 29fc a0bd 5598 b33d 60b5 0d3d
00000370: b2f9 e7bc ce35 95bd 8a06 113d 7eec 77bc
00000380: 9b51 833d efd4 d9bd 88b3 7b3c 6ee4 b4bc
00000390: 134c 323d f46d 92bc 88ab 2dbd eb5b 53bd
000003a0: 6e9e 2ebe 4716 b93d b247 3f3d 0fa0 073e
000003b0: 4566 df3d f18a d43d 324b 9b3d 3fe3 c0bb
000003c0: 10bd 1abd b333 3fbe abd4 c2bd 3d1c f2bd
000003d0: 453a ddbd b6ed 2a3b 2195 013e 31c4 e7bd
000003e0: 619d a9bd dd8c 5f3d 5a4b 89bd 21cd b0bd
000003f0: 6b49 19be 580d ec3d d1e8 acbc b8ee bfbb

conv3.3.bias f4 [32]
-0.055112805 0.051712785 0.023722287 -0.0582992 -0.0016117446 0.042765293 0.0062699714 -0.04177297
-0.043767136 0.017278563 -0.052083395 0.04674164 0.027618844 0.05385222 -0.03300088 -0.0049419026
-0.05250785 -0.0045344187 0.03681011 -0.047978014 -0.038286857 0.009270128 0.044379983 0.0008664172
-0.041854504 -0.042893983 -0.014270236 0.038707178 0.00047104812 0.01729389 0.024848219 -0.052538328
00000000: f7bd 61bd c9d0 533d 3e55 c23c 24cb 6ebd
00000010: 2d41 d3ba a92a 2f3d 5574 cd3b 221a 2bbd
00000020: 2b45 33bd c68b 8d3c 6655 55bd 2974 3f3d
00000030: ea40 e23c 2594 5c3d ee2b 07bd afef a1bb
00000040: 7912 57bd 7695 94bb 33c6 163d 9884 44bd
00000050: aed2 1cbd bce1 173c c9c7 353d 4620 633a
00000060: a16f 2bbd 9ab1 2fbd b5cd 69bc 6b8b 1e3d
00000070: 02f7 f639 eaab 8d3c 7e8e cb3c 6e32 57bd

conv3.4.weight f4 [32]
1.1047881 1.0089656 0.94995844 0.9562986 0.884338 0.9793129 0.90765333 1.0149055
1.0765661 0.9705591 1.0090778 1.0345888 0.9857959 0.92525834 0.9466261 0.94151235
1.0159867 0.9878354 0.9490319 1.0800612 0.95295984 0.9800194 0.9614078 0.98832196
1.0374651 0.9678513 0.91061455 0.9986887 0.9077503 0.95940715 0.95799863 0.948635
00000000: b269 8d3f c925 813f 7a30 733f fccf 743f
00000010: fa63 623f 40b4 7a3f f85b 683f 6ce8 813f
00000020: ebcc 893f 9076 783f 7629 813f 686d 843f
00000030: 1f5d 7c3f bbdd 6c3f 1756 723f f406 713f
00000040: da0b 823f c8e2 7c3f c1f3 723f 723f 8a3f
00000050: 2df5 733f 8de2 7a3f d21e 763f ab02 7d3f
00000060: a8cb 843f 1ac5 773f 091e 693f 10aa 7f3f
00000070: 5362 683f b59b 753f 663f 753f bed9 723f

conv3.4.bias f4 [32]
-0.2678932 -0.33365571 -0.15406433 -0.3552451 -0.08807368 -0.18860145 -0.1172309 -0.1443814
-0.2944747 -0.24466692 -0.14757645 -0.3504941 -0.2546855 -0.24876381 -0.1804612 -0.19130298
-0.34517708 -0.300759 -0.25967744 -0.2532424 -0.20936853 -0.1778215 -0.24495108 -0.32368907
-0.2743789 -0.204238 -0.21657069 -0.29815713 -0.28337315 -0.18655546 -0.3420265 -0.17616488
00000000: 4c29 89be ecd4 aabe 0ac3 1dbe b0e2 b5be
00000010: f95f b4bd bd20 41be c116 f0bd b8d8 13be
00000020: 63c5 96be f789 7abe 481e 17be f673 b3be
00000030: 2366 82be f1bb 7ebe d2ca 38be eee4 43be
00000040: 0dbb b0be 15fd 99be 71f4 84be fda8 81be
00000050: b464 56be d716 36be 75d4 7abe 93ba a5be
00000060: 647b 8cbe c423 51be b5c4 5dbe 0da8 98be
00000070: 4916 91be 6508 3fbe 191e afbe 9164 34be

conv3.4.running_mean f4 [32]
-1.3021145 -0.77054495 -1.3157108 0.9532522 0.40354395 -0.6006273 0.30604222 -1.1781038
-0.82038486 -1.318145 -1.6624858 -1.2471285 -0.80542505 -0.043525815 -0.36744893 -0.4618203
-0.32191116 -1.1141176 -0.2803144 -0.9861102 -0.43328905 -0.24663647 -0.52775556 -0.41313067
-0.9716386 0.07211874 -0.3951739 -0.54188657 -0.5781377 -0.9882965 0.008572426 -0.16968642
00000000: b0ab a6bf 6f42 45bf 3669 a8bf 5608 743f
00000010: 509d ce3e b6c2 19bf 91b1 9c3e 1bcc 96bf
00000020: be04 52bf fab8 a8bf 56cc d4bf e8a1 9fbf
00000030: 5630 4ebf 2048 32bd 4422 bcbe b673 ecbe
00000040: 8ad1 a4be 689b 8ebf 5e85 8fbe b871 7cbf
00000050: 10d8 ddbe 458e 7cbe fd1a 07bf dd85 d3be
00000060: 4fbd 78bf fdb2 933d 3c54 cabe 14b9 0abf
00000070: d500 14bf 0001 7dbf 5c73 0c3c 47c2 2dbe

conv3.4.running_var f4 [32]
0.88425595 0.9412273 0.78508174 0.93536425 0.8197712 0.96871006 0.7542875 0.9098143
0.8295565 0.8039796 0.88697404 1.0133991 0.9610644 0.7603877 0.65219724 0.7753965
0.99386406 0.81270885 0.8072435 1.0065547 0.68659514 0.8864645 0.7415965 0.8861833
0.88256013 0.81899863 0.68831086 0.8469344 0.6711898 0.71238124 0.7466426 0.8710484
00000000: 995e 623f 46f4 703f 1efb 483f 0874 6f3f
00000010: 86dc 513f 62fd 773f fc18 413f 97e9 683f
00000020: d15d 543f 9bd1 4d3f bb10 633f 10b7 813f
00000030: 5108 763f c5a8 423f 66f6 263f 6380 463f
00000040: e06d 7e3f b00d 503f 83a7 4e3f c9d6 803f
00000050: b3c4 2f3f 56ef 623f 45d9 3d3f e9dc 623f
00000060: 76ef 613f e5a9 513f 2435 303f b1d0 583f
00000070: 18d3 2b3f 9e5e 363f f823 3f3f 07fd 5e3f
