trained_models/last_cnn.pt (torch, 958866 bytes, 92 tensors)

conv1.0.weight f4 [8, 3, 3, 3]
00000000: 2bc4 e63e 57e0 133f a539 95be 3b45 3abe
00000010: 0410 c8be eaf2 a33e 1eb7 32be 3d4d 12bf
00000020: dd03 f43d ac63 973e 4130 6dbe 493f debe
00000030: 5c8b 18be 9c12 37bf 7aac 1a3f e8c8 de3e
00000040: bac4 8bbe 6c8e 0c3f c2c5 153d 897c 7dbd
00000050: 13a7 3cbf c8ab 10bd 73d5 32be 3308 493f
00000060: 2462 653e 5ac2 febe 1e44 c53e d1e9 c73d
00000070: 64f3 343f f746 b43d 7e9f dc3e 1e3d a63e
00000080: 9a75 91bc 668f 9dbe a3a0 88bd 6ac7 8d3e
00000090: d0fa 903e 70aa cc3e b10d 93be 2ed5 9fbd
000000a0: 01e1 cf3c 1483 97be 8b70 a8be 0181 a3be
000000b0: 4c5f 6abe c68d e43e f5d4 9f3e 2099 aebd
000000c0: 512a 9a3e 3576 7cbe 0b6e fbbe d77c 53be
000000d0: b696 7cbe f789 933d 7ca5 61bc e1cd d7be
000000e0: 1373 343e d50d 7bbe 2b2a 8b3c 0a0d d13e
000000f0: 5952 c6be d80e e5be 40c4 f8bd 4766 ff3d
00000100: 9f57 47be bce6 34bd de7a 78bd 9b4d a73e
00000110: 8f5b 413e ac5d 46bc 5fb8 f1bd ccd6 c2bd
00000120: e6b5 c43e e689 08bd e7cf 59bf 39b3 053f
00000130: 3d60 3a3f 7b02 a23d ad35 ce3e 87de 973e
00000140: f615 cdbe 5649 dabd aa4d 563d 026b b43e
00000150: 9ed2 1ebf adff e5be 1f29 103d 96e1 6cbe
00000160: b8f6 e5bd 7dfa 183f f545 aabd b65e 3d3b
00000170: ae9a f33e c906 09bf e8cc eabe ddd3 71be
00000180: cc9c fabe 8c0c 0fbe 8527 143e 601d 263e
00000190: 13a2 d83e c1dc e23e befc 6dbe 4f1d 5d3c
000001a0: afbb e73d 5e8c 263e b437 cc3d 20ee 133e
000001b0: db10 c8be 01d6 993e bc7a d73e d407 f13e
000001c0: 149c d83e b1fa 2dbe 9d7b 45bd b984 44be
000001d0: ca20 02be 70ec a9be 13ee 95be 5685 a1be
000001e0: e0ca 073f 833c 18be eba2 43bf d5cb e83d
000001f0: ca71 36bd ac58 99be a2f8 be3d 0f6a cabd
00000200: 4415 10be 6db5 5c3f 54a1 e93d 44ff 2cbf
00000210: 4ba9 433f 29cd c93c 1d6d b2be 6aee 9e3e
00000220: bf44 f83e 0038 c43e 9df0 20bd 6316 a1be
00000230: cb8f 423d 3aca 0e3e a0fe fdbe fb43 e1be
00000240: 742f 763e a895 e63d 3d5d 0f3f 2a6c a03c
00000250: 36ac 0bbf 4c59 0bbe adb2 183f b653 0cbf
00000260: 03cb 92be 3b0f 88be ba39 c1be ca0d dd3e
00000270: cc2c f0bd b79b 65be bffb ea3d b70f b23e
00000280: a4bb c1bd 3e96 173d 5d57 f53e 14f6 613d
00000290: 83f8 893e 09ee f13d 473b 9abd 0cc4 813f
000002a0: 0b6c 93be d641 9fbe 1262 2dbf 82f0 eabd
000002b0: 46b2 e9be 07a8 753e 87f0 bfbe 28b6 5bbf
000002c0: 1463 443f 847d e93b e319 e83d b29b a7bd
000002d0: fb0d e33b 0919 c9be 3362 0abe 68e0 9c3e
000002e0: 7853 19bf 4de6 103f ea23 ee3e 10dc 4e3e
000002f0: 7cac 2bbe f4c6 0dbe 9357 833e 5dcc a03e
00000300: 9cef 073e 4af1 5dbc 01fb 8abb 8074 053e
00000310: aaa6 54be 10df 2dbe 37fe ad3d 2968 0fbe
00000320: afc1 30be 4498 a13c ec57 c7be 7140 06be
00000330: 53df 993b 9fa1 c7be 2ee9 a6be dc49 203e
00000340: ae3d c7bc 4c2b b6bd 8ed1 b63c 8b0d babd
00000350: 5827 dfbd 4bd2 273e 1b4b 81be 311d 0b3e
0.4507154 0.5776419 -0.29145542 -0.18190472 -0.3907472 0.32021266 -0.17452666 -0.57149106
0.11914799 0.2956823 -0.23162939 -0.43407658 -0.14896911 -0.7151277 0.6041943 0.43512654
-0.27298528 0.5490482 0.03656555 -0.061886344 -0.73692435 -0.035320073 -0.17464237 0.78528136
0.22400719 -0.49757653 0.38528532 0.09761394 0.70683885 0.08802598 0.43090433 0.32468504
-0.017756272 -0.30773467 -0.06671264 0.27691203 0.28316355 0.39973783 -0.28721383 -0.07804333
0.025375845 -0.29592192 -0.32898363 -0.3193436 -0.22887915 0.44639415 0.3121716 -0.085253
0.3011041 -0.24654467 -0.49107394 -0.20653091 -0.24666867 0.07204049 -0.013772365 -0.4214926
0.17622022 -0.24516995 0.01698788 0.4083026 -0.387347 -0.44737887 -0.12146807 0.1247068
-0.19467019 -0.044165358 -0.06066405 0.32676396 0.18882583 -0.012107294 -0.11802744 -0.095136255
0.38420027 -0.033334635 -0.8508286 0.522266 0.728031 0.07910629 0.40275326 0.29661962
-0.40055817 -0.10658519 0.05232016 0.3523789 -0.62040126 -0.44921628 0.035195466 -0.23132929
-0.112286985 0.59757215 -0.083141245 0.0028895563 0.4757895 -0.5352598 -0.45859456 -0.23615976
-0.48947752 -0.1396963 0.144682 0.16222143 0.42311153 0.44309047 -0.23240945 0.013495757
0.11315095 0.16264483 0.09971562 0.14446306 -0.3907536 0.30046085 0.42085826 0.47076285
0.42306578 -0.16990162 -0.04821359 -0.19191255 -0.1270782 -0.331882 -0.292832 -0.3154704
0.5304394 -0.14866833 -0.7642047 0.11367003 -0.04454211 -0.29950464 0.09324767 -0.0988351
-0.14070612 0.86214334 0.11407724 -0.67577004 0.76430196 0.02463396 -0.34848872 0.3104127
0.4848995 0.38323975 -0.039291967 -0.31462392 0.047500413 0.13944331 -0.49608326 -0.43997177
0.2404154 0.112590134 0.56001645 0.019582827 -0.5455965 -0.13608283 0.5964764 -0.5481523
-0.2867051 -0.2657412 -0.37739354 0.43174583 -0.11727294 -0.22422682 0.11473798 0.34777614
-0.09459618 0.037008516 0.47918215 0.05516632 0.26947412 0.1181298 -0.075308375 1.0137954
-0.28793368 -0.31104916 -0.6772777 -0.114716545 -0.45643824 0.23989879 -0.37488195 -0.85824823
0.7671368 0.0071255583 0.113330625 -0.081839934 0.006929157 -0.39276913 -0.13514023 0.30639958
-0.5989299 0.5660141 0.46511775 0.20201135 -0.16765016 -0.13845426 0.2565275 0.31405917
0.13274997 -0.013546297 -0.004241348 0.13032722 -0.20766702 -0.16979623 0.08495753 -0.14004578
-0.17261384 0.019725926 -0.38934267 -0.1311052 0.004695812 -0.38990495 -0.32599777 0.15653175
-0.024321403 -0.08894977 0.02231672 -0.09084614 -0.10896176 0.16388814 -0.25252613 0.13585354

conv1.0.bias f4 [8]
00000000: cc7f 6a3d cc71 acbd cc1e 2dbe c96c 103e
00000010: b214 f53d a1a1 8e3d fcb3 abbd 3609 35bc
0.057250783 -0.084201425 -0.1690628 0.14103998 0.11966838 0.06964422 -0.08383939 -0.011049559

conv1.1.weight f4 [8]
00000000: 5a7c 943f 6150 2d3f 3e7c 2c3f 2cb2 573f
00000010: d2c6 8d3f 81d7 8d3f e2be 8b3f 9749 473f
1.1600449 0.67700773 0.6737708 0.84256244 1.10763 1.1081392 1.0917628 0.77846664

conv1.1.bias f4 [8]
00000000: efea 4b3f a8c0 e43e 0f03 123e 4583 793e
00000010: 7578 b53d e293 833e 4b37 6a3f 38f5 81be
0.79655355 0.44678235 0.1425898 0.24366482 0.08860866 0.25698763 0.9149062 -0.253824

conv1.1.running_mean f4 [8]
00000000: febc 8fbc 4634 453e 35c7 ccbd 8ef2 36be
00000010: 6482 ce3c 88b1 b9b9 4858 a5bd 8e95 17bf
-0.017546173 0.19258222 -0.09998933 -0.17865965 0.02520866 -0.0003541822 -0.08073479 -0.5921258

conv1.1.running_var f4 [8]
00000000: faad 773d 5e70 2d3e ae25 9d3d de67 633e
00000010: cddc 413e 453e fd3d 8f3a 993d 8280 dc3d
0.06046865 0.16937396 0.076732025 0.22207591 0.18931885 0.123653926 0.07481872 0.107666984

conv1.3.weight f4 [8, 8, 3, 3]
00000000: 082b 333e b80f 0e3e 9dd2 b03e 82b2 96be
00000010: bcc4 1cbe 5ef4 b83d 924a 5fbc bcaa 21be
00000020: a8c4 22be 767e 69be 56e0 67be 45ce febe
00000030: 21bd 363e d6ab 8d3d 6c0a cebd 3c7c d03b
00000040: fd43 5bbd bde0 1abd 0d8f 293d c147 963e
00000050: 1639 8a3e 559f 2abe 605c a5be 7166 4ebd
00000060: f939 2c3e 8cea 803e a250 6f3e 62e4 05bf
00000070: f8cb abbe ec33 38be cc12 453e 1d50 193f
00000080: a5a7 653e 214d 25be e9e1 6b3d a0d0 1b3e
00000090: d611 a33c f797 113e bec4 3a3e 5b19 7bbe
000000a0: 332e 83be fd28 d2be 96e7 7bbe 61a7 16be
000000b0: 3df9 58be 39ae 3c3d da16 11bd 6a96 d93d
000000c0: 0f33 903e ac36 033d c959 d73c acb1 27be
000000d0: 4abe 5c3c f08b d0bd 8049 c23e f066 ab3e
000000e0: 5ea6 953e be4c 83be bcfb 54bf 9bb5 d5be
000000f0: 7b13 9c3c 8c9f e1bc e031 fa3c 32a9 c7be
00000100: 551f d1be 4d80 973b a6fc 32be 678f 24be
00000110: 1361 ba3d c4f9 153b 263a 0f3e dcc7 263e
00000120: b3a0 30be 5bab e33c 9f0b 88be 2843 07be
00000130: aa7a b53e 2d8b 57be 603a 8ebe f01b e63e
00000140: 76af 203d fd92 493e 674f d53d 3523 803e
00000150: 9d49 2dbe bdcf eebd 5e8a 193e 6113 9dbe
00000160: a033 30be 2683 173c fbbd 553e 1897 9a3e
00000170: 7c98 f03c 8cd5 dabd 77e3 47be 71b2 57be
00000180: f6a8 11be 5f2d 19be 576b aebe 8ac3 1dbe
00000190: 8ecb f1bd 5973 1fbe 225b d63e da1d 2b3f
000001a0: 0830 b23e 4eb6 b8be 77c8 eabc 63f7 d4be
000001b0: d34e 10be b192 063e 2640 c13d e512 8cbd
000001c0: d9d1 81be ebc9 82be 1107 5bbd 8893 a03d
000001d0: b7b3 5c3e 5adb 74be aba7 b03d a7e8 67bd
000001e0: 880f 613e 6c97 803e 860e 743e 1fd0 b1be
000001f0: 6158 babe fa56 e8be d139 e33c 74f2 263f
00000200: 6fd5 8b3c 8267 a9be 98fc ca3d 8681 9ebe
00000210: 81f1 88bd 83c9 e4bd d39b 1a3b 460c 0e3d
00000220: 1569 723e c687 393e f54d e8bb b91e 133e
00000230: 26b0 963d 4879 5abe 484f cc3d 043a acbd
00000240: 672c 043e f787 683e 5f1e 70be 5fe9 d8be
00000250: 034b 833e 95c2 cd3e 9b48 263f e697 6fbf
00000260: 535d 87be 983f 23be dfa2 0b3d c62e 4f3e
00000270: fc6e d7bd a437 afbe 4d91 5bbe 51b2 dfbc
00000280: 9536 97bc b50f 17be 8bb2 90bc 1be4 8cbe
00000290: b365 19be 7274 a5bd 407c 61be d959 dabb
000002a0: 5ffe 973d 761c 163e 97a9 b5bc 8cc6 aabc
000002b0: e379 c73d 96ba 903d 0a56 473e 0dcc b8ba
000002c0: 8bc7 553e 522c 85be 3da4 7fbe 8ffd 983e
000002d0: d964 d4be 8bc0 7fbe 4314 abbe 035d ef3d
000002e0: 8b9d 9f3e e0ec b1be d847 37bd e2f9 d13e
000002f0: bbdc 653e 1c71 603e 419b d2bd 5b56 13bf
00000300: 07e0 2dbe 84f6 fb3e 23d3 783e fea8 63be
00000310: 28ac 02bd d6cd 273e b3cc c93e ae44 c3bd
00000320: 3959 bfbc 35d8 08bf 7ebb bc3e d218 febc
00000330: 3b31 2ebd 1c3d 8dbe 6fa9 b93d 9ae1 483e
00000340: 20fb 643e 405f 80be df9b bebc 0594 163e
00000350: 3866 053e 1cff e6bd 3e91 f2bb d0b5 243e
00000360: f3b3 aabe 5f68 4ebe c089 7ebe 8ac1 5cbe
00000370: 4c63 83bd 2571 7a3d 3ba4 cd3e a769 2c3e
00000380: a0a2 a13e c8bb 95bc 3f3a 0f3f d831 cd3d
00000390: 27fa 933e a3f4 cc3e d50c a0bd 0b5a 30be
000003a0: 75bb 64be 09b4 873d 2add 1a3d 7314 203e
000003b0: dc3c a33c 568d b93d 6914 51be e284 bebd
000003c0: 53e5 97be 1670 8cbe e501 013e 7111 48be
000003d0: d839 adbd 6e6f 1f3e 9383 6fbe 7e3f 853d
000003e0: 4469 803e 1b53 383d dddb 8e3e e97f e5bd
000003f0: aac3 d53d e83a ad3e eb4a ce3c ec0d d83e
0.17496884 0.13873184 0.34535685 -0.29433066 -0.15309423 0.09030984 -0.013628619 -0.15787786
-0.15895331 -0.22802147 -0.22644171 -0.49766746 0.17845584 0.06917541 -0.100605816 0.006362466
-0.053531636 -0.037811983 0.04139619 0.2935162 0.26996678 -0.16662343 -0.3229704 -0.050390664
0.1681899 0.25178945 0.23370603 -0.5230161 -0.33554053 -0.17988557 0.19245452 0.5988787
0.22427233 -0.16142704 0.05758849 0.15216303 0.019905966 0.14218126 0.18239114 -0.24521391
-0.25621185 -0.41046897 -0.24600062 -0.14712287 -0.21188827 0.04606459 -0.035422184 0.10624392
0.28163955 0.03203456 0.02628793 -0.1637637 0.013473103 -0.10182941 0.379467 0.33476973
0.2922849 -0.25644487 -0.83196616 -0.41740116 0.019052258 -0.027541898 0.03054136 -0.38996273
-0.40844217 0.004623449 -0.1747919 -0.16070329 0.09100547 0.0022884468 0.13987026 0.16287178
-0.17248802 0.02779167 -0.26571366 -0.13209212 0.35445148 -0.21049185 -0.27778912 0.4494319
0.039229833 0.19684978 0.104155354 0.2502686 -0.16922612 -0.11660717 0.14994189 -0.30678847
-0.17207193 0.009247577 0.20873253 0.301934 0.029369585 -0.10685262 -0.19520365 -0.21064164
-0.1422461 -0.14958714 -0.3406627 -0.15406623 -0.11806403 -0.15571345 0.41866404 0.66842425
0.3480227 -0.36076587 -0.028660042 -0.4159499 -0.14092569 0.13141896 0.094360635 -0.06839541
-0.25355414 -0.25544676 -0.053473536 0.07840639 0.21552931 -0.23911801 0.0862573 -0.05661836
0.21978581 0.25115526 0.23833665 -0.34729096 -0.36395553 -0.45378858 0.02773753 0.65213704
0.017069547 -0.33086783 0.0991146 -0.30958194 -0.06686688 -0.11171248 0.0023591414 0.034679674
0.23672898 0.181182 -0.0070893713 0.14367189 0.073578164 -0.21335328 0.09976059 -0.08409503
0.12907563 0.22708116 -0.23449086 -0.42365548 0.25643167 0.40187517 0.6495454 -0.93591154
-0.26438388 -0.15942228 0.034090873 0.20232686 -0.105192155 -0.34222138 -0.21442147 -0.027306708
-0.018458644 -0.14752086 -0.01766326 -0.2751778 -0.14980201 -0.08078851 -0.22020054 -0.0066635427
0.07421564 0.14659294 -0.022175593 -0.020846628 0.09740045 0.070668384 0.19466415 -0.0014098898
0.20876901 -0.26010376 -0.24964996 0.2988095 -0.4148319 -0.24975793 -0.33413896 0.116876625
0.31174883 -0.34751034 -0.04474625 0.41010958 0.22447483 0.21918148 -0.102835186 -0.57553643
-0.16979991 0.49211514 0.24299292 -0.22232434 -0.031902462 0.16387114 0.39413986 -0.09534584
-0.023357974 -0.53454906 0.36861795 -0.031017695 -0.04252742 -0.27585685 0.0906552 0.1961731
0.22361422 -0.2507267 -0.023267685 0.14704902 0.13027275 -0.11279127 -0.007402568 0.16084981
-0.33340415 -0.20157002 -0.24857235 -0.21558204 -0.06415424 0.06114306 0.4016436 0.16837178
0.31569386 -0.018278018 0.5594825 0.100192726 0.2890179 0.40030393 -0.078149475 -0.17221849
-0.22337134 0.06626136 0.037808575 0.15632801 0.019926481 0.09060161 -0.20417942 -0.09302689
-0.29667148 -0.27429265 0.12598379 -0.19537903 -0.084582984 0.15569851 -0.23390035 0.06506251
0.2508031 0.04500113 0.27902117 -0.112060376 0.104377106 0.33834004 0.025182208 0.42198122

conv1.3.bias f4 [8]
00000000: 4b86 4fbd e629 eb3c 5843 333d 58b2 b5bd
00000010: 3e98 86bc 76f7 cebd 0287 92bd dd60 933c
-0.05066518 0.028706502 0.043765396 -0.08871907 -0.016430017 -0.10105793 -0.07154657 0.017990524

conv1.4.weight f4 [8]
00000000: 3841 913f 6514 903f 7b7a 8d3f d81c 6b3f
00000010: 6df7 a13f 39a1 5f3f 527f 783f 015f 863f
1.1348028 1.1256224 1.1053003 0.9184089 1.2653633 0.8735538 0.97069275 1.0497743

conv1.4.bias f4 [8]
00000000: 98ff 173e fa55 8bbe 3c23 91bd 9d1f 373e
00000010: 6060 c1bd fd7c c73e 8dad 613e 3528 e9bd
0.14843595 -0.27214032 -0.070867985 0.17883153 -0.0944221 0.38962546 0.2203886 -0.11384622

conv1.4.running_mean f4 [8]
00000000: b668 a3bf 8b32 3bbf 899c 35bf dc9f 883f
00000010: cd82 84be bf28 8d3f 6660 d4bf 3af2 dfbe
-1.276633 -0.73124 -0.7094198 1.0673785 -0.25881043 1.102806 -1.6591918 -0.43739492

conv1.4.running_var f4 [8]
00000000: 9dee 0e40 6eed 1a40 e785 3440 9986 0140
00000010: 23f3 9840 1f45 0440 bf02 d53f 1b0c 4240
2.2333138 2.4207416 2.8206728 2.0238402 4.77968 2.0667188 1.6641463 3.0319889

conv2.0.weight f4 [16, 8, 3, 3]
00000000: 9bd5 3f3d f3de 743d 2dc9 75bd feef cd3d
00000010: f1d6 45be 720c 023c 916f 53be 5dee 81bc
00000020: 46df b9bc 1fc6 553e 48cd 543e 4ca3 8b3d
00000030: 0020 8bbd 03a2 22be 85d9 04be 89c7 983d
00000040: 9806 433d 55e5 053e 1b67 98bc d032 173e
00000050: c8fa b93e d059 86be 46ac b9be 145a 303d
00000060: bf40 77bd 5026 7bbd e1a1 633e 260f 97bd
00000070: fb92 48be bc4a e9bd c1c2 343e c8cc 113d
00000080: fd2f 9abc 1da3 29be 62b5 953d d8f9 853d
00000090: c3d7 bdbd f7ec ffbd 3588 0dbe e1b2 5abe
000000a0: ddfb f9be 24c3 0ebe a4c9 993c 1fb4 ccbd
000000b0: c5c2 8fbc 7a5f 85bd 8ada 64be fb0b bebe
000000c0: b7d4 963c e17b d73d 4cdf 97bd 6f01 45be
000000d0: df7d 1bbe 9088 d33c b087 fa3d 7725 633e
000000e0: 5628 21be 5f00 aa3d c256 133e 7e80 00be
000000f0: 1107 36be b6e8 d43c 75f0 1dbe 7a90 bebd
00000100: 74f4 95be 0348 15be 29e2 04bc 7755 d9be
00000110: 32d9 e1be 8063 4f3e b9d2 48be 0011 e3bd
00000120: 7cbe bdbe 5433 75be 5151 9c3d 04f2 a2be
00000130: 4f97 1abe 9c23 963e 34d7 b5bb ed3d 3ebc
00000140: 7bdd 5a3e ecda b5bd f7e8 39bc ef1d 24bd
00000150: 79b2 6d3c 4fca 453e 658f 033d e844 133d
00000160: 7401 6abe 595c 76be 6cfd 233d 71c0 12be
00000170: 0542 863d 40ed 09bd 25b2 fbbb bdd3 073e
00000180: 0fd9 a23d f475 cebb be92 0fbe 6a8b eebd
00000190: 19fa 2d3e 674a 5d3e 2c29 88bd 1bde 6abe
000001a0: ec06 89be 0bfe 10be 7042 c2be 165c d1bd
000001b0: 09ae 2c3e bd66 c23d 1f91 5f39 329e 153e
000001c0: 6332 623c 20a6 1f3e ac43 473e b678 be3d
000001d0: 9c48 84bd a980 d5bd 138a cbbe 133b 4abe
000001e0: c736 063e bbbf e0be 7333 1cbc f76f 643d
000001f0: de7a edbd 70ee 34bd 2b29 f83c 8cca 1ebd
00000200: 7112 a0bc 43e5 17be d139 0c3e 6852 3a3e
00000210: 16e2 fcbd 10af ad3d a533 b83e 78d4 893d
00000220: b068 c33d b691 10bd 0a6d 38be 6c28 323e
00000230: a5a7 723e 8ee8 d5bd baa7 fe3d 772a f33d
00000240: 3c16 373c 0649 afbe 73ef 8dbe 8e0d a8be
00000250: 3427 c0be adc3 9dbe aecc 8bbe 6f21 43be
00000260: 00d3 8ebe 626c 26bd b384 ac3c c3fb 8dbe
00000270: e771 8abe e86a 7dbe 489c 94be 4807 2dbe
00000280: 1cdc 25be 45dc 6c3e e82d c03b 3300 f73d
00000290: 0870 e63d 030b e8bc c2b0 7f3e ac11 563e
000002a0: 7fe6 7c3e fe88 b0bd dfd7 05bd 5e8d 863e
000002b0: a26d 4d3e 678e 35be cfb4 a2bd a433 90be
000002c0: c60d 333e 2645 f8be 0864 0bbe 45f2 8d3d
000002d0: 3c96 423e 6cac 1abe 10ef 22bd 4927 4bbe
000002e0: 4574 713d 4188 0f3d 5205 87bd 661f 113d
000002f0: f2e1 23bd 3b17 b8bb ed2a 6bbc 3fdf 7e3d
00000300: f0ef 0dbd 5dbd 2fbe 6b3b bd3d 1de8 85be
00000310: a5a7 c83d 89df 22bd 5972 b3bc 44a7 a33e
00000320: 450c 873e 1a23 cf3d ea58 d0bd 4172 a53e
00000330: 79db 92be e559 c53d 6645 693d 4ef5 1d3e
00000340: ac4a 463e 5099 373e 6717 703e 486f 9bbd
00000350: ebac 953d 0673 8abc 303f 45bd 41a2 1b3e
00000360: 6c4d 643d 1ffe 303e 0d2c 923e 4f1f 493e
00000370: 4f2a e3bd d411 983d 15d0 d5be db9c 0abe
00000380: 1203 fe3d 67b1 93bd abb7 21be af3b 103e
00000390: 1ab1 0ebd ea72 a13c 22e8 78bc 4b23 14be
000003a0: 7b4f bb3d 218d 7a3e cc45 e83c 7eba 573d
000003b0: 1cb0 b2b9 4732 bfbc 07fa 123e a4e6 213e
000003c0: 3a1d a63e e92e 2f3d ba6a 67bd c561 423d
000003d0: c3c4 37be 05ff 5abe b99e 17be 19c4 00bf
000003e0: 1434 d5bd 5f9d b3bd 028a 76be 1788 47be
000003f0: 4ce1 913c 3a9b 723e 2580 6bbc 3417 8a3b
0.04683457 0.059782933 -0.06000631 0.100555405 -0.19320275 0.0079375375 -0.20648028 -0.01586073
-0.022689473 0.20876358 0.20781434 0.06818256 -0.06793213 -0.15882115 -0.12973602 0.07459933
0.04761371 0.13075764 -0.018603852 0.14765477 0.36324143 -0.26240396 -0.36264247 0.043054655
-0.06036448 -0.061315835 0.2222972 -0.07375936 -0.19587319 -0.113912076 0.17652418 0.035595685
-0.01882171 -0.16566129 0.07309987 0.065417945 -0.09269669 -0.12496369 -0.1382149 -0.213573
-0.4882497 -0.13941628 0.018772908 -0.09995293 -0.017548928 -0.06512351 -0.22348991 -0.37118515
0.018411977 0.10521675 -0.074156374 -0.19238828 -0.15184735 0.025821954 0.122329116 0.2218226
-0.15738043 0.08300852 0.14388564 -0.12549016 -0.17776133 0.025989871 -0.15423758 -0.093049005
-0.29288065 -0.14578252 -0.008110561 -0.42448017 -0.4411102 0.202528 -0.19611634 -0.11087227
-0.3705939 -0.23945361 0.076326974 -0.31825268 -0.15096782 0.29324043 -0.005549336 -0.011611444
0.2137355 -0.08879647 -0.011347047 -0.04006761 0.014507883 0.19315456 0.032119174 0.035954386
-0.22852117 -0.24058665 0.040036604 -0.14331223 0.06555561 -0.033673525 -0.0076811486 0.13264365
0.07951557 -0.006300682 -0.14020821 -0.11647685 0.16989936 0.21610413 -0.06648478 -0.22936289
-0.26763093 -0.1415941 -0.37941313 -0.10222642 0.16863264 0.09492252 0.00021320999 0.14611128
0.013805958 0.15590715 0.19459409 0.093003675 -0.06459162 -0.104249306 -0.3975378 -0.19749098
0.13106833 -0.4389628 -0.009533751 0.05577084 -0.11595701 -0.044172704 0.030293068 -0.038767383
-0.019540044 -0.1483355 0.1369393 0.18195498 -0.1234781 0.08480656 0.35976902 0.06729978
0.09541452 -0.03529521 -0.18010345 0.17398232 0.23696764 -0.10444747 0.12434335 0.11873334
0.011174735 -0.342354 -0.27721748 -0.3282284 -0.3752991 -0.3081335 -0.27304596 -0.19055723
-0.27895355 -0.040630706 0.02105937 -0.2773114 -0.27040026 -0.24747813 -0.29025483 -0.16897309
-0.16197246 0.23130901 0.0058648475 0.12060585 0.11251837 -0.028325563 0.24969772 0.20905179
0.24697302 -0.08619879 -0.032676574 0.2627973 0.20061353 -0.17730103 -0.07944643 -0.281644
0.17485723 -0.48490256 -0.13612378 0.06930975 0.19002622 -0.15104836 -0.03977877 -0.19839205
0.058948774 0.03504205 -0.06592812 0.035430335 -0.0400104 -0.0056180037 -0.014353496 0.062224623
-0.03465265 -0.1716208 0.09239849 -0.2615365 0.09797601 -0.03976396 -0.021905111 0.3196355
0.26376548 0.10114117 -0.10173209 0.3231373 -0.2868307 0.09636287 0.05695095 0.15425608
0.19364423 0.17929578 0.23446427 -0.075895846 0.07308372 -0.01690055 -0.048155963 0.15198614
0.055737898 0.1728444 0.28549233 0.1964085 -0.11092054 0.074252754 -0.41760316 -0.13536398
0.12402929 -0.07211571 -0.1579272 0.14085267 -0.034836866 0.019708116 -0.0151920635 -0.14466588
0.09146019 0.24467899 0.028353594 0.052668087 -0.00034082017 -0.023339404 0.1435319 0.15810639
0.32444173 0.042769346 -0.056498267 0.04745652 -0.17946152 -0.21386345 -0.14806642 -0.5029922
-0.10410324 -0.087702505 -0.24076083 -0.19485508 0.017807625 0.23692027 -0.014373814 0.004214192

conv2.0.bias f4 [16]
00000000: 5bc6 debd edfa a83d bcfc 89bd e6d5 193d
00000010: 2dfb ad3d d41e c23c 5e22 ccbd 63d2 a03d
00000020: cfa2 cfbd be94 4bbd a506 a7bd b89b 2bbd
00000030: aa40 463d 8536 f13d 3cbc a4bd 1551 8d3d
-0.10877677 0.08250985 -0.067376584 0.037557505 0.084951736 0.02369634 -0.099674925 0.07852628
-0.10138475 -0.0497024 -0.08155564 -0.04189655 0.048401512 0.11777977 -0.08043715 0.06900231

conv2.1.weight f4 [16]
00000000: 0f9c 893f 7a7d 6c3f 308c 723f ff9f 6c3f
00000010: 2a92 693f 0a67 8e3f 1b7d 9f3f 6cbf 713f
00000020: c079 a93f 46e7 5e3f f3b3 823f 2887 993f
00000030: 3867 5d3f fb7b 8b3f c3e9 7e3f 7618 453f
1.075075 0.9237896 0.9474516 0.92431635 0.91238654 1.1125195 1.2460054 0.9443271
1.324028 0.87071645 1.0211166 1.1994371 0.86485624 1.0897211 0.9957544 0.7699045

conv2.1.bias f4 [16]
00000000: 1a78 ad3e 39f9 003e b9c8 cb3d dd62 d43d
00000010: edbd 8b3c 3d29 0bbc 3f6b 2a3d f0db 08bd
00000020: 25c2 0bbe ce20 4d3e 5b5a 6a3e 3d22 9cbd
00000030: 6ddb 823e 5378 283e 2301 e63d e0f3 8e3e
0.33880693 0.12595071 0.09950394 0.10370419 0.017058337 -0.008493719 0.041606184 -0.033412874
-0.13648279 0.20032045 0.2288603 -0.07623718 0.25558034 0.1645215 0.112306856 0.27920437

conv2.1.running_mean f4 [16]
00000000: 464c 34c0 a7ea 5abf 86f1 bbbf 3aa4 87bf
00000010: c1ea 5d3e 8e69 d1bf 9507 8ebf 17bf 46be
00000020: 37dc d6bf 74ae 1c3f 6645 4abf c4d8 7abf
00000030: 7613 d13f db65 34c0 c1bc 2fbe 5c20 9b3f
-2.8171554 -0.855143 -1.4683082 -1.0596993 0.21671583 -1.6360338 -1.1096064 -0.19408832
-1.6785954 0.61203694 -0.79012144 -0.9798701 1.6334064 -2.8187168 -0.17161848 1.211925

conv2.1.running_var f4 [16]
00000000: 0737 5e40 9265 1940 81cc 4840 3549 ff3f
00000010: 3aa3 0a40 31fa 2440 b370 5140 8b41 1e40
00000020: 85d6 5c40 b4ac 0040 92a7 1d40 8543 5440
00000030: 4400 1940 c18c 4540 4dbb 1f40 a00c 0940
3.4721086 2.3968244 3.137482 1.9944216 2.1662126 2.5777705 3.2725036 2.4727504
3.4505932 2.010541 2.4633527 3.316621 2.3906412 3.086716 2.495807 2.1413956

conv2.3.weight f4 [16, 16, 3, 3]
00000000: 0a99 033d 7fe1 13bd 465a d3bb 700d a23d
00000010: fc31 dc3d 0235 5e3d 8c16 77be 39b0 113e
00000020: 59bf e23d 03ae d5bd 6513 30bc a3e6 28be
00000030: bde8 29be 300d dc3d 758c f53d 6290 7abd
00000040: 764b 303c 91ed 023e 940d f33d bb3e 273e
00000050: 9c74 693d d3d4 b4bc 298e f83d a62c 82bd
00000060: 7a9e 813d 6c08 d03d d942 e5bd 5556 0dbe
00000070: 4140 94b9 7178 5ebc a0d4 c03d aeb2 5f3e
00000080: de27 8f3e b464 c7bd 8c12 dfbd bf01 573d
00000090: 29ab 3e3d acfe 0a3e 1e69 e13d ed1c 5abe
000000a0: 9033 f7bd 1f07 15be 1649 5e3e 1d3d 153e
000000b0: 3877 543c 2792 253d e577 033e 29bd 6b3e
000000c0: 87fb ebbd fe6c 93bc 3131 0a3d 5cac 90bb
000000d0: 1d53 db3c e6a7 f5bd 4071 91bd 7016 5cbc
000000e0: ba2b 0fbd d4ac afbe 5e51 93be cfb5 24be
000000f0: 5b54 69be e1d6 60be d01d 82be efbe ecbc
00000100: b7c0 933d bf4c 613e dd83 cebd 2876 e53c
00000110: 069e 683d c222 863e 6653 c6ba 35b8 ac3d
00000120: fa77 6f3d 04e2 a53d 9a9a 013e a7d4 c3be
00000130: c035 6dbe d580 cabd ec3c dabd f59f 2abe
00000140: 7eba 7a3d b495 4b3d f286 b13c f6e4 cf3e
00000150: bf42 343e ee40 23be b454 4f3e 8e41 493e
00000160: 51ac 40bd 8626 b03d f2de b03d a021 433d
00000170: 9013 13be 8ded a53d 226f a93d 5af4 76bb
00000180: 9fa3 0c3d c190 473d 31d3 823d a740 d3bd
00000190: 7bde 0b3d f846 74bd 7629 b53c b2b1 563d
000001a0: 829d 303c f9ed c4bd c08b 5e3d d6c6 913c
000001b0: 3cdb 4fbe bf87 9cbe 41cc 29be fde0 6abd
000001c0: 911b 97be 35fd 6fbc 3044 8f3d d7a9 33bd
000001d0: c609 ea3c f911 453d 2cc6 113e 189e a83e
000001e0: 5dbd 173e 835f 1f3e 7c22 663e 5f6c 8ebc
000001f0: b565 0dbe 5d79 453e 6ec8 0c3e 8e21 05be
00000200: f603 e03c a636 1fbe f9b7 54be b734 34be
00000210: c20a 0fbe eef8 21be b62a c23c 6dc7 6abe
00000220: c55b b2bd c851 54bd 43dd 5fbd 0c26 82be
00000230: 8a64 253d c7a1 41bd 23b0 93bd 7fe9 0bbc
00000240: 1a8f 78bd 0d74 c3bd 6e2a ecbd 4f8a 06be
00000250: af5f aabe 85e8 a13d afd4 493d 926d b3bd
00000260: 0cf2 cfbb 0308 103d 0637 9f3d c15c 23be
00000270: 76a5 39bd 09b7 bebe a2cf 8fbe e76b 1dbe
00000280: 24ff 6dbe dbe2 1b3e 7f9d b93d 5759 92bb
00000290: ecc7 bb3b 4d9c dd3d b031 d83a 684a 0dbe
000002a0: 3bb7 18bd d8ee aebd 59fd e1bd 72e9 67be
000002b0: 379f 103d ca01 c83d a658 d93d 2761 73bd
000002c0: 7744 93be 88ee 04be 7d10 44be f37e 583d
000002d0: 4fe4 913d 9d13 5bbc 7570 0ebe d693 a5bd
000002e0: c73b 48bb a8ca 91bd 4887 213d 393d 27be
000002f0: 8ecc 413e 293c 88bb 5cec 1c3e b9b9 18be
00000300: b60d 883d ee74 5fbe b7e5 8abd b911 6f3b
00000310: d44a 12bd de71 9ebc 1959 313c 6ba9 44be
00000320: f318 bfbd 5ae4 083e 83f8 333e 27d2 aa3c
00000330: 0eac 8dba 7dec 6e3d c5e7 34be b666 c2bd
00000340: 605c 093e 1611 dfbd 2320 933c dc8d 993d
00000350: 563c 6f3e fff6 c8bc ebf5 843e 9466 063e
00000360: bf97 04b9 c33f 0abe eb6e 8fbe 55df c4be
00000370: b253 80be d106 41be 8f7d 583e a6bf 8e3e
00000380: d066 be3e 03e1 7ebc 6f41 bcbb 06e8 e5bc
00000390: 73cb 883e 8963 a63d 0b07 b33c 7c38 1b3d
000003a0: a0b6 2abe daed 323e 561f db3d 5304 7b3d
000003b0: 92dd 433e 60a4 5a3e 63cf eabc 96af b8bd
000003c0: 472e 46be d735 9d3c 72e8 ed3d 2a46 793d
000003d0: dd61 2fbe 7982 4fbe 7488 55bd 3d7a 983c
000003e0: 6fa8 f1bc 3a6a 473c b9b7 5e3d b46b ad3e
000003f0: 0529 a63d 1e4f eabb 6eff 0fbe b774 263e
0.03212837 -0.03610372 -0.0064499704 0.07912719 0.10751721 0.05424977 -0.24129695 0.1422738
0.11071653 -0.10433581 -0.0107468115 -0.16494231 -0.16592689 0.10744703 0.11989681 -0.06117285
0.010760179 0.12785937 0.11867824 0.16332524 0.056995973 -0.022074139 0.1213649 -0.06356172
0.06329055 0.10157856 -0.11194391 -0.13802464 -0.00028276633 -0.01357852 0.09415555 0.21845505
0.27960104 -0.097360045 -0.108922094 0.0524919 0.04654995 0.13573712 0.11006378 -0.21300097
-0.12070382 -0.14553498 0.21707568 0.14574094 0.012967877 0.040422585 0.12838705 0.23021378
-0.115225844 -0.017996307 0.03373832 -0.004415078 0.02677303 -0.11994915 -0.07101679 -0.013433084
-0.03495381 -0.34311545 -0.28773016 -0.1608498 -0.22786085 -0.2195697 -0.2541337 -0.028899638
0.07214492 0.22001933 -0.10083745 0.028010443 0.056791328 0.26198393 -0.0015131056 0.08433572
0.058464028 0.0809975 0.12656632 -0.38248178 -0.23165035 -0.09887854 -0.10656151 -0.16662581
0.06121301 0.049703315 0.021670792 0.4060437 0.17603587 -0.15942737 0.20247155 0.19653913
-0.047039334 0.08601098 0.086362734 0.04763949 -0.14362931 0.0810195 0.0827315 -0.0037682266
0.03433573 0.048722032 0.06387938 -0.10315066 0.03414772 -0.059637994 0.022114497 0.052415557
0.01077974 -0.09615702 0.054332495 0.017795008 -0.20298475 -0.30572316 -0.16581823 -0.05734347
-0.2951322 -0.014647772 0.069954276 -0.043863144 0.028569113 0.048112843 0.14235753 0.32933116
0.1481833 0.15563779 0.22474092 -0.01738566 -0.1380833 0.19284578 0.13748333 -0.13001081
0.027345639 -0.1554819 -0.20773305 -0.17598234 -0.13968948 -0.15817615 0.023702007 -0.22927637
-0.0870891 -0.051835805 -0.05465437 -0.25419652 0.040379085 -0.047273424 -0.0721133 -0.0085395565
-0.060683347 -0.09543619 -0.1153153 -0.13138698 -0.33276126 0.07905678 0.049275097 -0.08761133
-0.006345993 0.03516389 0.07774167 -0.15953352 -0.04532381 -0.3724902 -0.280881 -0.15373193
-0.2324186 0.15223257 0.09063243 -0.0044662165 0.0057306197 0.10820828 0.00164943 -0.13797915
-0.037284117 -0.085416496 -0.1103465 -0.22647646 0.03530809 0.09765966 0.106126115 -0.059418824
-0.28763172 -0.12981617 -0.19146915 0.052855443 0.071236245 -0.013371375 -0.13910086 -0.08084838
-0.0030553208 -0.07118732 0.039435655 -0.16331948 0.18925688 -0.0041575623 0.15324539 -0.14914598
0.0664324 -0.21821949 -0.06782096 0.003647907 -0.035715893 -0.019341405 0.010824465 -0.19205253
-0.093309306 0.13368359 0.17575268 0.020852162 -0.0010808723 0.058331 -0.17666538 -0.09492247
0.13414145 -0.10891931 0.01795966 0.07497761 0.2336286 -0.02453184 0.2596887 0.13125068
-0.00012645031 -0.13500886 -0.2801431 -0.3845164 -0.25063854 -0.18850257 0.21141647 0.2788059
0.37187815 -0.015556577 -0.005745105 -0.028064739 0.2671772 0.081244536 0.021853944 0.037895665
-0.16671228 0.17473546 0.10699336 0.06128342 0.19127491 0.21351767 -0.028663343 -0.09017865
-0.19353591 0.019190712 0.11616601 0.06085793 -0.17127176 -0.20264615 -0.052132085 0.018612975
-0.02949926 0.0121713225 0.05437443 0.33871233 0.081132926 -0.007150545 -0.14062282 0.1625546

conv2.3.bias f4 [16]
00000000: 173e d23c 0b7d 39bd 69d1 d73c aee8 583d
00000010: 6366 20bd bf22 97ba 752b 54bc e379 0abd
00000020: f369 80bd 351f 3c3c 92f0 6d3d c462 9abd
00000030: cafa 053d d8d3 e83b 5328 abbc 79eb a33b
0.025664372 -0.045285266 0.026344972 0.052956276 -0.039160144 -0.0011530741 -0.012949814 -0.033807646
-0.06270208 0.01148205 0.058090754 -0.07538369 0.032709874 0.007105332 -0.020893252 0.0050024358

conv2.4.weight f4 [16]
00000000: eab4 873f 48dd 7b3f bd8a 653f 1a70 813f
00000010: 7288 893f 1685 7f3f 6304 663f 9a40 853f
00000020: f06a 853f eff1 8c3f 246b 893f 147c 813f
00000030: 52e5 843f 2c2a 883f 4f03 8c3f 81d0 823f
1.0602086 0.98384523 0.8966482 1.0112336 1.0744765 0.9981245 0.89850444 1.041034
1.042326 1.1011332 1.0735822 1.0115991 1.0382483 1.063787 1.093851 1.021988

conv2.4.bias f4 [16]
00000000: 1f00 eb3d bbc7 023e b2a4 b23d bdab bf3b
00000010: 193d 00bd 38df 1cbe fa64 4d3d 408d 593d
00000020: 7b89 34be 2408 3cbe 65ba 803d 2a7b 8b3c
00000030: b06c 8fbd 2dce b33d bf94 20bd c7db ecbd
0.114746325 0.12771504 0.087228194 0.00584933 -0.031308267 -0.15319526 0.050145127 0.053113222
-0.1763057 -0.1836248 0.06285552 0.017026503 -0.07003152 0.08779559 -0.039204355 -0.11565357

conv2.4.running_mean f4 [16]
00000000: 0489 dabe ad1f 7dbf be88 6cbe a3bd 01c0
00000010: 7ae4 ddbf a8c7 7dbf 7b70 023f f0cb 9bbf
00000020: b0a7 ff3e f49a 7fbf ea72 38bf 12f1 68bf
00000030: c588 d4bf 5845 2ec0 7cd7 27bf 109b 5d3f
-0.4268266 -0.9887646 -0.23099038 -2.0271995 -1.733535 -0.99132776 0.5095288 -1.2171612
0.49932623 -0.99845815 -0.72050345 -0.90992844 -1.6604239 -2.7229824 -0.6556318 0.8656473

conv2.4.running_var f4 [16]
00000000: 1dd0 0340 a885 d93f f384 a73f cd21 e43f
00000010: 3ffb df3f e92e e63f d2cc 0340 039a c93f
00000020: ca52 8f3f 5afc c63f f977 e63f 4d76 0a40
00000030: 9652 fb3f 9fa6 c33f 340e c33f a134 0740
2.0595772 1.6993914 1.3087448 1.7822815 1.7498549 1.7983066 2.0593762 1.5750126
1.119714 1.5545762 1.8005363 2.1634705 1.9634578 1.5285224 1.523871 2.1125872

conv3.0.weight f4 [32, 16, 3, 3]
00000000: ab80 b83e 576a 1b3e 78a4 c23d f784 7e3d
00000010: cbec 15be fca9 12be bc1d b5bc 82ee 463a
00000020: 8dea 05bd 3ad9 1e3e 778b 9e3d 5b79 633d
00000030: 5a10 ebbd 745c f53d f0d5 c23c 1b11 a7bd
00000040: 3d4b 943d acc3 b43d e7b3 3fbe 0fdc 3d3e
00000050: 7594 21bc 9803 8bbc c026 d13d 11ca 933d
00000060: 2012 493e 7aff 05be 80dd 6fbe 55d9 1d3e
00000070: f95a f4bd 5c41 1b3e 3980 c9bd 9fb7 99bd
00000080: c18f 05be 023a 9cbd 70ca 60be b827 1fbe
00000090: da95 2b3e 7c37 46bd 2330 e3bc fd8e 5f3e
000000a0: 1fd5 f2bb a63f e4bc 4c9d 713d 6e40 3dbb
000000b0: 7f46 d8bd 1a49 a6bc b178 863e 4bb7 343e
000000c0: b90d 083e b760 4e3e 0c1b 723c 910c 21bc
000000d0: 8606 333e 36fd 6bbd 519b 59bb 7fa0 d53d
000000e0: b3fa 58bd 69a3 efbd 3b8b 10be b72f abbd
000000f0: 8c7b a0bd 2a22 2d3d 0d45 433d 2308 6bbd
00000100: eda3 c3bd 9d3f 0c3d f58b 10be cc2f 5bbd
00000110: 5cee 98be e928 f03d 17d6 9c3b 4d6d bebc
00000120: 02de f63c 3f79 17bc 796a 85be e9e8 9e3d
00000130: d117 d73d f43e dfbd e4f1 203e d78d 863c
00000140: 1cfc 973d 9ca4 183d f182 8cbc b858 93bd
00000150: 8ffd 52be d861 65bd 9fb2 8dbd cbd2 f43d
00000160: c76f 61bd 0d0b 9c3b b41c 913d dd6c 9dbc
00000170: e598 233e be17 163d f040 40bd 3276 2a3e
00000180: 9e8d 033e 0419 cb3c 4e13 8f3e 233d 543e
00000190: 6b09 59be d234 333d e02f fd3c 526c 99bd
000001a0: 0f42 2dbd e8e8 03be 594c d1be 952e e23c
000001b0: c275 a53e e477 203e 13da f53b be2d 3e3c
000001c0: 0f1c babd 7b71 57be 94a1 8cbd 97b1 0dbe
000001d0: 8f89 42be b2f9 82bd 3a86 9f3e e58c 8f3e
000001e0: db51 3d3e 56e8 bbbc bec8 1abd c243 913d
000001f0: fc55 0b3d da32 a33c 32a0 693d 43d6 b8bd
00000200: fb38 8d3d 6cbc a93d 1ac4 4e3c f393 cc3c
00000210: 5dd7 f43c c85a 3fbe 5994 4f38 56e6 4ebd
00000220: b936 35be 75f5 e6bd c42e 4bbc d565 5a3d
00000230: 5a70 e53c 5e3a d63b 5aaa 01be 7875 e9bd
00000240: b6e4 9fbd 7059 9cbd e1b2 94bd 0626 cb3c
00000250: 910b 5cbd 87f3 0b3e ff04 a43d ba86 273d
00000260: 7b29 693e eb91 033d 74db f0bc aed2 8dbd
00000270: 3ade 343b b0e6 e4bd f91a 8cbd 83cb 22bd
00000280: 26bd 59bc 9ff7 c83d 2d18 e93d 1743 2bbd
00000290: 988a df3c bd77 bbbc 4f19 b4bd a59d 0bbe
000002a0: c036 bbbd 603e 96bc e935 6bbe 36a8 473d
000002b0: 2263 1dbd 2e4c 1dbe 1835 4e3e 5150 26be
000002c0: 2920 073e 9f85 613e 8c05 01be 0a6f 333e
000002d0: 816e b1bd a469 243e bdf4 093d 93c2 073e
000002e0: d0a5 693d e9e7 13bd 134c c43b 2c12 d73d
000002f0: 7b54 bfbd 96cc 3dbd 9327 f8bd 839d 66be
00000300: c432 9e3d e182 1c3e 8c29 9dbd 0ec2 3f3e
00000310: 0a54 473e 1a7b 173e c981 00be 7833 8ebe
00000320: 3d9d b6bd 08ca 8c3b 7675 d9bd a0ac f9bd
00000330: 4728 8bbe 8c05 0dbd 41de 973d 6192 80bd
00000340: ff73 3a3c c22a df3d 0372 573d 8fbf 043d
00000350: ca1d 2a3e d8ed 883e d1bb 0e3d 6e80 843d
00000360: 0b77 2d3d cb9b 543d c850 49bc 171e 04be
00000370: bc33 8f3a 5571 5c3d 92bf 093e 8d88 a7bd
00000380: bf94 3a3e 16b7 803d 1b8b 4c3d 5470 403e
00000390: 8fce 553c dac0 6dbd 6566 9f3d bcf6 a5bb
000003a0: d53f fdbc 0b8e 59bd 7e59 a7bd 7f4a c43c
000003b0: f163 0cbe edbe 213c b9a6 52bd 059c 32be
000003c0: 6981 2a3c 2e46 5d3c cd69 373e 1093 fc3d
000003d0: 5d2f c6bd 3b65 1fbe 6d4b b43d 4ef6 8ebd
000003e0: df9b 85be 7a6d 373b 36c4 1abe db7f 12be
000003f0: 65c6 bfbd 2183 a3be 2261 4ebe e8db f53d
0.36035666 0.15177284 0.09504026 0.062138524 -0.1464111 -0.14322656 -0.022108905 0.0007588641
-0.03269439 0.15512553 0.077414446 0.055535655 -0.11477728 0.11980525 0.023783654 -0.081575595
0.07240913 0.08826384 -0.18720971 0.18540977 -0.009862055 -0.016969487 0.10212469 0.072162755
0.1963582 -0.13085738 -0.2342434 0.15414937 -0.11931414 0.15161651 -0.0983891 -0.07505726
-0.13043119 -0.076282516 -0.21952224 -0.15542495 0.16756383 -0.048392758 -0.027732914 0.2183189
-0.00741066 -0.027862381 0.0589879 -0.0028877514 -0.10560321 -0.02029853 0.26263955 0.17648046
0.13286485 0.20154081 0.014776956 -0.009829656 0.17482957 -0.057614528 -0.0033204148 0.10431003
-0.05297346 -0.1170109 -0.14115612 -0.0835871 -0.07836065 0.04226891 0.047673274 -0.057380807
-0.09552751 0.034240354 -0.1411589 -0.05351238 -0.29869354 0.11726553 0.0047862637 -0.023245478
0.030135158 -0.009245216 -0.26057795 0.07759268 0.105025895 -0.10900679 0.15717274 0.016425056
0.07421133 0.03726636 -0.017152281 -0.07194656 -0.20604537 -0.056001514 -0.06918835 0.11954268
-0.05503824 0.0047620595 0.07085553 -0.01921695 0.15976293 0.036643736 -0.04693693 0.1664665
0.12846991 0.024792202 0.27944416 0.20726447 -0.21194999 0.043751545 0.030906618 -0.074913636
-0.042299327 -0.12881815 -0.4087856 0.027610103 0.32316405 0.15670735 0.007502803 0.0116075855
-0.09087383 -0.21039383 -0.06866756 -0.13837276 -0.18997787 -0.06395282 0.31157094 0.28037181
0.18488257 -0.022937935 -0.0377891 0.07093002 0.034017548 0.019921709 0.05703754 -0.09025242
0.06895634 0.08287892 0.012619996 0.024972891 0.02988785 -0.18686974 4.9490805e-05 -0.050512634
-0.17696656 -0.11277286 -0.0124012865 0.05331977 0.028007675 0.0065377196 -0.1266264 -0.113993585
-0.07807295 -0.07634246 -0.07260681 0.024798404 -0.053721968 0.13667117 0.080087654 0.04089997
0.2276973 0.03212158 -0.029401518 -0.069249496 0.0027598278 -0.11176813 -0.06841082 -0.039744865
-0.013289725 0.09812855 0.11381564 -0.04181203 0.027287766 -0.022884244 -0.0879389 -0.13634355
-0.09141302 -0.01834029 -0.22969784 0.048744403 -0.03842462 -0.15361091 0.20137441 -0.16241576
0.13195862 0.22023629 -0.12599772 0.17522827 -0.08663655 0.16055924 0.033680666 0.13257818
0.057042897 -0.03610984 0.005990514 0.10501513 -0.09342285 -0.046337686 -0.12116923 -0.22521023
0.077245265 0.15284301 -0.0767394 0.1872637 0.19465652 0.14793053 -0.12549509 -0.27773643
-0.089167096 0.004296545 -0.10618107 -0.12191129 -0.27179167 -0.034429118 0.074154384 -0.062779196
0.011380195 0.10896827 0.052598964 0.032409247 0.16612926 0.2674396 0.034847084 0.064698085
0.042349856 0.05190639 -0.012287326 -0.12902103 0.0010925452 0.05381902 0.13451985 -0.08180342
0.18220805 0.06284921 0.04993735 0.1879285 0.013049736 -0.058045246 0.07783202 -0.0050648134
-0.030914227 -0.05311398 -0.08171366 0.023961304 -0.1371 0.00987218 -0.05142853 -0.17442329
0.01040683 0.013505502 0.17911454 0.123327374 -0.096770026 -0.1556596 0.08803449 -0.06980573
-0.26095483 0.0027988837 -0.15113911 -0.14306585 -0.09364013 -0.3193598 -0.2015424 0.120048344

conv3.0.bias f4 [32]
00000000: acd1 bbbc 5a97 94bd cab8 343d 6617 dfbc
00000010: fad9 203d 424c 6a3d 4578 8d3d da35 a1bd
00000020: 023c 593d 0c7d b2bc d304 05bd 2844 003d
00000030: 0c6f e4bb f661 9d3b f00e 8e3c 2c54 1c3c
00000040: 8c92 b8bc 07c3 a4bd 1c4f c7bc 68e3 2dbd
00000050: 5812 c0bb da88 633d 1bd6 64bd d8a3 563c
00000060: 7b07 61bd 7436 f03c 7e0c 6a3c b4f3 8639
00000070: c40d 8cbc 9017 b33c 5b90 68bd 649f febb
-0.022927128 -0.072554305 0.04412154 -0.027232837 0.03927038 0.05720163 0.06907705 -0.078715995
0.053035744 -0.021788143 -0.032475304 0.031315 -0.0069712456 0.0048029376 0.017341107 0.0095415525
-0.022530816 -0.08045011 -0.024329714 -0.0424532 -0.0058615617 0.055550434 -0.05586825 0.013100587
-0.054938775 0.02932284 0.014285205 0.00025740045 -0.017096408 0.021861821 -0.056778293 -0.0077704657

conv3.1.weight f4 [32]
00000000: c1f2 793f cc47 763f d3ef 823f d1aa 813f
00000010: 4d41 7e3f 3a29 993f 550b 5d3f 19a1 933f
00000020: 4154 8d3f defc 7d3f 0714 823f c09d 793f
00000030: f9e6 593f 0dcd 7b3f 741a 903f 9008 863f
00000040: d713 5e3f 9dbd 743f cf89 8a3f d8b1 663f
00000050: c7e4 6e3f d0c9 833f 3866 793f 3474 763f
00000060: aa1f 853f 4fcc 863f b90c 853f ceab 773f
00000070: ef70 853f d04b 883f 2a80 6d3f 5419 883f
0.9763604 0.96203303 1.0229439 1.0130254 0.9931839 1.1965706 0.86345416 1.1533538
1.1041337 0.9921397 1.0162362 0.9750633 0.8511806 0.9835976 1.1258073 1.0471363
0.86749023 0.95601827 1.0823306 0.9011512 0.93317837 1.0295963 0.974216 0.9627106
1.0400288 1.05311 1.0394508 0.9674653 1.042509 1.0648136 0.9277369 1.063273

conv3.1.bias f4 [32]
00000000: 3911 31be d02a b3bd 5fd2 2abe c5e9 cc3d
00000010: 02d0 12be e5c2 8bbe c93c 1abe 0323 1cbe
00000020: a6cc e8bd 66af 19be b4f0 04be 5124 dbbd
00000030: 8f79 82be eba2 62be 630c 38be 683c 73bd
00000040: ead2 09be 1b0d 1abe 3967 58be 4fc6 0d3d
00000050: d7c8 aebd 0d1c 70bd 3b88 b0bd 5b59 fbbd
00000060: 75fd 8cbd 02e6 68bd b535 4cbe 5d1c 65be
00000070: 9fa3 e6bd ae52 a6bd 0e44 c7bd 5b6b 1ebe
-0.17291726 -0.087484 -0.16681813 0.100055255 -0.14337161 -0.2729713 -0.1506225 -0.15247731
-0.113671586 -0.15008315 -0.12982446 -0.10700286 -0.25483367 -0.22132461 -0.17973475 -0.05938378
-0.13459364 -0.15044062 -0.21133126 0.03461295 -0.08534401 -0.0586205 -0.08619734 -0.122729026
-0.068842806 -0.056859978 -0.19942363 -0.22374101 -0.11261677 -0.08121239 -0.09729777 -0.1547064

conv3.1.running_mean f4 [32]
00000000: e6a3 553e c39a 91be 3210 9bbd 84c1 0bc0
00000010: a71f 39bf ac6e e9be cbb3 ed3e 3d8f ddbf
00000020: 1cb1 9ebf 4143 5cbf 9c80 2fbf 876f a93e
00000030: 22b0 b83f c3aa 393f 61e9 e8bf d09e dabf
00000040: 7e1f 6240 0d27 55bf 3380 e6be 7091 dbbf
00000050: a324 293f e3ea 3bbf 8f4a 103f 7a9a 31bf
00000060: 4ec8 21bf 92ce 0bc0 d349 c2bf 525c 613e
00000070: 070b e4bf 1b4e bbbf 04d7 c43f 76a5 35be
0.20863304 -0.28438386 -0.075714484 -2.1836863 -0.7231392 -0.45592248 0.46426234 -1.7309338
-1.23978 -0.8604012 -0.6855562 0.330929 1.4428751 0.72526187 -1.8196222 -1.7079716
3.5331721 -0.8326271 -0.45019683 -1.7153759 0.6607153 -0.73405284 0.5636377 -0.6937634
-0.63196266 -2.184483 -1.5178779 0.22007874 -1.7815865 -1.4633211 1.5378118 -0.177389

conv3.1.running_var f4 [32]
00000000: a243 2040 f975 db3f 5311 0c40 1664 1540
00000010: bc42 0340 2fbb 4c40 8e09 db3f 5bb8 1c40
00000020: 088a f33f 1240 e23f 09f0 0c40 12a7 0440
00000030: 84eb 0d40 6bb0 db3f b209 2540 a77f 1140
00000040: bcf2 0840 4ed9 c43f d0ea 0140 fda5 0140
00000050: 6f28 0c40 f2ad 0840 eb99 fc3f dbce f03f
00000060: f7c6 1140 a7e5 1340 6bd4 1440 ec7a fb3f
00000070: 282d e83f 487d ee3f 6c19 e33f 1be9 0140
2.504128 1.7145377 2.1885574 2.3342338 2.0509481 3.1989248 1.7112291 2.4487522
1.9026499 1.7675803 2.2021506 2.0726972 2.2174997 1.7163213 2.5787168 2.2734163
2.1398153 1.5378816 2.0299568 2.0257561 2.1899679 2.1356168 1.9734472 1.8813127
2.2777689 2.3108919 2.325465 1.9646888 1.813878 1.8631983 1.7742133 2.0298526

conv3.3.weight f4 [32, 32, 3, 3]
00000000: e73d adbd 83c0 03be ec57 043d 44e9 a6bc
00000010: ce34 25be d707 2bbe 1ac2 023e 1499 d1bd
00000020: 8598 01be fb05 11be 5c11 2b3d 046a a23b
00000030: c44a ba3d 6644 803d c9a8 2b3e 5439 5ebc
00000040: 2dcd 823d 925b 203e 221a 3a3e c438 40bd
00000050: ca93 9d3b 25e4 e73d 30c3 57bc f5b4 aebd
00000060: 4928 833d 83a0 4f3c 5fba 5ebd 87e8 1e3c
00000070: 76a6 263d 0ebf 18be 9706 a5bd 2db4 15be
00000080: f59d 863d 4195 62bd 453f 22be b3ea 24bd
00000090: 7304 9abd 801d 3cbe b4ff 0b3e 66aa ed3d
000000a0: 5444 18be 31de 42bd 030a cc3d f664 bcbc
000000b0: a20c 34be efe1 063e 536e 9cbd 29ec 373d
000000c0: cdef 193c f7be 9cbd 2577 11be 361e acbc
000000d0: d044 313e 6c52 973d 90db a7bd 121f 9abd
000000e0: 1b54 9fbb 64ba 28bc 9482 103e 8dd0 60bd
000000f0: 831b bb3a 289e fb3d c8f3 4b3d ff5d 443b
00000100: 4407 0e3e a60e f73c f13e 383d b10d e5bd
00000110: e172 6abd fc93 c13d 27c6 efbb 1944 01be
00000120: 77a3 82bd f3f4 23bc e6ce bbbd 6fc6 1abd
00000130: 9f20 5d3e f1fb 13be 0a2a a7be 234d afbd
00000140: 88e0 0abe b6a1 fc3d 31ef 5bbd 742b 453d
00000150: 3415 233e 459f acbd fc81 e7bd 9664 a2bd
00000160: 3eca d73c dd32 bebd c5a0 81be 1501 a13d
00000170: 2e67 73bc 5028 98bd 50b5 51be 88f2 d63c
00000180: d009 03be 8af5 b4bd 526f babc ec1f 803c
00000190: a900 d93c 27ab 8abd a067 98bc 2b45 f0bc
000001a0: 3fe1 973d 795f b6bd 726e 02be 57df 6b3d
000001b0: 1be5 5fbd 2b89 24be 5348 61bd 23a6 073d
000001c0: f27e 81be d9b6 ba3b 6aa0 ac3d 64d6 44bc
000001d0: 51ff 27bd 2f0a a2bd c4c2 8cbd b56f aa3c
000001e0: 25e9 d2bd c9ff c0bc 702e 893d e336 5abd
000001f0: a440 8b3c ad2e a7bc 7ec0 56bd ac09 93bc
00000200: 28b8 1fbe 4419 b6bd fbdc e53c 00c3 5e3e
00000210: 56fe a73e f601 18be 15aa fdbb acc6 813c
00000220: 3fe0 0dbc 0a76 dc3d 9d76 eebc 8551 99bd
00000230: 2e47 6f3c ebe1 dabd 6457 62bd 0c76 fa3d
00000240: 3449 113e d2db 75be a364 c8bd 23e2 f6bc
00000250: 3697 bf3c 16b0 bb3c f115 7abd 8c2f 7bbd
00000260: 4d8e e6bd 4e9c 083d 1c5b 83bd ea1f 79bd
00000270: 2b84 b73d 8bbe 3f3e baca 4fbc 697d 3d3e
00000280: 59a2 f63c d8ee dabd 60f0 6b3e b344 09bd
00000290: 79ed 32be dd88 d23c 32cc e33d b0b5 83bd
000002a0: 954c 433c 8b4b 8ebd 7c7b 25be e31c adbd
000002b0: 57a6 80bd 1709 363c f063 543d 06d8 aa3c
000002c0: b9fc e33c c924 213d be6d 65be fd90 12bc
000002d0: d176 af3b 6cc2 993d f847 043d 6462 a5bd
000002e0: 0d16 e2bd 15ca a1bd 369a f03d 480a 043e
000002f0: e41f 3ebe 5be9 84bc 63b0 19bc db3c 1c3d
00000300: 1dc3 07bc f774 523c cf4b 833d dbc4 05be
00000310: 6018 80be 014a c7bd 9da8 5ebd 8ab6 7dbe
00000320: 0ec3 c93d 22f0 d33c 6610 013e 45ad 63bd
00000330: 5066 12be 5766 553d 2e42 0a3e b187 17bd
00000340: 8831 cb3d abd8 a0bd 56b4 37bd 29bb 1b3d
00000350: e8ac 8fbd 37c4 943d b05a 93bd 3406 e03c
00000360: 688a 7fbd 860d 77bd b530 0b3e 1872 423d
00000370: 6cdc d4bc 5fd9 77bd 74e5 273d 2557 f0bc
00000380: ddea c33d 1e64 b1bd 8085 303d 9733 0bbd
00000390: 5b31 0d3d 0763 bb39 66b7 a439 68ed 7dbd
000003a0: 84bf 3cbe 8735 d13d 0837 a83d ece7 1f3e
000003b0: 74c8 bf3d 34cd db3d dad1 ad3d 8b7f 82bc
000003c0: 12ad aebc 7f1f 4bbe fbd4 00be bcb0 debd
000003d0: 583f bebd 5d0a c93b e852 133e f8e4 dcbd
000003e0: 1e59 cabd aec1 553d 3024 07bd 5143 c1bd
000003f0: d17c 13be eb05 1c3e 8244 5ebc fd43 64ba
-0.084590726 -0.12866406 0.03231041 -0.020374902 -0.16133425 -0.1670221 0.12769356 -0.102342755
-0.12655838 -0.14162438 0.041764602 0.0049564857 0.09096292 0.06263046 0.16763605 -0.013563473
0.063867904 0.15659931 0.18174031 -0.046929136 0.0048088776 0.11322812 -0.013169095 -0.085306086
0.06404168 0.012672546 -0.054376956 0.0096989935 0.040686093 -0.14916632 -0.080578975 -0.14619513
0.06573097 -0.05531812 -0.15844448 -0.04026289 -0.0752038 -0.18370628 0.13671762 0.116047665
-0.14869815 -0.04757518 0.09962847 -0.02299736 -0.17582944 0.13172124 -0.0763823 0.044902954
0.009395552 -0.07653611 -0.14205606 -0.0210105 0.17311406 0.073887676 -0.08196175 -0.075254574
-0.004862321 -0.010298345 0.14112312 -0.05488639 0.0014275167 0.12286025 0.049793035 0.0029963253
0.13869959 0.030158352 0.0449819 -0.11184252 -0.057238463 0.09452054 -0.007317323 -0.12623633
-0.06378835 -0.010007131 -0.09170322 -0.037786897 0.21594475 -0.14451577 -0.3264926 -0.085596345
-0.13562214 0.123355314 -0.053694908 0.048137143 0.15926057 -0.08428816 -0.113040894 -0.079293415
0.026341554 -0.09287045 -0.2531797 0.078615345 -0.014856143 -0.07429564 -0.20479321 0.026238695
-0.12796712 -0.08835895 -0.02275816 0.015640222 0.026489573 -0.06770926 -0.0186041 -0.029329857
0.07416009 -0.08904929 -0.12737444 0.05758604 -0.05466185 -0.1606795 -0.055000614 0.033117425
-0.25292164 0.0056980667 0.08429034 -0.012014005 -0.041014973 -0.079120986 -0.06873086 0.02080522
-0.10298375 -0.023559468 0.066983104 -0.053275 0.016998596 -0.020407999 -0.05242967 -0.017948948
-0.15597594 -0.08891538 0.028059473 0.21754074 0.3281123 -0.14844498 -0.0077412226 0.015841804
-0.0086594215 0.10764702 -0.029109294 -0.07486252 0.014604373 -0.10687622 -0.055259123 0.12229547
0.14188081 -0.24009636 -0.0978482 -0.030137127 0.023387533 0.022911113 -0.06105608 -0.06132464
-0.112576105 0.03335219 -0.06413862 -0.06082145 0.08960756 0.1872503 -0.012682611 0.18504871
0.03010671 -0.10690087 0.23040915 -0.033512782 -0.17473401 0.025700027 0.111229315 -0.064311385
0.011920114 -0.069480024 -0.16160387 -0.08452775 -0.06281727 0.011110566 0.05185312 0.020854961
0.027830468 0.03934172 -0.22405145 -0.008945701 0.00535474 0.07507786 0.032295197 -0.08075407
-0.11039362 -0.07899872 0.117481634 0.12894547 -0.18566853 -0.016224554 -0.009380433 0.038143974
-0.008286265 0.012845269 0.06410944 -0.13063376 -0.25018597 -0.09730912 -0.05436002 -0.24776664
0.09851657 0.02587134 0.12603912 -0.055585165 -0.14296842 0.052099552 0.13501808 -0.03699464
0.09921557 -0.07853826 -0.044849716 0.038020287 -0.07015401 0.072639875 -0.07195032 0.027346708
-0.062387854 -0.06031563 0.13592799 0.04747209 -0.025984012 -0.060510036 0.040990308 -0.029338429
0.09566281 -0.08661674 0.043096066 -0.033984747 0.034470897 0.000357412 0.0003141716 -0.061993986
-0.18432432 0.10215288 0.082136214 0.15615815 0.09364405 0.10732499 0.08487292 -0.015929958
-0.02132276 -0.19836234 -0.12581246 -0.10873553 -0.092894256 0.0061352686 0.14387095 -0.1078586
-0.09880279 0.05218666 -0.032993495 -0.09436668 -0.14403082 0.15236633 -0.013566138 -0.0008707641

conv3.3.bias f4 [32]
00000000: f7bd 61bd c9d0 533d 3e55 c23c 24cb 6ebd
00000010: e441 d3ba a92a 2f3d 5274 cd3b 221a 2bbd
00000020: 2b45 33bd c68b 8d3c 6655 55bd 2974 3f3d
00000030: ea40 e23c 2594 5c3d ee2b 07bd c0ef a1bb
00000040: 7912 57bd 9d95 94bb 33c6 163d 9884 44bd
00000050: aed2 1cbd b7e1 173c c9c7 353d 911e 633a
00000060: a16f 2bbd 9ab1 2fbd b5cd 69bc 6b8b 1e3d
00000070: 18f6 f639 eaab 8d3c 7e8e cb3c 6e32 57bd
-0.055112805 0.051712785 0.023722287 -0.0582992 -0.0016117659 0.042765293 0.00626997 -0.04177297
-0.043767136 0.017278563 -0.052083395 0.04674164 0.027618844 0.05385222 -0.03300088 -0.0049419105
-0.05250785 -0.004534437 0.03681011 -0.047978014 -0.038286857 0.009270123 0.044379983 0.00086639175
-0.041854504 -0.042893983 -0.014270236 0.038707178 0.0004710413 0.01729389 0.024848219 -0.052538328

conv3.4.weight f4 [32]
00000000: 6d9e 8c3f d7db 823f 4f59 703f 138b 773f
00000010: 5758 583f f824 7c3f 346c 693f 7e90 823f
00000020: 4bfe 8b3f 7f82 7f3f 807c 7f3f 3fc9 833f
00000030: d9b3 7d3f ef32 693f b054 653f 29eb 663f
00000040: 298f 833f 100b 813f 6ad8 723f fa9b 8d3f
00000050: cd52 723f 6aae 773f 8158 6a3f 619f 803f
00000060: 4654 833f aa7b 7a3f 0322 6a3f aabf 793f
00000070: b6ec 5e3f 0f4b 723f 60f5 743f 7c4c 753f
1.0985848 1.022334 0.93886274 0.96696585 0.84509796 0.9849391 0.9118073 1.0200346
1.0936979 0.99808496 0.99799347 1.029579 0.9910255 0.91093343 0.8958235 0.90202576
1.0278064 1.0081501 0.9486147 1.1063225 0.94657594 0.9675051 0.91541296 1.0048639
1.0260093 0.97844946 0.9145815 0.9755808 0.8707994 0.9464578 0.9568691 0.9581983

conv3.4.bias f4 [32]
00000000: 5f4d 98be 600a 98be b211 4cbe 0f98 c6be
00000010: ada0 15be d504 7cbe 0a16 3abe 2fb0 35be
00000020: fcb6 b3be eb4a 91be 3d77 36be 110b c9be
00000030: 3509 a4be 88d1 84be 6a9e 6fbe 019f 56be
00000040: 8e90 b7be df0e 96be 2c7d 93be 4661 72be
00000050: 12ad 76be aaf4 79be a501 a3be 2cb4 bcbe
00000060: 018d aabe a495 67be 42d3 78be 7261 b0be
00000070: 7aee 9dbe 3985 45be 3a33 cabe 39f8 66be
-0.2974653 -0.29695415 -0.19928625 -0.38787887 -0.14612074 -0.24611218 -0.1817247 -0.1774299
-0.35100543 -0.2837747 -0.17818923 -0.39266255 -0.32038274 -0.2594111 -0.23400274 -0.20959093
-0.35852474 -0.2930822 -0.28806436 -0.2366992 -0.24089459 -0.24409738 -0.31837192 -0.3685621
-0.33310702 -0.22615677 -0.24299338 -0.34449345 -0.30846006 -0.19289102 -0.39492208 -0.22555627

conv3.4.running_mean f4 [32]
00000000: 1f87 abbf 5fee 76bf 45d5 adbf 50c4 643f
00000010: da93 0d3f 1c67 18bf eb53 893e 4b37 c8bf
00000020: c6df 60bf a8e9 ccbf c0cc e9bf 4405 a8bf
00000030: a2fc 73bf 4a74 663c 35e5 b6be 24ef 1bbf
00000040: 10b0 ebbe d7be 9bbf b644 93be d8b0 7abf
00000050: 342c b9be 4c0a 04be 1292 5ebf 9ea4 59bf
00000060: 33af 86bf 0aea 2dbd b5b0 f2be a61b 10bf
00000070: fb4a 31bf b29a 91bf 5b92 15be 0cf5 32be
-1.3400611 -0.96457475 -1.358071 0.8936205 0.5530373 -0.5953233 0.26821837 -1.5641874
-0.8784145 -1.6008806 -1.826561 -1.3126607 -0.9530736 0.014065811 -0.35721746 -0.60911775
-0.46032763 -1.2167615 -0.2876336 -0.9792609 -0.36166537 -0.12894553 -0.86941636 -0.8501681
-1.0522217 -0.042459525 -0.47400442 -0.5629219 -0.69255036 -1.1375334 -0.14606611 -0.1747629

conv3.4.running_var f4 [32]
00000000: 4be9 863f 0c2e a23f e6c0 8d3f 302b 8f3f
00000010: a18a 5b3f cf49 923f 8f93 613f 7a16 8b3f
00000020: 221c 7d3f 4507 8e3f f186 893f 0509 9f3f
00000030: 5e14 a23f 8619 6f3f 3e56 443f 6400 863f
00000040: b51d 923f d7b8 823f a00e 833f 7525 973f
00000050: a8d3 7b3f 250b 8f3f b4aa 803f eb82 933f
00000060: b925 8c3f 1599 883f 0847 7c3f 8b38 833f
00000070: 46d4 4c3f 53f9 5c3f a5d6 793f 1cd5 a13f
1.0539945 1.2670302 1.1074493 1.1185055 0.85758406 1.1428775 0.8811578 1.0866234
0.9887105 1.1095968 1.0744306 1.2424628 1.2662466 0.9339832 0.76694095 1.0468869
1.1415316 1.0212659 1.0238838 1.1808306 0.98369837 1.1175276 1.0052094 1.1524328
1.0949012 1.0671717 0.98545885 1.025163 0.80011404 0.8631794 0.97593147 1.2643161
