trained_models/last_cnn.pt (torch, 958802 bytes, 92 tensors)

conv1.0.weight f4 [8, 3, 3, 3]
0	0xbe2e8852	-0.1704419
1	0x3e498b16	0.19681963
2	0x3d2bb1c4	0.041917577
3	0x3e05d746	0.13070402
4	0xbe7ce10d	-0.24695225
5	0xbe699477	-0.22810541
6	0xbcbdfecd	-0.023192788
7	0x3d5582da	0.052126743
8	0x3e27f8e6	0.16403541
9	0x3d42b763	0.047538172
10	0x3de59ad3	0.11211171
11	0x3e4961ea	0.19666258
12	0x3dd78b03	0.10524561
13	0xbd6ba722	-0.057532437
14	0x3d85c552	0.065317765
15	0xbd0e3d00	-0.034726143
16	0xbe18a212	-0.14905575
17	0xbde13d43	-0.10998013
18	0xbbbe404f	-0.005806006
19	0xbdeac9d3	-0.11464276
20	0x3d1c4ad6	0.038157307
21	0x3df9d8b0	0.12199533
22	0xbe62064b	-0.22072713
23	0x3c38014d	0.011230779
24	0x3e48731a	0.19575158
25	0xbd7b42b5	-0.061342914
26	0x3c050950	0.008119896
27	0xbe297b5a	-0.16550961
28	0xbe2184f9	-0.15773381
29	0x3ba07300	0.0048965216
30	0x3da091ed	0.07840333
31	0xbe4df0cb	-0.20111386
32	0xbc502dde	-0.012706248
33	0x3dab85c8	0.08375126
34	0x3d71f206	0.059068702
35	0x3e81d856	0.25360364
36	0xbe2d22da	-0.16907826
37	0xbd5072cd	-0.050890733
38	0x3d7082e9	0.058718596
39	0xbde65f66	-0.112486646
40	0xbdbd7164	-0.09250143
41	0x3df81473	0.121132754
42	0xbe40076b	-0.1875283
43	0x3e208354	0.15675098
44	0x3db50d40	0.08840418
45	0xbe16b5ea	-0.14717832
46	0x3e4242be	0.18970773
47	0x3e180827	0.1484686
48	0x3d6f3ad8	0.058405727
49	0xbdca88b5	-0.09889356
50	0x3e9018f8	0.2814405
51	0x3da9e442	0.0829549
52	0xbd9a0434	-0.07520333
53	0xbda293f1	-0.07938374
54	0x3eaa9207	0.33314535
55	0x3de55543	0.11197903
56	0x3e5ab00a	0.21356216
57	0x3e3718df	0.17880581
58	0xbe04d700	-0.12972641
59	0xbcddf465	-0.027094075
60	0xbe4f487c	-0.20242494
61	0x3c4d1a42	0.012518467
62	0xbe97527b	-0.29555115
63	0x3c0ba0f3	0.00852226
64	0xbd6c398a	-0.05767206
65	0x3de1564f	0.1100279
66	0x3ce1bb77	0.02755521
67	0xbd450fbb	-0.048110705
68	0x3c8fbea1	0.017546954
69	0xbc62a2d3	-0.013832766
70	0xbb8341b5	-0.0040056356
71	0xbe46632d	-0.1937377
72	0x3d15db85	0.036586303
73	0x3c8eb177	0.017418606
74	0x3d226c1d	0.039653886
75	0xbe49c36b	-0.19703452
76	0xbe26b4b5	-0.16279872
77	0x3e01d662	0.12679437
78	0x3e7bf950	0.24606824
79	0xbc2ef19d	-0.010677722
80	0xbdf3dba8	-0.119071305
81	0xbe1bfbe4	-0.15232807
82	0x3e1f05a7	0.155295
83	0x3dcf6299	0.10126228
84	0x3d2fe766	0.042945288
85	0xbe132f2e	-0.14373466
86	0xbca1fae3	-0.019772952
87	0xbe3a3e8d	-0.18187924
88	0x3d552577	0.052037682
89	0xbca25f50	-0.01982084
90	0x3db37954	0.08763376
91	0xbe18b92d	-0.14914389
92	0xbd5ba65a	-0.053625442
93	0x3e5bcd62	0.21465066
94	0xbe30dc45	-0.17271526
95	0x3c881bfa	0.016614903
96	0x3e53f06c	0.20697182
97	0xbe5b5eed	-0.2142293
98	0xbd96a219	-0.073551364
99	0xbe040b5f	-0.12894963
100	0xbda8f259	-0.08249349
101	0xbcb516aa	-0.022105534
102	0x3c6c0d8b	0.014407526
103	0xbe38396a	-0.17990652
104	0x3e897b06	0.26851672
105	0x3b64b9db	0.0034900818
106	0xbdb1f8ba	-0.08690019
107	0x3e378f40	0.1792574
108	0xbd25768d	-0.040396262
109	0xbddbbc15	-0.10729233
110	0x3dd136a6	0.102155015
111	0x3e18ea8c	0.14933223
112	0x3e258539	0.16164102
113	0xbe0720b9	-0.13196076
114	0xbe1967c2	-0.14980987
115	0x3e017345	0.12641628
116	0x3d8f8c85	0.07009224
117	0x3e2fe9e9	0.17179073
118	0x3e2baed6	0.16765913
119	0x3e13aa19	0.14420356
120	0xbe28553d	-0.16438766
121	0x3c56339c	0.013073828
122	0xbe33b72e	-0.17550346
123	0xbdedc381	-0.11609555
124	0xbd4d7aed	-0.05016606
125	0xbe233703	-0.15938954
126	0x3de59295	0.11209599
127	0x3e00e290	0.12586427
128	0x3e09832e	0.13428947
129	0xbe4df322	-0.20112279
130	0xbda7ac77	-0.08187192
131	0x3e0311d3	0.12799768
132	0xbd89ebfa	-0.06734462
133	0x3e5226e9	0.20522656
134	0xbd6cd42c	-0.05781953
135	0xbe16d80a	-0.1473085
136	0xbd0c4133	-0.034241866
137	0x3e8a015a	0.26954156
138	0xbdb0560d	-0.08610163
139	0xbdbcc961	-0.092180975
140	0xbe0d99fa	-0.13828269
141	0x3e3422b9	0.1759137
142	0x3e318e1f	0.17339371
143	0xbd9929bf	-0.074786656
144	0xbdc8a099	-0.097962566
145	0xbe4c32b3	-0.19941215
146	0x3e32d34c	0.17463416
147	0x3e09a6b1	0.13442494
148	0xbd8e4558	-0.0694682
149	0xbcd1f89d	-0.025631243
150	0x3d0a14ed	0.033711363
151	0x3e46acc5	0.19401844
152	0xbe869f0f	-0.26293227
153	0x3c94cd70	0.018164366
154	0xbda5ca21	-0.08095194
155	0x3e1774bc	0.14790624
156	0xbd43dabb	-0.04781602
157	0xbd111d84	-0.03542854
158	0xbd87fa9c	-0.06639597
159	0x3e185b14	0.14878494
160	0x3dcf5bb2	0.10124911
161	0xbdd32e06	-0.10311513
162	0x3e4cdc5e	0.20005938
163	0xbce772c4	-0.028252967
164	0x3e444427	0.19166623
165	0x3e3407c1	0.17581083
166	0xbe112a9e	-0.14176413
167	0xbde83685	-0.11338524
168	0x3d5d8728	0.054083973
169	0x3d0cbdac	0.034360573
170	0x3cda56f2	0.026652787
171	0xbdd55122	-0.104158655
172	0xbdf8b471	-0.121437915
173	0x3e0f8d6c	0.14018792
174	0xbd80ee76	-0.06295483
175	0xbe3c0ff9	-0.18365468
176	0xbe811814	-0.25213683
177	0xbd718f64	-0.05897464
178	0x3dc83e3d	0.09777496
179	0xbd560325	-0.052249093
180	0x3e102409	0.14076246
181	0x3dce348a	0.10068615
182	0xbe4b9513	-0.19881086
183	0x3e5db51e	0.21651122
184	0xbd6a0ed6	-0.057143055
185	0xbe22b968	-0.1589104
186	0xbcc7db03	-0.024396425
187	0x3e185d5e	0.14879367
188	0xbd970428	-0.073738396
189	0x3cc39581	0.023875
190	0x3c49e1ab	0.01232187
191	0xbe06b4c1	-0.1315489
192	0xbdb24212	-0.08704008
193	0xbe1f29ae	-0.15543243
194	0xbe38ba8a	-0.18039909
195	0xbd317624	-0.04332556
196	0xbde32edc	-0.11092922
197	0x3da9bb74	0.08287707
198	0xbd515691	-0.051107947
199	0xbe3b4408	-0.1828767
200	0x3dd2b427	0.102882676
201	0x3e6c2948	0.23062623
202	0x3d4084a6	0.047001503
203	0x3d4a226a	0.049349226
204	0xbe226c4d	-0.15861626
205	0xbd82233a	-0.06354375
206	0xbde6383e	-0.11241196
207	0x3da7be3f	0.081905834
208	0xbd7a32a8	-0.061083466
209	0x3e73c2ba	0.23804751
210	0x3e3c042c	0.18360966
211	0x3d68dbaf	0.05685013
212	0x3e91950d	0.2843403
213	0x3d8095a6	0.06278543
214	0xbe362820	-0.17788744
215	0x3e319fc2	0.17346099

conv1.0.bias f4 [8]
0	0xbd8a2efa	-0.06747241
1	0xbe33a7db	-0.175445
2	0xbe1d127e	-0.15339085
3	0x3d706331	0.058688346
4	0xbdec106e	-0.11526571
5	0x3c94ea22	0.01817805
6	0x3dbf6374	0.09345141
7	0x3e23097a	0.15921584

conv1.1.weight f4 [8]
0	0x3f7deb1a	0.9918686
1	0x3f751237	0.9573092
2	0x3f7df1c0	0.99197006
3	0x3f816274	1.010817
4	0x3f749df9	0.9555355
5	0x3f863f91	1.0488149
6	0x3f8565f5	1.042174
7	0x3f7a171f	0.9769153

conv1.1.bias f4 [8]
0	0x3c188bdd	0.00931069
1	0x3df64947	0.12025695
2	0x3d5d3863	0.054008853
3	0x3d561095	0.052261908
4	0xbcbf813e	-0.023377057
5	0x3de2b0dd	0.1106889
6	0x3dfa216c	0.12213406
7	0x3cfdcd20	0.0309816

conv1.1.running_mean f4 [8]
0	0xbca75472	-0.020426009
1	0xbe085206	-0.1331254
2	0xbe1a2828	-0.15054381
3	0xbd9b75ff	-0.07590865
4	0x3cbcecde	0.023062166
5	0xbb5b415c	-0.0033455705
6	0x3d4710b7	0.048599925
7	0x3e2c67fd	0.16836543

conv1.1.running_var f4 [8]
0	0x3bc38d07	0.0059677395
1	0x3cb9e696	0.02269296
2	0x3cbd49e6	0.023106527
3	0x3c0a7f2b	0.008453171
4	0x3c9827f6	0.018573742
5	0x3bf5ed97	0.0075051296
6	0x3c69da28	0.014273204
7	0x3ca3ae62	0.019980613

conv1.3.weight f4 [8, 8, 3, 3]
0	0xbd114a0c	-0.035471007
1	0x3ce8b114	0.02840475
2	0xbca4e6b1	-0.020129533
3	0xbd886023	-0.066589616
4	0x3dc465fa	0.09589763
5	0xbe050dee	-0.12993595
6	0xbd0aecae	-0.03391712
7	0xbe21ab3b	-0.15787975
8	0x3db5f8b5	0.08885328
9	0x3d037a0d	0.03209882
10	0x3bfedadf	0.0077775563
11	0xbd4bfcff	-0.049801823
12	0xbd25e96a	-0.040505804
13	0xbdb8c85b	-0.0902259
14	0x3d415f61	0.0472101
15	0xbd3b62fe	-0.045748703
16	0x3dd8f18d	0.10592947
17	0xbc5b780d	-0.013395322
18	0x3dc6655e	0.09687303
19	0xbdae2cd3	-0.08504643
20	0x3d570e50	0.052503884
21	0x3d310e24	0.043226376
22	0xbdbf3a96	-0.09337346
23	0x3c9e302a	0.019310076
24	0xbcf44d9f	-0.029822169
25	0x3a5c017b	0.00083925546
26	0xbddb678b	-0.10713109
27	0x3d4d6693	0.05014665
28	0x3e46f6ed	0.19430132
29	0xbdeb8738	-0.115004
30	0xbdc6aee6	-0.09701328
31	0x3dffe8d1	0.12495578
32	0x3d965333	0.07340088
33	0x3dbba3ed	0.09162126
34	0x3cdbb4f5	0.026819685
35	0x3d965e2d	0.07342181
36	0xbda51ac8	-0.08061749
37	0x3db95ee2	0.090513006
38	0xbd1c47cc	-0.03815441
39	0x3d3e9248	0.046526223
40	0x3d9c088f	0.0761882
41	0x3d74e694	0.05979021
42	0x3d0a8ac2	0.033823736
43	0xbb4b1fe8	-0.003099436
44	0xbd19e32c	-0.037570164
45	0x3e42eb38	0.19035041
46	0xbd7af2a5	-0.06126656
47	0xbb3ee643	-0.0029128946
48	0xbe26282a	-0.16226259
49	0xbb9cccc9	-0.0047851545
50	0x3c3a3e24	0.011367355
51	0xbd65f7e4	-0.05614461
52	0x3e016808	0.12637341
53	0x3cbc1747	0.022960318
54	0x3db09648	0.08622414
55	0xbd317405	-0.043323535
56	0x3d785004	0.060623184
57	0x3c71a8dc	0.014749732
58	0x3df7d3b6	0.121009275
59	0xbdf3d549	-0.11905915
60	0x3d46dde1	0.048551444
61	0x3dac36c3	0.084088825
62	0xbe27a49a	-0.16371384
63	0x3cf71b75	0.03016446
64	0x3c8b61f2	0.017014477
65	0xbda7a166	-0.08185081
66	0xbdc2159a	-0.094767764
67	0x3db0cbc5	0.08632616
68	0xbbd8e9ab	-0.0066196523
69	0xbda720bf	-0.08160543
70	0xbd7f222d	-0.062288452
71	0xbab6c483	-0.0013944063
72	0xbd10cca3	-0.035351407
73	0xbcd1aea9	-0.02559598
74	0x3d21dced	0.039517332
75	0xbdf26044	-0.118347675
76	0xbd589664	-0.0528778
77	0x3d579621	0.05263341
78	0x3d105c4e	0.03524428
79	0xbd42671c	-0.047461614
80	0x3c9be455	0.019029776
81	0x3e1de346	0.15418729
82	0x3cafb24f	0.021447329
83	0x3dd3c46b	0.10340198
84	0x3e11dbd1	0.1424401
85	0x3da4ff5e	0.0805652
86	0x3c97a55f	0.018511472
87	0xbd94f8fe	-0.07274054
88	0xbc4a5b32	-0.012350844
89	0xbd2a76e4	-0.04161729
90	0xbb8d2e18	-0.0043084733
91	0xbd9fc9e1	-0.07802177
92	0xbd800958	-0.06251782
93	0xbc1546b7	-0.009111098
94	0xbd0acbd8	-0.033885807
95	0xbd54e89a	-0.05197964
96	0xbcadd2dc	-0.02121871
97	0xbdd8e197	-0.10589903
98	0xbdbb1499	-0.09134788
99	0x3b9b05c5	0.0047309124
100	0xbd350f5c	-0.0442041
101	0xbc36ee11	-0.011165158
102	0xbc692a0c	-0.014231216
103	0xbd98177f	-0.074263565
104	0x3c2f90bd	0.010715661
105	0xbddd4520	-0.108042
106	0xbdfcc430	-0.12342107
107	0x3d593430	0.053028286
108	0xbcada76e	-0.021198
109	0xbb30ddf2	-0.0026987758
110	0xbd1f1857	-0.03884157
111	0x3d62025b	0.055178028
112	0x3d9f4893	0.07777514
113	0x3d703f5c	0.058654174
114	0x3ddf948c	0.10917005
115	0x3e0540da	0.1301302
116	0x3c967754	0.018367447
117	0x3e45124e	0.19245264
118	0x3d99e002	0.07513429
119	0x3d9b9863	0.07597425
120	0x3cdf9ecb	0.027297398
121	0x3ca80a1c	0.020512633
122	0x3b16c27b	0.0023004103
123	0xbd846511	-0.064645894
124	0xbde3f5c9	-0.11130864
125	0x3be6c2bf	0.0070422585
126	0x3ce5f9a5	0.028073141
127	0x3deba9b2	0.11506976
128	0x3d89e274	0.06732646
129	0x3ce54424	0.027986594
130	0xbdc51c6b	-0.09624561
131	0x3ceb3df2	0.028716061
132	0xbd30ca94	-0.043161944
133	0xbddbe85b	-0.10737678
134	0x3dbd215d	0.09234879
135	0x3d2468bc	0.040138945
136	0xbd498740	-0.04920125
137	0xbdfe7a93	-0.12425723
138	0x3d4703ad	0.04858749
139	0x3d8ca0c5	0.06866602
140	0xbe02a518	-0.12758291
141	0xbd062c5a	-0.03275714
142	0xbd05bbc4	-0.03264977
143	0xbdf5fc24	-0.12010983
144	0xbb800e1e	-0.003907933
145	0x3ddda81e	0.108230814
146	0xbdc7975a	-0.09745665
147	0xbb496200	-0.0030728579
148	0xbc8fb136	-0.017540555
149	0x3dbfc296	0.09363286
150	0xbd2a4af0	-0.041575372
151	0xbd360c59	-0.04444537
152	0xbccd6aac	-0.02507528
153	0x3ddbad1a	0.10726376
154	0x3cfcb4fb	0.030848017
155	0x3d94d84d	0.072678186
156	0x3dd80759	0.105482765
157	0x3da9e7f0	0.08296192
158	0x3d4dc077	0.050232377
159	0x3d1a1652	0.037618943
160	0x3d6f3918	0.05840406
161	0xbad8be3f	-0.001653619
162	0xbd5f0f6d	-0.05445807
163	0x3d9d70d2	0.076875344
164	0xbd8ce92e	-0.06880413
165	0xbd85e74e	-0.065382585
166	0xbd358936	-0.044320308
167	0x3d74d2f9	0.05977151
168	0xbdbc42bc	-0.09192416
169	0xbdc0a731	-0.09406889
170	0x3d3aa69b	0.045569044
171	0x3e16d307	0.14728938
172	0x3db9ee72	0.09078683
173	0xbe2e83bd	-0.17042442
174	0x3d5e5976	0.054284535
175	0x3d43e398	0.047824472
176	0x3d360a98	0.044443697
177	0xbd50f390	-0.05101353
178	0x3c3a7044	0.011379305
179	0x3dd8cd50	0.10586035
180	0xbdee387a	-0.11631866
181	0x3db8dff9	0.090270944
182	0x3cee26e1	0.029071273
183	0xbc07682c	-0.008264583
184	0x3cf0e1fe	0.029404636
185	0x3d0ad702	0.033896454
186	0x3d86cdd3	0.065822266
187	0xbc2ba8da	-0.010477269
188	0xbcaee444	-0.02134908
189	0xbd7cd9d2	-0.061731167
190	0x3d0d11f4	0.03444095
191	0xbc940f1f	-0.018073617
192	0x3a2d754d	0.00066169054
193	0x3dbc02b4	0.09180203
194	0xbe00da3e	-0.12583253
195	0x3cafa8d6	0.021442812
196	0x3dfe3997	0.12413328
197	0x3d130b94	0.035899714
198	0x3d303961	0.04302347
199	0xbe165854	-0.14682132
200	0xbd9fb2f0	-0.077978015
201	0xbda0d539	-0.07853169
202	0xbcdff5d7	-0.027338905
203	0x3d25a9a0	0.04044497
204	0xbde2f5db	-0.110820495
205	0x3c96727f	0.018365143
206	0x3db12427	0.08649474
207	0xbd89f047	-0.067352824
208	0x3db4e38c	0.088324636
209	0x3d73bab4	0.059504226
210	0x3c96fda1	0.018431487
211	0x3d917c3d	0.07103775
212	0x3e12251c	0.14271969
213	0xbd1bc085	-0.038025398
214	0xbd8d0019	-0.06884784
215	0x3dd512b7	0.1040396
216	0x3e023539	0.12715615
217	0xbe14c5fc	-0.1452865
218	0x3d90168a	0.07035549
219	0x3c1714fc	0.009221312
220	0x3df0a2c8	0.11749798
221	0x3e0a7e18	0.13524663
222	0xbe0a4ec8	-0.13506615
223	0xbd9ad948	-0.07560974
224	0xbd899f53	-0.06719842
225	0xbc7b2a08	-0.015329845
226	0xbdf613f8	-0.120155275
227	0x3bfab2e7	0.0076507214
228	0x3c4335f0	0.011914715
229	0xbdfbff13	-0.12304511
230	0xbd0c059b	-0.034185033
231	0x3ce4d45e	0.027933296
232	0x3c4bb3c2	0.012432994
233	0x3d044dc0	0.03230071
234	0x3e1e5894	0.15463477
235	0xbd4f7cc4	-0.050656095
236	0x3d272671	0.040808145
237	0x3daa1e72	0.08306588
238	0x3ce296cd	0.027659798
239	0x3d9c4762	0.07630803
240	0xbdb7c05d	-0.08972237
241	0xbdf0df4b	-0.1176134
242	0x3d05c0e3	0.032654654
243	0x3dfa15a7	0.12211161
244	0xbe16d410	-0.14729333
245	0x3e2b9f68	0.16760027
246	0x3da9de08	0.08294302
247	0x37368267	1.0878407e-05
248	0xbd76b513	-0.06023128
249	0x3d87b2a1	0.06625868
250	0xbe467dea	-0.1938397
251	0xbd34a614	-0.044103697
252	0xbda7cb18	-0.08193034
253	0x3c585143	0.013202968
254	0x3c497492	0.012295859
255	0x3d84940d	0.06473551

conv1.3.bias f4 [8]
0	0xbd51a07d	-0.051178444
1	0x3d029925	0.03188433
2	0x3d5f949e	0.05458509
3	0x3dd5b971	0.10435761
4	0x3c82005f	0.015869318
5	0x3bc4c9c3	0.006005497
6	0x3d4d0c2f	0.050060447
7	0xbddccb76	-0.107809946

conv1.4.weight f4 [8]
0	0x3f7afbbb	0.9804036
1	0x3f7d7d34	0.9901917
2	0x3f7df5dc	0.99203277
3	0x3f806008	1.0029306
4	0x3f8ae036	1.0849674
5	0x3f7cf0e1	0.9880505
6	0x3f785aeb	0.9701373
7	0x3f7d20f5	0.98878413

conv1.4.bias f4 [8]
0	0x3c8cd866	0.01719303
1	0x3b2bad8a	0.0026195967
2	0x3cef0282	0.029176
3	0x3b17c702	0.002315939
4	0x3cb25911	0.021770986
5	0x3cadfeb3	0.021239614
6	0xbb4734e0	-0.0030396506
7	0xbd090fd0	-0.033462346

conv1.4.running_mean f4 [8]
0	0xbbcb035c	-0.006195469
1	0x3cbe5fa7	0.02323897
2	0x3ec41057	0.38293716
3	0xbd99f882	-0.07518102
4	0xbefba2a3	-0.4914752
5	0x3df051c6	0.11734347
6	0x3c18643b	0.009301241
7	0xbee3030e	-0.44338268

conv1.4.running_var f4 [8]
0	0x3e409d43	0.1880999
1	0x3e629d39	0.22130288
2	0x3e88996b	0.2667955
3	0x3e41afbe	0.18914697
4	0x3e9dbb21	0.3080683
5	0x3e3f4159	0.18677272
6	0x3e10a334	0.14124757
7	0x3e276fe5	0.16351278

conv2.0.weight f4 [16, 8, 3, 3]
0	0x3da0bb57	0.07848232
1	0x3db0e848	0.08638054
2	0x3d2d242b	0.04227082
3	0xbc5a4b41	-0.013323606
4	0x3ab3a79b	0.0013706567
5	0x3d5e43f8	0.05426404
6	0xbc43ca6a	-0.011950115
7	0xbd34755c	-0.044057235
8	0x3dd0dc45	0.10198263
9	0xbc001d43	-0.007819477
10	0x3caf13aa	0.021371681
11	0xbd921dda	-0.071346
12	0xbcf0202e	-0.02931222
13	0x39489f8f	0.00019132927
14	0xbd69b7fb	-0.057060223
15	0xbd0d9e0c	-0.034574553
16	0x3c8038ef	0.015652148
17	0x3cc9e0fb	0.024643412
18	0x3d2da485	0.042393226
19	0x3dbcb996	0.09215085
20	0x3de7ca37	0.11317866
21	0xbd779468	-0.060444266
22	0xbc9e8b59	-0.019353556
23	0x3d68be92	0.056822367
24	0x3d424b05	0.047434825
25	0xbcd57c63	-0.026060289
26	0x3db066eb	0.0861338
27	0xbcd6ace2	-0.026205484
28	0x39fa505c	0.00047743588
29	0xbd8aa270	-0.06769264
30	0x3d85cead	0.06533561
31	0xbe03b6ae	-0.12862656
32	0xbd51cff4	-0.05122371
33	0xbdb22982	-0.08699323
34	0xbd50181e	-0.05080425
35	0xbd217226	-0.0394155
36	0x3e404baa	0.18778864
37	0xbe019ab5	-0.12656672
38	0xbdbb4435	-0.09143869
39	0x3dd36c7f	0.10323428
40	0x3dd5719d	0.10422061
41	0xbd053d63	-0.032529246
42	0xbd8687b4	-0.06568852
43	0x3dc61ca0	0.096734285
44	0x3dc5926b	0.09647068
45	0xbdded31a	-0.10880108
46	0x3d03bd03	0.032162677
47	0xbe21c620	-0.15798235
48	0x3d711c3d	0.05886482
49	0xbddfc504	-0.109262496
50	0xbc9ceb1f	-0.019155083
51	0xba90e141	-0.0011053459
52	0x3d809b1d	0.062795855
53	0xbd9371f0	-0.07199466
54	0xbd9f439b	-0.077765666
55	0xbd17454b	-0.036931317
56	0x3df2ac11	0.11849225
57	0x3c2b1a48	0.010443278
58	0xbdde197b	-0.10844704
59	0xbd4336c0	-0.047659636
60	0xbd92ecb2	-0.07174052
61	0xbd8ced52	-0.06881203
62	0x3d1716de	0.036887042
63	0x3df8dde2	0.12151696
64	0xbd6f3cc2	-0.058407553
65	0x3ce75522	0.028238837
66	0x3c6e3f87	0.014541513
67	0x3d4e933b	0.05043338
68	0xbc8cbac8	-0.017178908
69	0xbd972c6e	-0.07381521
70	0xbd775a30	-0.060388744
71	0xbd0972ae	-0.033556633
72	0xbd6750e5	-0.05647363
73	0xbd3f3db3	-0.0466897
74	0x3cf1c0e4	0.029510923
75	0x3d7c39dd	0.06157862
76	0x3d5b7bf0	0.053584993
77	0xbda86e68	-0.08224183
78	0x3d85e718	0.06538218
79	0xbe0cb1d2	-0.13739708
80	0x3d7f506d	0.06233256
81	0x3ce3e59b	0.027819445
82	0x3d58794a	0.052850045
83	0xbd8a7d1c	-0.06762144
84	0x3c81cae7	0.015843822
85	0xbdc2aa3b	-0.09505125
86	0x3dbb6d0e	0.0915166
87	0xbd08d014	-0.033401564
88	0x3d3ce306	0.046114944
89	0x3b17ac40	0.002314344
90	0xbdea7fb2	-0.11450137
91	0x38ac9ae9	8.2304534e-05
92	0xbe05a5ac	-0.1305148
93	0xbd483030	-0.04887408
94	0xbb2e520d	-0.00265992
95	0x3dc270a8	0.09494144
96	0xbd9f1d7c	-0.077692956
97	0xbd8c8354	-0.06860986
98	0xbc0572c2	-0.008145036
99	0x3ca6d4dd	0.020365173
100	0xbcd43e5b	-0.02590864
101	0x3ceba9d7	0.02876751
102	0xbc888c70	-0.016668528
103	0x3e27d043	0.1638804
104	0x3e2f365f	0.17110585
105	0x3bd27372	0.0064224536
106	0x3c1111d5	0.008854349
107	0x3cbfbf6c	0.023406707
108	0x3ddbf5f2	0.1074027
109	0x3d2f66c2	0.042822607
110	0x3d7ab1d5	0.06120475
111	0xbd7e103b	-0.062027197
112	0xbe2a3237	-0.16620718
113	0xbe307aac	-0.17234296
114	0xbdbf5826	-0.09342985
115	0x3c914a2a	0.01773556
116	0xbe3fc4f3	-0.18727474
117	0x3dddea80	0.10835743
118	0x3c67af7b	0.014140959
119	0x3c049756	0.008092722
120	0x3c16c04a	0.009201119
121	0xbd9a7573	-0.07541933
122	0x3c94264c	0.018084668
123	0xbc86021d	-0.01635843
124	0x3c708ce2	0.014682027
125	0xbe0bf401	-0.13667299
126	0x3e0d9591	0.13826586
127	0x3d6c2b57	0.05765852
128	0x3d8a5b02	0.067556396
129	0x3dd9bb0b	0.10631379
130	0x3d3bccb5	0.04584952
131	0x3caca3f1	0.021074267
132	0xbe042cd4	-0.12907726
133	0xbc5355d5	-0.012898882
134	0x3d839681	0.06425191
135	0x3d6c61a1	0.057710294
136	0xbd9734da	-0.073831275
137	0xbcfa0be5	-0.03052325
138	0x3aa54084	0.0012607728
139	0x3ca840c7	0.0205387
140	0xbc6ba07f	-0.014381527
141	0xbd5b8a46	-0.053598665
142	0xbdb9907a	-0.0906076
143	0xbdc29523	-0.09501102
144	0x3d5bed73	0.053693246
145	0x3d4da458	0.05020556
146	0xbd06b34e	-0.032885842
147	0x3d68673b	0.056739073
148	0xbb0ca8f3	-0.0021463006
149	0xbd028dfe	-0.031873696
150	0x3dddba3b	0.10826536
151	0x3d0e029e	0.034670465
152	0x3d9eade7	0.07748013
153	0xbb6607ea	-0.0035099932
154	0xbe2109bd	-0.15726371
155	0x3d13a952	0.03605015
156	0xbcab4bca	-0.020910162
157	0x3d9dc31e	0.07703231
158	0x3dd8eb85	0.10591797
159	0xbc8bdc01	-0.01707268
160	0xbcca0cce	-0.024664309
161	0xbccc121f	-0.024910985
162	0xbdc18ff8	-0.09451288
163	0xbd92607b	-0.071473084
164	0x3df8dd49	0.12151582
165	0x3bd557a4	0.0065106917
166	0x3e0d9690	0.13826966
167	0x3ad8de86	0.0016545809
168	0xbcf4f241	-0.029900672
169	0xbd92bc9c	-0.07164881
170	0xbc955530	-0.018229097
171	0xbe10ded2	-0.14147499
172	0xbde78298	-0.11304206
173	0xbc2f7855	-0.010709842
174	0xbccde91c	-0.02513557
175	0xbe0966e0	-0.1341815
176	0xbcc831e2	-0.024437848
177	0xbd2c36fb	-0.04204462
178	0x3ba6097b	0.005067048
179	0x3d048089	0.032349143
180	0x3d289932	0.041161723
181	0xbda155d5	-0.07877699
182	0x3c48da3c	0.012259062
183	0xbd5003e7	-0.05078497
184	0x3c282374	0.010262359
185	0xbd9f803b	-0.0778813
186	0xbd99076d	-0.074721195
187	0xbd77a13c	-0.0604565
188	0x3b050153	0.0020294979
189	0x3cad88d2	0.021183405
190	0x3c762514	0.015023489
191	0xbc2294b3	-0.009923148
192	0x3b698b7f	0.0035636125
193	0x3de5a5b3	0.11213245
194	0x3d00dad9	0.03145871
195	0x3d806cba	0.06270738
196	0x3cf58209	0.029969232
197	0x3dfb4b1c	0.12270185
198	0xbdea0d74	-0.11428347
199	0xbdbbf34c	-0.091772646
200	0xbd2770bd	-0.040879
201	0xbdb0a4a1	-0.086251505
202	0x3d4c44ae	0.049870186
203	0x3cb521fe	0.022110935
204	0xbbea853e	-0.007156997
205	0xbc78ee92	-0.015193598
206	0x3c48a787	0.012246973
207	0xbd85e61a	-0.06538029
208	0x3c27316c	0.010204654
209	0x3c115fe6	0.008872962
210	0x3d9fd27a	0.07803817
211	0xbd185c13	-0.037197184
212	0xbd8f7be2	-0.07006051
213	0xbd9d2f68	-0.07675058
214	0x3d2382dd	0.039919723
215	0xbdebf287	-0.11520868
216	0xbb79ac34	-0.0038097026
217	0xbd99fdc2	-0.075191036
218	0x3dc9e9ae	0.09859024
219	0x3bede2f1	0.0072597195
220	0x3da2e05b	0.07952949
221	0x3e00c1da	0.12573949
222	0xbc0b916a	-0.008518556
223	0x3dd04664	0.10169676
224	0x3ded9551	0.116007455
225	0x3db7f0f4	0.08981505
226	0x3e1045a5	0.14089067
227	0xbd190ad8	-0.037363857
228	0x3d268d3e	0.040662043
229	0x3c92db51	0.017926844
230	0xbdb30948	-0.08742005
231	0xbc87bf55	-0.016570726
232	0xbdaa191a	-0.08305569
233	0xbc3649a5	-0.011125957
234	0xbc938866	-0.018009376
235	0xbd5eecfc	-0.054425225
236	0xbd9b2422	-0.07575251
237	0xbc4e5e6a	-0.012595752
238	0xbbbad5ce	-0.005701757
239	0x3a459d91	0.0007538433
240	0xbde756e2	-0.112958685
241	0xba8aef1f	-0.0010599828
242	0x3e287507	0.16450892
243	0xbc61a66f	-0.013772591
244	0xbdc65ed9	-0.096860595
245	0xbd10d251	-0.035356823
246	0x3dc4ba79	0.09605879
247	0xbd3324f5	-0.043736417
248	0xbda43619	-0.08018131
249	0x3ce85cb6	0.02836452
250	0x3d523ce1	0.05132759
251	0x3da57b26	0.08080129
252	0x3d9a0a20	0.075214624
253	0x3d9f1999	0.07768554
254	0xbd5a7874	-0.05333753
255	0xbdd4df70	-0.1039418

conv2.0.bias f4 [16]
0	0x3da1b0e9	0.07895071
1	0xbde7cfaa	-0.11318906
2	0xbc88a5d0	-0.016680628
3	0x3d20034e	0.03906565
4	0x3dd8e497	0.10590475
5	0xbdc37a1e	-0.095447764
6	0xbdf0a1b9	-0.11749596
7	0x3dd43565	0.10361747
8	0xbd8da832	-0.06916846
9	0x3da2830d	0.07935152
10	0x3d5395a2	0.051656373
11	0xbaeae71a	-0.0017921657
12	0xbd6d519d	-0.05793916
13	0xbdcf09b8	-0.101092756
14	0xbc4ad688	-0.01238025
15	0xbdcc1760	-0.09965396

conv2.1.weight f4 [16]
0	0x3f8389fa	1.0276482
1	0x3f807409	1.0035411
2	0x3f8219a8	1.016408
3	0x3f79754a	0.97444594
4	0x3f80879f	1.0041388
5	0x3f7e7e50	0.9941149
6	0x3f82d0d0	1.0219975
7	0x3f7a5b0b	0.9779517
8	0x3f76aecb	0.9636046
9	0x3f8083e7	1.0040253
10	0x3f7fdd5d	0.9994715
11	0x3f7ee014	0.99560666
12	0x3f7e424d	0.99319917
13	0x3f807920	1.0036964
14	0x3f81e996	1.014941
15	0x3f808754	1.0041299

conv2.1.bias f4 [16]
0	0x3c0cd0fb	0.008594747
1	0xbb11db0b	-0.0022255804
2	0x3bfa4260	0.007637307
3	0xbbd5a44c	-0.00651983
4	0xbb342ee7	-0.0027493776
5	0xbbf7685e	-0.0075502833
6	0x3ccbc1a0	0.024872601
7	0xbbfa3047	-0.0076351496
8	0xbca67869	-0.020321088
9	0x3c2e0be8	0.010622956
10	0xbc331f34	-0.010932732
11	0xbc5e077d	-0.01355159
12	0x3c2990b4	0.010349441
13	0x384432e7	4.6777448e-05
14	0x3d1391cd	0.03602772
15	0xbc8c2c4d	-0.017110968

conv2.1.running_mean f4 [16]
0	0xbd67f4a2	-0.056629784
1	0xbec313f8	-0.38101172
2	0xbed51902	-0.41620642
3	0x3ef58caf	0.47958896
4	0xbde4cc9f	-0.11171841
5	0xbf49ae30	-0.78781414
6	0xbfb8bc42	-1.4432452
7	0x3ef349f0	0.47517347
8	0x3e81d371	0.2535663
9	0xbe7f77cf	-0.24948047
10	0x3e8a2d14	0.26987517
11	0x3ee8c06e	0.45459312
12	0x3ca4e07c	0.020126574
13	0xbf11f89b	-0.57019967
14	0xbc7e632e	-0.015526576
15	0xbefec96a	-0.49763042

conv2.1.running_var f4 [16]
0	0x3e8f97e9	0.28045586
1	0x3e8a16e6	0.26970595
2	0x3e8b9ad3	0.2726656
3	0x3e89cf6f	0.26916072
4	0x3e8768fc	0.26447284
5	0x3ea7e75a	0.32793695
6	0x3eeb229f	0.4592485
7	0x3e9617e0	0.2931509
8	0x3e7bb8cf	0.24582218
9	0x3ea1a989	0.31574658
10	0x3e869bcf	0.26290748
11	0x3ed7a414	0.4211737
12	0x3e540f2f	0.20708917
13	0x3e965e5b	0.29368863
14	0x3eb33f7a	0.35009366
15	0x3e8c14f9	0.2735975

conv2.3.weight f4 [16, 16, 3, 3]
0	0xbd82f572	-0.06394471
1	0xbd256b91	-0.040385786
2	0x3d45f16c	0.04832594
3	0x3d54ce9f	0.05195486
4	0xbd98b55d	-0.07456467
5	0xbd8f3699	-0.069928356
6	0xbb87087b	-0.004120884
7	0x3c0305f4	0.007997025
8	0x3d7d42d7	0.06183132
9	0xbd3ba89a	-0.045815088
10	0xbce2182a	-0.027599413
11	0x3c8be76e	0.017078128
12	0xbc51d480	-0.012807012
13	0xbc2f853d	-0.010712919
14	0xbd05220e	-0.03250318
15	0x3da26e99	0.07931251
16	0x3cabc753	0.020969069
17	0x3d888f53	0.06667962
18	0xbd9c6236	-0.0763592
19	0xbd5dd83d	-0.0541613
20	0x3d5c798f	0.053826865
21	0xb907bf39	-0.00012945839
22	0x3c02c720	0.007982045
23	0xbba05305	-0.004892709
24	0x3d9a9b76	0.07549183
25	0x3dcb546a	0.0992821
26	0x3df1562e	0.117840156
27	0x3c1184f6	0.008881798
28	0xbbcbde61	-0.006221578
29	0x3b488438	0.0030596387
30	0xbdc7d84e	-0.09758054
31	0x3cbffbef	0.023435561
32	0xbcef1071	-0.029182645
33	0x3d3bc8f2	0.045845933
34	0xbb0b94fe	-0.0021298523
35	0x3d9ad451	0.075600274
36	0x3ccc5609	0.024943369
37	0xbd6cd659	-0.057821605
38	0x38ce7a66	9.845644e-05
39	0xbcbeee79	-0.023307072
40	0xbce6d432	-0.028177354
41	0x3cb76464	0.022386737
42	0x3d3cd5b1	0.04610223
43	0xbc2888c7	-0.0102865165
44	0x3d8eb3ef	0.06967913
45	0xbd43a919	-0.047768686
46	0xbd6c2ebf	-0.057661768
47	0x3d627032	0.05528278
48	0xbde20398	-0.11035842
49	0xbcdf07ef	-0.027225463
50	0xbd810a58	-0.06300801
51	0xbc3e4360	-0.011612743
52	0xbd080b99	-0.033214185
53	0x3df74048	0.120728076
54	0xbdc97a3e	-0.09837769
55	0x3d384c2b	0.044994514
56	0x3d4722c1	0.04861713
57	0x3d1faccb	0.038983148
58	0xbd1be791	-0.038062636
59	0xbb9e332d	-0.004827878
60	0xbd7cdf19	-0.0617362
61	0xbda97d48	-0.082758486
62	0xbca1d937	-0.019756896
63	0xbd95d001	-0.07315064
64	0xbd828ec2	-0.06374885
65	0xbcf010f6	-0.029304963
66	0x3c8b6a2d	0.017018402
67	0xbd6b76e5	-0.057486434
68	0x3cb190d9	0.021675514
69	0x3d7e48a1	0.062080983
70	0x3cd8743c	0.026422612
71	0xbd760925	-0.060067315
72	0x3d5432b6	0.051806174
73	0x3d41a0d2	0.04727251
74	0xbd88f4f1	-0.06687344
75	0x3cd7fc2f	0.026365368
76	0x3d906f12	0.07052435
77	0x3d7a2acd	0.061075974
78	0x3dc31c4a	0.0952688
79	0x3d4aca10	0.049509108
80	0xbd5bbe68	-0.053648382
81	0x3c8b1c4a	0.016981263
82	0x3d81bbe4	0.063346654
83	0x3c876219	0.016526269
84	0x3d3c408e	0.04596
85	0xbd7275bf	-0.059194323
86	0x3de74516	0.11292474
87	0xbd0767c6	-0.03305795
88	0xbd12661a	-0.035741903
89	0xbd1432fe	-0.036181442
90	0x3c88dae6	0.016705941
91	0x3bfac22a	0.0076525407
92	0x3bb99002	0.005662919
93	0xbd90f77e	-0.070784554
94	0xbd5e681d	-0.05429851
95	0xbd0b981b	-0.034080606
96	0xbd2fb922	-0.042901166
97	0xbc58e550	-0.013238266
98	0xbb8387c7	-0.0040139887
99	0xbcf75fcf	-0.030197052
100	0xbcbc6623	-0.022997921
101	0x3ae161ae	0.0017195249
102	0x3c34e716	0.011041423
103	0xbd006418	-0.031345457
104	0xbdb27b1d	-0.08714888
105	0xbc8c5d71	-0.0171344
106	0xbd6cbf0c	-0.057799384
107	0xbd8300ff	-0.06396674
108	0xba935ecb	-0.001124346
109	0x3e042566	0.12904891
110	0x3d3981ab	0.045289677
111	0xbcb4477b	-0.02200674
112	0x3d947f1d	0.072508074
113	0xbc0c2b24	-0.008555207
114	0xbd5dbe1b	-0.054136377
115	0x3d86dccf	0.06585085
116	0x3c4f03a4	0.012635145
117	0xbd362c85	-0.04447605
118	0x3e06ac15	0.13151582
119	0x3ce36019	0.027755784
120	0xba9617f7	-0.0011451234
121	0x3c960449	0.01831259
122	0x3dc09d21	0.0940497
123	0xba2653d2	-0.00063448877
124	0xbd227e4c	-0.039671227
125	0xbbfdaed8	-0.0077417903
126	0xbda3ca53	-0.07997575
127	0xbd3e2f74	-0.046431974
128	0xbd3190ae	-0.043350868
129	0xbd168ead	-0.03675716
130	0x3d1b082e	0.037849598
131	0xbd3332db	-0.04374967
132	0x3d978f40	0.0740037
133	0x3d8e1af5	0.069387354
134	0xbd970903	-0.07374766
135	0x3d5914ad	0.052998234
136	0x3cb661b6	0.02226339
137	0xbd587fbc	-0.052856192
138	0xbd037f89	-0.03210405
139	0x3cf139bd	0.029446477
140	0xbd20787a	-0.039177395
141	0x3c76379a	0.015027905
142	0x3d9a5d35	0.07537309
143	0x3c81d034	0.01584635
144	0xbd8a4a54	-0.06752458
145	0x3d7adef4	0.06124778
146	0xbc98b6ac	-0.018641792
147	0xbde3959d	-0.11112521
148	0x3b6d202c	0.0036182506
149	0xbccf45da	-0.025301863
150	0xbd2905ff	-0.041265484
151	0xbb48d734	-0.003064585
152	0xbd8431e1	-0.06454826
153	0xbdb3231e	-0.087469324
154	0x3d8135eb	0.06309112
155	0x3d560e01	0.05225945
156	0xb8d97a84	-0.00010370187
157	0x3d1928bb	0.03739236
158	0xbc93a678	-0.018023714
159	0xbbc165c6	-0.005902025
160	0xbd856d0d	-0.065149404
161	0x3cbc29a9	0.022969084
162	0xbc8d6b6c	-0.017263137
163	0x3d1d82ea	0.038454928
164	0x3bfbdcde	0.0076862415
165	0xbd203cd5	-0.039120514
166	0x3ce75b65	0.028241822
167	0xbdc1b433	-0.094581984
168	0xbb0139c4	-0.001971827
169	0x3b3b4483	0.0028574772
170	0xbda79eb1	-0.08184565
171	0x3c6f33c9	0.014599749
172	0xbcb496fa	-0.022044647
173	0x3d0e3228	0.0347158
174	0x3d983979	0.07432837
175	0x3d991bd8	0.07476014
176	0x3c7760e0	0.01509878
177	0x3d5856d8	0.052817196
178	0xbcb893e4	-0.022531457
179	0x3ae20808	0.0017244825
180	0x3c9873a6	0.018609833
181	0xbd5c3505	-0.0537615
182	0xbc90551d	-0.01761871
183	0x3d49f06b	0.049301546
184	0x3da572d4	0.08078542
185	0xbcbcc001	-0.023040773
186	0xbd26d09b	-0.040726285
187	0x3d229df4	0.039701417
188	0xbd69ad5c	-0.057050094
189	0xbce4d8a7	-0.02793534
190	0x3d3c051a	0.045903303
191	0x3db50872	0.088395014
192	0xbd1b130b	-0.037859958
193	0x3ce0420d	0.027375245
194	0x3cbea7d2	0.023273382
195	0xbc5eb0ce	-0.013591958
196	0xbc9be795	-0.019031325
197	0xbd72d8c0	-0.05928874
198	0xbd9e7e21	-0.07738901
199	0xbd18cad4	-0.037302807
200	0xbda240d0	-0.07922518
201	0x3c5184ff	0.012788056
202	0xbc455804	-0.01204491
203	0x3b2c71ab	0.0026312869
204	0x3d93f8b4	0.07225171
205	0xbd3e2540	-0.046422243
206	0x3dbc495c	0.0919368
207	0xbd496e1b	-0.04917727
208	0xbd2b289b	-0.04178677
209	0x3d2ac927	0.04169574
210	0x3d0938a7	0.033501294
211	0xbd6b7ace	-0.057490163
212	0xbd4f7b64	-0.050654784
213	0xbd868d7a	-0.06569953
214	0x3c00f402	0.007870676
215	0xbd068463	-0.032841098
216	0x3cbdad58	0.023153946
217	0xbc9a566c	-0.018840037
218	0x3dd8e7e4	0.105911046
219	0x3d1c8888	0.038216144
220	0x3d28c3ad	0.041202236
221	0xbd403350	-0.046923935
222	0x3d9fbb6c	0.0779942
223	0xbcd7cab9	-0.026341783
224	0x3d09929a	0.033587076
225	0x3d37e634	0.044897273
226	0xbd03ccbd	-0.032177676
227	0xbd9aa4a7	-0.07550936
228	0x3bde0a59	0.006776136
229	0x3cbe3d59	0.023222612
230	0x3c46900f	0.012119307
231	0x3c097f3d	0.008392152
232	0xbd9b807d	-0.075928666
233	0xbd834569	-0.06409723
234	0x3ce37815	0.02776722
235	0x3d07d133	0.033158492
236	0x3e1ba1c3	0.15198426
237	0x3db29787	0.08720308
238	0x3d5feae7	0.05466738
239	0xbbc5041e	-0.0060124537
240	0x3d31055e	0.04321801
241	0x3d33a6d8	0.043860286
242	0x3d3bd5fb	0.045858365
243	0xbd8e98ad	-0.06962714
244	0xbd97e8d3	-0.074174546
245	0xbd8d1df8	-0.06890482
246	0xbd8ea95e	-0.06965898
247	0xbd144743	-0.036200773
248	0x3b6edf56	0.0036449037
249	0xbd9b56c7	-0.07584911
250	0xba7d5328	-0.00096635753
251	0xbd5e0636	-0.054205142
252	0x3cd3b51b	0.025843194
253	0x3c96ab93	0.01839236
254	0xbd3683e6	-0.044559382
255	0x3bec6a5a	0.0072148265

conv2.3.bias f4 [16]
0	0xbc3e67d5	-0.011621435
1	0xbccbc553	-0.024874365
2	0xbc52744c	-0.01284511
3	0xbd4551eb	-0.048173826
4	0xbd533c63	-0.05157126
5	0x3da377dd	0.079818465
6	0x3d1ca95e	0.03824746
7	0xbd48e398	-0.049045175
8	0xbcd74240	-0.026276708
9	0xbd7d0983	-0.06177665
10	0xbda21b65	-0.07915381
11	0x3c944a3d	0.018101806
12	0xbd013d81	-0.031552795
13	0xbbdeff8f	-0.0068053673
14	0xbce08e75	-0.027411679
15	0x3bb09201	0.005388499

conv2.4.weight f4 [16]
0	0x3f8228dd	1.016872
1	0x3f7a3133	0.9773132
2	0x3f7bd7b3	0.98376006
3	0x3f7faeef	0.998763
4	0x3f813326	1.0093734
5	0x3f8433df	1.032833
6	0x3f80b3b1	1.0054837
7	0x3f7ed0d6	0.9953741
8	0x3f77cbce	0.96795356
9	0x3f836021	1.0263711
10	0x3f7acc7a	0.97968256
11	0x3f774363	0.965872
12	0x3f8293c4	1.0201344
13	0x3f8234cc	1.0172362
14	0x3f824b6a	1.0179265
15	0x3f7b93a5	0.9827216

conv2.4.bias f4 [16]
0	0xbbb57692	-0.0055378163
1	0x3bf2d5ee	0.0074107563
2	0x3b4a879e	0.0030903588
3	0x3c471703	0.0121514825
4	0xbbf1f8da	-0.0073844017
5	0x3bf3f741	0.0074452464
6	0x3be6b984	0.007041158
7	0x3c66d5d7	0.014089069
8	0x3bb7f1ec	0.005613556
9	0xbb90816a	-0.0044099586
10	0xbc2bbce1	-0.010482044
11	0xbc287429	-0.010281601
12	0x3c769279	0.01504957
13	0x3c2be926	0.010492599
14	0x3b747ef2	0.003730711
15	0xbc39523b	-0.011311109

conv2.4.running_mean f4 [16]
0	0xbd34a0c4	-0.04409863
1	0xbcfcbbb5	-0.030851224
2	0xbc639260	-0.013889879
3	0x3e1cbbac	0.15305966
4	0xbd9c515d	-0.07632706
5	0x3e0401a4	0.12891251
6	0xbe01afe7	-0.12664758
7	0xbf0e9a63	-0.55704325
8	0xba92cf55	-0.0011200706
9	0xbe92e2f3	-0.28688774
10	0xbd8233e4	-0.063575536
11	0xbc3bbb03	-0.011458161
12	0xbf4c51a4	-0.79812074
13	0xbde92e7f	-0.113858216
14	0xbe7108bc	-0.23538488
15	0xbe3cc5f6	-0.18434891

conv2.4.running_var f4 [16]
0	0x3e24e5cc	0.16103286
1	0x3e07b758	0.13253534
2	0x3e38b576	0.18037972
3	0x3e604ccb	0.21904294
4	0x3e4f978b	0.20272653
5	0x3e1f5386	0.15559205
6	0x3e4df4c1	0.20112897
7	0x3e08b88a	0.13351646
8	0x3e4fa728	0.20278609
9	0x3e4b2c7d	0.1984119
10	0x3e1fcf3e	0.156064
11	0x3e3fe3e3	0.18739276
12	0x3e43783b	0.19088833
13	0x3e593e55	0.21215184
14	0x3e690529	0.22755875
15	0x3e897dd8	0.26853824

conv3.0.weight f4 [32, 16, 3, 3]
0	0x3d56adc5	0.052411813
1	0x3cea9f0c	0.028640293
2	0xbd8e4255	-0.069462456
3	0xbb659263	-0.003502988
4	0xbd75caba	-0.06000779
5	0x3c6bbc4d	0.014388156
6	0xbcbed751	-0.02329603
7	0x3d80f80b	0.062973104
8	0x3d2fb6b5	0.042898852
9	0xbcd6fb25	-0.026242802
10	0xbcd7e79e	-0.02635556
11	0x3d7439f0	0.059625566
12	0x3d5f3df3	0.05450244
13	0x3b9d75a7	0.004805285
14	0xbce25d88	-0.02763249
15	0x3d4de5aa	0.050267853
16	0xbd78f8d3	-0.060784172
17	0xbd4b266f	-0.0495972
18	0x3d4a0d37	0.04932901
19	0x3d721336	0.059100352
20	0x3cceb629	0.025233345
21	0xbda8102c	-0.082062095
22	0x3cb682c8	0.022279158
23	0xbd9d0ada	-0.076680854
24	0xbcf8e5b4	-0.030382968
25	0x3d11c3c4	0.035587087
26	0xbcc444ee	-0.02395865
27	0xbd03e52c	-0.032200977
28	0xbc3a7258	-0.011379801
29	0x3cdbd0bb	0.026832929
30	0x3a90a9d0	0.0011036936
31	0x3cd16867	0.025562478
32	0x3dab1da5	0.083552636
33	0x3c926afc	0.01787328
34	0x3dacbb37	0.08434146
35	0x3dc675d3	0.09690442
36	0xbdb45feb	-0.088073574
37	0xbdab049d	-0.08350489
38	0xbd09e541	-0.0336659
39	0x3d1ec474	0.03876157
40	0xbc6c2a72	-0.014414417
41	0xbd48a9ad	-0.04898994
42	0xbd22b900	-0.03972721
43	0xbd27da7b	-0.040979844
44	0xbd846e45	-0.06466345
45	0xbde07393	-0.10959544
46	0xbd8b215a	-0.06793471
47	0xbdab028a	-0.08350094
48	0x3cb3f303	0.021966463
49	0xbdc947f3	-0.09828176
50	0xbd61fb02	-0.05517102
51	0x3dc301b5	0.0952181
52	0x3d83932d	0.06424556
53	0xbd2e5b34	-0.042567447
54	0x3d7bf4a0	0.06151259
55	0xbbbd2075	-0.0057716914
56	0xbdbe95b9	-0.09305901
57	0xbcde55d9	-0.027140545
58	0x3c8cd0a6	0.017189335
59	0x3bede8f0	0.0072604343
60	0x3c81679f	0.01579648
61	0x3d83261b	0.064037524
62	0x3d1dafe0	0.038497806
63	0x3c4a990c	0.012365591
64	0x3ca8129a	0.020516682
65	0x3d6ccdf3	0.057813596
66	0xbb9236c3	-0.0044620945
67	0xbd893725	-0.06699971
68	0xbc88ab9c	-0.016683392
69	0xbce165f0	-0.027514428
70	0x3d5b40d5	0.053528626
71	0xbc986121	-0.018601002
72	0x3cda3154	0.02663485
73	0xbd40af75	-0.04704233
74	0x3d1bad0b	0.038006824
75	0xbcb4c50c	-0.022066616
76	0xbcbc7e9d	-0.023009593
77	0xbc60bdbf	-0.013717114
78	0x3d825c6d	0.06365285
79	0x3c45deeb	0.012077074
80	0x3c7004f0	0.014649615
81	0xbd5bd42a	-0.053669132
82	0x3d0655bc	0.032796606
83	0xbd946229	-0.07245285
84	0x3cc2789e	0.023739155
85	0xbd627900	-0.055291176
86	0xbd67b678	-0.0565705
87	0xbaa6f44c	-0.0012737601
88	0x3d4f3d2a	0.05059544
89	0x3cf4e68f	0.029895095
90	0x3d560d5b	0.05225883
91	0x3bfc55ea	0.0077006714
92	0x3a140c61	0.00056475966
93	0xbd692b61	-0.056926135
94	0x3c9f0667	0.019412233
95	0x3d554cb3	0.0520751
96	0x3c22d278	0.009937875
97	0xbd956dd6	-0.0729634
98	0x3d51d825	0.051231522
99	0xbd584085	-0.052795906
100	0xbcad66ba	-0.021167148
101	0x3cd349ec	0.025792085
102	0x3d0fe81f	0.035133477
103	0x3d36fb2a	0.044673122
104	0xbc165df8	-0.009177677
105	0x3c480b93	0.012209791
106	0x3cddeb0f	0.027089624
107	0xbc8b10cf	-0.016975788
108	0xbd768e4e	-0.060194306
109	0x3d069b50	0.03286296
110	0xbd8e74fe	-0.06955908
111	0x3c029b46	0.00797159
112	0x3cb2491a	0.021763373
113	0x3d1ee1eb	0.03878967
114	0xbc201247	-0.009769983
115	0xbd8c64c6	-0.068551585
116	0x3b57016f	0.003280725
117	0xbcf971fc	-0.03044986
118	0x3ce7d557	0.02829997
119	0xbce8a6ea	-0.028399903
120	0x3d07252c	0.032994434
121	0x3d48563f	0.048910376
122	0x3d049e8f	0.032377776
123	0x3cd92552	0.026507054
124	0x3cb91cc7	0.02259673
125	0xbd3f8983	-0.046762
126	0x3da20c64	0.079125196
127	0xbaf96391	-0.0019026865
128	0xbcedc95a	-0.029026676
129	0xbc2b4512	-0.010453479
130	0x3d90e8d8	0.070756614
131	0x3d5deb1f	0.054179307
132	0x3cf07c76	0.029356223
133	0x3d212ee8	0.039351374
134	0xbcbf2b75	-0.023336152
135	0xbdace99c	-0.08442995
136	0xbd614817	-0.05500039
137	0xbd563ebb	-0.05230592
138	0xbc39c441	-0.0113382945
139	0xbc837618	-0.016047522
140	0xbc84e7b3	-0.016223764
141	0xbc5695cb	-0.013097237
142	0xbc13b894	-0.009016175
143	0xbc7eab4a	-0.015543768
144	0x3d4c1da5	0.04983296
145	0xbd1b768d	-0.037954856
146	0x3dbe45e2	0.09290673
147	0xbb08a08a	-0.0020847642
148	0xbc28cf7c	-0.010303374
149	0x3da2d75e	0.07951234
150	0x3d841882	0.06449987
151	0x3d9215fc	0.071330994
152	0x3d888303	0.066656135
153	0xbda770e5	-0.0817583
154	0xbd114096	-0.035461985
155	0xbd30d016	-0.043167196
156	0x3d16275b	0.036658626
157	0xbd5be5f0	-0.053686082
158	0xbd5d7b69	-0.05407277
159	0xbda60431	-0.08106268
160	0x3d0ebd33	0.034848403
161	0x3b6dfc32	0.003631365
162	0x3cbdd122	0.023171011
163	0x3d7532c8	0.059862882
164	0x3daf3c20	0.0855639
165	0x3dd03243	0.10165837
166	0xbce0a383	-0.027421718
167	0x3c006c23	0.007838282
168	0x3c83e5c9	0.016100781
169	0x3c5fbbe3	0.0136556355
170	0xbdaf30fc	-0.08554265
171	0x3cde1213	0.027108228
172	0x3db094fe	0.08622168
173	0x3d450b0a	0.04810623
174	0xbd87d037	-0.06631511
175	0xbd84582e	-0.064621314
176	0x3d2d91fe	0.042375557
177	0x3d4a2b8d	0.04935794
178	0xbda41c1c	-0.08013174
179	0x3d35e0d8	0.04440388
180	0x3d2e8143	0.042603742
181	0x3d370c52	0.044689484
182	0x3c2d071d	0.010560778
183	0x3c6b9cbb	0.014380629
184	0xbd6fa11b	-0.05850325
185	0xbbe34799	-0.0069360253
186	0x3c9cb429	0.019128876
187	0xbb40dcda	-0.0029428513
188	0x3c03b0f5	0.008037795
189	0xbc0b394d	-0.008497548
190	0xbd288eb5	-0.04115172
191	0x3cefbc3a	0.029264558
192	0x3d414370	0.047183454
193	0x3cd2b09a	0.025718976
194	0xbd21795f	-0.03942239
195	0xbcc76af3	-0.02434299
196	0xbd653756	-0.055960976
197	0xbd466136	-0.04843255
198	0x3d9f495a	0.077776626
199	0x3dcbb0ba	0.09945817
200	0x3cfeb07a	0.03109001
201	0x3d654781	0.055976395
202	0x3dc134a5	0.09433869
203	0xbd4f5b1c	-0.050623998
204	0x3bcb7add	0.006209715
205	0x3d5a9091	0.053360526
206	0xbbb03f20	-0.005378619
207	0xbd6e70c5	-0.058213014
208	0xbd0d80cc	-0.03454666
209	0x3d427ba7	0.047481205
210	0xbda3891f	-0.07985138
211	0x3d2e1c68	0.04250756
212	0xbc270d4b	-0.01019604
213	0x39de7648	0.00042431266
214	0xbd9d7e84	-0.076901466
215	0xbd1395b5	-0.036031444
216	0x3d0b82a9	0.034060154
217	0x3d94d55d	0.07267258
218	0xbd0ac269	-0.03387681
219	0x3cab4aa5	0.020909617
220	0x3d49c190	0.04925686
221	0x3d8e3f1a	0.069456294
222	0xbd5ecf75	-0.054397065
223	0x3d25bbfb	0.040462475
224	0xbdc0cdf0	-0.094142795
225	0x3d93b3dc	0.0721204
226	0x3d48f46a	0.049061216
227	0xbd6c5e24	-0.057706967
228	0x3bdc951a	0.0067316415
229	0x3cc52d1f	0.024069367
230	0x3d60324f	0.054735478
231	0xbdab7888	-0.08372599
232	0xba645aa3	-0.00087110157
233	0xbcb1284a	-0.021625657
234	0xbd5e8ad8	-0.05433163
235	0x3cb349f9	0.021885859
236	0x3dbc8bd3	0.09206357
237	0x3d4db3bb	0.050220232
238	0x3d5eb20b	0.054369014
239	0xbda5a1f1	-0.080875285
240	0x3ccbcd1f	0.024878083
241	0xbb80a18d	-0.0039255084
242	0xbb3269fe	-0.002722382
243	0x3b78bf7c	0.003795593
244	0xbd020bb7	-0.031749453
245	0xbd019fb4	-0.031646445
246	0xbd89db9d	-0.06731341
247	0xbda19fef	-0.07891833
248	0x3d8d0752	0.06886162
249	0xbd28ba96	-0.041193567
250	0xbda1aa76	-0.07893841
251	0x3bca7cb9	0.006179419
252	0x3d2f9508	0.042866737
253	0xbcca5a71	-0.024701329
254	0xbcc6c045	-0.024261603
255	0xbc8748d7	-0.016514225

conv3.0.bias f4 [32]
0	0x3b607183	0.0034247346
1	0x3d3131ca	0.043260373
2	0x3d83a3dd	0.06427739
3	0xbd900698	-0.07032508
4	0x3cc93810	0.024562865
5	0xbce06576	-0.02739213
6	0x3da28ba7	0.07936793
7	0x3d72d8da	0.059288837
8	0xbc857594	-0.016291417
9	0x3d398b2a	0.045298733
10	0x3c445638	0.011983447
11	0xbd56442e	-0.052311115
12	0xbd83bece	-0.064328775
13	0x3d0e319e	0.034715287
14	0xbd1b7dc3	-0.037961733
15	0xbd2751db	-0.040849548
16	0x3cee06b4	0.02905593
17	0xbd211d93	-0.039334845
18	0xbd6a55eb	-0.057210844
19	0xbd8db0ca	-0.069184855
20	0xbc9b0000	-0.018920898
21	0xbd9bc086	-0.0760508
22	0x3d72acea	0.059246935
23	0xbcb719a6	-0.022351097
24	0xbd017053	-0.03160126
25	0xbc602e78	-0.013682954
26	0x3d894843	0.06703236
27	0x3d14b15e	0.036301963
28	0x3d28f412	0.04124839
29	0xbce81810	-0.028331786
30	0xbd56c063	-0.052429568
31	0x3cbfb864	0.023403354

conv3.1.weight f4 [32]
0	0x3f7c38e9	0.9852434
1	0x3f802d8e	1.0013902
2	0x3f808730	1.0041256
3	0x3f801ee6	1.000943
4	0x3f7f086f	0.99622244
5	0x3f7d9581	0.9905625
6	0x3f802e9f	1.0014228
7	0x3f7ff375	0.9998086
8	0x3f80e092	1.0068533
9	0x3f7ff643	0.9998514
10	0x3f7defbc	0.9919393
11	0x3f80a508	1.0050364
12	0x3f814704	1.0099797
13	0x3f7e22b9	0.9927173
14	0x3f7e92f8	0.99443007
15	0x3f7f5df4	0.99752736
16	0x3f7eb29e	0.994913
17	0x3f814c79	1.0101463
18	0x3f8145e2	1.0099452
19	0x3f80323c	1.001533
20	0x3f812064	1.008801
21	0x3f7c26ec	0.9849689
22	0x3f82a443	1.0206379
23	0x3f804ea0	1.0023994
24	0x3f7fd267	0.99930423
25	0x3f7f869b	0.99814767
26	0x3f7d9f68	0.9907136
27	0x3f802597	1.0011472
28	0x3f7d8180	0.99025726
29	0x3f801409	1.0006114
30	0x3f82083c	1.0158763
31	0x3f7df41b	0.992006

conv3.1.bias f4 [32]
0	0xbc0739a8	-0.008253492
1	0x3ae0be3e	0.001714654
2	0xbbe21c5e	-0.0069003543
3	0xbb2fbf07	-0.0026816742
4	0x3c48c73f	0.012254535
5	0x3a07c1ed	0.00051787385
6	0x3bc8c45e	0.0061269244
7	0x3b9a0499	0.004700255
8	0x3be9b49b	0.0071321256
9	0xbaee920b	-0.0018201483
10	0x3a1b6423	0.00059277023
11	0x3bbcb3b4	0.005758727
12	0x3ca4bb54	0.020108856
13	0xbaa165bb	-0.0012313643
14	0xbbbc9243	-0.0057547404
15	0x3b5d038e	0.0033724043
16	0xbbede5fc	-0.0072600823
17	0x3a938c34	0.0011256994
18	0x3c15f296	0.009152075
19	0xbaa44570	-0.0012532901
20	0x3c177de5	0.009246324
21	0x3bfea511	0.0077711423
22	0x3c9a4a22	0.018834177
23	0xbb86372c	-0.0040959325
24	0xbb8ff36b	-0.0043930314
25	0xbb816ea5	-0.0039499574
26	0x3c2b4314	0.010453004
27	0x3c1fa01b	0.009742762
28	0x3ad5bf1e	0.0016307568
29	0xbb5a3a8c	-0.0033299057
30	0x3c1c577e	0.009542344
31	0x3c373eab	0.011184375

conv3.1.running_mean f4 [32]
0	0xbdf5433e	-0.11975716
1	0x3e69cf27	0.22832929
2	0xbe3b1779	-0.18270673
3	0xbf72c2c3	-0.9482843
4	0x3e33c88c	0.17556971
5	0x3e830cd2	0.2559572
6	0x3f41d90c	0.7572181
7	0xbf849f34	-1.0361085
8	0xbe3b3675	-0.18282492
9	0xbf777988	-0.96669817
10	0x3f861d5f	1.0477713
11	0x3e30abf9	0.17253102
12	0xbf4b8d8a	-0.79512846
13	0x3f2c4646	0.6729473
14	0xbe7e0fe0	-0.24810743
15	0xbedde520	-0.4333887
16	0x3ea18c8f	0.3155255
17	0xbfaa0278	-1.3282003
18	0xbeb44301	-0.3520737
19	0xbf62bb4a	-0.8856703
20	0xbe01553b	-0.12630169
21	0x3e24a935	0.16080172
22	0xbec48418	-0.3838203
23	0xbf8a0b61	-1.0784723
24	0xbf864026	-1.0488327
25	0x3db1d089	0.08682353
26	0x3f676ecc	0.9040344
27	0x3f0664c5	0.5249751
28	0x3d3df104	0.04637243
29	0x3e416d8b	0.18889444
30	0xbe73fa8c	-0.23826045
31	0xbe21f2dc	-0.158153

conv3.1.running_var f4 [32]
0	0x3e9e2bfc	0.30892932
1	0x3e96e82e	0.29474014
2	0x3e8f8a63	0.28035268
3	0x3ea8cb4d	0.32967606
4	0x3e8f6aac	0.28011072
5	0x3e96aef9	0.2943037
6	0x3ecee3d8	0.40408206
7	0x3e93b23e	0.28846925
8	0x3e8ed63c	0.27897823
9	0x3ec239a4	0.379346
10	0x3ebcd232	0.36879116
11	0x3e9b978c	0.3038906
12	0x3e92c183	0.28663263
13	0x3e8c40bd	0.2739314
14	0x3ea7a7b3	0.32745132
15	0x3e89b2fd	0.2689437
16	0x3ec04680	0.37553787
17	0x3ef71d33	0.48264465
18	0x3e8ace5a	0.2711056
19	0x3ea2ec28	0.31820798
20	0x3e92853d	0.28617278
21	0x3eb7f44b	0.35928568
22	0x3eab6b12	0.33480126
23	0x3ed36812	0.41290337
24	0x3eed966e	0.4640383
25	0x3e85a41e	0.26101774
26	0x3ed0611b	0.40699086
27	0x3e9e1e3e	0.30882448
28	0x3eaa93d6	0.33315915
29	0x3e7e8a1b	0.2485737
30	0x3ea792af	0.32729098
31	0x3e953f06	0.29149646

conv3.3.weight f4 [32, 32, 3, 3]
0	0xbd505111	-0.05085856
1	0x3c19f9f8	0.009397976
2	0x3c4b28a0	0.0123998225
3	0xbcd394a3	-0.025827711
4	0x3b7c1e95	0.0038470377
5	0x3cd0b97b	0.025479069
6	0xbc56c9ba	-0.013109619
7	0xbc4c89e8	-0.012484051
8	0xbd471ca1	-0.048611287
9	0x3d34ae60	0.04411161
10	0x3d73798f	0.0594421
11	0xbc6d53c2	-0.014485301
12	0xbd3aa594	-0.045568064
13	0x3c44c9fd	0.012011048
14	0xbc8a30fc	-0.01686906
15	0x3d51c99a	0.051217653
16	0xbd0da672	-0.034582563
17	0x3d42adc9	0.047529016
18	0xbd7a1c4c	-0.061062142
19	0x3d219a78	0.039453954
20	0xbbf6194f	-0.0075103412
21	0x3c58e0d8	0.013237201
22	0xbbb73004	-0.0055904407
23	0x3d83c77f	0.06434535
24	0x3ce6aa16	0.028157275
25	0x3c0c9870	0.008581266
26	0xbcd57135	-0.026054958
27	0x3d97d67b	0.07413956
28	0x3beb83e8	0.0071873553
29	0xbd6f9ffe	-0.05850219
30	0x3d8c1de3	0.06841638
31	0x3c0d732b	0.008633415
32	0xb9a20dad	-0.00030909237
33	0x3d9fb9d3	0.07799115
34	0xbd559b1f	-0.052149888
35	0x3c6a2434	0.014290858
36	0x3d5d7d32	0.054074474
37	0x3d1f4749	0.038886342
38	0x3cb0aa66	0.021565627
39	0x3d3b1617	0.045675363
40	0xbccf7ce8	-0.025328115
41	0x3c959691	0.018260272
42	0xbcaf87e2	-0.021427099
43	0xbb4e1512	-0.0031445664
44	0xbd181bf7	-0.037136044
45	0x3cb159d9	0.021649288
46	0xbcc8e9db	-0.024525573
47	0xbc50580d	-0.012716305
48	0x3acc91e7	0.0015607447
49	0x3cb04bd4	0.021520533
50	0xbb9d870f	-0.00480736
51	0x3d1e40a7	0.038635876
52	0x3c85106d	0.016243184
53	0xbd500879	-0.05078933
54	0xbd67e90e	-0.056618743
55	0xbcd3f786	-0.025874864
56	0xbd375e0e	-0.044767432
57	0xbd6ed638	-0.058309764
58	0xbd7c8992	-0.061654635
59	0x3cd02ff9	0.0254135
60	0xbd02c56e	-0.031926565
61	0x3cc90bc3	0.024541741
62	0x3b3c26d0	0.0028709657
63	0x39973e0d	0.00028847196
64	0x3d83f890	0.06443894
65	0xbd0466cb	-0.032324594
66	0xbd0437d5	-0.032279808
67	0xbc87ad94	-0.01656226
68	0xbbbace8f	-0.0057008932
69	0x3cbd8cb3	0.02313838
70	0x3c07d76b	0.008291106
71	0xbd002144	-0.031281725
72	0x3c0016d1	0.00781794
73	0x3d69bf4a	0.057067193
74	0x3c8804b8	0.016603813
75	0x3ccde286	0.025132429
76	0x3d454958	0.04816565
77	0x3d3bceca	0.045851506
78	0xbc37751f	-0.011197357
79	0x3d13b5fd	0.03606223
80	0x3cfe2dd1	0.031027706
81	0x3c8455da	0.016154218
82	0x3cf3baa1	0.029752078
83	0xbd53e962	-0.051736243
84	0xbd177737	-0.036978927
85	0x3ca624c9	0.020281212
86	0xbc767cba	-0.015044386
87	0xb9ac5f9f	-0.0003287764
88	0x3d2143ae	0.039371185
89	0x3c9b6403	0.018968588
90	0xbc4b4253	-0.01240595
91	0x3cfd53cc	0.030923747
92	0xbcb67e7e	-0.022277113
93	0xbb17a1fc	-0.0023137322
94	0xbc979278	-0.018502459
95	0x3c8a4d6c	0.01688262
96	0x3c88adc9	0.01668443
97	0xb98e8a89	-0.00027187567
98	0xbd2fe776	-0.042945348
99	0xbcd30ae5	-0.02576203
100	0xbd2528d1	-0.04032213
101	0xbd629e97	-0.055327024
102	0xbc46d237	-0.01213508
103	0x3d3c587b	0.04598282
104	0x3d288690	0.041143954
105	0x3c432b21	0.011912138
106	0xbcfd69f9	-0.03093432
107	0x3d34eef0	0.04417318
108	0x3c13de69	0.009025195
109	0x3d21fbee	0.0395469
110	0x3d0ed024	0.034866467
111	0x3bbef879	0.00582796
112	0x3d5c177d	0.053733338
113	0xbd4b0f2f	-0.049575027
114	0x3d808811	0.062759526
115	0x3d8021d7	0.062564544
116	0xbd3f6141	-0.046723608
117	0x3d96904e	0.07351743
118	0x3d88f2cc	0.06686935
119	0x3d6be167	0.057588007
120	0x3c5d134a	0.013493368
121	0x3d656afb	0.056010228
122	0xbbfbdd73	-0.007686311
123	0x3d532ac5	0.05155446
124	0x3c977452	0.018488083
125	0x3d0038d8	0.03130421
126	0xbd660728	-0.05615917
127	0xbd47d760	-0.048789382
128	0xbd0a7f39	-0.033812735
129	0x3cae9e8c	0.021315835
130	0x3c5ac2f6	0.013352146
131	0x3d5ffe61	0.054685954
132	0xbcca0bc8	-0.02466382
133	0x3d864e28	0.06557876
134	0xbcbca7b4	-0.023029186
135	0x3d96161b	0.07328435
136	0xbd183a82	-0.037165172
137	0xbd18c924	-0.037301198
138	0x3d713ddd	0.058896888
139	0x3ccd898d	0.025090003
140	0x3d422eb8	0.047407836
141	0xbc35b14f	-0.011089637
142	0x3d2ed4bc	0.042683348
143	0xbc97faef	-0.018552272
144	0x3c82a00e	0.01594546
145	0xbcd2e7a1	-0.025745215
146	0x3d474959	0.048653934
147	0xbd46417e	-0.048402302
148	0xbd7ce31b	-0.061740022
149	0x3c8ad2fe	0.016946312
150	0x3d6ff2c0	0.058581114
151	0x3d484049	0.048889432
152	0xbd5b7019	-0.0535737
153	0x3cba48ef	0.022739856
154	0x3cd1edcc	0.025626086
155	0x3d236475	0.039890725
156	0xbc142a1a	-0.009043241
157	0x3c7304a3	0.014832648
158	0x3c655834	0.01399808
159	0x3cb75e70	0.022383898
160	0x3ce1267b	0.02748417
161	0xbd678269	-0.056520853
162	0xbcec07ed	-0.028812373
163	0x3d3d286e	0.046181135
164	0x3cc9d165	0.02463598
165	0x3d0434c3	0.03227688
166	0xbc59037e	-0.0132454615
167	0x3c91152f	0.017710296
168	0xbcbaabee	-0.02278706
169	0xbb172503	-0.0023062832
170	0xbd09fbcb	-0.033687394
171	0x3d807273	0.062718295
172	0xbb984a51	-0.004647531
173	0x3d0fb361	0.03508318
174	0x3cd821e4	0.026383348
175	0xbcdd6fa1	-0.027030768
176	0xbcf8786b	-0.030330857
177	0x3d0373d5	0.032092888
178	0xbca81c6d	-0.020521367
179	0x3d75913a	0.059952952
180	0x3d02c663	0.031927478
181	0xbd05a856	-0.03263124
182	0xbd505ee2	-0.050871737
183	0x3c8cbdaf	0.017180292
184	0xbd2b9c31	-0.041897003
185	0xbc2ce0a1	-0.010551603
186	0x3cec8f74	0.028876998
187	0xbd331ebe	-0.04373049
188	0xbd344b9c	-0.04401742
189	0xbd54bb17	-0.051936235
190	0xbc85e47c	-0.016344301
191	0xbd430449	-0.04761151
192	0xbd75104c	-0.059829995
193	0x3bad22cd	0.0052836896
194	0xbd00a0ff	-0.031403538
195	0xbd53d11a	-0.051713087
196	0xbc58294e	-0.013193442
197	0x3c51f4ad	0.012814683
198	0x3d47cabd	0.04877733
199	0xbb9c5df7	-0.0047719437
200	0xbc3a607c	-0.011375543
201	0x3d462dde	0.048383586
202	0x3d039abe	0.032129996
203	0xbd91d990	-0.07121575
204	0x3d14b596	0.036305986
205	0xbcc4327d	-0.023949856
206	0xbd7f59d6	-0.062341534
207	0xbd1fab33	-0.038981628
208	0x3d1d7f34	0.03845139
209	0xbd040426	-0.03223052
210	0x3944de8b	0.0001877492
211	0xbc9b140a	-0.018930454
212	0xbd643571	-0.05571503
213	0x3b738bee	0.0037162262
214	0xbccb7274	-0.024834849
215	0xbd05c2a7	-0.032656338
216	0x3cc4222f	0.023942081
217	0x3b9cdb1e	0.004786863
218	0xbb94ce52	-0.004541197
219	0x3d5058a8	0.0508658
220	0x3b0feeee	0.0021962482
221	0xbca556bb	-0.020182958
222	0xbbdbca07	-0.006707433
223	0xbd3e2b68	-0.046428114
224	0xbcbbada9	-0.022909956
225	0x3d1dcf14	0.038527563
226	0x3d2a56d1	0.0415867
227	0xbcac4ca3	-0.021032637
228	0xbbe32359	-0.006931704
229	0xbccda4a6	-0.025102925
230	0x3b1fede6	0.0024403273
231	0xbc40105b	-0.011722649
232	0xbd071ea9	-0.032988224
233	0x3c0d027b	0.008606548
234	0xbc6992f4	-0.014256228
235	0x3d56ebcf	0.05247098
236	0xbc271460	-0.010197729
237	0x3b355d77	0.0027674118
238	0x3cb669cb	0.022267243
239	0xbd2ed44f	-0.042682942
240	0xbd2be412	-0.04196555
241	0xbd4bd3cd	-0.049762536
242	0x3cac0868	0.021000102
243	0x3d4acbc2	0.049510725
244	0x3d1a981d	0.037742723
245	0xbca3c31f	-0.019990502
246	0xbc0d8d79	-0.008639687
247	0xbcfaaaeb	-0.030599078
248	0xbcc3ae94	-0.023886956
249	0xbc8e1d16	-0.017347854
250	0x3bc881ef	0.006119005
251	0x3c1ea971	0.009683953
252	0x3c63534b	0.013874839
253	0x3bbffb9e	0.0058588525
254	0xbd4409ff	-0.047861096
255	0x3cff5168	0.031166747
